TP/save_models_LSTMHiddenState_Dropout_Relu_Softmax_64/model_7.pt (torch, 170273 bytes, 6 tensors)

weight_ih_l0 f4 [256, 64]
0.04229525 0.27963263 0.22917384 -0.27192777 0.0103887785 0.08040091 0.045363147 -0.3022851
0.03658835 -0.5731575 -0.03355154 -0.17062102 -0.69345844 -0.09389321 0.24594577 0.01596762
-0.0995024 -0.13456747 -0.1985691 0.046422426 0.042459793 -0.010382201 0.32859936 -0.11504659
0.10061987 0.20436221 0.068229795 0.23269406 0.2372195 -0.25596282 -0.35681665 -0.4364292
-0.21423793 0.0141896745 0.043063704 -0.1913724 0.22254866 -0.29720566 -0.6099822 -0.005505778
-0.012682651 -0.02286667 0.36337528 0.16168214 0.5420271 -0.21495163 -0.28160682 -0.075153835
0.10692042 -0.51822096 0.32106414 0.2615505 -0.15985927 0.44434062 -0.5346627 -0.14054738
0.6695727 0.5174268 0.9543741 0.6610407 0.2157929 0.9361195 1.1584413 -0.1384655
0.15078552 -0.59783405 -0.85831714 -0.24057753 -0.46261507 -1.2383343 -2.268488 -1.8980813
0.00042125236 -0.737677 -0.45167175 -0.051694565 -0.5808968 0.18245752 -1.0190891 0.06086756
0.13183154 0.27828828 -0.42798823 0.03509957 -0.19456697 -0.8121182 -0.06280886 -0.15791874
0.29069105 0.20928048 0.03336295 -0.26691595 -0.061262954 -0.42242232 -0.033513203 -0.30816376
0.23840944 0.26180026 0.31224912 -0.4553345 -0.5670748 -0.37078005 0.0009547534 0.28507844
0.17403488 0.22516099 0.11045395 0.26775876 -0.69060755 -0.38890982 0.2596743 0.3670565
-0.05336321 -0.63036764 -0.1353261 -0.11358016 -0.0035782983 -0.6038772 0.04806189 -0.27319732
0.13534494 -0.16321291 0.5581478 0.21204336 -0.3030469 0.2316664 -0.18342178 -0.34359106
0.11677551 -0.023601562 -0.11509648 0.13558057 0.6257435 -0.49788794 0.55275905 -1.6668663
-0.08348762 -0.03887169 0.2737112 0.22062579 0.039014697 0.3557122 0.6947313 -0.46594885
-0.07746507 0.25569227 -0.26291078 -1.0419085 0.38458297 -0.51238817 0.26634714 0.0678597
-0.105936415 -0.11039261 0.05898421 -0.41619092 -0.50820726 0.4312388 0.64466405 0.24162553
-0.14007232 -0.4541617 0.15991989 -0.08510321 0.065987855 -0.5548621 0.20558439 -0.006536657
0.13983293 -0.22540703 0.6139824 0.31297737 0.2433443 0.15663584 0.34754714 -0.25130498
-0.09664063 -0.19075939 0.10851416 -0.5091457 -0.08686744 0.17743623 0.5201956 -0.10161701
0.88148993 -0.14728653 0.21441685 0.23096982 0.39298895 0.12127371 0.40066063 0.008361593
-0.1127379 -0.2886893 -0.27427974 -0.11114979 -0.8005672 0.105463706 -0.3377722 0.2064158
-0.54531616 0.21097866 -0.3498228 -0.54688907 -0.47587156 -0.21301584 -0.89184064 -0.31196478
0.2417595 -0.24576257 -0.05797758 0.0037887422 -0.16491249 0.75648296 0.20124103 -0.080554105
0.34188753 0.13777642 -0.37944195 0.11414653 -0.1376378 -0.6689382 -0.24834114 0.33833867
0.11558646 -0.1541354 -0.4801351 -0.15862499 -0.027466051 -0.562423 0.63892597 0.2678462
0.048317563 0.13488656 -0.3056177 -0.58625704 -0.055777796 0.12725003 0.08371928 0.24788998
0.31791872 0.07412142 0.15706323 0.29801401 -0.66373533 0.41140905 0.108868316 0.4279795
-0.123190604 -0.23655277 -0.25404343 -0.01090972 -0.3688576 -0.11623231 -0.050747663 -0.4349936
00000000: c93d 2d3d 022c 8f3e 8cac 6a3e 1e3a 8bbe
00000010: b235 2a3c 3ba9 a43d b5ce 393d 1dc5 9abe
00000020: aadd 153d 73ba 12bf 576d 09bd 47b7 2ebe
00000030: 7e86 31bf 154b c0bd 35d9 7b3e 87ce 823c
00000040: eac7 cbbd 0ecc 09be b355 4bbe 7125 3e3d
00000050: 52ea 2d3d 1b1a 2abc 2d3e a83e 8c9d ebbd
00000060: ca11 ce3d 5444 513e 10bc 8b3d 5a47 6e3e
00000070: abe9 723e 8f0d 83be acb0 b6be a673 dfbe
00000080: 3061 5bbe cf7b 683c 9163 303d 20f7 43be
00000090: cce3 633e 572b 98be cb27 1cbf d069 b4bb
000000a0: e5ca 4fbc e252 bbbc 530c ba3e 0190 253e
000000b0: 4ac2 0a3f 481c 5cbe c52e 90be 41ea 99bd
000000c0: 18f9 da3d 21aa 04bf 8562 a43e f2e9 853e
000000d0: 26b2 23be 9d80 e33e a8df 08bf a7eb 0fbe
000000e0: 1e69 2b3f 1576 043f dc51 743f f739 293f
000000f0: d0f8 5c3e 87a5 6f3f ce47 943f e6c9 0dbe
00000100: 8567 1a3e a70b 19bf acba 5bbf f559 76be
00000110: e2db ecbe bd81 9ebf e82e 11c0 54f4 f2bf
00000120: 89db dc39 66d8 3cbf 8541 e7be aebd 53bd
00000130: a7b5 14bf 25d6 3a3e 8371 82bf 4350 793d
00000140: d9fe 063e cd7b 8e3e 4621 dbbe 91c4 0f3d
00000150: 903c 47be fae6 4fbf eea1 80bd 73b5 21be
00000160: 75d5 943e 9f4d 563e 97a7 083d 35a9 88be
00000170: ddee 7abd bd47 d8be 2445 09bd a4c7 9dbe
00000180: 9b21 743e af0a 863e 1edf 9f3e 9b21 e9be
00000190: d02b 11bf e2d6 bdbe 6b48 7a3a cdf5 913e
000001a0: 3336 323e 9a90 663e ae35 e23d ad17 893e
000001b0: a8cb 30bf 301f c7be 08f4 843e d4ee bb3e
000001c0: 6293 5abd c65f 21bf ed92 0abe b79c e8bd
000001d0: e281 6abb b297 1abf 8bdc 443d 85e0 8bbe
000001e0: dd97 0a3e 4921 27be c6e2 0e3f e521 593e
000001f0: f728 9bbe f539 6d3e ebd2 3bbe 2beb afbe
00000200: 0028 ef3d 1058 c1bc b4b7 ebbd a2d5 0a3e
00000210: ba30 203f 2beb febe 9e81 0d3f e05b d5bf
00000220: 8ffb aabd ec37 1fbd e023 8c3e baeb 613e
00000230: e0cd 1f3d e91f b63e e9d9 313f d990 eebe
00000240: 02a6 9ebd 19ea 823e 3e9c 86be 425d 85bf
00000250: 0fe8 c43e df2b 03bf a75e 883e 07fa 8a3d
00000260: 31f5 d8bd 8515 e2bd 6d99 713d fa16 d5be
00000270: df19 02bf 55cb dc3e b408 253f af6c 773e
00000280: 1e6f 0fbe e287 e8be 0ac2 233e 974a aebd
00000290: a424 873d 710b 0ebf b784 523e 7431 d6bb
000002a0: 5d30 0f3e 1ad1 66be f32d 1d3f 923e a03e
000002b0: 402f 793e 2565 203e b3f1 b13e 0cab 80be
000002c0: 86eb c5bd 6e56 43be ac3c de3d 5f57 02bf
000002d0: 8ee7 b1bd d8b1 353e 8a2b 053f 941c d0bd
000002e0: 53a9 613f 48d2 16be 1790 5b3e 5a83 6c3e
000002f0: d935 c93e 5a5e f83d 6423 cd3e 10ff 083c
00000300: 21e3 e6bd 15cf 93be 656e 8cbe 80a2 e3bd
00000310: f9f1 4cbf 5bfd d73d 7af0 acbe aa5e 533e
00000320: d799 0bbf ca0a 583e f91b b3be ec00 0cbf
00000330: 70a5 f3be d320 5abe ab4f 64bf d9b9 9fbe
00000340: cd8f 773e 2fa9 7bbe e679 6dbd 8c4c 783b
00000350: d2de 28be dea8 413f 2112 4e3e 8df9 a4bd
00000360: e20b af3e 4315 0d3e 3746 c2be a8c5 e93d
00000370: ecf0 0cbe 893f 2bbf 244d 7ebe ba3a ad3e
00000380: 98b8 ec3d acd5 1dbe 45d4 f5be 976e 22be
00000390: 7c00 e1bc f4fa 0fbf a790 233f 2323 893e
000003a0: a3e8 453d b41f 0a3e ec79 9cbe f114 16bf
000003b0: 4277 64bd d54d 023e 0475 ab3d dfd6 7d3e
000003c0: 3ec6 a23e f9cc 973d 2fd5 203e 4b95 983e
000003d0: 8fea 29bf 35a4 d23e 5af6 de3d 2120 db3e
000003e0: 5b4b fcbd e43a 72be fb11 82be afbe 32bc
000003f0: e7da bcbe 350b eebd c8dc 4fbd 7bb7 debe

weight_hh_l0 f4 [256, 64]
0.12364217 0.073027425 0.0063517136 -0.13099125 -0.15833518 0.5950008 0.18566181 0.5598926
-0.07071951 0.40300137 -0.6106152 0.35498625 0.047296733 -0.18787073 -0.13524607 -0.0020759236
0.1569942 -0.5784015 0.49082807 -0.88771325 0.102471076 0.07290586 0.45562145 -0.08908066
0.34620517 -0.2769742 0.5002001 -0.26850238 0.038397215 0.52773505 0.11273233 -0.054304507
0.30704316 0.73878783 0.6830093 0.24384339 -0.05565306 -0.055063497 -0.22451936 0.105142795
0.48683047 -0.46547708 -0.483361 0.23658521 -0.029793417 0.53531504 -0.35858682 -0.3110643
0.5618593 -0.44224647 0.19126655 0.1777683 -0.1920588 0.122072354 0.53294075 -0.0034052075
0.5644268 0.35914376 0.13658263 -0.035179447 0.34527048 -0.6872242 0.38882992 -0.022583444
-0.21683265 0.091351666 -0.35934678 -0.59785646 0.006673245 -0.23428458 0.2613107 -0.0048820595
-0.15517041 0.13781907 0.6283433 -0.17213252 0.54957944 -0.6519438 -0.15693974 -0.06508552
0.15524554 0.10913743 0.31171045 0.02114747 -0.5458329 -0.05551451 0.13527876 -0.47066528
0.32153067 -0.7157198 -0.35731608 -0.74879116 -0.14544997 0.40473452 0.21238327 -0.27563456
-0.017322917 -0.056923684 0.042637404 0.49045128 0.3782342 0.06613949 0.08980154 0.2668011
-0.1537002 0.18416373 0.020291885 -0.050266545 0.19610724 0.046023894 -0.108976305 0.122871116
-0.0025402452 -0.44546136 -0.34871265 -0.49156103 -0.15224694 0.5325143 0.6874314 -0.30898398
-0.3059397 -0.47377354 0.23198573 0.016796377 0.22787932 -0.07024929 -0.1892457 0.0042137853
-0.1454327 -0.65703183 -0.16790715 -0.068397455 -0.092898116 -0.38076994 0.7807321 0.57883996
-0.15023118 0.51278126 -0.73408103 -0.04152905 0.6093162 -0.42704338 0.15274996 0.34671545
-0.32229584 -0.71009314 -0.54846823 -0.18866952 -0.7669609 -0.14742452 0.0010053561 0.26196387
0.0532752 -0.30348495 0.030174134 -0.4406089 -0.015719512 0.16775237 0.5960582 -0.10002248
0.11275507 0.28595147 0.20508903 -0.11154819 0.26375544 -0.22062534 -0.18168573 -0.26919788
-0.139075 -0.6810278 -0.2596931 0.049175903 -0.14145939 -0.6590951 -0.12302972 0.023390837
0.32872775 0.5544728 0.32692257 -0.33257955 0.5017573 0.49016523 0.0843779 0.3630542
-0.16957156 -0.5223492 0.25952283 0.93840843 0.020929193 0.7123922 -0.41364804 0.15751931
0.34401938 -0.7915018 -0.3006994 0.29848915 -0.6681232 -0.69251734 1.2364607 0.52619755
0.34655574 0.07953054 -0.35670114 -0.63717556 0.8105979 -0.9481483 0.026690457 0.4460937
0.009323627 -0.88511854 0.7316339 0.5778945 -0.12762727 0.011610028 -0.6387369 0.14148185
0.6046112 -0.6825523 -0.40323135 -0.8278355 -1.2939838 0.4149793 -0.27521923 0.5356313
0.46586195 -0.31932056 0.4215627 0.020672143 0.14982593 -0.10252552 -0.33060467 0.12421454
-0.6299592 0.6232822 0.18700676 -0.3227174 -0.5590595 -0.45921442 -0.0689219 0.5103087
0.18048479 -0.28901923 -0.46858838 0.19586273 0.057334688 -0.021585323 -0.37912846 -0.2139658
-0.90464354 -0.2871478 0.03851035 -0.11623572 0.15696256 1.2267505 -0.62092185 0.07956626
00000000: 1b38 fd3d 678f 953d 0922 d03b 9222 06be
00000010: 9e22 22be f951 183f 211e 3e3e 1f55 0f3f
00000020: 64d5 90bd 3256 ce3e 4751 1cbf c2c0 b53e
00000030: 38ba 413d 2f61 40be f27d 0abe 380c 08bb
00000040: 16c3 203e 1f12 14bf d14d fb3e 2d41 63bf
00000050: 5bdc d13d ab4f 953d 3747 e93e ec6f b6bd
00000060: ce41 b13e 90cf 8dbe 1d0d 003f 2579 89be
00000070: 6646 1d3d a519 073f 35e0 e63d 676e 5ebd
00000080: c334 9d3e 3321 3d3f b3d9 2e3f 15b2 793e
00000090: 77f4 63bd 438a 61bd 67e8 65be 1b55 d73d
000000a0: d841 f93e 0353 eebe 187b f7be 6543 723e
000000b0: 5311 f4bc 680a 093f b198 b7be d243 9fbe
000000c0: 03d6 0f3f 216e e2be 61db 433e e508 363e
000000d0: 10ab 44be 1201 fa3d ce6e 083f e729 5fbb
000000e0: 467e 103f b1e1 b73e 51dc 0b3e 5318 10bd
000000f0: 4bc7 b03e eded 2fbf b714 c73e ea00 b9bc
00000100: 6109 5ebe 9516 bb3d 4dfc b7be 1f0d 19bf
00000110: 3dab da3b 4ce8 6fbe 84ca 853e aff9 9fbb
00000120: fee4 1ebe 7120 0d3e 1bdb 203f 8243 30be
00000130: 3db1 0c3f cae5 26bf d0b4 20be 8f4b 85bd
00000140: b0f8 1e3e 7283 df3d 8398 9f3e 763d ad3c
00000150: b4bb 0bbf 2f63 63bd 8486 0a3e 0afb f0be
00000160: ab9f a43e 6a39 37bf 22f2 b6be c7b0 3fbf
00000170: d6f0 14be 5d39 cf3e 007b 593e f91f 8dbe
00000180: cae8 8dbc cf28 69bd 8fa4 2e3d 6e1c fb3e
00000190: eaa7 c13e 2474 873d dfe9 b73d 279a 883e
000001a0: 9663 1dbe 6b95 3c3e 2b3b a63c 4be4 4dbd
000001b0: 56d0 483e 8d83 3c3d f82e dfbd daa3 fb3d
000001c0: 3e7a 26bb 8313 e4be 778a b2be e3ad fbbe
000001d0: 9fe6 1bbe db52 083f 81fb 2f3f 2633 9ebe
000001e0: 21a4 9cbe 7292 f2be ab8d 6d3e 8e98 893c
000001f0: 3259 693e dcde 8fbd a0c9 41be cb13 8a3b
00000200: 4fec 14be 3d33 28bf daef 2bbe f713 8cbd
00000210: 5e41 bebd 47f4 c2be 0fde 473f db2e 143f
00000220: 34d6 19be a245 033f bcec 3bbf 5d1a 2abd
00000230: 25fc 1b3f 6ea5 dabe 7c6a 1c3e b084 b13e
00000240: f603 a5be aac8 35bf 6a68 0cbf 9532 41be
00000250: 8d57 44bf 74f6 16be 27c6 833a 2120 863e
00000260: 1937 5a3d 6162 9bbe bf2f f73c 7d97 e1be
00000270: 35c6 80bc 47c7 2b3e 4597 183f 96d8 ccbd
00000280: 21ec e63d 3b68 923e dc02 523e 6173 e4bd
00000290: f40a 873e 9ceb 61be d30b 3abe 4ed4 89be
000002a0: ad69 0ebe d757 2ebf 7ef6 84be ac6c 493d
000002b0: bbda 10be 75ba 28bf 01f7 fbbd 249e bf3c
000002c0: 014f a83e eef1 0d3f 6562 a73e de47 aabe
000002d0: 2b73 003f f0f6 fa3e 52ce ac3d 3de2 b93e
000002e0: 2ba4 2dbe adb8 05bf 2de0 843e 893b 703f
000002f0: b373 ab3c 565f 363f adc9 d3be be4c 213e
00000300: 4f23 b03e dd9f 4abf 46f5 99be 92d3 983e
00000310: 1f0a 2bbf d148 31bf 5844 9e3f e2b4 063f
00000320: c16f b13e e8e0 a23d 88a1 b6be f01d 23bf
00000330: 5883 4f3f d9b9 72bf f2a5 da3c 6566 e43e
00000340: 20c2 183c 2197 62bf 5c4c 3b3f e5f0 133f
00000350: b9b0 02be fd37 3e3c 4384 23bf 9ee0 103e
00000360: cdc7 1a3f bfbb 2ebf 5774 cebe 07ed 53bf
00000370: 43a1 a5bf 2b78 d43e 89e9 8cbe 221f 093f
00000380: 7585 ee3e fc7d a3be 11d7 d73e a058 a93c
00000390: f86b 193e e6f8 d1bd 0445 a9be 3164 fe3d
000003a0: 0245 21bf 6c8f 1f3f b37e 3f3e 373b a5be
000003b0: 861e 0fbf 271e ebbe ed26 8dbd 97a3 023f
000003c0: 01d1 383e 54fa 93be d1ea efbe 3d90 483e
000003d0: c7d7 6a3d b4d3 b0bc 201d c2be da19 5bbe
000003e0: b896 67bf 0905 93be 07bd 1d3d fe0c eebd
000003f0: cbba 203e 2906 9d3f bcf4 1ebf a3f3 a23d

bias_ih_l0 f4 [256]
0.235952 0.1394702 0.41982445 -0.07226258 -0.15168273 -0.10679065 0.4755199 0.29632527
0.2848829 -0.09866509 0.2676965 0.26794457 0.31444687 0.021467084 -0.15744402 0.17217906
-0.009398674 -0.34365 0.5149306 -0.060538698 -0.23507304 -0.2375052 -0.0037477915 0.58117974
0.2839461 0.052959405 0.029770339 0.067385435 -0.21956487 0.2964324 -0.03506485 0.05673772
0.10557863 0.31314188 0.53844374 0.09095883 -0.014486793 -0.0013164238 -0.00055590324 0.11421644
0.19272402 0.12523407 -0.01983464 -0.11735163 -0.19835326 0.27315354 -0.29993075 -0.030452428
-0.118280716 -0.093385555 0.3629577 0.15236033 0.03170886 0.3387227 0.19983448 0.24774261
0.119121246 0.08446831 0.34195256 0.09108954 0.22563955 0.10368274 -0.12434275 0.50059676
0.1906979 -0.1268809 0.13916229 -0.19306001 0.022986358 -0.089009896 -0.113325156 -0.060311902
-0.47796357 -0.14309919 -0.33273345 -0.1315624 -0.081863515 0.0901788 -0.10362277 -0.099299714
-0.34293097 0.08478395 -0.4592659 -0.035193063 -0.09566926 -0.20568042 0.25848833 -0.24555348
0.04854866 -0.17448494 -0.011377901 -0.26540977 -0.057595067 -0.104572535 -0.34449923 -0.16563858
-0.28136548 0.31278697 -0.2985549 -0.067432545 -0.26295453 -0.014986119 -0.025279518 -0.14469945
-0.12047531 -0.014601565 -0.37125203 -0.2786902 -0.031722113 -0.038469564 -0.07155034 -0.40464607
0.117736645 -0.12139752 0.07777225 -0.3811084 -0.16449054 0.082849905 0.029306322 -0.194769
-0.1122415 0.0334501 -0.16373314 -0.25664374 0.25877652 0.20145732 -0.1649298 -0.23127271
0.5502068 -0.1770252 0.1517483 0.31299853 -0.014824959 -0.2014941 0.47097585 0.22340375
0.14137803 0.16515909 -0.048942536 0.10643503 0.4124777 -0.346964 0.049151983 0.22165382
-0.055848118 -0.2565659 0.25199372 -0.18922968 -0.14383118 0.010476574 -0.05304513 0.32121903
0.40893853 0.013343138 -0.019819418 0.049093463 -0.19781697 0.36288062 0.060991522 0.34016272
0.09799394 0.6049116 0.34197232 0.18076739 0.075664744 0.14740445 -0.019573387 0.109342955
0.15738294 0.06037034 0.0065048016 -0.025410868 -0.13875274 -0.0838523 -0.14661165 -0.02534074
0.3490122 0.08386761 0.077207126 -0.04546851 0.05134136 0.14484765 0.060357135 0.071266204
-0.07539769 0.08642619 0.2443302 0.35270637 0.5885941 0.13702583 0.1898741 0.5173007
0.083979644 -0.015082365 -0.17558497 -0.44852105 -0.32729232 -0.08374116 -0.22985159 0.19290778
0.12990655 -0.057725955 0.08903531 0.3768507 0.16487062 0.0865557 -0.3143941 -0.07502206
0.07301957 0.17789318 0.27984837 -0.2142931 0.017549051 -0.32114908 0.019007295 0.06485175
0.17053847 0.27823725 0.45851633 0.17300084 -0.116734795 0.4214222 0.14232242 0.21358827
-0.16544996 0.5275151 -0.079340875 -0.16686462 0.22732861 0.33514643 -0.31933543 -0.004896712
0.22724842 0.09133029 0.18015568 -0.30951518 -0.31407103 -0.113150425 -0.18827133 -0.14328894
-0.16594616 -0.16047107 -0.06439474 -0.116872124 0.03467506 0.0031635906 0.08744615 0.25012448
0.09117447 -0.2683748 0.049609117 -0.056329053 0.41219243 0.205595 -0.12973219 0.14795835
00000000: 679d 713e 47d1 0e3e 3bf3 d63e 67fe 93bd
00000010: b852 1bbe 0eb5 dabd 5877 f33e f2b7 973e
00000020: 2cdc 913e ec10 cabd 840f 893e 0830 893e
00000030: 2eff a03e bddb af3c 0139 21be b54f 303e
00000040: e5fc 19bc e5f2 afbe 7ed2 033f 6df7 77bd
00000050: fdb6 70be 9034 73be 829d 75bb 32c8 143f
00000060: 6261 913e f6eb 583d ede0 f33c 6001 8a3d
00000070: 9dd5 60be fdc5 973e 29a0 0fbd d065 683d
00000080: 9c39 d83d 2254 a03e 73d7 093f a048 ba3d
00000090: 045a 6dbc da8b acba 09ba 11ba 4fea e93d
000000a0: 7259 453e 5c3d 003e 417c a2bc 0d56 f0bd
000000b0: 1e1d 4bbe c8da 8b3e 8690 99be 5f77 f9bc
000000c0: 293d f2bd ed40 bfbd 97d5 b93e 5904 1c3e
000000d0: 26e1 013d 106d ad3e 69a1 4c3e 3db0 7d3e
000000e0: d7f5 f33d b9fd ac3d 6814 af3e 278d ba3d
000000f0: 0e0e 673e 9e57 d43d 69a7 febd 1c27 003f
00000100: 4f46 433e 11ed 01be 8f80 0e3e 86b1 45be
00000110: e34d bc3c d24a b6bd 0517 e8bd 9d09 77bd
00000120: a4b7 f4be 9888 12be 0a5c aabe 4bb8 06be
00000130: 0fa8 a7bd aaaf b83d 2d38 d4bd a65d cbbd
00000140: a694 afbe 35a3 ad3d e624 ebbe 9a26 10bd
00000150: 3fee c3bd e39d 52be 9558 843e 5f72 7bbe
00000160: f6da 463d 2eac 32be 606a 3abc cae3 87be
00000170: cee8 6bbd 202a d6bd 3462 b0be 299d 29be
00000180: 230f 90be 9d25 a03e 30dc 98be 131a 8abd
00000190: faa1 86be 5788 75bc fe16 cfbc 182c 14be
000001a0: c2bb f6bd 673b 6fbc bf14 bebe 7bb0 8ebe
000001b0: 0cef 01bd 4392 1dbd fc88 92bd c52d cfbe
000001c0: e91f f13d 439f f8bd 0f47 9f3d a420 c3be
000001d0: 3570 28be 36ad a93d d013 f03c 8671 47be
000001e0: dfde e5bd f902 093d a9a9 27be cf66 83be
000001f0: 5b7e 843e d44a 4e3e 5ce3 28be c1d2 6cbe
00000200: 5ada 0c3f 1846 35be e863 1b3e 5841 a03e
00000210: 63e4 72bc 7854 4ebe bf23 f13e f4c3 643e
00000220: 67c5 103e 771f 293e f877 48bd 9cfa d93d
00000230: 4730 d33e 44a5 b1be 9753 493d 38f9 623e
00000240: ffc0 64bd 9b5c 83be 5205 813e 6dc5 41be
00000250: 7b48 13be f0a5 2b3c da45 59bd d276 a43e
00000260: 6460 d13e 2d9d 5a3c 555c a2bc 3a16 493d
00000270: 8890 4abe 7dcb b93e 3fd2 793d cf29 ae3e
00000280: 0cb1 c83d 7ddb 1a3f ff16 af3e 161b 393e
00000290: 1ef6 9a3d 31f1 163e 5e58 a0bc 33ef df3d
000002a0: fe28 213e e446 773d 3b26 d53b 742a d0bc
000002b0: 3315 0ebe c1ba abbd 5d21 16be 6297 cfbc
000002c0: bab1 b23e c8c2 ab3d c51e 9e3d 303d 3abd
000002d0: 514b 523d f152 143e 0b39 773d 04f4 913d
000002e0: 1b6a 9abd 3700 b13d b231 7a3e ee95 b43e
000002f0: 1aae 163f 8050 0c3e 5b6e 423e d26d 043f
00000300: 85fd ab3d 061c 77bc 8ccc 33be 8da4 e5be
00000310: dc92 a7be 7c80 abbd 375e 6bbe 9e89 453e
00000320: 3906 053e 0d72 6cbd 2558 b63d 93f2 c03e
00000330: d8d3 283e 1d44 b13d 43f8 a0be 2aa5 99bd
00000340: 498b 953d a129 363e 4948 8f3e a76f 5bbe
00000350: 07c3 8f3c a76d a4be 30b5 9b3c ffd0 843d
00000360: a3a1 2e3e 1d75 8e3e a7c2 ea3e 2227 313e
00000370: a712 efbd a7c4 d73e f8bc 113e e2b6 5a3e
00000380: b76b 29be 3b0b 073f 787d a2bd 8fde 2abe
00000390: d5c8 683e 5098 ab3e ef7f a3be 9974 a0bb
000003a0: cfb3 683e 600b bb3d bb7a 383e c678 9ebe
000003b0: ebcd a0be 69bb e7bd 33ca 40be 56ba 12be
000003c0: caed 29be 8752 24be 64e1 83bd a75a efbd
000003d0: 7007 0e3d 3e54 4f3b f816 b33d 5110 803e
000003e0: aeb9 ba3d 6c68 89be ee32 4b3d 4bb9 66bd
000003f0: e30a d33e 7f87 523e 84d8 04be 6582 173e

bias_hh_l0 f4 [256]
0.2887826 0.04660875 0.38847938 -0.024078911 -0.09366818 -0.21994878 0.488474 0.39489242
0.20323192 -0.030834101 0.16429172 0.09563917 0.2768971 -0.0143626705 -0.1788045 0.1275635
0.09632333 -0.37833273 0.62237406 0.003739266 -0.13886479 -0.2039352 -0.13991728 0.618656
0.25924498 0.07156091 0.16985095 0.18933564 -0.2581738 0.3118433 -0.024167532 0.13970204
0.04697685 0.33129078 0.48770154 0.1789918 -0.062130783 -0.029661437 -0.07132392 0.05358242
-0.0062208558 0.10210888 0.15062028 -0.08668404 -0.3623295 0.28455973 -0.28423765 -0.22299649
-0.062290862 -0.15752073 0.1890451 -0.019274328 -0.00802075 0.12346586 0.027093586 0.32572857
0.3228492 0.1488654 0.34543312 0.08624845 0.1779937 0.00041319372 -0.029582355 0.30055493
0.12162536 -0.0067392807 0.2764134 -0.0674922 -0.08245434 0.027627712 -0.06623082 -0.18395665
-0.47446764 -0.0714815 -0.28817138 -0.17988162 -0.21466342 0.15780792 -0.11179117 -0.23202391
-0.23270601 0.05643951 -0.27902254 0.08208691 -0.11243547 -0.2514475 0.32094175 -0.04692999
0.0663892 -0.24985278 -0.12118915 -0.2713367 -0.09262285 -0.07612334 -0.45350334 -0.18934223
-0.24047339 0.44797242 -0.10695685 -0.24551712 -0.2769098 0.053976256 0.010369862 -0.12524945
0.005001526 0.12626798 -0.49147022 -0.43878314 -0.04094006 0.063037224 0.019169683 -0.24387631
0.21046382 -0.0051392806 -0.049693402 -0.31411394 -0.07562056 0.07787809 -0.10440157 -0.26034248
-0.23287906 0.10837061 -0.24115863 -0.27611735 0.23099013 0.20880714 -0.1216019 -0.3281993
0.55633235 -0.33419275 0.28973007 0.14055802 -0.10846118 -0.22184241 0.22989291 0.2849082
0.1834815 0.2771274 0.048904695 0.18002297 0.44421196 -0.2419844 0.20325837 0.23584093
0.12155221 -0.27790475 0.23557909 -0.18001847 0.0003218355 0.09602239 -0.10045066 0.22713189
0.30272767 0.022753753 0.059254136 0.070076846 -0.1537191 0.4095451 0.10203806 0.43795636
0.21223931 0.675622 0.3607949 0.23228365 0.1453791 -0.061153986 -0.22255395 0.005891299
0.29501688 0.17374866 -0.02475298 -0.018828804 -0.039711136 -0.09386231 -0.20427355 -0.24939281
0.3095734 0.18748246 0.04929765 0.02224345 0.05348692 0.26173612 0.23949131 0.06597276
0.03661482 0.11919423 0.09887541 0.22401494 0.47770604 0.11910985 0.17646886 0.5107866
0.16688928 0.00067447725 -0.16567867 -0.40436968 -0.29124764 -0.057410784 -0.0812187 0.21448104
0.018615713 -0.25871402 0.08446314 0.1643974 0.23486894 0.31095988 -0.2685886 -0.084323496
0.043188334 0.16339642 0.13852634 -0.26934382 0.09101036 -0.3393609 -0.006671993 0.029973868
0.114457734 0.30270326 0.307438 0.22780947 -0.04376614 0.44823566 0.2768256 0.1614608
-0.17642547 0.41734496 0.16213292 -0.07882477 0.26377857 0.28327173 -0.20853825 0.07446198
0.07129127 0.09002063 0.18019627 -0.233172 -0.23606738 0.0039554695 -0.18648367 -0.19451669
-0.18104106 -0.1320591 0.07330222 -0.08589287 -0.06897413 -0.049305137 0.17829451 0.26597863
0.052044634 -0.16569111 -0.04978556 0.0026780516 0.39059308 0.17699008 0.025802432 0.12656333
00000000: 50db 933e d1e8 3e3d c5e6 c63e 2341 c5bc
00000010: 1ad5 bfbd 413a 61be 4419 fa3e 572f ca3e
00000020: 071c 503e cc97 fcbc 173c 283e 78de c33d
00000030: 75c5 8d3e 6851 6bbc 8718 37be 02a0 023e
00000040: 2b45 c53d d4b4 c1be e853 1f3f 790e 753b
00000050: 9232 0ebe 64d4 50be 7a46 0fbe 3d60 1e3f
00000060: c2bb 843e 878e 923d 68ed 2d3e 34e1 413e
00000070: 5b2f 84be eda9 9f3e fdfa c5bc 0d0e 0f3e
00000080: cc6a 403d f29e a93e 04b4 f93e a049 373e
00000090: d97c 7ebd 8bfc f2bc 4612 92bd 3d79 5b3d
000000a0: 52d8 cbbb 761e d13d 343c 1a3e 6787 b1bd
000000b0: 4183 b9be d0b1 913e 9987 91be 3159 64be
000000c0: b424 7fbd 1d4d 21be 0a95 413e 32e5 9dbc
000000d0: 7769 03bc abdb fc3d 5ef3 dd3c e5c5 a63e
000000e0: 7e4c a53e 2c70 183e 9cdc b03e 07a3 b03d
000000f0: fb43 363e eca1 d839 b256 f2bc 56e2 993e
00000100: b716 f93d 2fd5 dcbb 0f86 8d3e 5a39 8abd
00000110: d2dd a8bd 8353 e23c 06a4 87bd 225f 3cbe
00000120: 6ced f2be e564 92bd 338b 93be e332 38be
00000130: bad0 5bbe 6698 213e c5f2 e4bd ad97 6dbe
00000140: 7c4a 6ebe 1e2d 673d 0bdc 8ebe 2f1d a83d
00000150: 9144 e6bd babd 80be 7a52 a43e a939 40bd
00000160: 10f7 873d 68d9 7fbe 0432 f8bd a5ec 8abe
00000170: 0cb1 bdbd 8ee6 9bbd 9731 e8be eee2 41be
00000180: a83e 76be a45c e53e 310c dbbd d768 7bbe
00000190: 1fc7 8dbe 3516 5d3d 5be6 293c 6441 00be
000001a0: d7e3 a33b 654c 013e fca1 fbbe 2fa8 e0be
000001b0: c4b0 27bd a919 813d bd09 9d3c b6ba 79be
000001c0: d483 573e 6967 a8bb 4f8b 4bbd 8bd3 a0be
000001d0: f4de 9abd 8c7e 9f3d 7ed0 d5bd 9c4b 85be
000001e0: d977 6ebe 69f1 dd3d 4af2 76be 415f 8dbe
000001f0: ad88 6c3e 8ad1 553e 6b0a f9bd bd09 a8be
00000200: cc6b 0e3f 501b abbe 8057 943e 71ee 0f3e
00000210: e520 debd a82a 63be 0c69 6b3e 7ddf 913e
00000220: 93e2 3b3e a4e3 8d3e 4a50 483d f157 383e
00000230: c06f e33e c2ca 77be f622 503e 4980 713e
00000240: 5df0 f83d 8849 8ebe a53b 713e c356 38be
00000250: 08bc a839 63a7 c43d 13b9 cdbd 4395 683e
00000260: 1fff 9a3e 1466 ba3c 77b4 723d 7384 8f3d
00000270: 8a68 1dbe e5af d13e 55f9 d03d d13b e03e
00000280: 4355 593e 90f5 2c3f 1cba b83e c4db 6d3e
00000290: 42de 143e 9a7c 7abd 2fe5 63be cc0b c13b
000002a0: 740c 973e 2beb 313e c3c6 cabc dd3e 9abc
000002b0: 25a8 22bd e23a c0bd 162d 51be d460 7fbe
000002c0: 6880 9e3e 67fb 3f3e 55ec 493d e537 b63c
000002d0: 1a15 5b3d 4702 863e 363d 753e ba1c 873d
000002e0: 6cf9 153d 1b1c f43d 317f ca3d 2c64 653e
000002f0: e395 f43e ddef f33d 41b4 343e e9c2 023f
00000300: 06e5 2a3e 67cf 303a aba7 29be 8b09 cfbe
00000310: 691e 95be 9227 6bbd fd55 a6bd eba0 5b3e
00000320: fb7f 983c 2a76 84be 03fb ac3d cb57 283e
00000330: 7c81 703e 2236 9f3e 7284 89be ccb1 acbd
00000340: 40e6 303d 6451 273e d9d9 0d3e 6fe7 89be
00000350: a463 ba3d b6c0 adbe bca0 dabb c28b f53c
00000360: d168 ea3d ecfb 9a3e 8368 9d3e e346 693e
00000370: 2044 33bd 257f e53e 16bc 8d3e fb55 253e
00000380: e1a8 34be 3dae d53e 2c06 263e e26e a1bd
00000390: fc0d 873e fe08 913e 0d8b 55be 867f 983d
000003a0: 2801 923d bc5c b83d 5f85 383e a4c4 6ebe
000003b0: a6bb 71be e29c 813b 93f5 3ebe 622f 47be
000003c0: d462 39be 803a 07be 791f 963d 9ae8 afbd
000003d0: 4f42 8dbd 2ff4 49bd d692 363e 5a2e 883e
000003e0: c12c 553d eeaa 29be f2eb 4bbd 4082 2f3b
000003f0: d1fb c73e e33c 353e 9f5f d33c d199 013e

weight f4 [64, 128]
-0.14997941 -0.22810723 -0.2661779 -0.109025516 -0.0924777 -0.4676879 -0.17887883 -0.056941587
-0.22436912 -0.23769587 -0.3707218 -0.21460655 -0.21094845 -0.114058 -0.031553235 -0.14772187
-0.30490762 -0.11125836 -0.2323202 -0.083744034 0.0116705 -0.17566302 -0.26753116 -0.26734188
-0.21389323 -0.18975523 -0.15329619 -0.27704114 -0.11874215 -0.21577851 -0.18123217 -0.20176059
-0.31239054 -0.201702 -0.14859724 -0.23053959 -0.3344167 -0.1562418 0.003339296 0.026642246
-0.18482806 -0.18723223 -0.14400946 -0.17531626 -0.125374 -0.21592918 -0.09554803 -0.14562511
-0.17187138 -0.09185924 -0.28938204 -0.07878071 -0.09290663 -0.18201734 -0.19870736 -0.23220855
-0.18149842 -0.15665321 -0.03923975 -0.24549042 -0.15764149 -0.26461905 -0.22678028 -0.13563588
-0.20500985 -0.14333014 -0.25377387 -0.10646049 -0.20419733 -0.49010774 -0.24590263 -0.16148543
-0.28675845 -0.04419822 -0.12730508 -0.1137565 -0.2933428 -0.07964305 -0.13606013 -0.23507151
-0.21441571 -0.10930419 -0.18497717 -0.16707018 -0.04031984 -0.14108819 -0.19968279 -0.22777255
-0.25200516 -0.10826184 -0.14399664 -0.18944044 -0.03328787 -0.23977931 -0.117250055 -0.18768129
-0.17364511 -0.11941798 -0.20372824 -0.13074459 -0.31539172 -0.11764079 -0.14709708 -0.03453547
-0.32966837 -0.14478469 -0.20068204 -0.20380463 -0.088896565 -0.21870938 -0.23033679 -0.17859742
-0.21809526 -0.22673999 -0.2567715 -0.15559915 -0.08346851 -0.11513622 -0.22113585 -0.26047453
-0.22675522 -0.22818035 -0.13752219 -0.35230798 -0.31515685 -0.19380522 -0.17016299 -0.16636807
-0.06574931 -0.081248395 -0.057633467 0.0634858 -0.1923489 -0.2935484 -0.41093704 -0.11368662
-0.047002215 -0.046088476 -0.019199625 -0.04395467 -0.149352 0.17759518 -0.111859076 -0.037490856
-0.2566415 0.11457028 -0.30728087 0.02014333 -0.08301484 -0.34126934 -0.048933733 0.07153999
-0.31192067 -0.18384731 -0.12884253 -0.23790786 -0.16047639 -0.35392675 -0.13805649 -0.122453816
-0.22409801 -0.18817718 -0.0060667265 -0.07544925 -0.2925056 -0.08589951 -0.050610747 0.114906654
-0.17887808 -0.34964666 -0.06288973 -0.3186702 -0.24099992 -0.104751885 -0.122217566 -0.24266566
-0.055795673 -0.25016767 -0.05824612 0.009033417 -0.08698477 -0.08795613 -0.248885 -0.23405936
-0.23239964 -0.06863954 0.05683231 -0.32351106 -0.3599601 -0.23967111 -0.15913977 -0.06386267
-0.092647575 -0.016323764 -0.3213093 0.018974377 -0.11348359 -0.29597828 -0.4589764 -0.1649297
-0.04804992 0.05195643 -0.0007488958 0.060993902 -0.10426021 0.120576814 -0.042487293 -0.12522088
-0.19651678 -0.003613615 -0.29492676 -0.14027797 -0.023611123 -0.3187291 0.05054441 -0.0004940001
-0.3377418 -0.16609398 -0.26653528 -0.078835815 -0.1252126 -0.32162702 -0.07188028 -0.12113343
-0.17032787 -0.18537927 0.07027929 0.0064712507 -0.2053892 -0.11992204 -0.053882007 0.05070779
-0.30673662 -0.24666525 0.12301078 -0.32129583 -0.17564924 0.05411701 -0.17003903 -0.006228405
-0.011594373 -0.41212508 0.14121568 -0.12475501 0.08631526 -0.051681302 -0.3701706 -0.4678949
-0.20618464 -0.09469637 0.118675336 -0.36539835 -0.32154134 -0.21156865 -0.15971763 -0.12365931
00000000: 3494 19be f194 69be 7848 88be c548 dfbd
00000010: f364 bdbd ca74 efbe 032c 37be 953b 69bd
00000020: 05c1 65be 8c66 73be 3fcf bdbe d2c1 5bbe
00000030: df02 58be 3e97 e9bd f73d 01bd 6744 17be
00000040: da1c 9cbe 6cdb e3bd 59e5 6dbe fe81 abbd
00000050: a035 3f3c 02e1 33be d8f9 88be 09e1 88be
00000060: d406 5bbe 324f 42be adf9 1cbe 56d8 8dbe
00000070: 162f f3bd 0bf5 5cbe ed94 39be 549a 4ebe
00000080: a7f1 9fbe f88a 4ebe e029 18be 9212 6cbe
00000090: aa38 abbe dafd 1fbe 17d8 5a3b d740 da3c
000000a0: 9143 3dbe ceb9 3fbe 3777 13be 1b86 33be
000000b0: 0b62 00be 8a1c 5dbe b0ae c3bd c01e 15be
000000c0: 0dff 2fbe b220 bcbd e229 94be c857 a1bd
000000d0: d545 bebd c162 3abe f179 4bbe 14c8 6dbe
000000e0: b9da 39be b369 20be dcb9 20bd d761 7bbe
000000f0: c56c 21be 267c 87be 1739 68be 22e4 0abe
00000100: 1aee 51be 23c5 12be a6ee 81be f507 dabd
00000110: 1b19 51be 67ef fabe e6cd 7bbe 705c 25be
00000120: 01d2 92be 3109 35bd 435c 02be 2bf9 e8bd
00000130: 0731 96be e51b a3bd 5953 0bbe 96b6 70be
00000140: cb8f 5bbe e0da dfbd a86a 3dbe 7214 2bbe
00000150: 6b26 25bd 6c79 10be a579 4cbe 353d 69be
00000160: d206 81be 62b8 ddbd db73 13be adfc 41be
00000170: dd58 08bd b588 75be cc20 f0bd 862f 40be
00000180: 06d0 31be 6a91 f4bd 239e 50be e9e1 05be
00000190: 067b a1be a8ed f0bd 9ea0 16be 1175 0dbd
000001a0: 4bca a8be 7042 14be 987f 4dbe 29b2 50be
000001b0: 670f b6bd 5af5 5fbe 68dd 6bbe 3ee2 36be
000001c0: 5d54 5fbe 872e 68be 8e77 83be 6255 1fbe
000001d0: 8af1 aabd 8acc ebbd 7071 62be eb5c 85be
000001e0: 8532 68be 1ca8 69be 9ed2 0cbe b661 b4be
000001f0: 3d5c a1be e074 46be 353f 2ebe 645c 2abe
00000200: 93a7 86bd 8f65 a6bd 1211 6cbd d804 823d
00000210: 1cf7 44be fa4b 96be 5766 d2be 88d4 e8bd
00000220: 6585 40bd 45c7 3cbd 8848 9dbc d009 34bd
00000230: bbef 18be 83db 353e 5f16 e5bd 0390 19bd
00000240: 8466 83be d3a3 ea3d eb53 9dbe a003 a53c
00000250: af03 aabd dbba aebe bd6e 48bd 8f83 923d
00000260: 11b4 9fbe 7842 3cbe 4cef 03be 1e9e 73be
00000270: ec53 24be e335 b5be ae5e 0dbe 11c9 fabd
00000280: f379 65be 85b1 40be 64cb c6bb 2385 9abd
00000290: 4bc3 95be 15ec afbd 374d 4fbd 2e54 eb3d
000002a0: d12b 37be e304 b3be 55cc 80bd be28 a3be
000002b0: afc8 76be 2888 d6bd 344d fabd 597d 78be
000002c0: 018a 64bd fa15 80be 7c93 6ebd e600 143c
000002d0: 1225 b2bd 5822 b4bd b6db 7ebe 42ad 6fbe
000002e0: 2cfa 6dbe e392 8cbd ffc8 683d 3ea3 a5be
000002f0: b14c b8be 586c 75be 89f5 22be 6eca 82bd
00000300: 03be bdbd 6ab9 85bc a782 a4be 2770 9b3c
00000310: 166a e8bd 778a 97be f4fe eabe 55e3 28be
00000320: fecf 44bd 44d0 543d 8c51 44ba bed4 793d
00000330: 6186 d5bd faf0 f63d 2807 2ebd e739 00be
00000340: b23b 49be 66d2 6cbb a400 97be 07a5 0fbe
00000350: 1d6c c1bc 7630 a3be a807 4f3d c97f 01ba
00000360: 7eec acbe 8a14 2abe 5077 88be ac74 a1bd
00000370: bb37 00be 4cac a4be f835 93bd ce14 f8bd
00000380: 6e6a 2ebe 10d4 3dbe 97ee 8f3d c90c d43b
00000390: 8c51 52be b099 f5bd 61b3 5cbd f9b2 4f3d
000003a0: 950c 9dbe d195 7cbe 13ed fb3d e380 a4be
000003b0: 65dd 33be cca9 5d3d b61e 2ebe a617 ccbb
000003c0: 53f6 3dbc 0f02 d3be d89a 103e 8e7f ffbd
000003d0: 0ec6 b03d c6af 53bd 0087 bdbe ec8f efbe
000003e0: 1122 53be 2cf0 c1bd 0e0c f33d 7e15 bbbe
000003f0: 11a1 a4be 74a5 58be 058d 23be 1841 fdbd

bias f4 [64]
-0.20799601 -0.18343015 -0.0764824 -0.2055925 0.21750584 -0.20990215 -0.024599917 -0.23775353
-0.2884772 -0.39324772 -0.109295465 0.080207676 -0.02140197 -0.21193522 0.014093204 -0.23817393
-0.19062248 -0.26056537 0.12758356 0.13918035 0.35628736 -0.12786496 -0.10741047 -0.054310318
-0.2552987 -0.15040834 0.041008297 -0.11146475 -0.091191255 0.062685445 0.32385942 0.025021123
-0.21062101 -0.21982266 0.5064683 -0.16342609 -0.11175184 0.56934977 0.27501342 -0.026077025
-0.025094954 -0.14295639 0.15652137 0.12145396 0.3667399 0.0054274513 0.0657848 -0.19311242
-0.24861874 -0.055321887 0.082329705 -0.016860249 0.28274658 0.24472123 -0.1326646 -0.20626678
0.008987692 -0.19364658 0.36784503 0.29324704 0.18737018 0.3325237 -0.27310097 0.23940928
00000000: e8fc 54be 1dd5 3bbe cea2 9cbd d786 52be
00000010: dab9 5e3e 97f0 56be c485 c9bc a975 73be
00000020: 49b3 93be c457 c9be 4dd6 dfbd ec43 a43d
00000030: 2f53 afbc 8c05 59be 2fe7 663c dee3 73be
00000040: 8a32 43be d368 85be 44a5 023e 4b85 0e3e
00000050: 4c6b b63e 08ef 02be 05fa dbbd 7f74 5ebd
00000060: 83b6 82be a504 1abe 51f8 273d a147 e4bd
00000070: 7bc2 babd 3a61 803d e7d0 a53e 19f9 cc3c
00000080: 09ad 57be 3119 61be e8a7 013f 2b59 27be
00000090: 26de e4bd e8c0 113f 8fce 8c3e 7c9f d5bc
000000a0: ef93 cdbc 2963 12be 2347 203e dbbc f83d
000000b0: 55c5 bb3e c3d8 b13b 2eba 863d 43bf 45be
000000c0: e995 7ebe 3499 62bd 7a9c a83d 811e 8abc
000000d0: 29c4 903e 3498 7a3e 3bd9 07be 9937 53be
000000e0: 1d41 133c 4a4b 46be 2f56 bc3e 7a24 963e
000000f0: f8dd 3f3e 8c40 aa3e e4d3 8bbe b527 753e
