TP/save_models_LSTMHiddenState_Dropout_Tanh_64/model_10.pt (torch, 170410 bytes, 6 tensors)

weight_ih_l0 f4 [256, 64]
00000000: e304 f73e 2f13 13bf 0f8d c33d d7ec ea3e
00000010: 1917 0ebe ff40 c23b 3cb8 f93c 1e27 dbbd
00000020: 39a4 e9bc b698 43bf 745f 123e 37d4 d3bd
00000030: 4d3f e23e 9607 a33e 3537 733d 9db3 f0bd
00000040: d9ff 5a3e 3502 89be 7c3e b93e c58f 693e
00000050: 9587 833c e390 5a3e 6445 313e b25e 99be
00000060: 3517 64be fd1c c63e 07be 2cbe 54c0 aa3d
00000070: 0cc8 b43e 1183 54be e716 ffbd 46bd e7bd
00000080: 61c7 c2be 5978 6f3e 3735 723d 90bb 2f3e
00000090: 2056 893e 0006 4bbe 0002 4ebe a6dc 1a3e
000000a0: 6631 81be df04 8abe 7d4d 2d3d 26cb d9bd
000000b0: e781 b6bd a04c f4bd ab4b 8ebe 872d 443d
000000c0: c9e7 1c3c cd1f dcbe dcbf e13e 747b a2be
000000d0: 54dd f03d aab2 f03d c180 00bf b3be cabe
000000e0: 98e0 63be dfab c53d a8f8 34bd bb70 88be
000000f0: faa2 f0bd 30bd e43d 8a4c 95be 0116 f0be
00000100: dc53 353f bf23 d3bd cc1c a53d 9f78 c23e
00000110: a8ef 8ebe 8818 03be 1082 103d 782e 9ebe
00000120: 8305 193e 53f1 a7be 0b82 02bf 740b 24bf
00000130: c509 68be 72c1 77bf 05f2 543e aa4e 3bbe
00000140: add8 97bd beae 933d fe6f a53d 3677 923e
00000150: b929 043c ab61 00be c59f 11be cb4d 803e
00000160: f319 36be cc5f 353e c4cc ddbe 622d 68bd
00000170: 82b7 7c3e 0680 ec3b 44f6 703d d975 d9be
00000180: c8a5 72be 98d1 10bf d0ea 19be 3d71 6a3e
00000190: 2ebe 78be d61a 65be 348f 013b aa72 88be
000001a0: 59da 813a d551 5b3f 9438 0c3f 5a22 f73d
000001b0: 154a e9be 4d6d 21be 4711 f0bd 2caa 33bd
000001c0: 62d0 053a 012d 00be c074 07be a60d 16be
000001d0: a298 7f3e 0f8e c13e d38e b2bb e17d ca3e
000001e0: 43f7 013f 5aac 58be bcd2 7b3e 5e05 42bd
000001f0: 5ae1 a63e dfda 96bd 3ae4 1bbe 255d 1cbe
00000200: 84ae 61bf 7435 02bd 9dfa 163d 65c1 3b3e
00000210: e445 abbd 89c5 13bf 0039 b43d cc3b c3be
00000220: 7fbd c6be adb1 69bf 12fb 4c3c 1793 1bbe
00000230: 5443 00be aaec d03d 0de0 87bc dc60 02be
00000240: f302 60bc c9b4 e33e 9f7c 9e3d e0aa 16bd
00000250: c4b7 683e 5511 a43d dc03 48be 46d8 8d3b
00000260: 1da5 4cbe 8613 683e acb9 54be 2a98 92bc
00000270: fb1d 613b 645e 003e c313 723e 6a90 e93d
00000280: 24b3 a23d 8dfe 723e 80a0 863e 3ea2 84be
00000290: efe7 cc3c 3909 73bd fb23 cd3e 5f8f e1be
000002a0: 5f6e 94bf 5efb 40be 5cd6 b5be 9aef 2d3e
000002b0: c50e aa3e fcb1 7cbd 8533 383f ee6d f2be
000002c0: 3cb7 aa3e d01a 2cbe 0036 5fbe 8db7 dc3d
000002d0: 3eda d63c a453 c83a 3b34 513e b826 963c
000002e0: 5cb3 9cbe 5443 e03d 751a 813e 0ecb 30be
000002f0: 682c bebe 6277 263e 6b5c 883e 1f2f f7be
00000300: d45c 05be 9b6e d4bd 6879 d5bd bc8a bfbd
00000310: 2e8b 183f 8db3 d840 96c9 be3e 7856 c93e
00000320: 2773 3bbc 4ec7 7cbe 6c78 9e3d 35b6 cbbd
00000330: 701c da3f 9d67 333f b943 3ebe 4dc2 1bbe
00000340: 8415 c3bd 0188 6bbd bd00 e4bd 8b00 c0bd
00000350: 85aa c3bd 13c7 c33d bf50 6fbd fabb 6abe
00000360: ee60 3b3b cf1a a7bd 241c 78be d486 8dbd
00000370: 52b3 c8bd 5d5b ad3d fd04 84bd a152 8d3d
00000380: 5c39 193d 8ece 5dbe 73e0 c83c 3865 533d
00000390: 39d1 e5bc 5d66 86bd ed14 40be 86e3 aebb
000003a0: 28ec fdbb 6598 603d d52e c8bd a0c2 99bc
000003b0: e7c1 923d 8a0b 9e3c b38a e8bd 5cb9 453d
000003c0: 2aa8 ecbd e1c5 a3bd 7ba7 72bd c075 fabc
000003d0: 1849 023e 001d c9bd 4f17 9b3c ea18 583c
000003e0: a84c 573e 34d3 acbd e834 2ebc 714d 78bd
000003f0: 7f92 2dbe 968a bdbc d059 abbd 94e8 05be
0.48245916 -0.57451147 0.09548389 0.4588382 -0.13875999 0.0059281583 0.030483358 -0.107008204
-0.02852069 -0.76404893 0.14294225 -0.10343211 0.4418892 0.31841725 0.05937882 -0.117530085
0.2138666 -0.26759496 0.36180484 0.2280875 0.016055861 0.21344332 0.17311627 -0.2995506
-0.22274478 0.3869399 -0.16869365 0.08337465 0.35308874 -0.20753123 -0.1245554 -0.11315398
-0.3804274 0.23385753 0.05913278 0.17161393 0.2682352 -0.19826508 -0.2011795 0.15123233
-0.25233 -0.2695684 0.042310227 -0.106344506 -0.08911496 -0.119286776 -0.27792105 0.04789498
0.009576746 -0.42993012 0.4409169 -0.31734812 0.11760965 0.117528275 -0.5019646 -0.39598617
-0.22253644 0.096519224 -0.04418245 -0.26648507 -0.11749835 0.11168897 -0.29159957 -0.46891788
0.70831084 -0.103095524 0.08062133 0.37982652 -0.27917218 -0.12802327 0.035280287 -0.30894828
0.14943509 -0.32801303 -0.5097968 -0.64079976 -0.22659977 -0.9677955 0.20795448 -0.18291727
-0.074143745 0.07211064 0.080780014 0.28606576 0.008066588 -0.12537257 -0.14221103 0.2505935
-0.17783336 0.17712325 -0.43320286 -0.056683905 0.24679378 0.00721741 0.058828607 -0.42472723
-0.23696053 -0.56569815 -0.1503098 0.2289476 -0.24291298 -0.22373518 0.0019769194 -0.26649982
0.0009906992 0.8567174 0.5477383 0.12067099 -0.45564333 -0.15764351 -0.117220454 -0.04386346
0.0005104599 -0.12517168 -0.1322813 -0.14653644 0.24960569 0.37803695 -0.005449155 0.39549163
0.50767916 -0.21159497 0.24592108 -0.0473684 0.32593805 -0.07365965 -0.1522378 -0.15269907
-0.88156915 -0.031789258 0.036860097 0.18335493 -0.0836294 -0.5772329 0.087999344 -0.3813156
-0.3881645 -0.91286737 0.012511032 -0.15192829 -0.12525684 0.1020139 -0.016586328 -0.12732261
-0.013672578 0.44473866 0.07738613 -0.036784053 0.22726351 0.08011118 -0.19532722 0.0043287603
-0.1998486 0.22663698 -0.20773953 -0.017894823 0.0034350145 0.12536007 0.23640351 0.11404498
0.079443246 0.23729916 0.26294327 -0.2590503 0.025012938 -0.059334967 0.40066513 -0.44054696
-1.1596183 -0.18845889 -0.35515106 0.16985932 0.33214393 -0.061693177 0.7195361 -0.47349495
0.33342922 -0.16807103 -0.21797943 0.10777197 0.026227113 0.0015283716 0.2043008 0.01832901
-0.3060559 0.10950342 0.25215498 -0.17264959 -0.37143254 0.16256478 0.2663301 -0.48278138
-0.13023692 -0.10372659 -0.10423547 -0.09352633 0.5958737 6.771918 0.37263173 0.39323783
-0.011441029 -0.24685404 0.077378124 -0.099468626 1.7039928 0.70079976 -0.18580522 -0.15210839
-0.09525588 -0.05750275 -0.11132953 -0.093751036 -0.095540084 0.09559455 -0.058426615 -0.2292327
0.002859171 -0.0815941 -0.24229485 -0.06910482 -0.09799828 0.08464692 -0.06446264 0.06900526
0.037408218 -0.21660826 0.024521088 0.0516102 -0.028053867 -0.06562493 -0.18757983 -0.0053371815
-0.0077490993 0.054832835 -0.097745575 -0.018769562 0.0716589 0.019292612 -0.1135458 0.048272476
-0.11555512 -0.07996727 -0.059241753 -0.030573726 0.12723196 -0.098199844 0.018932013 0.013189534
0.21025336 -0.08438721 -0.010632731 -0.06062073 -0.16950415 -0.023137372 -0.0836674 -0.13077003

weight_hh_l0 f4 [256, 64]
00000000: 2f33 e2bf a8e7 7cbf 6469 563e 653c e3be
00000010: 1cb1 e8be fc2e 7a3e 5aef bf3e 3b82 88be
00000020: 106c 983e fba7 2c3e 8817 74be fe9a e13c
00000030: 276a 6c3e 4d34 b7be 7d18 bfbe ca20 8bbc
00000040: a136 303e 8846 16bf 1969 e13e ea0d 433e
00000050: 6fca bbbe 969a 5c3e e972 223f 6de8 793e
00000060: fb38 be3e d10b b73e 5578 62be e6df 1b3d
00000070: a799 83be a708 42be 60e9 dabe 2a0a c23c
00000080: a979 c33d ab31 193f c0f9 c6bc 51e2 c8be
00000090: c58d 053e 7fb5 0ebf 4b94 28bf f6bf be3e
000000a0: 55b4 2f3f 6859 783f 01d9 ad3d 3a69 85be
000000b0: 9385 e33e 9ccd 6e3f a633 8fbe 7c8c c93e
000000c0: bc88 93be 3d8f dcbd 3fcd a3bc 1bbd b1bc
000000d0: 2f0c 5fbd 6668 ca3e 4eea d73e 8b26 733d
000000e0: 02a5 c83f 0ad2 17bf 20ea 05bf ea53 eabd
000000f0: b924 89be d465 ed3e fce7 883e 6a87 b03e
00000100: 369e 40be a800 903f 104d 87be e883 583e
00000110: 62cc 623f 166e fe3e 2f4c f3be 368c 0bbf
00000120: 7454 543e 766a b3bd 4f15 ee3d f564 ee3e
00000130: 9b6d 5b3e a0fa 60bf 95b0 a6bd 4605 3f3e
00000140: 00c3 67bf 896f 21be 8e76 ddbb e2f0 b2be
00000150: f2a2 8f3d d89f 643e 2290 053e babb 87be
00000160: 22a1 6f3e 2537 3f3e 014f 3abd 7689 a2be
00000170: df5a 16bf fcf2 eebd 95f3 07bf 73eb 023f
00000180: 35ab 4abd 6aa1 93bd 8a32 1cbe 3a55 273f
00000190: de70 f1bd 6774 e13e 091f 043f e521 f93a
000001a0: 266c ec3e fbae 993e 1c36 5b3d 95ce a0be
000001b0: fba5 ce3d 0000 e53e c262 753e 1734 0ebf
000001c0: 591a 123f 3f25 3b3e 28ee 753f 14a2 81be
000001d0: a765 003f 1ad7 27be 60be 653e bb56 52be
000001e0: f65a d5be a7bb bb3e eb97 8cbe 15aa 3cbf
000001f0: 1a44 b63c 1995 233e a210 f83c d931 13bf
00000200: dd67 5bbe 177f cf3e 0f75 8cbe 1bd5 823d
00000210: d379 d6bc 9acd 3e3f d6a5 6e3f 78a0 debd
00000220: 3f14 d93e 1afa bfbb ff1b 7c3d cf4b 38bf
00000230: f429 a5bd cedd 123e 2a94 363f 31f1 f5be
00000240: ebe9 46be ce2a 78bc 3e27 17bf 942e 383e
00000250: 112e c4be 13bd 46bf 8091 453f c7d9 12be
00000260: 7712 1b3f c5b0 453f a488 3d3e f6c3 4d3e
00000270: fab7 353f 7cd5 4c3e 9a8f 6b3d 0afa 24be
00000280: e87f f23d e7a2 fcbe 3be9 ffbe b9bf 35bf
00000290: 2fd5 84be ecaf 92be 65b4 f13d 4a3e 743e
000002a0: ef4a 18be 44f3 373f fb7d 1b3c 3111 8fbe
000002b0: 530d ec3d 49c5 983e 874d fdbe d6c5 043e
000002c0: 0475 883e ead4 80bf a967 9fbd 5ec2 97bf
000002d0: 6a82 66bf d77d aebe 800f 08bf 938a 6c3e
000002e0: 0ada 4c3e 94d5 2bbe ff5f 5d3e 4a33 de3e
000002f0: 5ec6 f23e f8fa e03e ac53 963e 6d53 013e
00000300: 83e5 93bd 600c 11bf 32fa 64be 02b8 133e
00000310: 1f88 babd 8f1a 92bb 3c83 9e3d d42b f93d
00000320: fb5e 78be 7c1c 283e 0306 343c 50a6 423e
00000330: e892 07bf d819 ccbd 3399 eebe c5da 25be
00000340: d962 e5be 01c3 efbd 347a 6d3d 5c56 41be
00000350: f572 ecbd fe11 9cbd d177 18be 7eb7 0bbf
00000360: edaf 71bf 1f17 a8be a7f5 713d 7eae 853e
00000370: 0dbf dc3d 0880 ddbc 24ab d6be f3ed f93d
00000380: cc40 5bbd 6799 6abe 25ae fb3e 6c29 b3bd
00000390: d2e6 5fbe e126 f0ba 3a0d 4dbe 3904 c23e
000003a0: 84e9 49be 5756 00bf 179f 273e 757e a83e
000003b0: 84b1 5d3d e56d be3e f181 20bf 60c4 d73e
000003c0: 735f b4be 7a96 443e a25c a43d 2a37 4dbf
000003d0: 5cf6 30bf f33f c8bc d81b 43be 4e84 1d3e
000003e0: e1ec 60be d4d3 a0be 33fb 21bd 020e 4b3e
000003f0: b288 b63e 3fe0 84be a6fa 52bf 271d 4dbe
-1.767187 -0.9879098 0.20938641 -0.44382015 -0.45447624 0.24431986 0.37487298 -0.26661858
0.29769945 0.16860954 -0.23837101 0.027539726 0.23087369 -0.3578209 -0.3732337 -0.016983408
0.1720834 -0.5870137 0.44025496 0.19048277 -0.36677882 0.21543345 0.6345659 0.2440507
0.37152848 0.35751203 -0.22116216 0.038055323 -0.25703165 -0.18948613 -0.42756176 0.023686487
0.09544689 0.5984141 -0.024289012 -0.39235166 0.13042362 -0.5574569 -0.6585128 0.3725583
0.6863454 0.97011423 0.08488656 -0.26056844 0.44437847 0.93282485 -0.27969092 0.39364994
-0.28815258 -0.10769508 -0.01999533 -0.021696618 -0.05445498 0.39532775 0.42170948 0.05936293
1.5675356 -0.5930487 -0.5231037 -0.114417866 -0.2678583 0.4636675 0.2673949 0.34478313
-0.18810353 1.12502 -0.26425982 0.21144068 0.88593113 0.49693364 -0.4751906 -0.5451082
0.20735341 -0.0876054 0.11625158 0.465614 0.2142853 -0.87882423 -0.08139149 0.18654355
-0.9053192 -0.15765204 -0.0067585176 -0.34949404 0.07013501 0.223266 0.13043264 -0.26510412
0.23401311 0.1867338 -0.0454855 -0.317455 -0.5873241 -0.11667439 -0.5310605 0.51140517
-0.049479682 -0.07208522 -0.15253654 0.6536442 -0.11789106 0.4403412 0.51609856 0.0019007294
0.4617626 0.30016312 0.0535184 -0.3140761 0.10090252 0.44726562 0.23963454 -0.5554823
0.57071453 0.18275927 0.9606652 -0.25318968 0.5015511 -0.16390648 0.22435904 -0.20540898
-0.4167096 0.36666605 -0.27459654 -0.73697025 0.02224927 0.15974845 0.030281369 -0.57497936
-0.2142634 0.4052665 -0.2743306 0.06388303 -0.026181137 0.74532473 0.93221796 -0.10870451
0.4239826 -0.005858672 0.061550137 -0.71990675 -0.080646425 0.14342424 0.7131983 -0.48035577
-0.1942517 -0.015146924 -0.59044254 0.17986518 -0.38316396 -0.77632254 0.7717514 -0.14340888
0.6057505 0.77222854 0.18509156 0.20094284 0.7098385 0.20003313 0.057509996 -0.16111007
0.118408024 -0.49343035 -0.49982628 -0.7099567 -0.25943896 -0.28649843 0.11801986 0.23851886
-0.14872335 0.7185557 0.009490485 -0.27942804 0.11525979 0.29838017 -0.4947321 0.12966093
0.26651776 -1.0064976 -0.077834435 -1.1856191 -0.90042746 -0.34080383 -0.5314865 0.23099737
0.2000505 -0.16780692 0.21618651 0.43398505 0.47416967 0.43941474 0.29360712 0.1262948
-0.0722151 -0.5665951 -0.22361067 0.14425662 -0.09107994 -0.0044587324 0.07739875 0.12166563
-0.24254982 0.16417116 0.010987761 0.19008756 -0.52958536 -0.09965867 -0.46601257 -0.16196735
-0.44801977 -0.11707116 0.05797787 -0.188806 -0.11545364 -0.07620619 -0.14889456 -0.5457686
-0.94409066 -0.3283014 0.059072163 0.2610969 0.107786275 -0.02703859 -0.41927445 0.12203588
-0.053528592 -0.22910081 0.491563 -0.08748135 -0.21865395 -0.0018322134 -0.20024577 0.37893847
-0.19717985 -0.50131744 0.16369282 0.3290898 0.05412437 0.37193218 -0.62698275 0.4214201
-0.35229072 0.19198027 0.08025481 -0.801623 -0.69125915 -0.024444556 -0.1905359 0.15382501
-0.21965362 -0.31411612 -0.039546203 0.19829562 0.35651165 -0.25952336 -0.8241371 -0.20030652

bias_ih_l0 f4 [256]
00000000: c8df 4f3c a3f6 eb3d 42aa 753d 24f3 2dbe
00000010: 6019 353e d3d2 39be c311 a33d 9ffe 00be
00000020: 817f 58bd 0f04 82be bdf5 4c3e 702e 2b3e
00000030: 4612 e0bd 025d 943e 9cc4 333d 05a7 053e
00000040: 5bf6 69bd 4cae 54bd 4f51 593d fdbc 4ebe
00000050: 2a6d 7c3e 3ecb 3e3e 6c9e 423f 64af a63e
00000060: 5a1f bdbe f140 24bd 71c1 c3bd addb 583d
00000070: 0949 d63e 5f42 8e3e 48a7 fe3d 7351 71be
00000080: 3de8 cb3e 63e9 763e 1980 433f 1b14 0abc
00000090: f5c0 ca3d aff2 123e 9baf d03d d48a b6be
000000a0: df1f 623e b102 60bd 6bf4 cb3d 20e2 e73e
000000b0: 1e58 093f efea c03e bd8f fabd 9816 8d3e
000000c0: caae 4a3e 2539 063f 8e19 db3e 8e77 ae3e
000000d0: 0115 1bbc d8b4 0d3c 25e1 143f 4f71 92bd
000000e0: 7396 d4bc bd9f 5bbd aee1 003e 09e3 e43e
000000f0: 7782 183e fd79 1b3e 863f 51be 989a 13be
00000100: bd33 19bf 65ec 60bf 3009 2ebe 3088 56bf
00000110: b012 29bf b275 0dbd fbb6 0fbf ce1a 4bbf
00000120: 2968 2bbf 8f76 eebe f5dd bebe 8cca d2be
00000130: 5c46 47bf 1637 49bf 7f46 cdbe 8706 5abf
00000140: f951 33bf 5100 89bf a107 5abe c6f1 8abf
00000150: c5f4 25bf bee9 19bf 0d66 d0be b9d7 85bf
00000160: df60 353f 982e 73bf bf1c 57bf 965c eabe
00000170: 74bd c7be d71f f4bd 5236 05bf cc80 e6bd
00000180: 5e40 b5be b15a f0be decf 09bf 82a9 99bf
00000190: 1932 7bbf c47b 91be 60a3 22bf 1f5f debe
000001a0: 4ba2 fd3c 0b10 953e fca5 19bf 544e 1fbf
000001b0: 6731 45bf 306e 17bf 8083 85bf 3c2a 72bf
000001c0: d079 12bf 2ed5 42bf 7ead 1cbe 331a e9be
000001d0: 4e0a a3bf d39e f4bd 55cc 85bf 9577 c5bd
000001e0: a73e 39be 9a11 08bf e2a2 97bf d859 3ebf
000001f0: 292f 3bbe a5c0 37bf 7795 723e ecf4 f8be
00000200: 4e89 8a3e 39bf d8bd 7336 253e 61f1 0dbf
00000210: 0f5f c93e cb59 1f3f 7b4a ab3e 0c74 7c3e
00000220: 91c7 0c3f ec60 42be ce48 a33e 5fef d43e
00000230: ba16 de3e 2f0b 0cbe d7a6 b13d ff7f ad3e
00000240: 11cc a53e 8d06 aa3c 7537 e33e 1743 683e
00000250: c423 d0be 35d0 71be 4ff5 c83e 6a03 803e
00000260: d1ee 0e3f 4c76 99be c063 9e3e f774 debe
00000270: 64ca 103a b64f a1be cda6 503e 0341 ebbe
00000280: b56c e93e bb11 0ebe 5ee3 b0be 7fe7 ac3a
00000290: ee5e 763e 8911 da3e 45cf 83be e5ff 3bbf
000002a0: f5f7 b63e 8079 213f 8996 16bf 264e b73c
000002b0: 32f7 debc 6da2 abbd 6e45 f33d 1d8c b6be
000002c0: 5d90 8fbe 69e8 273d 1f5b 143f ce62 103e
000002d0: 553b 713e b242 f23e 6403 ff3e d7ae 2cbf
000002e0: 3078 163f a65b 8d3e a6e0 a83e a2a4 0dbd
000002f0: 1104 b43d cf76 1a3e aed5 0c3f dac8 093f
00000300: b0b5 de3e 7363 373f 799f 89bd ccff 3dbe
00000310: 1912 293d fbb5 b53e 4c11 d0bc 2d72 863e
00000320: 4f84 e33e dc4d 67be 5444 893e b16c 543e
00000330: ed3b f43e bd6b 83bd ba03 a13e 13b9 c03e
00000340: 2ff3 1a3f 1c00 753e 35dc 993e 9221 f83e
00000350: 8ca9 f73e 07e4 053f 8a7c 1b3f 002a 413f
00000360: ae70 ac3d 191e f4bd 8794 a6bd e9d5 cc3e
00000370: 6b53 d53d a0f5 b63e 45d3 b63d baf9 283e
00000380: 036a 563e 2ad4 6e3d a78c 553f cb6b 623e
00000390: d5b8 1bbd c610 a33e 42f4 48bd 2183 d53e
000003a0: 5874 ad3e c5f4 a43e d076 25be dd6b 483e
000003b0: 92e7 073f 44c2 063f 402d 9fbe b96e 3d3f
000003c0: eda4 79be b5b5 293f 3d84 983e c841 1cbe
000003d0: 7fc6 f43e 4365 083f 8a4a 6f3f 8594 033e
000003e0: 321b 3b3e 0d6a 063f 1c01 373e 39db 2e3f
000003f0: 1098 f83e e47f 54be 4e20 c83e b839 913d
0.012687631 0.115216516 0.059976824 -0.16987282 0.17685461 -0.1814683 0.07962372 -0.1259713
-0.052855972 -0.2539372 0.20015617 0.16716933 -0.109409854 0.2897721 0.043888673 0.13051994
-0.05711971 -0.051924035 0.053056058 -0.20189281 0.24651018 0.18632218 0.7602298 0.32555687
-0.36937982 -0.040100995 -0.095583804 0.052943874 0.41852596 0.27785012 0.1243425 -0.23566227
0.3982562 0.24112467 0.76367337 -0.008427645 0.09900085 0.14350389 0.10189744 -0.35652792
0.2208247 -0.054690067 0.099587284 0.45289707 0.5365008 0.3767924 -0.12234447 0.275563
0.19793239 0.52430946 0.42792934 0.34075588 -0.009465457 0.008649074 0.58156043 -0.07150518
-0.025950646 -0.053619135 0.1258609 0.44704464 0.14893518 0.15183254 -0.20434389 -0.14414442
-0.5984457 -0.8786071 -0.16995692 -0.83801556 -0.6604414 -0.03453607 -0.5613858 -0.79337776
-0.6695581 -0.46574828 -0.37278715 -0.41170156 -0.77841735 -0.7859968 -0.40092847 -0.8516621
-0.70046955 -1.0703222 -0.21291973 -1.0855033 -0.64826614 -0.6012229 -0.4070286 -1.0456458
0.7085094 -0.9499297 -0.8402824 -0.45773762 -0.3901173 -0.119201355 -0.5203601 -0.11255035
-0.3540067 -0.46944192 -0.53832805 -1.2004855 -0.9812332 -0.28414738 -0.6353054 -0.43431947
0.030961176 0.29113802 -0.600189 -0.62228894 -0.77028507 -0.5915251 -1.0430756 -0.94595695
-0.5721712 -0.76106536 -0.15300557 -0.455278 -1.273752 -0.11944356 -1.0452982 -0.09641949
-0.18090306 -0.5315186 -1.1846583 -0.7435584 -0.18279709 -0.7177833 0.23689829 -0.4862436
0.2705788 -0.10583348 0.16134052 -0.5544644 0.39330336 0.6224639 0.33455262 0.24653643
0.54992014 -0.18982285 0.31891483 0.41588876 0.43376714 -0.13676141 0.086744 0.33886716
0.32382253 0.020755077 0.44378248 0.22681843 -0.40652287 -0.23614581 0.39249656 0.25002605
0.55833155 -0.29973066 0.30935478 -0.43448612 0.00055233226 -0.31506127 0.2037613 -0.45948038
0.4559075 -0.13873951 -0.34548467 0.001319155 0.2405965 0.42591503 -0.25744072 -0.7343734
0.3573605 0.6307602 -0.5882345 0.022376131 -0.027217481 -0.0838059 0.11878477 -0.35653773
-0.28039828 0.040993128 0.5795154 0.14100191 0.2355779 0.4731651 0.49807274 -0.67454284
0.5877714 0.27608985 0.32983893 -0.034580834 0.08789838 0.15084384 0.5501355 0.538221
0.43497992 0.7163612 -0.0671987 -0.1855461 0.041277025 0.35490403 -0.025398873 0.26258984
0.4443688 -0.22588295 0.26809943 0.20744587 0.4770197 -0.06417034 0.31448156 0.376412
0.6052732 0.23925823 0.30050817 0.48463112 0.48371542 0.5230107 0.60736907 0.7545471
0.084199294 -0.11919803 -0.08133798 0.4000695 0.10416301 0.35734272 0.08927015 0.16501513
0.20938878 0.058307804 0.83417743 0.22111432 -0.038018066 0.31848735 -0.049061067 0.41701606
0.33877826 0.32217994 -0.16158605 0.19572397 0.53087723 0.52640176 -0.3108921 0.73997074
-0.2437932 0.6629289 0.2978839 -0.15259469 0.4780769 0.53279513 0.9347311 0.12849624
0.18272093 0.5250557 0.17871517 0.6830326 0.48553514 -0.20751911 0.39087147 0.07091087

bias_hh_l0 f4 [256]
00000000: 3e61 65bd f366 f03c d82d a63d 4ce9 56bd
00000010: 1898 353e be72 e0bb 4913 b43d b5c1 87be
00000020: cb2d 243d 78e9 04be 6aac a23e 0396 1f3e
00000030: 95b7 4dbe b896 3e3e 9138 453e 8d01 ecbb
00000040: 1a3c bc3d fb83 d3bd 57c3 9f3d d260 e4bc
00000050: 6f4d 8b3e e83b 2d3e 1141 403f 7add ec3d
00000060: 69fc bdbe 483e 29bb 15f8 cb3a 6f5b fc3d
00000070: 77b2 9d3e 7c22 8a3e 3420 093d 3f5d 7fbe
00000080: 01cc 843e fc39 0f3e 04ff 443f 3623 543b
00000090: 34f1 043e ee10 8d3d d7ef 47bd 95ce a7be
000000a0: 9548 513e d6ec 2bbe 5287 d03d 6da8 0d3f
000000b0: 2a96 d23e f278 7a3e 28c7 41be f0c1 e03e
000000c0: ef01 713e 5432 163f 7a10 ac3e 4f78 7d3e
000000d0: 47e8 adbc 210d 4bbd 72fc 433f 4b88 5bbe
000000e0: f103 ab3c 2309 a0bd cc05 133e 3e1c 143f
000000f0: df49 e23d 6585 a53e 848d 91be 46c9 afbd
00000100: c847 1abf 27a4 56bf 7e16 f7bd 3ecc 6cbf
00000110: 4a74 19bf 7055 9d3d b997 22bf 895a 40bf
00000120: c210 fbbe 0238 f2be 7618 9cbe 1d65 9fbe
00000130: eda0 5bbf 2de2 1fbf 540b 00bf 715c 69bf
00000140: 8579 37bf 4843 86bf 264b b9be 0b61 87bf
00000150: cbbb 21bf b895 28bf e106 f4be 2bf6 9cbf
00000160: 316a 263f 5788 5bbf ba72 5abf 9469 03bf
00000170: d267 92be c7ac a1be 48ff 01bf 26ab 87be
00000180: db8e 99be c00d 0bbf e122 e7be 9eb8 8dbf
00000190: 8391 62bf 2deb e6be 4a2c fabe af64 22bf
000001a0: 60ec 253e 9c43 983e fafa 2cbf 636e 59bf
000001b0: 381f 38bf ca7b 35bf eafd 60bf 0256 81bf
000001c0: 314c 17bf e3a9 5bbf df9d 8bbe af8b 15bf
000001d0: 8a38 aabf 918d 7ebe 3982 8bbf 58cc 58be
000001e0: aa9e 14be 0140 f3be 8cfb 97bf e72e 5ebf
000001f0: 3b9a 14be b4f6 31bf a8fd 223e b91a ebbe
00000200: 543d 8b3e cc56 87bc 8244 313c c0f3 0abf
00000210: d6ce be3e 6053 233f b2fa ba3e 026e bb3e
00000220: 51bf f43e 92c7 2cbe 1f3c c73e b74b 973e
00000230: 5a39 8b3e 1a59 adbd e63f a73d 3a37 b13e
00000240: 8c9a ce3e d4c8 0fbd 3568 cb3e 1cde 3c3e
00000250: c26c b1be 0fe3 60be fcd8 953e 8650 733e
00000260: d7c7 253f 7b15 82be 0e9b 043e b37f 93be
00000270: c173 7bbd ecf3 e9be 92c4 8a3e 0641 e0be
00000280: ca30 9e3e 0ef5 1bbd de35 bbbe b8f5 a1bc
00000290: 57ee bc3d 5508 c93e 25a7 77be f7a0 59bf
000002a0: 6b66 e03e 22a6 043f 3178 1abf 0fb5 153d
000002b0: e606 353d 25c0 113e 3b00 633e 1f06 35be
000002c0: 89ea 8cbe 0b5d 5b3e cf85 173f 97a7 f03d
000002d0: e0b2 503e 1760 003f 349b b03e 8920 48bf
000002e0: 269f 283f b183 753e 80b3 ba3e 72af fbbd
000002f0: e37b 273e 8ddd 613e e4ad 0a3f 6be5 0b3f
00000300: b108 b43e 95dd 373f c544 02be 2ff9 58be
00000310: 89d7 ab3d 3b77 4a3e 1c14 50be 6754 4e3e
00000320: 2955 aa3e 1ca3 67be 4ef8 573e 97f9 6c3e
00000330: 80c0 be3e aaf0 71be aec5 db3e be02 613e
00000340: b3a9 473f d139 853e c3db ec3e 3db7 983e
00000350: 52ac c73e 72a1 ba3e 12a2 3d3f 445d 393f
00000360: 7ae1 a03d ae25 93be 22a2 273c a736 c63e
00000370: 1183 b13d 124a ac3e d17d 833e 61ee 003e
00000380: 7cf7 6f3d efd3 c63c f1f7 3b3f d1c2 293e
00000390: c61d a3bd 0b2c b03e 2bf4 42be 6124 9a3e
000003a0: 8d42 f53e da1e 803e 1d00 71be 7c89 fc3d
000003b0: 1740 de3e 429a 153f 690d 5fbe 0f69 253f
000003c0: 0518 44be 574c 273f d65f e33e e1ec aebe
000003d0: a086 003f 31ea e73e ac7d 483f bcf3 763e
000003e0: 5bf5 943e d992 053f b81a 993e b2cf 443f
000003f0: 8c48 083f ba73 42be f27e c93e 504d 943e
-0.05600094 0.029345965 0.08114213 -0.052468583 0.177338 -0.006849616 0.08792741 -0.26514974
0.040082734 -0.12979686 0.31772166 0.15584569 -0.20089562 0.18612182 0.1925986 -0.0072023333
0.09191151 -0.10327908 0.0780093 -0.027878199 0.27207515 0.16917384 0.75099283 0.11565681
-0.37106636 -0.0025824476 0.0015561605 0.12322127 0.3080022 0.26979434 0.033477977 -0.24937914
0.25936893 0.13986963 0.7695162 0.003236962 0.12982637 0.06887995 -0.048812713 -0.32774797
0.20437844 -0.16789564 0.1018206 0.5533512 0.4113019 0.244602 -0.18923628 0.43897963
0.23535894 0.58670545 0.3360632 0.24752925 -0.021228923 -0.049573068 0.76557076 -0.2143871
0.020875903 -0.07814243 0.1435768 0.57855594 0.11049246 0.32328334 -0.2842828 -0.08583312
-0.6026578 -0.83844227 -0.12064837 -0.9249915 -0.5994307 0.076823115 -0.6351276 -0.75138146
-0.49036223 -0.47308356 -0.30487412 -0.3113183 -0.8579243 -0.6245449 -0.50017285 -0.9115668
-0.716698 -1.0489283 -0.36190146 -1.057649 -0.63177174 -0.6585345 -0.47661498 -1.2262625
0.65005785 -0.85754913 -0.8533131 -0.51332974 -0.28594834 -0.3157713 -0.50780153 -0.26497763
-0.29991803 -0.54317856 -0.45143798 -1.1071966 -0.88503283 -0.451013 -0.48861915 -0.6343488
0.16203451 0.29739082 -0.6757046 -0.8493406 -0.71922636 -0.7089201 -0.8788744 -1.0104373
-0.59100634 -0.858061 -0.27268884 -0.58416265 -1.3298504 -0.24858691 -1.0899116 -0.21171701
-0.1451365 -0.4750977 -1.1873641 -0.8679032 -0.14511959 -0.69517064 0.15917075 -0.45918825
0.27195227 -0.01652088 0.010819556 -0.54278183 0.37267178 0.63799095 0.3651939 0.36607367
0.47802213 -0.16873005 0.38913056 0.29549953 0.27192193 -0.084642604 0.081664845 0.34612447
0.40352285 -0.035103634 0.3972794 0.18444103 -0.34653288 -0.21961616 0.29267108 0.23761186
0.64758056 -0.25407013 0.12949774 -0.28808364 -0.06138969 -0.4569391 0.27103096 -0.4379961
0.30896598 -0.0380755 -0.36564535 -0.019770488 0.09225147 0.3926417 -0.24184854 -0.8501124
0.4382814 0.51816 -0.6033965 0.036549624 0.044196032 0.14233454 0.22168057 -0.17678116
-0.27522686 0.21422212 0.5918855 0.11750715 0.20380735 0.5014662 0.3449341 -0.78174645
0.6586784 0.23976018 0.36465073 -0.12289323 0.16355853 0.22057171 0.54171586 0.5464694
0.3516288 0.7182248 -0.12721546 -0.21188806 0.083907194 0.19772045 -0.20320171 0.20149384
0.33268097 -0.22620815 0.21090814 0.23142086 0.3725624 -0.23626962 0.42924255 0.21973702
0.77993315 0.26020673 0.46261415 0.298273 0.38998657 0.36451298 0.74075425 0.7240794
0.07855506 -0.28739685 0.010231527 0.3871357 0.08667577 0.3365026 0.25681928 0.12590934
0.05858563 0.02427098 0.73425204 0.16578223 -0.07964663 0.34408602 -0.19038455 0.3010588
0.47902337 0.25023538 -0.235352 0.123309106 0.43408272 0.58438504 -0.2178246 0.6461343
-0.19149788 0.6535086 0.44409055 -0.341651 0.5020542 0.4529586 0.7831676 0.24116415
0.2909344 0.52177197 0.29903197 0.7687942 0.532357 -0.18989459 0.39354664 0.28965235

weight f4 [64, 128]
00000000: 591d 8abe bb50 9cbc c878 8f3d 3a8b 133f
00000010: 5e2a 9f3e f288 12be 7ee0 9ebe 7f46 31be
00000020: d1fe 50be 4213 843e e10f 49be eb4d 2b3e
00000030: 13a8 e4be 82cf 773d 6f90 aabe 6615 90be
00000040: e446 303d 633e 0dbd 9cbf 7abc c8bf 85be
00000050: 2126 12c0 a8d7 803d d108 14be 8407 d8be
00000060: 7c9d fdbe f6d1 9bbe 516c 893e 48fc 903e
00000070: e611 9ebe f9b9 1b3e 3b63 d0be 6788 44be
00000080: 2265 cfbe 822f 9fbf afa6 593f a795 c1bd
00000090: d53a 3dbe 84d7 54be 1960 5cbe 8d4c 383e
000000a0: 4455 4bbe 0bf6 b1be 178d 1b3e 8461 0f3e
000000b0: c44b 69be afa6 093d 67f3 a2bf 58dc eb3e
000000c0: 0333 263f 79cd 6c3e 0a5b b63e c60c 473e
000000d0: 2390 27be 4b74 2dbe 764b 8bbe 429c 823e
000000e0: b34d fabe 0000 fbbd 4cf5 33be 6c1f 8b3e
000000f0: 3f8f 18be 73cd 74be 1e84 6abd 0df0 b7be
00000100: f458 fcbc e79d a63e 3cca 253d 48fe c53d
00000110: d391 be3e f4c1 febd 62f2 3bbe e499 18bf
00000120: 6ec1 8f3d 6050 023f 2b7c efbd 8854 41bd
00000130: 0397 3ebe 5810 04bd 9617 e8be 1b71 67be
00000140: dd1e 38be b5e1 b1bd aeb8 bcbd 39fe 63be
00000150: 5e96 ecbf 96c2 a0bd 4257 40bd fa2f c0be
00000160: 8d20 f5be 0693 a0be eafc 113e 6729 9e3d
00000170: 13d2 6fbe cb9a 2c3e a78a 99be 3ae2 203d
00000180: 5787 c6be 7eb8 30bf 19fe 313f e3be 76bd
00000190: 54b6 423e 6c59 52be a1ed c7bd 12f5 293e
000001a0: 7235 0fbe 1e6c cdbe f83f 203e 8c1e 86bd
000001b0: 3184 80be 998d 1f3e ab21 9abf 7373 683e
000001c0: 397c 983e d727 883e 2ae3 0f3e d542 003e
000001d0: 9776 22bc 7136 81be 7f3d f7bd 95b1 5f3e
000001e0: 93cb f4be 6fa6 0abe d37f 24bd aa3a 8a3e
000001f0: 9e11 9f3c e42f 97bd efd3 14be bb29 04bc
00000200: 62fd cc3e 317c 8f3d 7bbb c63c 5e73 c13e
00000210: e0e2 5c3f 5efc 8e3d 977b c73c c2e4 b33d
00000220: 6715 7bbd 81df 2fbe 7425 92be 83e9 9d3d
00000230: 0206 f3be 8f8e 263e 6972 ceba 111a b9be
00000240: 7016 05bf 02af 2b3d 5593 873d 3f4c 033b
00000250: 9bc8 193f 179e f3bf 4859 93be b8db 103f
00000260: 10a6 05bf 0f64 c2be 9654 da3d 8ab5 533d
00000270: 6704 7c3e 176a 203d ab97 91be 18bd dd3d
00000280: bbb3 0abf 4836 fd3e 385e 693f 87b5 27be
00000290: bd18 803d 8334 2ebd f3a8 ad3d 9da0 803e
000002a0: 13f7 edbd 313b c2bd e149 3b3e 40cd 293d
000002b0: eeaa d6be 56eb a23d d563 7b3d f9e5 7e3e
000002c0: e5e9 d93e 7972 643e d3dd 7ebd 31a9 593e
000002d0: 3614 003d 7a0d c2bd 1738 7dbe ae3d 323c
000002e0: 734a 2ebe e7d5 fbbd 55a0 0fbe 4875 933e
000002f0: 2c3e c5be 77ad 83be 8383 923c 6128 9abe
00000300: 5603 8a3e c968 a23d 58f9 9c3e a772 803d
00000310: 400d a23f 0d52 d2bc cd99 82bd 1b2c bf3e
00000320: 6c51 3dbd 5e57 fdbd 339a ddbd a677 243d
00000330: 6f7b 4fbe 4d88 ae3d 1533 26be bb85 25bd
00000340: b9f6 babe 4b67 c33d 8e86 bcbd 9638 aabd
00000350: 64ff f03e 434f cbbf e313 0bbe fd56 273f
00000360: c5e3 30bf e4d7 26bb d825 3bbe 6b0d 153d
00000370: b7dd 01bd 053a 923d 5d1f 00be 2a32 233e
00000380: 9460 36bf 2f8e fd3d d170 513f af8f 85bc
00000390: 61c5 1cbd 6115 31be 5c72 1abd e4e7 b93d
000003a0: 5042 35bd 6137 3ebe ec55 8f3d 2a51 c53d
000003b0: ffb6 b3be 3e73 1c3e fec5 553e a269 403e
000003c0: 59ad 623e 2ee1 3a3e 1411 92bd c9e1 8e3d
000003d0: a3fc 333e 3f6c d2bd 61e5 1ebe ff5c 333c
000003e0: 211d 53be 49ea 82bd e3bf b7bc e87a a43e
000003f0: f4b4 acbe 6bbc cabd 287b a3bd 150c 01be
-0.26975515 -0.019081464 0.07005459 0.5763432 0.3108701 -0.14310053 -0.3103065 -0.17312048
-0.20409705 0.25795943 -0.19634964 0.16728942 -0.4465948 0.06050063 -0.3331332 -0.28141326
0.043036357 -0.034483325 -0.015304472 -0.2612288 -2.2835772 0.06291133 -0.14456488 -0.42193234
-0.49534214 -0.30433625 0.2684045 0.28317475 -0.3087303 0.15207662 -0.40700707 -0.19192658
-0.40506846 -1.2436373 0.85019964 -0.09452372 -0.18479474 -0.20785338 -0.21521033 0.17997952
-0.19856745 -0.34758028 0.1519054 0.14002043 -0.22782809 0.033606227 -1.273053 0.46066546
0.6492159 0.23125257 0.35616332 0.19438466 -0.16363578 -0.16938893 -0.2720601 0.2550984
-0.48887405 -0.122558594 -0.17574042 0.2717241 -0.14898394 -0.23906498 -0.057254903 -0.35925332
-0.030804135 0.32542345 0.04047607 0.09667641 0.3722063 -0.124393374 -0.1835418 -0.5960982
0.07019316 0.5090389 -0.11693605 -0.047199756 -0.18612294 -0.03224215 -0.45330495 -0.2260174
-0.17980523 -0.08685628 -0.09214912 -0.22264947 -1.8483388 -0.07849614 -0.046958216 -0.37536603
-0.47876397 -0.3136217 0.14256635 0.077227406 -0.2341998 0.16855924 -0.29988596 0.039278246
-0.3877513 -0.6903151 0.6952835 -0.060240638 0.19014865 -0.20541924 -0.09762121 0.16597393
-0.13985232 -0.4012155 0.15649402 -0.06548795 -0.25100854 0.15581359 -1.2041525 0.2270029
0.29782274 0.26592895 0.140515 0.12525494 -0.009915969 -0.25236848 -0.12072276 0.21845086
-0.47811565 -0.13540052 -0.040160965 0.26997882 0.01941758 -0.07382181 -0.14533971 -0.00806659
0.40037066 0.070061095 0.02425932 0.3778333 0.86283684 0.06981729 0.024350924 0.087838665
-0.061299708 -0.17175104 -0.285442 0.077105545 -0.4746552 0.1626532 -0.001575065 -0.361527
-0.5198736 0.041914947 0.06619898 0.002003446 0.60071725 -1.903262 -0.28779054 0.56585264
-0.52206516 -0.37966964 0.10660665 0.0516868 0.24611054 0.039163675 -0.28436026 0.108270824
-0.54180497 0.49455476 0.9115939 -0.16377841 0.062547185 -0.042530548 0.0847949 0.25122538
-0.11619391 -0.09483946 0.18289901 0.041455507 -0.41927284 0.07955043 0.061374504 0.24892415
0.4256126 0.22309293 -0.062223267 0.21255948 0.031269275 -0.09475227 -0.24728428 0.010878963
-0.17020588 -0.12296658 -0.14026006 0.28800416 -0.38523996 -0.2571828 0.017884975 -0.30108932
0.2695567 0.079301424 0.30658984 0.06271868 1.2660294 -0.02567389 -0.063769914 0.37338337
-0.046220228 -0.123701796 -0.10820427 0.04015317 -0.2026193 0.08522091 -0.16230424 -0.04041074
-0.3651636 0.09541186 -0.09205352 -0.08311574 0.47069848 -1.5883564 -0.13581805 0.6536711
-0.6909755 -0.002545827 -0.18276155 0.03638975 -0.031705584 0.071399726 -0.12511964 0.15937105
-0.71241117 0.12380635 0.8181277 -0.016303865 -0.038274173 -0.17293312 -0.037706718 0.09077433
-0.044252694 -0.18575813 0.0699881 0.096346214 -0.35100552 0.15278336 0.2087631 0.18790296
0.2213644 0.18249962 -0.07132164 0.06976659 0.17576842 -0.102745526 -0.15517189 0.010947465
-0.2061658 -0.063923426 -0.022430366 0.3212502 -0.33731806 -0.09899219 -0.079824746 -0.12602265

bias f4 [64]
00000000: e70f 59bf 60cc e5be 21e2 c1bd 4013 413e
00000010: f20f e83e f184 eebd 1d46 ebbd 48f1 7cbf
00000020: 251a 4ebe dae7 bbbe 6d1a 983e 460a 383e
00000030: 9120 fe3e 6cbe 533e e5eb 34bf 647f d5be
00000040: 4324 56be 56af 553f dc55 a93c ad82 91be
00000050: 506e f0bc e354 043e 68f6 693f 1fbd a7be
00000060: da04 3b3f be8d 083f a719 debd 1f77 9abf
00000070: 8d69 99bf 23dc 123d e13c db3e c060 2bbe
00000080: 932d 443f 5f7b 253f 417a aa3b 720f 95bf
00000090: c8eb 8dbf ec56 d03d 0dc0 173e 4e3d 0abe
000000a0: f17f 64be d4bd 513f d700 fd3e f2d7 40bf
000000b0: afb9 0ebe 374b 033f 0a6f ad3e 67b8 2bbc
000000c0: 246d ad3d 17c4 d73d 6d51 663f d3cf 003f
000000d0: 23e9 153e 932f 263f 1ac2 c2be b2cf 23bf
000000e0: 7cb4 3abf 2281 31be 59e5 803d cdbc 8abd
000000f0: 50fe 103f 577d 833e 113e 5abe 2c5a 93bf
-0.8478989 -0.44882488 -0.09466959 0.18855 0.45324665 -0.1164645 -0.114879824 -0.98805666
-0.20127161 -0.36700326 0.2970766 0.17972669 0.4963422 0.20678109 -0.70672446 -0.41698754
-0.2091227 0.83470666 0.020670824 -0.2842001 -0.029349476 0.12923007 0.9139161 -0.32761475
0.7305428 0.5334128 -0.108447365 -1.2067603 -1.1985337 0.03585447 0.42819884 -0.16736126
0.7663204 0.64641374 0.005202562 -1.1645339 -1.108758 0.10172829 0.14819355 -0.13499948
-0.22314431 0.8193028 0.49414703 -0.75329506 -0.1393802 0.51286644 0.3387378 -0.010480977
0.084680825 0.10535448 0.89967996 0.50317115 0.14639716 0.6491634 -0.38038713 -0.6398879
-0.7293165 -0.17334417 0.062937446 -0.06774292 0.5663805 0.25681564 -0.21312739 -1.1511893
