TP/save_models_LSTMHiddenState_Dropout_Tanh_64/model_13.pt (torch, 170410 bytes, 6 tensors)

weight_ih_l0 f4 [256, 64]
00000000: 8bb7 d93e 07b7 26bf 6e48 6b3e 1345 f23e
00000010: 0aef b6bd 7e3e 213d e6e0 10bd d53c abbc
00000020: e4d2 713d a9ac 01bf 1775 1a3e 428d 3abe
00000030: 681e 983e 9e2a 8b3e 1d32 183e d3b4 07be
00000040: c766 a33e f04b aebe 166d c83e b51e 063e
00000050: 1609 cfb7 49ff 053e 4542 6d3e 2997 99be
00000060: b366 65be e361 ce3e c8d1 9fbd 816a 423e
00000070: a6a3 c13e fef5 2bbe 6149 13be 19b0 32be
00000080: 2ca8 0ebf 90f6 903e 0c2b 0ebd cd03 1f3e
00000090: a850 573e fa82 8fbe 22ed 79be 31f5 be3d
000000a0: 1a99 b5be f97e 97be d46a 393d 87b3 0fbe
000000b0: a0b7 fabd 0f4a 5abd 10c0 94be eb0b a93d
000000c0: cd91 b93c 98ee cabe 3577 f53e 1414 eebe
000000d0: b601 e53d a80a f73d 9c7b e0be 2aca a8be
000000e0: b4a3 debe 9503 7e3d 629d b3bd fb06 41be
000000f0: c1c2 14be d8f1 173e b643 a9be 7e39 02bf
00000100: 9df9 183f e289 1dbe 1cf5 cc3d 0d24 cb3e
00000110: 89ee b6be 1e42 04be 414d 4d3e 4cc9 95be
00000120: f25e f23c 0d17 bbbe 797a ebbe 8e78 25bf
00000130: ae6c 5fbe 3b2a 6bbf 1f8d 4f3e 580c 29be
00000140: da8e 1dbe b42c 663c 3b90 843d dea5 943e
00000150: ec5f 653d 267d a6bd 7bf6 69be 7c61 b33e
00000160: 03d2 2ebe a9dd 813e 560d dbbe bb99 8bbd
00000170: e239 513e 5979 94bc 8fb7 e6bb 0854 0fbf
00000180: 11fc 47be 4528 18bf b7a3 71be a89a 4f3e
00000190: feb6 62be 4676 47be e234 02bc 0214 20be
000001a0: ff7f 76bd defd 783f 204e 0c3f dd4b bc3d
000001b0: a108 eabe 1f29 52be f3de 18be b5ca 893b
000001c0: 327b bb3d 1c40 2bbe 34f4 ebbd 4571 36be
000001d0: 58f1 be3e 3523 db3e 0c83 29be 0fb4 e43e
000001e0: 0d18 493f 938b 94be d089 e43e 1ac0 d3bd
000001f0: 6083 b63e 654b 0f3d 7f2c 01be e857 5abe
00000200: 0f68 83bf 3d70 c0bd 617f 8fba ae5d 1d3e
00000210: 40e0 16be d8ca 25bf 6040 163d ea80 f1be
00000220: b6df 82be e5c3 84bf cec8 9c3d f145 60be
00000230: 9507 68bd c1ca 853d e938 07bd cb0d babd
00000240: bc86 14bc a514 ba3e 677e 77bc 14db 6cbd
00000250: c9a1 823e d431 bf3c 996f 19be 3b1b c83d
00000260: 5ee6 06be 5f76 403e 366c 86be c6a8 4ebd
00000270: c0c0 653c 6127 0f3e 7eb8 913e 1482 c43d
00000280: 9b6c 873c 9b17 5e3e ea39 b73e fb3c 8cbe
00000290: c511 fe3d e1ae 2ebd 6552 dd3e a04d b6be
000002a0: 2fb9 9abf dfea 3dbe a925 9cbe e974 c03d
000002b0: 4c7b 973e 4d78 dbbd dd1a 3e3f fabc fabe
000002c0: 7f7d ca3e bce7 40be db9c 92be bd64 963d
000002d0: 7fd4 6f3c 48cb 52bd 7950 3d3e bfbd d43d
000002e0: d126 dcbe e880 b93d a354 943e 8601 09be
000002f0: e748 cebe 0aeb b73d c408 663e c7bb d9be
00000300: c33d 8bbe 5718 18be d732 24be 7e51 e1bd
00000310: cfab 0d3f 37df 0141 5ec6 d53e 32ad 983e
00000320: 02a1 a63c d207 61be ff1e ab3d 304f 30be
00000330: d671 fe3f a451 693f f038 88bd c9b1 18be
00000340: 5211 ebbd 2d5b 81bd 88fb eabd 8d45 e8bd
00000350: 6e64 813c 3b07 ed3d 3bf0 1b3d 8b9e 86be
00000360: 02fc a7bd e5e8 afbd 546a 88be a61a 8fbd
00000370: 52f2 54bd ac4c a53d 2237 61bd f610 113d
00000380: 7fe2 bd3d 5b08 22be cb7e b53c 3bb9 9a3a
00000390: bc80 48bd 0300 98bd 6607 3abe e68b 8abd
000003a0: 7f3a a33d d752 6b3c 0fc3 0cbe 901e b1bc
000003b0: a25b e33d fa9f f7bc 6edd 91bd 0b8f e83b
000003c0: 8556 21be 6980 1bbe eb1b e1bd 25bf a8bc
000003d0: 0421 083e 2a0a f8bd 3889 0a3d 4382 a83c
000003e0: 8739 a33e 88a4 e5bc b09f 693d 232b cebd
000003f0: e63e 2cbe e644 26bd 5169 0cbe 10cc 63be
0.42522845 -0.6512303 0.22976848 0.47318324 -0.08932312 0.039366238 -0.03537073 -0.02090303
0.05903901 -0.50654083 0.15083729 -0.18217948 0.29710698 0.27180952 0.14862867 -0.13252573
0.3191435 -0.3404231 0.39145726 0.13097651 -2.4680554e-05 0.13085665 0.23169811 -0.2999814
-0.22402458 0.40309057 -0.078036845 0.1898594 0.37820166 -0.16793057 -0.1438346 -0.17449988
-0.5572536 0.28313112 -0.03470902 0.15528794 0.21026862 -0.28029615 -0.24406865 0.0932411
-0.3546837 -0.2958906 0.045267895 -0.14033328 -0.12242055 -0.053293284 -0.29052782 0.08254226
0.022652531 -0.39635158 0.4794251 -0.46499693 0.11181967 0.120625794 -0.43844306 -0.3296674
-0.4348427 0.062015135 -0.08770253 -0.18850319 -0.14527418 0.1483835 -0.33059472 -0.50868976
0.5975588 -0.1538463 0.100076884 0.39675942 -0.35728863 -0.12915847 0.20049001 -0.2925514
0.02958629 -0.36541024 -0.45991877 -0.64637077 -0.21818802 -0.91861314 0.20268677 -0.16508615
-0.15386525 0.014048744 0.06472822 0.29032797 0.05599968 -0.08129339 -0.22847931 0.35035312
-0.170723 0.25364426 -0.42783612 -0.06816431 0.20432237 -0.01812427 -0.007040925 -0.55987597
-0.1952975 -0.59436446 -0.23597609 0.2027384 -0.22140118 -0.19478711 -0.007947179 -0.15632632
-0.06018066 0.9726237 0.5480671 0.09194157 -0.45709708 -0.20523499 -0.14928798 0.0042050728
0.09154357 -0.16723675 -0.115211874 -0.17816646 0.37293506 0.42800298 -0.16553897 0.44668624
0.78552324 -0.29012737 0.44636393 -0.10339375 0.35647106 0.03498401 -0.1261463 -0.21322596
-1.0266131 -0.09396408 -0.0010947996 0.15367767 -0.14733982 -0.6476264 0.036682487 -0.47168666
-0.25561303 -1.0372282 0.07655488 -0.2190168 -0.056647856 0.06532813 -0.033013258 -0.09084662
-0.009065326 0.36343876 -0.01510582 -0.057826117 0.25514057 0.02333919 -0.14983977 0.09770819
-0.13173816 0.18795155 -0.26254433 -0.050453924 0.014023006 0.13979866 0.2846107 0.09595123
0.01653128 0.21688692 0.35786372 -0.27390274 0.12405733 -0.042647246 0.43226925 -0.35606098
-1.2087764 -0.18546627 -0.30497482 0.09397299 0.29586256 -0.10716305 0.7425974 -0.48972303
0.3954887 -0.188384 -0.28635296 0.07343433 0.014638065 -0.051463395 0.18487729 0.10387754
-0.42998365 0.0905779 0.28970823 -0.13379487 -0.40289995 0.08980377 0.22464281 -0.42526075
-0.27195558 -0.14853035 -0.16035019 -0.110018715 0.55340284 8.116996 0.41752905 0.29819638
0.020340446 -0.2197564 0.083555214 -0.17217708 1.987849 0.911402 -0.06651485 -0.1491157
-0.11477913 -0.063162185 -0.11473757 -0.11341391 0.015794959 0.11573645 0.0380709 -0.26292834
-0.082023636 -0.08589343 -0.26643622 -0.06987505 -0.051988907 0.080712646 -0.05498422 0.035416566
0.09271716 -0.158235 0.022155186 0.001180447 -0.048950896 -0.07421877 -0.18166885 -0.06764965
0.079701416 0.014363012 -0.13746284 -0.021621019 0.11101462 -0.03022765 -0.071223125 0.00709713
-0.15755661 -0.15185703 -0.10991653 -0.020598957 0.13293844 -0.12111314 0.03382227 0.020569926
0.31879827 -0.028032556 0.057037055 -0.100668214 -0.16820869 -0.04059305 -0.1371205 -0.22245812

weight_hh_l0 f4 [256, 64]
00000000: 939b 02c0 4413 82bf 5999 f43e badd 16be
00000010: 51d3 dabe 6446 e93e b6cf 943e 74c5 49be
00000020: cf35 0a3e 87ec 813e bffc 01be f29e a13c
00000030: bec0 b03d 0af4 ddbe cf3c bfbe c44e 6d3d
00000040: 55ad 823e c08d 57bf 0063 d13e 8c22 483e
00000050: 9d06 79be e4de 203e 4afc 3e3f f581 253e
00000060: 0a4f 833e c30c b13e 614a 1dbe 0ed7 20bd
00000070: 8ef8 65be 3a12 85be 29ae f9be e29a 573e
00000080: 0ea1 2ebd ca41 1b3f db5c 85be d617 05bf
00000090: 7cfa 0a3e ef8c 13bf 6a20 18bf d3d4 0a3f
000000a0: ba12 273f 707b 993f ad84 323e ac5c 00bf
000000b0: 39db 183f 0406 953f 87a5 35be e082 3a3e
000000c0: 44f6 81be 9101 87bd 06ea 12be 19ed ae3b
000000d0: 2adc 16be 5982 e73e a43c 1e3f dc2d b53d
000000e0: 1544 c13f 7bb9 24bf 52b3 e2be 7334 19be
000000f0: cf87 09be 339f d93e 7abd 143e 96c0 bc3e
00000100: eb0b 7dbd 3d44 a73f 3d5b 30be 5d2e 3c3e
00000110: c54c 5c3f 722d ff3e 2731 a5be 8e32 2fbf
00000120: 3e21 5c3e 8056 c93b 01b5 0d3e 0e17 043f
00000130: 5662 c43e 072d 74bf b202 34bd 0751 c43e
00000140: 2379 74bf de31 44be 5a24 0dbd e390 f5be
00000150: 9397 553e 8b74 b63e 6f79 ac3e 0935 2ebe
00000160: 8d02 c43e 13fa d03e 67ed 19be 000a a9be
00000170: c567 46bf a0d2 c8bd 278e 05bf a0d9 323f
00000180: 6784 03bd a7f7 a93d 65c9 22be 0897 393f
00000190: 9e60 ce3c d669 143f 8a18 203f 049b 3dbd
000001a0: b2d8 cc3e ed80 863e 6c1d 903d a780 02bf
000001b0: c0c1 de3d 8a56 853e fd5c 5d3e 78d5 b8be
000001c0: 34d0 ff3e c644 7d3e 8fa1 903f fcab b3be
000001d0: 982e f23e a69e e1bd 899c 9e3d 9788 92be
000001e0: 801a 91be b4a0 c63e d135 abbe 10b2 55bf
000001f0: 4a54 ff3d 312f 2b3e fe52 ff3c 7a37 4abf
00000200: 3e32 adbd 1d03 cd3e 0212 c9be 9bad b33d
00000210: 0125 a1bd 8330 403f ba84 5c3f b924 0dbe
00000220: ca10 d03e cb03 793d b54a a73d 8700 41bf
00000230: 66b7 59be 49e0 823e eef6 4f3f 25cf d5be
00000240: 7a3f 5abe 851c 4bbe bdd5 2bbf 81f8 af3e
00000250: 4d36 d1bd 3509 40bf 3047 2e3f 9637 4ebe
00000260: 542d 3c3f d588 5c3f 23dc 7f3e 6c96 4e3e
00000270: 8e1d 3a3f d1fc d73c 89b7 cebd 3583 4cbd
00000280: 7e5d 093e d78f 0dbf 94dc f4be d680 34bf
00000290: fcbf abbe 1de8 c2be 016b 803e 4559 7c3e
000002a0: a449 8ebe b60a 553f a051 c13d 407f 5cbe
000002b0: e06d ec3d 19b5 723e a317 fdbe a7d5 ae3d
000002c0: d433 e13d a27d 8dbf f5c7 223e 3473 b2bf
000002d0: 77cf 93bf 81b4 a9be 1d93 02bf 675c a53e
000002e0: 0852 6a3e b5ef 13be c3c3 6d3e 8238 d33e
000002f0: d800 093f 34da 213f 95a6 973e f609 553e
00000300: 774c cfbd cc6c 09bf 26b0 8ebe d8c9 ca3e
00000310: 7e61 123e 8a73 203a d0b5 a33c e904 083d
00000320: 5c72 4cbe c0b1 be3e 01bd 3bbd 09ff 9e3e
00000330: ffa5 05bf ab29 14be dbe2 1abf 48a9 c2be
00000340: 017a 18bf cf82 debd b63c e53c a1c2 94be
00000350: 7521 b9bc d5ae 62bd 7c1a 7ebe 6161 b9be
00000360: d772 73bf e2c2 aebe e889 953d 4dc7 da3e
00000370: 6db3 2d3d 616b 6bbc 876e e9be d45f 1c3e
00000380: c686 00bd 8f87 bcbe a831 c23e 3c7b 9abd
00000390: efba 8cbe 8d1e bbbd 27a8 73be 8d88 f83e
000003a0: c38d 8dbe 01f1 fbbe faac 3c3e aa31 963e
000003b0: ede3 97bc 7c2f 8f3e aeed 29bf 646c ab3e
000003c0: 8a8e 71be 4ef1 083e d4df 493e ab8f 57bf
000003d0: fc42 35bf f854 ab3c 6dc6 08be bf49 7a3e
000003e0: 49e4 77be 46d1 bfbe 7706 b1bc 44b5 a63e
000003f0: ad16 423e 7de0 90be 3773 6bbf 252a 3dbe
-2.0407455 -1.0162129 0.47773245 -0.1473302 -0.42739347 0.45561516 0.2906472 -0.19704229
0.13497089 0.2537577 -0.12694071 0.019729111 0.08630513 -0.4335025 -0.3735108 0.057936445
0.25522867 -0.8420067 0.40895844 0.19544429 -0.24318929 0.15710026 0.7460371 0.16162856
0.2564624 0.3458005 -0.15360405 -0.039267592 -0.22458097 -0.25990468 -0.48765686 0.21055177
-0.042634062 0.6064726 -0.26047406 -0.51989496 0.13572115 -0.5763692 -0.5942446 0.54230994
0.6526295 1.1990795 0.17433424 -0.50141406 0.5970951 1.1642461 -0.17738925 0.18213987
-0.25383198 -0.06592096 -0.14347085 0.005338323 -0.14732423 0.45216635 0.6181128 0.088466376
1.5098902 -0.6434552 -0.44277436 -0.14961414 -0.13430713 0.42504272 0.14525405 0.3686568
-0.061778944 1.30677 -0.17222305 0.18377061 0.8605464 0.4983936 -0.32264063 -0.68436515
0.21497056 0.006144345 0.13838579 0.5159768 0.38356274 -0.95381206 -0.043947883 0.3834307
-0.9549734 -0.19159648 -0.034458496 -0.47962102 0.20858602 0.3563579 0.33686396 -0.17012419
0.38283196 0.4081579 -0.15031968 -0.33015442 -0.7750209 -0.098057985 -0.5217003 0.6986332
-0.03210869 0.08299189 -0.15897138 0.7249608 0.025192555 0.5797399 0.62537444 -0.046290413
0.40009075 0.26270238 0.07036862 -0.5097756 0.10876799 0.26042587 0.21617503 -0.36100364
0.49963534 0.24733266 1.1299304 -0.3509215 0.47301173 -0.11016588 0.077447005 -0.28619835
-0.2834053 0.38794482 -0.33439496 -0.83474827 0.12467249 0.16717221 0.031167503 -0.789909
-0.084568486 0.40041438 -0.3927155 0.08773347 -0.07868386 0.75074023 0.86140025 -0.1378354
0.4063781 0.060794633 0.08168546 -0.7539143 -0.21261367 0.2556174 0.8123616 -0.417596
-0.21313277 -0.19835098 -0.67123014 0.3436928 -0.10215435 -0.7501405 0.68077374 -0.20138392
0.73506665 0.8614629 0.24986319 0.20174569 0.72701347 0.02636567 -0.100936 -0.049929816
0.1341457 -0.5529761 -0.47824538 -0.7050909 -0.3354491 -0.38067713 0.25081638 0.24643429
-0.27790558 0.8321947 0.09439397 -0.21532917 0.115443945 0.23701896 -0.49432096 0.08536845
0.109962136 -1.1053965 0.1589659 -1.3941407 -1.1547688 -0.33145526 -0.5100573 0.3229706
0.22882855 -0.1444691 0.23219208 0.4125405 0.5351691 0.63223577 0.2961928 0.20804581
-0.101220064 -0.53681636 -0.27868766 0.3960712 0.14295003 0.0006120732 0.019984156 0.033207808
-0.199655 0.37244987 -0.045834545 0.3105395 -0.52206415 -0.1446902 -0.60502404 -0.38019776
-0.59561163 -0.108647935 0.02798305 -0.2905474 -0.022598961 -0.055342514 -0.2481479 -0.36207107
-0.95097107 -0.3413306 0.07301694 0.4273018 0.042407442 -0.014368863 -0.45592138 0.1527093
-0.03137853 -0.36822173 0.3792851 -0.07543036 -0.2748637 -0.091366865 -0.23794614 0.4854168
-0.27647218 -0.4920731 0.1842536 0.29334766 -0.0185413 0.27965915 -0.66378295 0.33481133
-0.2358953 0.133733 0.1971429 -0.84203595 -0.70805335 0.02091454 -0.13356943 0.24442194
-0.24208178 -0.3746435 -0.021609528 0.3256017 0.18953963 -0.2829627 -0.9197268 -0.18473108

bias_ih_l0 f4 [256]
00000000: 0c89 ab3c 2b22 ed3d 4de9 013d b8c0 48be
00000010: 3c7e 3f3e 395a 64be 9616 303e d200 05be
00000020: eca7 c8bc 0d19 b1be 6832 573e b380 443e
00000030: a47e cdbd a12f a13e 66f6 bc3c c712 253e
00000040: 0017 a1bc 1b5d 08be d2af 6a3d d381 4cbe
00000050: e0c3 703e 6654 693e 81e9 483f b54b c63e
00000060: c62a efbe 8ab1 6ebd e602 70bd fb5c 333c
00000070: 62ef e93e e086 9a3e 005a 053e 5483 6bbe
00000080: f76c c33e 513b 653e f50b 573f 194f 51bb
00000090: 7c2a 073e ce64 db3d de44 be3c ea63 dbbe
000000a0: 9265 723e 72d6 02be ffdd 143d 6c38 0e3f
000000b0: e4be 023f f8b1 be3e bbe3 adbd dc5b 923e
000000c0: 7372 573e eef8 0e3f d270 dc3e 42b7 b13e
000000d0: a506 663c 1037 11bd dc14 063f 2c26 7bbc
000000e0: c5cf 0abd 7048 ebbd 89cf 2a3e 6f4c ea3e
000000f0: a45c ef3d 2e66 013e 8137 88be 0a86 11be
00000100: c61f 1abf f7fd 6bbf fb04 44be 20a2 7fbf
00000110: 2300 37bf 20fa f2bd 4540 44bf a381 64bf
00000120: e06f 54bf 624f 09bf cb69 f5be 24a2 01bf
00000130: 759e 65bf 1359 62bf a4b9 cebe 678d 7abf
00000140: 8ab1 61bf 5067 a0bf a24e a1be cab8 98bf
00000150: b9f4 3dbf 4a6d 3ebf 791d efbe 0aec 90bf
00000160: 2cb8 463f fa92 8dbf 17e4 6bbf bbb3 f3be
00000170: 83c0 c7be f7dd 2dbe 246c 38bf a9d1 26be
00000180: 2bc2 dfbe 964c 0ebf 351c 1abf 6293 adbf
00000190: 40ff 92bf 6bf8 b6be 1fb7 40bf 989d 12bf
000001a0: aff1 70bd d239 5e3e 66ee 27bf 13f7 2bbf
000001b0: 5eae 4fbf 657d 13bf 1535 90bf abca 7fbf
000001c0: 54d0 31bf 99ee 52bf 209c 94be 1ceb 17bf
000001d0: 48a8 b5bf 18c5 80be 14e4 92bf cb07 74be
000001e0: df52 a0be 6440 24bf 45dd abbf f7f2 59bf
000001f0: c219 36be fcd4 48bf 0524 853e 600e 04bf
00000200: 8466 aa3e 11a8 d3bd 8e4a 2d3e d032 1dbf
00000210: cc41 e43e 8b00 2c3f 6761 c13e 4c6e a63e
00000220: e174 113f e8e8 62be 491a c43e 8b29 f03e
00000230: 38f1 f63e dfd1 13be bb56 ea3d ae97 b43e
00000240: 3944 c83e 5b9c 5dbc a5f5 033f 327e 953e
00000250: f98e f3be 1d83 79be de55 d23e 419a 813e
00000260: 4a41 2c3f 3865 97be 6db8 ac3e 990a ebbe
00000270: 98be 43bc 9a16 bbbe 5291 5f3e 283c 03bf
00000280: 82d2 f93e 8787 18be 3072 bdbe 78f1 883b
00000290: a4c6 6a3e a952 e33e 0b8b 82be e801 51bf
000002a0: 6986 c83e 0cad 2e3f a0aa 25bf 7522 033c
000002b0: 14e7 26bd 2ccc 80bd 8a14 273e 5afb dabe
000002c0: 3328 9dbe 57b2 eb3b b751 133f bcf6 1f3e
000002d0: 999f 7f3e 5d6d 063f 33eb fe3e a5b5 37bf
000002e0: 5ba2 3f3f 4b98 9d3e 2ed0 c53e ac66 fcbc
000002f0: eac5 fb3d 7be5 e73d cd88 1c3f 1f40 113f
00000300: a2bf d33e 128d 3d3f f7d5 d1bd 4bd1 6cbe
00000310: 8ed5 bebb 3175 c23e 411a 0cbe fcec 8d3e
00000320: 6efc d13e a5c9 68be 98fd c33e a7bb 803e
00000330: 5a25 f93e 7589 91bc 5b61 be3e a0ce bd3e
00000340: 4549 2c3f 5f9e 2b3e ddc1 d03e efd8 073f
00000350: 370e 0a3f a6d2 f83e 73dc 223f 9075 433f
00000360: 5e82 11bc 564d 52be 34c4 16bd 1ae8 b33e
00000370: 3530 c53d f64a c53e cfcc c03d a478 793e
00000380: e27c ca3d 6d6f a13b e7af 563f 36e0 233e
00000390: 99e5 bebd 5df0 a63e e56c 24bd 5e0c db3e
000003a0: 4eda eb3e a39c b93e c8bf 4abe 738a 463e
000003b0: 2127 043f 44dc f63e ed26 b9be 6e57 183f
000003c0: 5baf 84be 9b7e 423f a460 983e 0b18 44be
000003d0: ab2c e23e ccf9 fa3e a9ae 7e3f 5f65 6a3d
000003e0: 4f39 3a3e c17f f33e bbf7 133e 44d8 413f
000003f0: a46b ee3e 52a8 51be 8f0f 043f 7413 873c
0.020939372 0.11578783 0.031716634 -0.19604766 0.18700498 -0.22300042 0.17196116 -0.12988594
-0.024494134 -0.34589425 0.21015322 0.1918972 -0.100339204 0.3148165 0.02306671 0.16120444
-0.019664288 -0.13316767 0.05729658 -0.19971399 0.2351222 0.22786102 0.784813 0.38729635
-0.4671232 -0.058274783 -0.058596514 0.010947461 0.45690447 0.30181026 0.13022614 -0.22999316
0.3816907 0.22385909 0.8400262 -0.0031938015 0.131998 0.10712586 0.023226198 -0.42849666
0.23671558 -0.12777117 0.036344524 0.5555484 0.51072526 0.37245154 -0.08490702 0.28585708
0.21039753 0.55848587 0.43054825 0.34710127 0.01403967 -0.035452902 0.5237558 -0.015328925
-0.03388955 -0.11488426 0.16680731 0.4576144 0.11687592 0.12636635 -0.26604846 -0.14211288
-0.6020473 -0.92184395 -0.19142525 -0.9985676 -0.71484584 -0.11864114 -0.7666057 -0.8926031
-0.8298321 -0.53636754 -0.47932276 -0.5063803 -0.8969491 -0.88417166 -0.40376008 -0.9787201
-0.8816153 -1.2531528 -0.31505305 -1.1931393 -0.7420154 -0.7438551 -0.46702173 -1.1322033
0.77624774 -1.1060479 -0.9214491 -0.4759806 -0.39014062 -0.16979204 -0.7204001 -0.16290917
-0.43702826 -0.5558561 -0.6019929 -1.3560603 -1.1484146 -0.35736403 -0.7527942 -0.5727172
-0.058824237 0.21701744 -0.6559814 -0.6717388 -0.8112544 -0.5761321 -1.1266199 -0.9991862
-0.6945851 -0.8239532 -0.29025364 -0.59343123 -1.419198 -0.2515037 -1.1475854 -0.23831098
-0.31313226 -0.6416075 -1.3426901 -0.8513636 -0.17783263 -0.7844999 0.26004043 -0.51584435
0.33281338 -0.103347905 0.16922972 -0.6140566 0.4458145 0.6718833 0.37769625 0.32506025
0.5681897 -0.22159159 0.38301304 0.46906695 0.4823091 -0.14435528 0.11442324 0.35271972
0.3911455 -0.013526048 0.515467 0.29197842 -0.47570017 -0.24366422 0.41081136 0.25313
0.67287123 -0.2956941 0.33734456 -0.45906523 -0.011947297 -0.3654068 0.21832779 -0.51263666
0.48793417 -0.1489545 -0.3700118 0.004179176 0.22927338 0.44399002 -0.25496706 -0.81643534
0.39165047 0.682328 -0.6471348 0.008003821 -0.040747717 -0.06288943 0.16316429 -0.4276989
-0.30694732 0.0071928906 0.5754656 0.15621465 0.24963225 0.52510625 0.49788818 -0.7176154
0.7485711 0.30780253 0.3863539 -0.030810677 0.122936085 0.11323067 0.6114624 0.56738466
0.41357142 0.7404338 -0.10245889 -0.23126714 -0.0058237975 0.37980035 -0.1368189 0.27719867
0.410129 -0.22733171 0.38279414 0.25143167 0.4866131 -0.01776574 0.3718365 0.37071705
0.672993 0.16759633 0.40772906 0.5306539 0.5392794 0.48598212 0.6361763 0.7635126
-0.00888118 -0.20537314 -0.036808208 0.35138017 0.096283354 0.38533753 0.09414064 0.24362427
0.09887101 0.004926613 0.83862156 0.16003498 -0.09321136 0.32605258 -0.040142912 0.42782873
0.4606499 0.36252317 -0.19799721 0.19388752 0.51622206 0.48214924 -0.3616251 0.5950841
-0.25915036 0.75974435 0.2976123 -0.19149797 0.44174704 0.49018705 0.9948526 0.05722558
0.18185924 0.47558406 0.1444997 0.7572062 0.46566498 -0.20474365 0.5158624 0.016488768

bias_hh_l0 f4 [256]
00000000: bd94 43bd 1315 f53c cc9a 583d c70f a1bd
00000010: f4fc 3f3e 052c 46bd 5e97 383e d2c2 89be
00000020: ac2c 8c3d 6613 63be c2ca a73e 44e8 383e
00000030: bd6d 44be 233c 583e 45e6 2f3e 7b5d c03c
00000040: c978 043e 78f3 3cbe 9d72 a83d a187 d2bc
00000050: c778 853e 0dc5 573e 268c 463f 68a7 353e
00000060: d507 f0be ff08 aabc efdf 1d3d 2b59 a63d
00000070: d058 b13e 0467 963e a339 213d 208f 79be
00000080: 86a1 783e ac17 fb3d e08a 583f 33c9 0a3c
00000090: 37bb 263e df20 053d 278b 02be aba7 ccbe
000000a0: 4d8e 613e 8dc2 76be d003 1e3d c2ef 273f
000000b0: b663 c53e f706 763e 2671 1bbe 3407 e63e
000000c0: 8ec5 7d3e 1df2 1e3f be67 ad3e dffb 813e
000000d0: 532c 153b b9d8 bfbd 2930 353f 1302 22be
000000e0: 9af5 533c cec0 0ebe 9bf3 3c3e fed0 163f
000000f0: 64a1 a03d 877b 983e 5825 b1be 21a0 abbd
00000100: d133 1bbf b9b5 61bf 0987 11be 14f3 8abf
00000110: bd61 27bf 109d eebb 0321 57bf 5ec1 59bf
00000120: 1b90 26bf 2030 0bbf 4fa4 d2be cbde cfbe
00000130: 06f9 79bf 2a04 39bf dfc4 00bf 9cf1 84bf
00000140: 16d9 65bf 47aa 9dbf ed95 edbe 0f28 95bf
00000150: bfbb 39bf 4419 4dbf 335f 09bf 7c0a a8bf
00000160: 7ec1 373f d6bf 81bf 123a 6fbf 2415 08bf
00000170: db6a 92be c593 bbbe 1a35 35bf d973 a1be
00000180: a810 c4be fd2c 21bf c8dd 03bf 7ea2 a1bf
00000190: efae 86bf e733 06bf e529 1bbf b3d2 45bf
000001a0: 4ef7 933d f4a0 643e 6443 3bbf 2217 66bf
000001b0: 2f9c 42bf ff8a 31bf 2e61 76bf 3126 88bf
000001c0: b5a2 36bf 4dc3 6bbf 51e3 d1be b6e9 38bf
000001d0: 84d6 bcbf 19e4 c2be f899 98bf 240c b5be
000001e0: e402 8ebe d5ce 15bf ef35 acbf 08c8 79bf
000001f0: de84 0fbe 0b0b 43bf 43b0 3a3e 9242 fabe
00000200: 8b1a ab3e 8bf4 65bc 5d43 993c 2f35 1abf
00000210: 93b1 d93e 20fa 2f3f 9e11 d13e 44a2 e33e
00000220: dc19 fe3e 8e4f 4dbe 9a0d e83e e385 b23e
00000230: e113 a43e 61e6 bcbd c5ef df3d e94e b83e
00000240: b412 f13e 8f19 8ebd fa1b f03e 8b97 7f3e
00000250: f7d7 d4be 0f96 68be 8b39 9f3e 2a7e 763e
00000260: 501a 433f 6a04 80be 7144 213e 5515 a0be
00000270: 3e53 97bd 67dd 01bf e939 923e 4b78 fbbe
00000280: 9596 ae3e 0dcc 45bd b0c4 c7be e787 8abc
00000290: d0bd a53d 7549 d23e b11e 75be faa2 6ebf
000002a0: dff4 f13e add9 113f 488c 29bf 35ad b53c
000002b0: c936 fb3c 442b 273e 0939 883e 8fe4 7dbe
000002c0: 5f82 9abe 83c0 383e 677c 163f bee7 073e
000002d0: 3d17 5f3e 20ac 0d3f fb82 b03e 5727 53bf
000002e0: 51c9 513f 78fe 8a3e 08a3 d73e c2f6 f3bd
000002f0: e45c 4b3e 8159 3b3e 0361 1a3f b15c 133f
00000300: a312 a93e 3407 3e3f e75f 26be 57e5 83be
00000310: 41c2 163d a8f5 633e 1d16 a1be 064a 5d3e
00000320: 48cd 983e e71e 69be 6db5 a63e 1e02 8d3e
00000330: eba9 c33e 0b6c 42be 4e23 f93e d32d 5b3e
00000340: c9ff 583f e811 413e b5e0 113f 9147 b03e
00000350: 4f1f e43e 13ac a73e fb01 453f d4a8 3b3f
00000360: 1dfc 6dbc d344 bfbe 574d 603d d848 ad3e
00000370: e25f a13d 689f ba3e 3bfc 853e 426d 513e
00000380: e2b6 54bd 8578 eebc 311b 3d3f 786e d63d
00000390: 7c13 0abe a20b b43e 49d2 39be 9dad 9f3e
000003a0: 3cd4 193f b7c6 943e 8724 8bbe a2c6 f83d
000003b0: 45bf d63e 2346 0a3f 6380 89be c051 003f
000003c0: d2d1 53be 3d15 403f 3d3c e33e f6d7 c2be
000003d0: 6373 ee3e 7e19 d23e c7e1 573f 85f8 2d3e
000003e0: 7a84 943e 58d1 f13e 0796 873e bdcc 573f
000003f0: 6532 033f 219c 3fbe e4be 043f 2fe0 703e
-0.04774927 0.029917276 0.052882 -0.078643374 0.18748838 -0.048381824 0.18026492 -0.2690645
0.06844458 -0.22175369 0.3277188 0.18057352 -0.19182487 0.2111669 0.17177685 0.023482075
0.12936701 -0.18452251 0.08224986 -0.025699439 0.26068708 0.21071263 0.775576 0.17739642
-0.46880975 -0.020756243 0.038543638 0.08122476 0.3463807 0.2937547 0.039361607 -0.24371004
0.24280366 0.122603744 0.84586906 0.008470821 0.16282354 0.03250205 -0.12748395 -0.3997167
0.2202694 -0.24097653 0.038577855 0.65600216 0.38552636 0.24026094 -0.15179881 0.4492737
0.24782392 0.62088186 0.33868212 0.25387475 0.0022762015 -0.093675084 0.7077661 -0.15821104
0.012936974 -0.13940737 0.18452303 0.58912647 0.07843283 0.29781744 -0.34598804 -0.083801515
-0.6062594 -0.8816791 -0.14211668 -1.0855432 -0.6538351 -0.007281907 -0.84034747 -0.8506068
-0.6506364 -0.5437031 -0.41140983 -0.40599665 -0.97645605 -0.7227198 -0.503004 -1.0386233
-0.8978437 -1.231759 -0.46403447 -1.165285 -0.725521 -0.8011668 -0.5366089 -1.31282
0.7177962 -1.0136669 -0.93447983 -0.5315726 -0.2859715 -0.36636177 -0.7078415 -0.31533697
-0.38293958 -0.6295927 -0.51510286 -1.2627714 -1.0522135 -0.52422947 -0.606108 -0.77274626
0.07224904 0.22327024 -0.73149705 -0.8987905 -0.7601957 -0.69352716 -0.96242034 -1.0636655
-0.7134202 -0.9209488 -0.4099374 -0.72231615 -1.4752965 -0.3806465 -1.1921988 -0.35360825
-0.2773658 -0.58518726 -1.3453959 -0.9757085 -0.14015529 -0.76188725 0.18231301 -0.48878914
0.33418688 -0.014035354 0.01870888 -0.602374 0.4251829 0.68741035 0.40833753 0.44459736
0.49629104 -0.20049879 0.45322877 0.34867772 0.32046416 -0.09223629 0.10934404 0.35997704
0.47084582 -0.06938469 0.46896344 0.24960153 -0.41571018 -0.22713493 0.3109859 0.24071565
0.76212025 -0.25003368 0.15748765 -0.31266275 -0.07388924 -0.5072846 0.28559807 -0.49115214
0.3409926 -0.0482903 -0.39017248 -0.016910506 0.080928445 0.41071668 -0.23937489 -0.9321743
0.47257134 0.5697277 -0.6622968 0.022177318 0.030665772 0.16325098 0.26606014 -0.2479422
-0.3017759 0.18042187 0.5878357 0.13271996 0.21786208 0.55340767 0.3447493 -0.824819
0.8194781 0.2714727 0.4211657 -0.119123 0.19859654 0.18295862 0.6030428 0.5756331
0.3302203 0.7422974 -0.16247521 -0.2576091 0.03680635 0.22261679 -0.31462184 0.21610269
0.29844117 -0.22765695 0.32560292 0.27540678 0.38215575 -0.18986528 0.48659748 0.214042
0.847653 0.18854487 0.569835 0.344296 0.44555137 0.3274847 0.76956147 0.73304486
-0.0145254405 -0.37357196 0.054761257 0.33844638 0.07879616 0.36449742 0.26169 0.20451835
-0.051932223 -0.029110203 0.73869616 0.10470289 -0.13483995 0.35165125 -0.18146624 0.31187144
0.6008947 0.29057857 -0.27176306 0.12147261 0.41942802 0.5401327 -0.26855764 0.5012474
-0.20685509 0.7503241 0.44381896 -0.3805539 0.46572408 0.41035074 0.84328884 0.16989334
0.29007322 0.4723003 0.2648165 0.8429678 0.5124877 -0.18711902 0.51853776 0.23523019

weight f4 [64, 128]
00000000: 9ea2 55be 0871 2fbd a33e b33d 84a4 063f
00000010: ea71 843e b5ed b8bd ed6f d2be 1974 78be
00000020: 2062 f0bd 107d 623e 5cb6 64be c4aa 9b3e
00000030: 3ba2 b2be 17b6 9d3b fa36 e7be f739 79be
00000040: 83e6 d83c 3c5d f2bc d4bf 7c3d 901f b0be
00000050: 4d24 15c0 45c4 52bc f0c5 25be 1803 fabe
00000060: 83ba d2be 4e51 febe 0a48 8e3e 875a 383e
00000070: 60d4 98be 39a6 283e e29d efbe a621 4fbe
00000080: 62a9 e1be d34d b2bf 238e 803f 3f79 333b
00000090: 06e0 ddbe 636b 30be ba25 56be 265d 043e
000000a0: e5a7 3ebe 6812 adbe 5c07 5c3e bb55 bc3d
000000b0: 4638 23be 86c1 82bc 02d8 b6bf a126 c43e
000000c0: d855 643f 07f0 b23e 4fb1 7a3e 8271 703e
000000d0: 5a21 dfbd 6120 39be f3bc 50be 447e 873e
000000e0: 4464 bfbe 6d23 14be e529 1bbe 052f 8f3e
000000f0: 19fd b1bd 459c 8abe 66b9 b33c 89e4 d5be
00000100: c80f 863b 4ab5 a33e 94c5 143d b4b8 203e
00000110: e5c1 db3e 0ff2 f9bd c14c 6dbe b972 09bf
00000120: e753 2a3c b02d 0d3f 96bf 08be 3820 b23c
00000130: 69bf 7dbe 14cb b6bd dc7b dcbe d895 85be
00000140: 9525 43be f9f1 a2bc 706d a7bd f8ef 26be
00000150: 09a8 ddbf 00c1 87bd 6749 493c c920 fbbe
00000160: 394a 03bf c7eb 86be 38e1 6d3e 944b 9c3c
00000170: 6cd2 1fbe c2c3 da3d 5e24 8abe 6eeb b3bb
00000180: 33c8 cfbe ff9a 3ebf 51bd 373f 9d76 bebd
00000190: 4b5d 713e 06b3 76be 12f5 07be e4e6 093d
000001a0: d682 50be 7e26 d2be 64e2 513e 67cf efbc
000001b0: f037 acbe ddde 7f3d 4e81 b8bf 326a a23e
000001c0: de78 903e 31ed 943e 86b8 5a3e b354 2f3e
000001d0: 8f47 84bd 53ed 63be 7f06 54be 5741 793e
000001e0: 14cd 08bf e1aa 41be 9e1f 3bbd 7264 8e3e
000001f0: 6a7b 2ebb fafe acbd 5479 48bd a2e3 8d3c
00000200: 29ba a03e 8111 433d 591e 9a3d c26c c63e
00000210: 96bb 353f fe46 ea3d 05f4 c9bb f2e9 a83b
00000220: 2040 233d 2bac 73be 399b b2be b80a f03d
00000230: 5381 c9be 4405 853e e09d f6bb b9fc 91be
00000240: 84e9 1fbf 615f db3d afaf 67bd 3c27 8f3c
00000250: 8d7d 1f3f e321 07c0 54f4 91be d119 1c3f
00000260: 6755 d3be 7c3e d0be 72ac 413d 2bdb caba
00000270: 12d9 fb3e 78b6 fd3c 862b 81be 80d0 1e3e
00000280: ecaa 0bbf da94 333f 051c 773f 8859 54be
00000290: bb84 ec3d 07f9 dfbd 79d1 523d 07dd 143e
000002a0: bce6 4fbe 91ee 0bbe ec17 8c3d d100 423a
000002b0: 23ca ecbe 71d9 cc3d 1ffe 3b3d 82aa 933e
000002c0: 6064 e73e fbbc 3b3e c1fe 75bd c095 4f3e
000002d0: 176d fabc b396 7bbd 68c3 25be 7bc9 ae3c
000002e0: 2b5e 1abe 6343 37be 05c7 35bd dd4b b23e
000002f0: 7a44 d5be f5a1 07be e15f 2ebd fdc1 b8be
00000300: 6d70 8a3e 79cc f33d bf3b ae3e ab41 c63d
00000310: 9043 913f 8f06 323d b8b6 2dbe 8167 c33e
00000320: 8ad0 adbd 3b8f ecbb 18b2 80bd 617a 2c3c
00000330: 5ba5 41be f02b 4937 1a68 64be a026 48bd
00000340: 7971 92be 122d bf3d 7bea 45bd 50fc d9bd
00000350: c5f0 b83e ca8c cfbf 9b55 4cbe c6ca 253f
00000360: c9fd 30bf b9e5 d7ba 34db 39be 8995 2a3d
00000370: 4d64 ffbb 6909 613d a6de d1bd 145e 023e
00000380: ee74 2dbf eac6 093e 8d08 603f 4728 7b3d
00000390: b72a 3dbd d877 d6bd 29fd 0fbd 68f5 163e
000003a0: cea8 1fbd 6b95 04be 2c64 693d 3c24 093e
000003b0: 3025 8fbe 3a40 383e fe48 813e 31ad 083e
000003c0: 267e 643e b1b3 363e 412c 08bd 6286 1a3e
000003d0: 27be ef3d 8d34 4dbd f562 b3bd 5d7a 783d
000003e0: 2516 42be 15fb 94bd cb1e bdbc 1356 b23e
000003f0: 7adc 91be 3fbd 2abe b834 b7bb 7f8c 52be
-0.20862815 -0.042832404 0.087521814 0.5259478 0.2586816 -0.09029714 -0.41101018 -0.24263038
-0.11737466 0.2211802 -0.2233519 0.3040372 -0.34889397 0.0048129666 -0.4515913 -0.24338518
0.026477104 -0.029585473 0.06170638 -0.3439908 -2.3303406 -0.012864177 -0.16188788 -0.48830485
-0.41157922 -0.49671406 0.27789336 0.18003283 -0.2984953 0.16469659 -0.46800143 -0.2022768
-0.4407454 -1.393 1.0043377 0.00273855 -0.4333498 -0.17228465 -0.20912829 0.12926158
-0.18618734 -0.33803105 0.21487182 0.09196039 -0.15939435 -0.01596142 -1.428467 0.38310722
0.8919349 0.3494875 0.244817 0.234808 -0.10895033 -0.18078758 -0.20384578 0.2646352
-0.37381184 -0.14466639 -0.151527 0.2796556 -0.08690853 -0.2707235 0.02193899 -0.4177592
0.0040912367 0.3197425 0.036321238 0.15695459 0.42921367 -0.12204372 -0.2317381 -0.5369068
0.01039598 0.5514784 -0.13354334 0.021743879 -0.24780048 -0.08925453 -0.43063247 -0.26090884
-0.19057305 -0.019890772 -0.081751704 -0.16302478 -1.7316905 -0.06628609 0.012285567 -0.4904845
-0.5128513 -0.2635176 0.23230445 0.019079007 -0.15607613 0.10681869 -0.2698087 -0.005490712
-0.40582427 -0.74455255 0.7177325 -0.092999674 0.23570745 -0.2409173 -0.1327708 0.03366746
-0.2036241 -0.41044992 0.20496517 -0.029273702 -0.33636427 0.0624684 -1.4414461 0.31721646
0.28217214 0.29087213 0.21359453 0.17122154 -0.06458961 -0.22258501 -0.20705603 0.24341331
-0.53437924 -0.18912841 -0.04568445 0.2781101 -0.0026623853 -0.084470704 -0.048943833 0.017320458
0.3139203 0.047624115 0.075253196 0.3875485 0.7098936 0.11439322 -0.0061631226 0.0051548416
0.039856076 -0.23796146 -0.3488405 0.117207944 -0.3935648 0.2598058 -0.0075261444 -0.28513125
-0.6246569 0.107115515 -0.05656403 0.017474763 0.6230095 -2.1114433 -0.2850672 0.6097689
-0.41276094 -0.40672672 0.047283597 -0.0015476694 0.4918905 0.030970797 -0.25228518 0.15509224
-0.5455768 0.70149004 0.9652713 -0.20737278 0.11548754 -0.1093617 0.0514693 0.1453744
-0.20302862 -0.13665225 0.068405 0.00074006343 -0.46247968 0.10002411 0.045896646 0.28841025
0.45193768 0.18333809 -0.060057405 0.20271969 -0.030569596 -0.061423015 -0.16187823 0.021336308
-0.15074985 -0.178968 -0.044379253 0.34823504 -0.41653806 -0.13245375 -0.042571906 -0.360855
0.270389 0.119042344 0.34029958 0.09680494 1.1348743 0.043463286 -0.16964233 0.38164905
-0.08487041 -0.007219223 -0.06283969 0.010527224 -0.18910734 1.1990764e-05 -0.22305337 -0.04886496
-0.28602198 0.09334768 -0.04831932 -0.10643828 0.36121193 -1.621484 -0.19954531 0.6476253
-0.69137245 -0.0016471661 -0.18150026 0.041646514 -0.007793939 0.054940615 -0.10247545 0.127312
-0.67756546 0.13454786 0.8751305 0.06131771 -0.046183314 -0.10472077 -0.03515354 0.14742053
-0.038979344 -0.12947623 0.056980297 0.13392729 -0.2795806 0.1799325 0.25251 0.13347317
0.22313747 0.17841984 -0.03324533 0.15090325 0.117061906 -0.050098944 -0.08759109 0.06066357
-0.1895376 -0.072744526 -0.023085972 0.34831294 -0.28488523 -0.16673754 -0.0055910014 -0.20561408

bias f4 [64]
00000000: 11ca 80bf b907 0cbf 816e 8dbd 2585 6f3e
00000010: 8d0f c53e 6045 bbbd fc73 63be 1bb9 97bf
00000020: 8ada c3be accb ecbe e54f 833e 06e1 713e
00000030: 689d 163f 2f9a 913e 12f5 55bf a47a 0dbf
00000040: 12f4 2cbe 9f04 753f 417c 423c 4fe8 88be
00000050: edbc ffbb ad3f 3f3e b2b3 713f 8845 a4be
00000060: 1975 5a3f 4609 183f 9926 95bd 7169 bcbf
00000070: 3c61 babf bf01 193e 549f 053f 5c70 2dbe
00000080: a501 513f b3b4 383f 4d46 783d 2d37 b7bf
00000090: 165d b0bf 4b45 1b3e f663 5b3e b90b babd
000000a0: 798a 62be 2188 613f ee3f 1b3f a082 45bf
000000b0: d479 e2bd 995d 1c3f 17e0 bf3e 3332 d7bc
000000c0: e06f 853d c505 52bd 5346 813f c8a0 1b3f
000000d0: 3f6e 703e 7bc3 4a3f aace 00bf af8e 43bf
000000e0: 9454 69bf eaf3 94be 9ed4 383d f119 58bd
000000f0: 849c 333f e0e6 683e 26e4 9dbe ceeb adbf
-1.0061666 -0.54699284 -0.069058426 0.23390634 0.38488427 -0.091440916 -0.22212213 -1.1853365
-0.3825267 -0.4624914 0.25646892 0.23620996 0.5883393 0.28437945 -0.8357707 -0.5526526
-0.1688998 0.95710176 0.011870445 -0.26739737 -0.007804504 0.18676634 0.9441482 -0.32084298
0.85334927 0.5938915 -0.072827525 -1.4719678 -1.4560924 0.14942072 0.5219624 -0.16937393
0.81643134 0.72150725 0.06061392 -1.4313713 -1.3778408 0.15163152 0.21424851 -0.09084267
-0.22123136 0.8809834 0.60644424 -0.7715244 -0.11058393 0.6108032 0.37475654 -0.026269054
0.06515479 -0.051275034 1.0099586 0.6079221 0.23479556 0.7920453 -0.50315344 -0.7638959
-0.9114468 -0.29092342 0.045124643 -0.052759115 0.701607 0.22744322 -0.30838126 -1.3587587
