TP/save_models_MLP_64/model_3.pt (torch, 54037 bytes, 6 tensors)

weight f4 [64, 64]
-0.041326575 -0.030161822 -0.0764676 -0.18041256 0.050626557 -0.17838816 -0.14895582 -0.24824001
-0.069578014 0.042972695 0.10793003 -0.05138415 -0.14007218 -0.034875892 -0.084177 -0.21216743
-0.04273026 -0.009674504 -0.28828466 -0.15957545 -0.38643625 -0.010670669 0.13955505 0.022469256
0.0043729036 0.13725048 0.22987609 0.35256782 -0.21072751 0.03590979 0.1519398 -0.026993174
-0.042276904 0.2878269 -0.012405705 0.074632935 0.020778678 0.16418508 0.25172165 -0.0048076683
-0.31798378 0.046531957 0.13094047 0.086647645 0.28726187 0.11946379 0.04858566 -0.028274477
-0.20793787 -0.15178642 -0.0081851585 0.17395511 0.02244171 0.09947421 -0.08661513 -0.21018796
-0.2173414 -0.17268452 -0.003150285 -0.038838755 -0.14772135 -0.1491333 -0.041614693 -0.24232139
-0.016660517 -0.021713251 -0.03646123 -0.0035370016 -0.052876677 0.09067494 0.18151194 0.1402633
0.026014179 -0.099765584 -0.014194328 -0.23491082 -0.15441565 0.19071598 0.070387974 0.15992072
0.20938797 0.24242602 0.24459285 0.20438518 0.20603007 0.020624986 0.039244935 0.033729225
0.27286315 0.041259263 -0.09729807 0.20201243 0.18451354 -0.18786295 -0.042104874 0.030360788
0.08506147 -0.032428242 0.12609613 -0.10758201 0.28207856 -0.21148564 -0.0020979675 -0.038091637
0.32225013 -0.023543192 -0.25782242 -0.32914776 0.07713937 -0.34933865 -0.14842151 -0.0841143
0.25348648 -0.15059778 -0.16187795 -0.13969332 -0.13943845 -0.18608294 -0.08334735 0.1327613
0.07063415 0.15589206 0.09205835 0.08116708 0.12837483 -0.03432554 0.11268761 0.075253926
0.19984378 0.023820927 0.1544046 0.13251385 -0.111132964 -0.14822395 0.25092575 0.0044287983
-0.036642816 0.3744872 0.055267166 0.13880049 0.053199004 0.002278278 -0.20371962 0.06171786
-0.03501236 0.19481903 0.13162364 0.08198932 0.06785253 -0.060719047 0.19230889 0.0741918
-0.16272423 0.04354684 -0.11575122 -0.16097175 0.12431117 -0.10234766 0.2698058 -0.07759172
-0.11183378 -0.13963816 -0.21203063 -0.02927539 -0.28016263 0.14355707 0.09898386 0.14376959
-0.14546075 -0.09412465 -0.19717224 0.114555106 0.101857215 0.1231284 0.13525349 -0.032193247
-0.25620994 0.044827096 -0.0076082796 0.07062156 0.20743792 0.017787475 0.23426104 -0.020109134
0.024917997 0.0061096963 0.030560307 -0.0803127 -0.029809088 0.13408132 0.023495907 0.22982919
-0.04279602 -0.023748865 -0.03099647 -0.08070552 -0.114990346 0.17035662 -0.038860254 0.14483277
0.07003494 -0.1369577 0.13086772 -0.11624216 -0.20762816 0.04491782 0.18474387 0.25298956
0.08608041 -0.13559951 0.19682631 0.15533347 -0.018299354 -0.019508833 -0.20945986 0.11033227
0.17559496 -0.011639471 0.00090908795 -0.25670666 -0.15410149 -0.33099458 -0.036346298 0.12062279
0.07393048 0.11835432 0.19179156 0.29578373 0.17382038 0.01607121 -0.15111797 -0.059259146
0.29547033 0.09434393 0.13136709 0.0017709929 -0.008696343 -0.24826486 0.010188901 0.097393975
0.22230384 0.22758478 -0.043194536 0.062152058 -0.13953632 -0.00010086752 0.063142955 -0.022494087
0.18900156 -0.03772767 0.115371495 0.11192002 0.012801455 0.028958108 0.0009036902 0.14724922
00000000: 0e46 29bd ed15 f7bc 0c9b 9cbd 12be 38be
00000010: cb5d 4f3d 63ab 36be e087 18be a132 7ebe
00000020: eb7e 8ebd 2304 303d 6b0a dd3d 3078 52bd
00000030: 156f 0fbe 06da 0ebd fe64 acbd 6b42 59be
00000040: ed05 2fbd d081 1ebc 0c9a 93be bf67 23be
00000050: f9da c5be 08d4 2ebc 85e7 0e3e 7211 b83c
00000060: 934a 8f3b 648b 0c3e a364 6b3e c583 b43e
00000070: f4c8 57be 2516 133d 1b96 1b3e ca20 ddbc
00000080: 8c2a 2dbd 0c5e 933e 4c41 4bbc 27d9 983d
00000090: 0c38 aa3c 2220 283e a9e1 803e a589 9dbb
000000a0: c5ce a2be 4b98 3e3d 4215 063e 5274 b13d
000000b0: fd13 933e 6ea9 f43d c201 473d e09f e7bc
000000c0: aaed 54be e66d 1bbe 0b1b 06bc 4a21 323e
000000d0: add7 b73c 22b9 cb3d 4663 b1bd 833b 57be
000000e0: be8e 5ebe 36d4 30be 0375 4ebb 6315 1fbd
000000f0: 4444 17be 66b6 18be 2b74 2abd 1923 78be
00000100: a37b 88bc fddf b1bc 5f58 15bd 0acd 67bb
00000110: 3795 58bd c8b3 b93d 44de 393e 2fa1 0f3e
00000120: b01b d53c e651 ccbd 548f 68bc 768c 70be
00000130: 231f 1ebe 0d4b 433e 9227 903d 42c2 233e
00000140: cd69 563e 873e 783e 8c76 7a3e 594a 513e
00000150: 8cf9 523e bbf5 a83c 4cbf 203d a827 0a3d
00000160: b8b4 8b3e 79ff 283d 3644 c7bd 59dc 4e3e
00000170: 1ef1 3c3e 255f 40be 2976 2cbd 30b7 f83c
00000180: b534 ae3d 7ad3 04bd 581f 013e f553 dcbd
00000190: 9a6c 903e b18f 58be 0e7e 09bb fa05 1cbd
000001a0: f8fd a43e a7dd c0bc 4d01 84be 0e86 a8be
000001b0: 3ffb 9d3d 84dc b2be cffb 17be 1e44 acbd
000001c0: fbc8 813e 4e36 1abe 55c3 25be c40b 0fbe
000001d0: f4c8 0ebe 878c 3ebe 04b2 aabd 94f2 073e
000001e0: a3a8 903d 2ba2 1f3e 1789 bc3d ed3a a63d
000001f0: b174 033e f098 0cbd c3c8 e63d bb1e 9a3d
00000200: d9a3 4c3e 1b24 c33c 3d1c 1e3e b6b1 073e
00000210: ae99 e3bd 05c8 17be 5779 803e 741f 913b
00000220: c716 16bd c9bc bf3e d35f 623d b721 0e3e
00000230: 33e7 593d 2a4f 153b e09b 50be decb 7c3d
00000240: 1f69 0fbd a47e 473e 59c8 063e 04ea a73d
00000250: 44f6 8a3d 89b4 78bd 9fec 443e dff1 973d
00000260: 2ea1 26be 2c5e 323d fa0e edbd c7d5 24be
00000270: db96 fe3d a69b d1bd fc23 8a3e 68e8 9ebd
00000280: 1c09 e5bd 4efd 0ebe 8f1e 59be f1d2 efbc
00000290: 7a71 8fbe a000 133e 0db8 ca3d 5638 133e
000002a0: aaf3 14be 6dc4 c0bd 85e7 49be de9b ea3d
000002b0: 849a d03d be2a fc3d e47f 0a3e 11dd 03bd
000002c0: f32d 83be 9e9c 373d e04e f9bb 09a2 903d
000002d0: 9b6a 543e 0ab7 913c 20e2 6f3e e9bb a4bc
000002e0: d420 cc3c d933 c83b 9c59 fa3c fc7a a4bd
000002f0: 3032 f4bc 9d4c 093e 7d7a c03c 5858 6b3e
00000300: e14a 2fbd fb8c c2bc 4fec fdbc f048 a5bd
00000310: 0f80 ebbd f771 2e3e ee2b 1fbd 0b4f 143e
00000320: 7b6e 8f3d a43e 0cbe 3002 063e 5f10 eebd
00000330: 7a9c 54be bffb 373d 7f2d 3d3e d987 813e
00000340: ed4a b03d 99da 0abe d68c 493e bd0f 1f3e
00000350: 87e8 95bc fdd0 9fbc a57c 56be e3f5 e13d
00000360: 2acf 333e 7bb3 3ebc dc4f 6e3a 0e6f 83be
00000370: c8cc 1dbe 1f78 a9be dbdf 14bd 1509 f73d
00000380: dd68 973d c063 f23d 0265 443e f770 973e
00000390: f8fd 313e c5a7 833c abbe 1abe b8b9 72bd
000003a0: e347 973e 6437 c13d 1885 063e a920 e83a
000003b0: 1b7b 0ebc 2539 7ebe 59ef 263c 7e76 c73d
000003c0: 9ea3 633e fc0b 693e c1ec 30bd 2893 7e3d
000003d0: 9ce2 0ebe d688 d3b8 1851 813d 8545 b8bc
000003e0: a089 413e 5488 1abd e447 ec3d 5336 e53d
000003f0: 32bd 513c 8e39 ed3c 9fe5 6c3a 80c8 163e

bias f4 [64]
-0.085561916 0.14482234 0.0072347564 -0.002733336 0.20015475 0.22159731 -0.08991635 0.05821942
0.27102333 0.06893531 -0.042093936 -0.13802966 -0.011291761 0.023203917 -0.10847738 -0.23210484
0.05273762 -0.1916564 -0.08554554 -0.0399168 0.17584619 0.023192856 0.008377954 -0.1800286
-0.16727145 -0.008641852 -0.07638409 -0.1807646 0.123003155 0.15464553 -0.2009611 0.014384378
-0.010158946 0.023702973 -0.15209684 -0.120829724 0.052830543 0.059466973 0.016533427 0.18538593
0.042756833 0.054815285 -0.16267966 -0.06605246 -0.0945513 -0.09816422 0.1757053 -0.08261272
-0.014748747 0.0011500785 -0.12744199 0.030609934 0.063038036 0.19601338 -0.21937385 -0.057477765
0.128508 0.14819606 -0.08419188 -0.05887432 0.17654794 0.14673027 0.21350048 -0.08970831
00000000: 163b afbd 4f4c 143e 8911 ed3b c521 33bb
00000010: 5ef5 4c3e 68ea 623e 1026 b8bd 7d77 6e3d
00000020: 92c3 8a3e f52d 8d3d b16a 2cbd a657 0dbe
00000030: 1401 39bc 2416 be3c 6329 debd e4ac 6dbe
00000040: 6703 583d 9341 44be 8032 afbd cc7f 23bd
00000050: 0611 343e f2fe bd3c b043 093c 6b59 38be
00000060: 3549 2bbe 8e96 0dbc 436f 9cbd 5b1a 39be
00000070: 14e9 fb3d 665b 1e3e bfc8 4dbe 74ac 6b3c
00000080: b571 26bc bd2c c23c 46bf 1bbe 9375 f7bd
00000090: d764 583d a493 733d 1c71 873c cfd5 3d3e
000000a0: ca21 2f3d fe85 603d 7f95 26be 8346 87bd
000000b0: 1da4 c1bd 530a c9bd 17ec 333e dc30 a9bd
000000c0: bba4 71bc 3bbe 963a 2780 02be afc1 fa3c
000000d0: 161a 813d bbb7 483e 8aa3 60be ce6d 6bbd
000000e0: 9a97 033e b5c0 173e cb6c acbd 3326 71bd
000000f0: fcc8 343e 7640 163e df9f 5a3e feb8 b7bd

weight f4 [64, 64]
-0.090670414 0.1300881 0.18185413 -0.1965408 -0.16527295 0.0639205 -0.14327456 0.036889773
0.111093335 -0.21365051 -0.11254414 -0.17911246 -0.04510852 -0.08816388 0.23253484 0.29563236
-0.10959499 -0.030485466 -0.035129383 0.024821939 -0.20907986 -0.14437391 -0.29964125 0.09840036
0.094385706 0.03820791 -0.10294704 -0.05251475 -0.21398851 0.060940545 0.12632968 -0.06714179
-0.15076837 0.052937027 0.21480778 0.11343045 0.08678894 0.029662281 0.09435909 -0.17003712
-0.26180404 0.1152178 0.005355161 -0.010411197 -0.027692521 0.06578826 -0.27198133 0.08083169
0.010285137 0.13453089 0.06778105 -0.07683183 -0.06576909 0.1463353 -0.026586099 0.0021437285
-0.15746503 0.03470766 0.12197466 0.04256037 0.023448046 0.26053834 0.08013659 -0.11739849
-0.040197633 0.09148479 0.03812138 -0.33212194 0.18865034 -0.16912857 0.045746844 -0.14872685
0.04653807 0.19985309 0.093005925 -0.087110855 -0.11671139 0.09620304 0.053869627 0.146284
0.07806119 -0.0018858868 0.25922874 -0.18000776 0.030342294 0.24709673 -0.12534967 -0.30638748
-0.12252012 -0.12458642 -0.124308705 0.08279387 0.08538782 -0.14816862 0.16396344 -0.17943265
-0.09334386 0.1026743 -0.06286682 0.23549165 -0.3853887 0.1924794 -0.19216199 0.09684253
-0.0025036305 0.19470204 -0.056163646 0.16611949 -0.20954256 0.39593005 -0.27848333 0.06519342
-0.11463644 -0.19249408 0.14990695 0.22379303 -0.12082172 -0.057651345 0.1373318 0.23121633
0.29932618 -0.11490761 -0.10907345 0.07801306 0.19594441 0.043451298 0.22650483 0.19223054
0.1452639 0.045039028 -0.025716241 0.30209038 -0.066169836 0.2506937 0.03099313 0.039528515
0.13397019 -0.21625277 0.007525892 -0.04659761 0.14076132 0.027445232 -0.09981618 -0.062632255
0.24340138 0.040351525 0.039528124 -0.24033575 0.14482217 0.0727637 0.18910496 0.1125933
0.017077347 0.17004116 0.036810763 -0.11809859 0.36529538 -0.34261987 -0.29831398 -0.10226807
-0.16030303 0.10327851 -0.24512938 -0.34778854 0.15840301 0.16963951 -0.07965548 -0.03280859
0.16899228 -0.02281818 -0.027477654 -0.104554005 0.24444234 0.21643461 0.24735281 -0.12069373
0.016508158 0.15395433 -0.2886116 -0.25278267 -0.19470835 0.20624594 -0.07724669 -0.38806027
0.248512 0.06689283 -0.15844274 0.048741985 0.27771953 0.18283325 -0.3000778 0.13352907
-0.09418019 -0.05182863 0.02795499 -0.041731972 0.17837514 -0.029491674 0.3649112 -0.06930767
-0.18811306 -0.278812 0.20857501 -0.067984454 0.3414577 0.24884039 -0.21331607 0.04657422
0.22851722 -0.12785205 -0.0071798507 -0.23282476 0.31703174 0.12897466 0.081378534 0.024636392
-0.24751523 0.21884768 0.31507397 -0.25835386 0.08581401 -0.3211777 0.19257498 0.23762971
-0.053052373 0.02003146 0.05326021 -0.14235744 -0.13368638 -0.1457069 -0.15123042 0.17835179
0.47043246 0.07641549 0.09001913 0.09215177 0.2858568 -0.0032999583 0.15793036 -0.1120043
0.2960304 -0.005341505 -0.35104892 0.17161146 -0.098840445 0.09220079 -0.19161123 -0.09690376
-0.2111398 -0.07617934 0.100313604 0.14864346 -0.12502506 -0.106333055 -0.3892459 0.19157854
00000000: 69b1 b9bd d135 053e f837 3a3e fe41 49be
00000010: 503d 29be c0e8 823d 91b6 12be bb19 173d
00000020: e784 e33d 33c7 5abe 8b7d e6bd 4269 37be
00000030: b6c3 38bd 448f b4bd 9d1d 6e3e 205d 973e
00000040: 5773 e0bd a8bc f9bc d4e3 0fbd 6157 cb3c
00000050: 0819 56be c1d6 13be 946a 99be 2186 c93d
00000060: 4b4d c13d e67f 1c3d e6d5 d2bd b519 57bd
00000070: ce1f 5bbe cb9c 793d 915c 013e a381 89bd
00000080: 0663 1abe 7fd4 583d 92f6 5b3e 394e e83d
00000090: 66be b13d 50fe f23c 573f c13d 361e 2ebe
000000a0: 2e0b 86be 4ff7 eb3d 597a af3b ba93 2abc
000000b0: 6ddb e2bc ffbb 863d 2341 8bbe 168b a53d
000000c0: fe82 283c 77c2 093e cbd0 8a3d 025a 9dbd
000000d0: f2b1 86bd ecd8 153e 17cb d9bc cc7d 0c3b
000000e0: 833e 21be 9f29 0e3d dacd f93d c853 2e3d
000000f0: 1e16 c03c 4865 853e a71e a43d 9f6e f0bd
00000100: 46a6 24bd 615c bb3d 2a25 1c3d e30b aabe
00000110: 8e2d 413e 0a30 2dbe 0b61 3b3d da4b 18be
00000120: b49e 3e3d 4aa6 4c3e e479 be3d 2d67 b2bd
00000130: 6206 efbd 1906 c53d 66a6 5c3d 79cb 153e
00000140: 8cde 9f3d dc2f f7ba a1b9 843e f453 38be
00000150: 6790 f83c ed06 7d3e aa5b 00be d2de 9cbe
00000160: d4eb fabd 2a27 ffbd 9095 febd d58f a93d
00000170: cfdf ae3d 84b9 17be 08e6 273e 31bd 37be
00000180: 112b bfbd e746 d23d 52c0 80bd b924 713e
00000190: ab51 c5be 5219 453e 1dc6 44be 6055 c63d
000001a0: f313 24bb f95f 473e da0b 66bd 3a1b 2a3e
000001b0: 5392 56be 58b7 ca3e 5e95 8ebe 2184 853d
000001c0: 83c6 eabd 2b1d 45be 3581 193e 002a 653e
000001d0: 6171 f7bd d123 6cbd b5a0 0c3e f9c3 6c3e
000001e0: 4841 993e ae54 ebbd e761 dfbd 50c5 9f3d
000001f0: a7a5 483e fdf9 313d e2f0 673e 15d8 443e
00000200: 0fc0 143e d87a 383d deaa d2bc 97ab 9a3e
00000210: 0d84 87bd ed5a 803e 4ee5 fd3c a7e8 213d
00000220: 7b2f 093e 5e71 5dbe c29b f63b 23dd 3ebd
00000230: bc23 103e d3d4 e03c 6d6c ccbd 5745 80bd
00000240: 363e 793e a447 253d 3ee8 213d 931a 76be
00000250: 434c 143e 2205 953d bba4 413e 5197 e63d
00000260: cbe5 8b3c 451f 2e3e e2c6 163d acdd f1bd
00000270: ff07 bb3e df6b afbe 9cbc 98be ec71 d1bd
00000280: 7a26 24be af83 d33d 3203 7bbe 5711 b2be
00000290: 6634 223e fbb5 2d3e 6a22 a3bd 4d62 06bd
000002a0: 500c 2d3e 31ed babc d118 e1bc 6920 d6bd
000002b0: 184f 7a3e 09a1 5d3e 0e4a 7d3e 462e f7bd
000002c0: 1e3c 873c 34a6 1d3e e6c4 93be bb6c 81be
000002d0: a061 47be 2332 533e 8333 9ebd d6af c6be
000002e0: ee79 7e3e 1cff 883d d03e 22be ada5 473d
000002f0: 4131 8e3e a438 3b3e cca3 99be d8bb 083e
00000300: 8be1 c0bd 424a 54bd dd01 e53c 25ef 2abd
00000310: f9a7 363e 8698 f1bc a4d5 ba3e 2ef1 8dbd
00000320: b6a0 40be 72c0 8ebe b094 553e 6f3b 8bbd
00000330: 8bd3 ae3e 04d0 7e3e 876f 5abe 9cc4 3e3d
00000340: 6b00 6a3e a6eb 02be f444 ebbb 9d69 6ebe
00000350: fc51 a23e ef11 043e caa9 a63d 42d2 c93c
00000360: a274 7dbe 9b19 603e 6051 a13e f546 84be
00000370: 41bf af3d 6771 a4be 6032 453e 3455 733e
00000380: 724d 59bd 0419 a43c 6127 5a3d 26c6 11be
00000390: 15e5 08be 3134 15be 26dc 1abe daa1 363e
000003a0: 86dc f03e b97f 9c3d f35b b83d 11ba bc3d
000003b0: d35b 923e 1d44 58bb 7fb8 213e 8362 e5bd
000003c0: 4c91 973e cb07 afbb afbc b3be eaba 2f3e
000003d0: dc6c cabd c5d3 bc3d bc35 44be 7b75 c6bd
000003e0: 0835 58be ea03 9cbd 3871 cd3d fe35 183e
000003f0: 9206 00be 25c5 d9bd 3d4b c7be 2a2d 443e

bias f4 [64]
-0.083345175 0.0065454883 0.062160674 -0.13054393 0.09296036 -0.015059105 0.12793164 -0.07239476
0.13036335 0.112790234 -0.046861675 -0.110313036 -0.15092862 -0.09946964 0.045148056 0.15048651
-0.041558802 -0.045782957 -0.0029449277 0.121506594 0.090236366 -0.005212683 -0.004908822 -0.01570052
-0.1870098 -0.087064646 0.09596583 0.00065329776 -0.14270428 0.10822017 0.16191263 0.07261272
0.11559625 -0.053929742 0.05126375 0.008689668 0.204723 -0.090076394 -0.19213092 0.17389312
0.15951008 -0.0465579 -0.08031046 0.12290184 -0.0058377283 0.24390946 -0.02364622 0.2091511
0.11862882 0.0014214986 -0.004666795 0.019893136 0.10178195 0.10008572 0.0984773 -0.24451597
0.10517684 0.22178887 -0.07975251 -0.09779519 0.09264733 0.026258696 0.18885574 0.2173896
00000000: e0b0 aabd 897b d63b 319c 7e3d 4fad 05be
00000010: 0062 be3d 77ba 76bc 8300 033e b443 94bd
00000020: f87d 053e 91fe e63d 07f2 3fbd cdeb e1bd
00000030: 088d 1abe bdb6 cbbd 2bed 383d 2319 1a3e
00000040: 9039 2abd e986 3bbd b0ff 40bb 73d8 f83d
00000050: d8cd b83d 28cf aabb 2fda a0bb 609e 80bc
00000060: 7f7f 3fbe f34e b2bd bc89 c43d 1242 2b3a
00000070: 1221 12be 89a2 dd3d 6dcc 253e fab5 943d
00000080: babd ec3d 6fe5 5cbd f0f9 513d 1c5f 0e3c
00000090: e8a2 513e f979 b8bd f8bd 44be 0a11 323e
000000a0: 9c56 233e 7fb3 3ebd cf79 a4bd f6b3 fb3d
000000b0: 6a4a bfbb 67c3 793e b8b5 c1bc b52b 563e
000000c0: abf3 f23d 9451 ba3a eaeb 98bb eef6 a23c
000000d0: 0e73 d03d bef9 cc3d 77ae c93d 6562 7abe
000000e0: f566 d73d 9f1c 633e 4955 a3bd d848 c8bd
000000f0: e2bd bd3d 7a1c d73c 6663 413e 619b 5e3e

weight f4 [64, 64]
0.05743671 0.18277465 0.018241037 -0.00882298 -0.020600317 0.07720626 0.10791866 0.07352437
0.13784906 0.105381325 -0.32462066 0.20950605 0.13353112 0.061204426 -0.09163326 -0.01770068
-0.17393267 0.014668903 0.25489187 -0.058845304 0.010236387 -0.14348982 0.17451537 -0.14894286
0.31054103 0.10682393 0.11383193 -0.05434154 0.15227342 -0.16249977 -0.23909533 -0.11670123
-0.15909924 -0.05388822 -0.14400733 -0.25184467 0.1980573 0.27906367 0.101805426 -0.17160124
0.015628172 0.0988975 0.027465714 -0.34208602 0.21902323 -0.15521052 -0.023512656 -0.019589338
-0.15357104 0.10073065 -0.051539566 0.10344162 -0.17298684 -0.07522963 -0.09573789 0.019067705
-0.18496282 -0.22947007 0.062138807 -0.02381897 0.03989884 -0.23457389 -0.21083748 -0.3264532
-0.071668506 0.04373475 0.03960404 -0.06663829 -0.11901716 0.039048202 0.104645886 0.17863269
-0.06354122 0.18485647 -0.19216342 0.05918449 0.22140205 0.085230395 -0.0072228704 -0.039381426
0.038511083 0.08645242 0.11279601 0.04212874 -0.080025904 -0.01775414 -0.03490865 0.08964044
0.124096036 0.09505793 -0.032396387 0.12607223 0.12373633 -0.17505215 -0.24514195 -0.06895284
-0.048794597 -0.24498993 -0.1491991 -0.05733613 -0.13301998 0.029625358 0.17141457 -0.12935494
-0.074579835 0.12269671 -0.00236936 -0.11933576 0.07956666 -0.0638561 -0.027998656 -0.01651754
-0.16993698 0.11572235 -0.052930165 0.060057778 -0.034394473 0.032278746 -0.17359336 0.17245328
0.034083255 -0.033464044 0.17034768 0.061949026 -0.076285474 -0.025406696 0.0050721816 -0.09331467
-0.10037528 0.10005638 -0.11487581 0.19583884 -0.023168832 0.033194527 0.014980722 0.07610515
-0.04486924 0.13588005 -0.17033948 0.037467945 0.19015937 0.12900339 0.02294066 0.08148655
0.00039407186 0.061837595 0.124864 0.023362562 0.1511739 -0.13208283 0.032603126 0.04559219
0.08740073 -0.05806809 0.05820252 0.081424825 0.21706095 -0.07624141 -0.12680626 0.0835108
0.007364069 -0.19139916 -0.108458094 0.08696487 0.047983762 0.18792154 0.050829973 -0.0936013
0.011833946 0.07270615 0.023418453 0.032553688 -0.004825507 -0.055508252 -0.03863498 0.100121304
-0.10515486 0.03441951 0.044970207 0.06441239 -0.029969009 -0.22064966 0.05218908 0.025908219
-0.022434412 -0.22562507 0.15130143 -0.026405921 0.015459395 -0.15016815 -0.021045554 -0.12230265
-0.017719164 0.056272507 -0.18108875 0.112479106 0.011707229 0.038725525 -0.014198168 0.011122433
-0.08177092 0.08581018 -0.049745157 0.0043360027 0.07778482 0.08834915 0.057368703 -0.088767886
0.16572915 0.083026305 -0.019108444 -0.15727328 0.049589846 0.04621031 -0.048029143 -0.01719707
-0.08064575 -0.030600024 -0.08960045 0.06921914 0.089659795 -0.2568092 -0.1630502 -0.0016876288
0.057266194 -0.15234911 -0.11637439 -0.11661838 -0.09481238 0.15262832 0.03850103 -0.008337604
-0.042692527 0.084501304 0.05954984 -0.068556584 0.09029921 -0.05729805 0.023378277 -0.15555331
-0.18459007 -0.1701493 -0.07576211 0.023503877 -0.12064317 0.0067062117 0.093816094 0.09496832
0.023500398 0.0046837847 -0.0049094423 -0.04354751 -0.02303942 -0.031587154 -0.11401017 -0.004042063
00000000: c142 6b3d 4729 3b3e 3a6e 953c 438e 10bc
00000010: ffc1 a8bc 511e 9e3d 7504 dd3d f293 963d
00000020: 4e28 0d3e 2ad2 d73d ae34 a6be c188 563e
00000030: 62bc 083e 7eb1 7a3d 38aa bbbd 0401 91bc
00000040: 681b 32be d755 703c 3081 823e c607 71bd
00000050: 85b6 273c ffee 12be 28b4 323e 7a84 18be
00000060: 3cff 9e3e 81c6 da3d b720 e93d 3c95 5ebd
00000070: 90ed 1b3e 5766 26be 68d5 74be 0e01 efbd
00000080: e9ea 22be e5b9 5cbd a876 13be c9f1 80be
00000090: 88cf 4a3e 6fe1 8e3e 5d7f d03d 3cb8 2fbe
000000a0: a706 803c c68a ca3d c7ff e03c e625 afbe
000000b0: a047 603e 82ef 1ebe 9d9d c0bc d279 a0bc
000000c0: ba41 1dbe df4b ce3d 271b 53bd 33d9 d33d
000000d0: 7623 31be fe11 9abd 3a12 c4bd e033 9c3c
000000e0: e566 3dbe 34fa 6abe 4385 7e3d 0020 c3bc
000000f0: f76c 233d 2334 70be c8e5 57be e024 a7be
00000100: f0c6 92bd 3623 333d d937 223d a879 88bd
00000110: 45bf f3bd 02f1 1f3d 9550 d63d 7deb 363e
00000120: e621 82bd 044b 3d3e 7dc6 44be 706b 723d
00000130: 38b7 623e 468d ae3d d4ad ecbb 6b4e 21bd
00000140: ccbd 1d3d f70d b13d 9801 e73d 308f 2c3d
00000150: 9fe4 a3bd 2171 91bc 5ffc 0ebd 6895 b73d
00000160: 1026 fe3d bbad c23d 13b2 04bd 1419 013e
00000170: 7969 fd3d df40 33be 7e06 7bbe 2637 8dbd
00000180: d8dc 47bd a4de 7abe a6c7 18be 4ad9 6abd
00000190: 6436 08be e1b0 f23c 4d87 2f3e 9f75 04be
000001a0: 50bd 98bd 6a48 fb3d 4447 1bbb 4f66 f4bd
000001b0: d8f3 a23d fdc6 82bd 705d e5bc cb4f 87bc
000001c0: f603 2ebe d7ff ec3d 4dcd 58bd 25ff 753d
000001d0: 38e1 0cbd b836 043d 75c2 31be 9897 303e
000001e0: e29a 0b3d 9811 09bd 9f6f 2e3e 43be 7d3d
000001f0: 8f3b 9cbd b421 d0bc 8b34 a63b c31b bfbd
00000200: 8e91 cdbd 5cea cc3d 0244 ebbd fa89 483e
00000210: 90cc bdbc fcf6 073d b471 753c 04dd 9b3d
00000220: cfc8 37bd 2424 0b3e 796d 2ebe fd77 193d
00000230: 23b9 423e 7719 043e 0dee bb3c 6ce2 a63d
00000240: 6e9b ce39 6b49 7d3d b2b8 ff3d d862 bf3c
00000250: 55cd 1a3e b940 07be db8a 053d e0be 3a3d
00000260: 27ff b23d ced8 6dbd c465 6e3d 0fc2 a63d
00000270: 3a45 5e3e 7524 9cbd 80d9 01be b607 ab3d
00000280: 4a4e f13b 24fe 43be 471f debd a31a b23d
00000290: 9f8a 443d 816e 403e 1733 503d 0ab2 bfbd
000002a0: 2be3 413c f6e6 943d 0ed8 bf3c 0457 053d
000002b0: 491f 9ebb 9f5c 63bd b63f 1ebd 660c cd3d
000002c0: 6e5b d7bd 79fb 0c3d ae32 383d a5ea 833d
000002d0: 9181 f5bc fcf1 61be 37c4 553d 793d d43c
000002e0: 5fc8 b7bc 420a 67be c3ee 1a3e 3b51 d8bc
000002f0: 6749 7d3c aec5 19be ba67 acbc d079 fabd
00000300: c827 91bc 007e 663d 546f 39be 725b e63d
00000310: adcf 3f3c a89e 1e3d 6f9f 68bc dd3a 363c
00000320: 8377 a7bd 3fbd af3d 94c1 4bbd 0715 8e3b
00000330: a64d 9f3d 66f0 b43d 72fb 6a3d f0cb b5bd
00000340: e7b4 293e b209 aa3d 5089 9cbc 3f0c 21be
00000350: b91e 4b3d 0647 3d3d 35ba 44bd dfe0 8cbc
00000360: 9929 a5bd e7ac fabc 7180 b7bd c4c2 8d3d
00000370: 8e9f b73d 7f7c 83be a2f6 26be 6d33 ddba
00000380: f58f 6a3d 6801 1cbe b255 eebd 9ed5 eebd
00000390: fe2c c2bd 994a 1c3e 42b3 1d3d 729a 08bc
000003a0: 5cde 2ebd 050f ad3d 88ea 733d 6567 8cbd
000003b0: cbee b83d 5cb1 6abd cd83 bf3c 5e49 1fbe
000003c0: 2e05 3dbe 9e3b 2ebe 2a29 9bbd 348b c03c
000003d0: c413 f7bd c8bf db3b a722 c03d c07e c23d
000003e0: e883 c03c 6f7a 993b 63df a0bb e05e 32bd
000003f0: 2abd bcbc 8861 01bd 2a7e e9bd 4873 84bb

bias f4 [64]
0.016268032 -0.076406166 -0.1671464 -0.21513791 -0.089588515 0.0005883883 0.11117806 -0.15798005
-0.09202191 0.10965601 0.15405479 0.09157601 0.010587617 -0.01979879 0.112644985 0.1362614
-0.112493545 0.06477749 -0.034726355 0.089613356 -0.029933266 0.085025735 -0.08398362 -0.0058110426
-0.16739951 0.09179437 0.17677847 -0.10889141 -0.11598279 0.11646533 0.113552175 0.014411873
-0.14022896 -0.045023754 0.04434181 -0.03928559 -0.15250076 -0.029782282 0.057512507 0.016182285
-0.046562117 -0.07797903 -0.06670371 -0.042027473 -0.099530175 0.15053605 -0.02555624 -0.13627885
0.07913204 0.083797865 0.11239267 0.09574843 0.15687609 0.11141042 0.15226212 0.1499287
-0.08313043 -0.040331878 -0.13373312 -0.04948751 -0.014879962 0.05587702 -0.074890755 -0.029773418
00000000: 8944 853c d67a 9cbd 6d28 2bbe 1d4d 5cbe
00000010: 2f7a b7bd 123e 1a3a 53b1 e33d 86c5 21be
00000020: fc75 bcbd 5593 e03d 8ac0 1d3e 348c bb3d
00000030: af77 2d3c 1231 a2bc 6ab2 e63d 1c88 0b3e
00000040: 0463 e6bd 10aa 843d 393d 0ebd 3587 b73d
00000050: 9c36 f5bc f921 ae3d 9bff abbd 8f6a bebb
00000060: c76a 2bbe b0fe bb3d 6a05 353e 7602 dfbd
00000070: 6388 edbd 6085 ee3d 0b8e e83d c71f 6c3c
00000080: 2e98 0fbe d46a 38bd c29f 353d ede9 20bd
00000090: 2929 1cbe f9f9 f3bc 3c92 6b3d b690 843c
000000a0: ebb7 3ebd 78b3 9fbd f49b 88bd 0025 2cbd
000000b0: 7ad6 cbbd 1f26 1a3e 525b d1bc af8c 0bbe
000000c0: fb0f a23d 379e ab3d 212e e63d c117 c43d
000000d0: 20a4 203e 252b e43d 9aea 1b3e e986 193e
000000e0: 4940 aabd 0a33 25bd 56f1 08be 6ab3 4abd
000000f0: 16cb 73bc 4ddf 643d 5360 99bd 62e7 f3bc
