TP/save_models_MLP_64/model_17.pt (torch, 54369 bytes, 6 tensors)

weight f4 [64, 64]
00000000: 1739 9e3c 23c6 163d e42c 9abc 80d5 24be
00000010: be1a 263e 6b26 4abe bab9 18be 6002 a1be
00000020: bab5 54be b0c6 693e 2cd7 463e a184 80bd
00000030: 93d2 7ebe 4856 623d 5369 9c3d 93cf 50be
00000040: 6a28 8c3d e1d9 54be 43ed aabe 48f8 58be
00000050: 5411 0bbf 6346 c4bd c512 0b3e 4675 bb3d
00000060: f6c9 96bd 6874 7d3e 2858 3e3e 3aea c93e
00000070: 3c18 41be 4c51 503d a259 af3d 0eb0 81bc
00000080: 4fea 383d 5b27 ea3e da72 573a 5964 923d
00000090: 98da 31bd b129 773e d8f0 793e a877 2bbb
000000a0: 6211 0dbf fc2a 8a3d 7c01 433e c23e f73c
000000b0: 3bf5 ee3e 711a 6dbc daa5 5fbd ab1a 97bd
000000c0: 39e0 9bbe a68b 39be d214 983d 045a a43d
000000d0: 0480 bf3c 0cdd 3f3e 3b00 87be 4028 1dbe
000000e0: 5751 a7be 78d6 5fbe e019 eabc 1376 31bd
000000f0: e1d0 35be 5b51 ffbd 1e66 fcbc df18 dabe
00000100: b8a4 93bc 8a13 e8bd 54fe 07be bf8f d63c
00000110: b87e 28be 7c98 8c3e b958 343e 95a6 ab3e
00000120: 3a61 c33d 758b 67be 14b3 c2bd 2e0f b8be
00000130: eaf0 afbe 55c6 7d3e 1608 863d d27c 723e
00000140: c846 903e 23fc 063f 0978 b63e 33e0 8e3e
00000150: 6af8 b43e c016 d23d d606 9c3d c443 a43c
00000160: 915c 853e ea74 ef3d 0d03 12bd c201 793e
00000170: 11f8 3c3e 0563 4bbe c1c5 c4bc 151b b53a
00000180: 6147 533d 4e3d 463e f8c5 85bc f36a 01be
00000190: 848a b73e 2f3f 34be 3e71 013e e3ca dabd
000001a0: a1a7 fe3e 914e a6bd 20a6 0dbe c6a6 98be
000001b0: a6ec f13d ca82 a1be 8db0 b4bd 8eac 3dbe
000001c0: a287 cc3e e158 4dbc 32ef 58be e08f 77bd
000001d0: 9132 6fbe 30e3 35be 660b f4bd 93e6 573e
000001e0: 15ea 273e b7ba 8a3e fe9a f73d 43cc fc3d
000001f0: 6b73 a83c ffad abbd f0c2 823d 806d e73d
00000200: 16b2 d83e cb89 f5bc 2b94 933e 179d 553e
00000210: 82e0 8dbe d044 8cbe 5334 033f 3da5 05bd
00000220: f2f5 12bd a55d 423f 8ee5 273e ab9e 683e
00000230: c4a7 54bd 8506 5b3d 708b a9be 6133 8d3d
00000240: 4709 06be cda2 163e 0c25 d23d b070 d43d
00000250: 59f2 9e3d 9e85 1fbe fa45 743e 0540 173e
00000260: 2929 9abd 5ab3 2e3c d0f2 66bd b484 6fbe
00000270: 3d71 5a3e 9622 86be d5a5 d23e 1333 b6bd
00000280: cfc8 20be 368c 64be 4b1d b2be 0833 01be
00000290: 5d1c b6be 8560 973d b684 163d 99f4 193e
000002a0: 4ff9 73be 72e5 18bc facc 88be 00bd 123e
000002b0: 04fd 953d 6fdc 963e 67b4 983c 343f 813d
000002c0: f312 f6be 7354 1a3d b336 d639 d334 84bc
000002d0: dcfd a93e 47ef 01be ef34 d13e 1bb9 3fbe
000002e0: 3e81 32bd c00e d23c 8d9f 623c 5605 65bd
000002f0: b31e d93c 2044 8d3e 0095 24bb 60d3 393e
00000300: 24b2 35be ed6e 88bd 0ecf 01be 9b17 b9bd
00000310: b7f6 0bbe 5596 8e3e cd5d 15be f12d 9f3e
00000320: ea15 023e 83b8 a4be 648e 193d 86b7 59be
00000330: 69f1 fabe bb2d ec3d 467b b03e 8053 e03e
00000340: 713e c23d a70d 2a3c 2b88 9f3e 29c7 063e
00000350: c79f a3ba 3b76 643d bf79 65be cfd9 9a3e
00000360: 422a 243e b144 c13d 57a5 fcbc 080f a7be
00000370: 2bcc a0be 0b64 98be 152d e5bd 127b c23d
00000380: 3f5b e4bc 9b62 2b3e b7de 473e 9609 793e
00000390: ba74 573e 49e4 fe3d 4837 2fbe 1275 dabd
000003a0: 29aa e93e dfc9 b13d 6da5 313e 563a b33d
000003b0: 5fc2 823d eed8 b4be 4573 493b a8ed b03d
000003c0: 3951 dd3e 042b c33e 83c9 00be 23df 2d3d
000003d0: 56bd 1bbe d2ef c03d 4534 733d 717a b43d
000003e0: 659f af3e 380c fbbc 111a c83d 4f6e d03d
000003f0: 79b0 9fbd 23a7 9bbd aaa6 81bc 83a1 4a3e
0.019314332 0.03681005 -0.018820234 -0.16097069 0.16221139 -0.19741218 -0.14914599 -0.31447124
-0.20772448 0.228297 0.19418019 -0.06275297 -0.24885015 0.055258065 0.076372765 -0.20391683
0.06843646 -0.20786239 -0.3338414 -0.21188462 -0.54323316 -0.09583738 0.13581379 0.091532275
-0.0736274 0.24751437 0.18588316 0.39436513 -0.18856901 0.05085878 0.08562018 -0.01583102
0.04514533 0.4573315 0.00082187133 0.07148046 -0.043421358 0.24136998 0.24408281 -0.002616385
-0.5510465 0.0674648 0.19043535 0.030181292 0.4667147 -0.014471636 -0.054601528 -0.073781334
-0.30444506 -0.18119678 0.07425846 0.080249816 0.023376472 0.18736666 -0.26367363 -0.15347385
-0.32679245 -0.21859157 -0.028576791 -0.043325495 -0.17755462 -0.12466689 -0.030810412 -0.425971
-0.01802288 -0.11331852 -0.13280612 0.02619159 -0.1645459 0.27460086 0.1761197 0.3352553
0.09540029 -0.22611792 -0.09506813 -0.3594908 -0.3436349 0.24782689 0.06544511 0.23680428
0.28179002 0.5272848 0.35638455 0.27905425 0.35345775 0.102582455 0.07618491 0.020051844
0.26047185 0.116922215 -0.03564744 0.24317077 0.18454005 -0.19861992 -0.024020078 0.0013817275
0.051581744 0.19359323 -0.01632975 -0.12638454 0.35847867 -0.17602228 0.12640855 -0.10683229
0.49737266 -0.08120454 -0.13832903 -0.29814738 0.11812715 -0.31545097 -0.08822737 -0.18522856
0.3994723 -0.012533397 -0.21184996 -0.060439944 -0.23359133 -0.17762446 -0.119162366 0.21084051
0.16397889 0.27095577 0.12090109 0.12343647 0.020562848 -0.083827965 0.063848376 0.11300182
0.4232337 -0.029972931 0.2882398 0.20860706 -0.27710348 -0.2739625 0.51251715 -0.032628287
-0.035879083 0.7592414 0.16396162 0.22716777 -0.051917806 0.053473014 -0.33114195 0.068945654
-0.13089477 0.14710541 0.102609724 0.10373056 0.07761068 -0.15578315 0.23854819 0.14770515
-0.07527382 0.010662878 -0.056383908 -0.23390466 0.2133226 -0.26198262 0.41142145 -0.088964604
-0.15701602 -0.22319111 -0.34787974 -0.12617123 -0.35568514 0.073914565 0.036747657 0.15034713
-0.23825572 -0.009332048 -0.26718885 0.1432991 0.073236495 0.29465052 0.01864071 0.06310883
-0.48061332 0.037678193 0.00040858015 -0.01613847 0.33201492 -0.12688933 0.40860698 -0.18722956
-0.043580286 0.025641799 0.013831985 -0.055913292 0.026503896 0.27591038 -0.0025113225 0.1814704
-0.17743737 -0.066617824 -0.12676641 -0.090377055 -0.13668333 0.2784907 -0.14586563 0.31089738
0.12703672 -0.3217202 0.03748931 -0.21261415 -0.49012306 0.1153216 0.3446905 0.43813705
0.09484566 0.010379232 0.31158575 0.13161911 -0.001248353 0.055776816 -0.22409724 0.302443
0.16031745 0.0943693 -0.030840559 -0.32628655 -0.31405768 -0.29763827 -0.11190239 0.0949613
-0.02787554 0.16736834 0.19518553 0.24320063 0.21040621 0.12445886 -0.17110932 -0.10666861
0.45637634 0.08681082 0.17348261 0.08751361 0.063847296 -0.35321754 0.0030738872 0.08639079
0.4322603 0.38118756 -0.1257687 0.042449128 -0.15208945 0.09420742 0.05937602 0.08812416
0.34301296 -0.030645475 0.09770597 0.1017729 -0.07797331 -0.07600238 -0.015826542 0.19788174

bias f4 [64]
00000000: b09a a7bd cfc8 6d3d 948c 123e 386e d5bd
00000010: cff4 663e 7225 933e fefb 92bd c3ef 683d
00000020: 07a8 593e 95cb e03d ba76 00bd 7c65 7fbd
00000030: b134 453a 838c 17bc 692d 8fbd bc21 84be
00000040: 9175 5fbd 5fbf 49bd dbc4 e73a 521d 42bb
00000050: acd0 553e 6d9d d9bb 8a6a 133d 3d40 26be
00000060: d48a 5fbe 2738 913c b5b1 a3bd 52a0 e3bd
00000070: b4fe 6f3e 79a4 373e 9c56 6dbe ac0c 36bd
00000080: 7b62 62bd e900 45bd a0b2 6dbe f0f5 11bd
00000090: 42ee 893a 0dc4 473d 0124 283d 81cd 733e
000000a0: 00b6 a33d 4a5d 1b3b c558 3abe 43db ddbc
000000b0: 1314 b1bd bff4 50bd f02f 073e b043 6cbd
000000c0: 5c8b f23b 9152 773c 2efa d8bd 4ffd 0d3d
000000d0: 04af 183d ad58 b53d 6269 3fbe 092b 1dbd
000000e0: aaf8 173e f745 113e cd62 17be e4ca 5bbe
000000f0: 97dd 973d 7ec1 5b3b 04a3 853e c04d bfbd
-0.08183801 0.058052834 0.14311439 -0.10421413 0.22554325 0.28739506 -0.0717697 0.05686928
0.21255504 0.1097633 -0.031363226 -0.062352642 0.0007522805 -0.009249809 -0.06991083 -0.25806987
-0.05455548 -0.04925477 0.0017682569 -0.0029619527 0.20880383 -0.006641081 0.035990275 -0.16235442
-0.21830302 0.01772697 -0.07992879 -0.11114563 0.23437005 0.17933835 -0.2317757 -0.04444568
-0.0552697 -0.04809657 -0.23212671 -0.035634935 0.0010523277 0.048770953 0.04104996 0.23808862
0.07993698 0.0023706728 -0.18197925 -0.027082091 -0.08646407 -0.051014658 0.1320188 -0.05768174
0.007401867 0.015095369 -0.10594593 0.034665402 0.037276283 0.08854804 -0.18692544 -0.03837112
0.14840952 0.14186846 -0.14783783 -0.21464115 0.07415312 0.0033532078 0.26100934 -0.093410015

weight f4 [64, 64]
00000000: 5880 fdbd e2d2 203e 39af b93e ecac 84be
00000010: fa91 89be c9aa ec3d cacd 82be a07b 943d
00000020: db6f 863d b86e 8bbe bf33 43be 8b4b b2be
00000030: 4ce0 b5bc b0fe 24be c48c d43e 7902 b43e
00000040: ae3a 99bd 7747 12be fa4c c13d 0a27 86bc
00000050: c765 a8be ccd9 3bbe ed74 03bf f599 4d3e
00000060: 7dbf 003e c484 9e3d 2481 d5bd b74a ffbd
00000070: 5b86 b3be 9d60 11bc 1852 2f3e cb3d 7abd
00000080: e624 c6be 418e 943d cfa7 ba3e a84e 343e
00000090: f432 393d 22a9 633c 265d 0c3e 41a0 91be
000000a0: d5f3 9fbe 2ab1 cb3d 8ca7 423e 7efb 31ba
000000b0: 0ce7 67bc 2b16 0e3e a665 98be d612 ea3c
000000c0: 592c 9fbd 56c5 693e af17 e13d 4381 04be
000000d0: bc8c 81be b702 5b3e b706 5abe daa9 603b
000000e0: 0c35 34be fc3c 2d3d e62f 953e e680 d63d
000000f0: 5a2e 4f3d e922 eb3e 7be0 203e d64c 06be
00000100: 99da edbc d5c7 1c3d 0544 293e 38b6 fabe
00000110: 2473 123e d6ce 72be 00fa 413d 5642 e5be
00000120: 45b3 82ba 24ad 9a3e d342 833d 5d81 0dbe
00000130: a720 abbd a799 3a3e 3bb4 cc3d 5518 653e
00000140: 5fd0 d83d f266 b6bb 2dd8 eb3e a932 a4be
00000150: d75f d23d 9507 d63e 5dbc 06be e91f b3be
00000160: 7280 febd 4ab6 39be f7f8 3abe 591a 0e3e
00000170: b24c 323e 5cd8 53be 5407 223e 8ef2 9ebe
00000180: f0e6 a0be 8ea1 483e 8046 0b3d c579 e53e
00000190: bdf1 17bf b1be cf3d 7243 83be dca8 5e3c
000001a0: 0505 ad3c 2cf4 503e 35af a8bd 0bcf 703e
000001b0: 1708 78be efa9 3a3f c153 9cbe 46ea ac3c
000001c0: 4d5f 2dbe 0d64 69be ff76 363e 61ec 893e
000001d0: 320a a9be 1e5a 06be 0f3e 9f3d d91b b73e
000001e0: c898 e73e fa78 c5bd 21fe 80be 84bd 903d
000001f0: 6d20 313e ddd1 4c3c e9a0 8f3e 0b5a 8a3e
00000200: bab9 483e f639 e13c 076b dabd 9e3c 043f
00000210: b6f7 06be 0a67 ab3e 4afe 11bd bc8b 2abd
00000220: 7514 9e3e 3e1a d3be f99e 553d c70c 48bd
00000230: 214f 543e c873 e23d ded4 03be 82ad e83c
00000240: 6580 e73e 8965 cd3d 4f93 f33c 089f d8be
00000250: 5ed2 463e 807b b83d dffd 893e 8405 ff3d
00000260: 2533 0e3e 4e94 243e b94a b2bb a3b0 8abe
00000270: d926 ce3e c6b1 01bf 7a55 e2be c0b4 f3bd
00000280: d4f1 49be e872 873e 6e76 95be fe51 13bf
00000290: 3f54 563e 7cf6 ab3e 432c b4bd 6863 dabd
000002a0: 6b84 803d d9e4 c13c 2de0 07bc 01dd 50be
000002b0: e1c1 b23e 17da a93e f88f c13e 4fc0 35be
000002c0: c7e4 0dbd 5f12 5f3e 3195 eebe 6511 91be
000002d0: 4494 a7be a523 a33e 173a 8ebd 683a 18bf
000002e0: aaa9 c63e 0c73 2c3d 20b6 2cbe 423c 253e
000002f0: 4c43 013f 6c06 de3e a8f1 e9be 7ccc 503e
00000300: 6a9a b3bd def7 33bb af8c be3d 5cea 96bd
00000310: b6eb 6f3e 46fa 7d3b 8733 c43e d081 d03d
00000320: 75f3 88be f947 cebe a758 f03d 726c 13be
00000330: 6b6a ea3e 7c41 973e 8890 9ebe 0391 6a3e
00000340: ece2 a93e 06d7 30be ec59 053e e026 9dbe
00000350: ba6a c43e 7758 213e 00dd 813d bc56 d43d
00000360: fed0 b5be c74b 7f3e bfdc de3e 1586 c2be
00000370: e1fd 1f3e c196 08bf 1347 933e d5cf 7c3e
00000380: d97f 32be c5bd ef3d 45a8 88ba 834e 85bd
00000390: e826 2abe f9ae 29be 8aae 41be 8bd0 683e
000003a0: f9df 3c3f 03f2 103e 1e72 f13d e942 d63d
000003b0: ebd0 a53e 0354 0abd 4592 5e3e b238 32be
000003c0: c520 aa3e 42cd 223d 1ed2 f4be bc54 343e
000003d0: d757 1ebe 9add 6b3e 5562 78be 5431 1dbe
000003e0: 0338 6bbe 25c1 b2bd 1f89 ec3d d5d8 6a3e
000003f0: c6ce 98bd a3b0 ad3b b37f f6be 07be 9d3e
-0.12377995 0.15705445 0.36266497 -0.2591318 -0.26869184 0.11556012 -0.2554763 0.07250142
0.065643035 -0.2723291 -0.19062708 -0.3482326 -0.02220168 -0.1611278 0.41513646 0.35158136
-0.074818954 -0.14285074 0.0943851 -0.016376037 -0.3289015 -0.18344802 -0.5135029 0.20078261
0.12573047 0.07740167 -0.10425022 -0.124654226 -0.35063443 -0.008873132 0.1712116 -0.061094087
-0.38700026 0.07253695 0.36456153 0.1760813 0.04521461 0.013895305 0.13707408 -0.28442577
-0.31240717 0.09945901 0.19009227 -0.00067894894 -0.014154207 0.13875644 -0.29765052 0.028573435
-0.077721305 0.22829184 0.109908454 -0.12939934 -0.25302684 0.21387754 -0.21291624 0.0034280927
-0.17598361 0.042294487 0.29138106 0.10473804 0.050581314 0.45925072 0.15710633 -0.13115248
-0.0290349 0.038276512 0.16529854 -0.48967147 0.14301735 -0.23711714 0.04735756 -0.44777173
-0.0009971639 0.3021022 0.0640923 -0.1381888 -0.08355837 0.18222676 0.09995314 0.22372563
0.10586619 -0.0055664713 0.46063367 -0.320699 0.10272186 0.4180266 -0.13157792 -0.34985283
-0.12426843 -0.18135944 -0.18259035 0.13877238 0.1741207 -0.20688003 0.15823108 -0.3104443
-0.3142619 0.19592878 0.03400278 0.44819465 -0.5935324 0.101437934 -0.25637394 0.013590064
0.021120558 0.20405644 -0.08236543 0.2351648 -0.24221836 0.7291555 -0.3053265 0.021107804
-0.16930886 -0.22792073 0.17818831 0.26938155 -0.3301559 -0.13120314 0.077755086 0.35763434
0.4523375 -0.09642215 -0.25193885 0.07067397 0.17297526 0.012501207 0.28052452 0.27021822
0.19602099 0.027493458 -0.10664945 0.51654994 -0.13180432 0.3347705 -0.0356429 -0.041637167
0.30874982 -0.4123096 0.05215356 -0.04884031 0.2073331 0.1105724 -0.12874171 0.028403047
0.45215145 0.10029132 0.029733328 -0.4230883 0.19416186 0.09007931 0.269515 0.12452224
0.13886698 0.16072199 -0.0054410365 -0.27087888 0.40264013 -0.50661886 -0.44205838 -0.1189971
-0.19721156 0.26454854 -0.29191917 -0.57546985 0.20930575 0.3358649 -0.08797505 -0.106634915
0.06275257 0.023668693 -0.008293194 -0.20396806 0.34913543 0.33174202 0.37805152 -0.17749141
-0.034642007 0.21784352 -0.465982 -0.28333583 -0.32730305 0.31863132 -0.069446735 -0.5946412
0.38801318 0.042101905 -0.1686635 0.16136268 0.5049331 0.43364275 -0.45692182 0.20390505
-0.087696865 -0.0027460973 0.09304177 -0.07368919 0.2342976 0.003875391 0.38320562 0.1018101
-0.26748243 -0.40289286 0.11735659 -0.14396837 0.45784315 0.29542148 -0.30969644 0.2290688
0.3318094 -0.17269525 0.13022584 -0.30693722 0.38362676 0.15756403 0.063409805 0.10368106
-0.3551101 0.2493125 0.4352779 -0.3799292 0.15624191 -0.5335503 0.28765163 0.24688657
-0.17431583 0.117061175 -0.0010426125 -0.065091155 -0.16616404 -0.16570653 -0.18914238 0.22735803
0.73779255 0.1415482 0.11789344 0.10461981 0.32385954 -0.033771526 0.21735485 -0.1740444
0.33228126 0.03974653 -0.47816557 0.17610449 -0.15463196 0.23033753 -0.2425626 -0.15350848
-0.22970586 -0.08728246 0.11549591 0.22934277 -0.07461314 0.0053005978 -0.48144302 0.30809042

bias f4 [64]
00000000: a729 f4bd 798d 79bc 14c5 60bd d5cc 09be
00000010: 0181 ea3d 0487 9d3d 438e 4c3d 1c58 d0bd
00000020: a23d 603d 016c 463e b47e 70bd 4ba6 cfbd
00000030: 3dec f3bd a23f 58bd 0a2e 32bd 6991 643e
00000040: 867b 06be 880f f3bd 5e85 af3c 5d0f ca3d
00000050: 08b4 543e 4f70 1e3d 7600 d13c 1c59 4cbd
00000060: f11d 69be 75f4 f3bd 9cbc c23d 0560 933c
00000070: fe84 16be d536 b6bc 4e03 163e 564c db3d
00000080: 2ef9 ad3d 30ac 34be b61e ae3d c575 ad3b
00000090: e881 913e e292 58bc e530 07be 34d4 8d3d
000000a0: 38c6 7d3e 3992 75bd ac52 a6bd 8ff9 5c3e
000000b0: fae3 83bd 4903 a83e 1384 703d 8ab3 323e
000000c0: 012b 813d 9341 91bb 971e 623d d76e dcbc
000000d0: 7259 e43d 7263 be3d 0bcc 2b3e c7fb 42be
000000e0: 55a4 b9bc 3afe e43d 971f 8dbc 3651 a3bd
000000f0: 0596 fa3d ca7b 513d f2ed 433e 30f8 f43d
-0.11922007 -0.015231484 -0.05487545 -0.13457043 0.11450387 0.07691768 0.04994036 -0.101730555
0.054746278 0.19377138 -0.058714584 -0.1013914 -0.11910293 -0.05279506 -0.043500938 0.22321095
-0.13133058 -0.11868197 0.0214259 0.098662116 0.20771801 0.038681325 0.025512915 -0.04988967
-0.22765328 -0.11911861 0.09508631 0.017990122 -0.1469917 -0.022242943 0.14649698 0.10707919
0.08494793 -0.1764381 0.085019514 0.0052935802 0.28419423 -0.013218613 -0.13202246 0.0692524
0.24782646 -0.059953902 -0.08121237 0.21579574 -0.064399675 0.32815006 0.058719706 0.17451301
0.063070305 -0.004432866 0.055204954 -0.026908321 0.11149873 0.092963114 0.16777055 -0.19041358
-0.022661367 0.11181302 -0.017226977 -0.07974474 0.12235645 0.051143445 0.19133738 0.119614005

weight f4 [64, 64]
00000000: 4ea0 db3d 6b85 8e3e 3556 ba3d 3278 c33d
00000010: 4171 95bd 641f b93d 622b 283e d532 0b3e
00000020: 73d2 383e f2b0 ef3d af92 c7be 09be 603e
00000030: 24e7 2d3e 3740 da3d 487b b6bd be3b 4abd
00000040: 0868 38be bc1b b93d 822d 9f3e 894e edbd
00000050: 2f15 83bc 164f 03be 117f 203e 668c 05be
00000060: 73a5 c53e c506 bf3d 61a3 6c3e a876 003e
00000070: 5b73 723e 1a25 54be 4380 cbbe 80c3 1ebe
00000080: d053 3ebe 8038 513c 42c9 3dbe 5ec9 9abe
00000090: 0d8a 3b3e 9ab5 d33e 51f6 653e f3ab 73be
000000a0: 3a5c 35bd dd03 273e 991f d73c a3f0 18bf
000000b0: 5e3d 933e ccbf 99be a816 1cbe 9771 92bb
000000c0: 88e6 99be 4569 253e 8c56 95bd 7761 803e
000000d0: bb30 9fbe e5de 61be 97b0 3dbe e795 cd3d
000000e0: ac4c 3dbe c233 8dbe a91a e53d 7011 a5bd
000000f0: a007 a23d 8dbd a4be b459 85be 58eb f9be
00000100: f55e 81bd 7bb3 4f3d a7c5 9c3d 2003 15bd
00000110: e4e7 efbd 2f68 013d 9258 c83d a973 423e
00000120: ba57 9bbd 0534 523e 543e 3fbe c315 813d
00000130: 25d9 703e 8f64 c33d f870 73bb 543d 22bd
00000140: 5673 cb3c bac3 403d d010 ca3d fc39 e83c
00000150: 6772 8abd 9b91 333a 9a02 29bc 8f2b 713d
00000160: 6bae 063e eb9b 043e 4584 1fbd 3cd3 fb3d
00000170: 2b4a 123e 4004 40be 37c7 85be 1ec0 a1bd
00000180: ab38 03bd 8d67 7dbe 7a31 22be 600b 76bc
00000190: 73cc 07be 7f3a 223c 6bb8 353e 6c65 0cbe
000001a0: 8b5c b4bd 29ab dd3d 80f8 e1bb e2b9 a7bd
000001b0: b8f0 5b3d ab87 babd ab08 7c3b b5d7 f5bc
000001c0: e6e3 28be 037d c83d 0a8b abbd a68b 023d
000001d0: 3f88 6abd 5049 d93c 7641 35be e8fa 183e
000001e0: 799e 0d3d 8b58 3ebd 5a69 1b3e 530b 3f3d
000001f0: 9f07 f8bd 95eb b8bc dd33 53bb 3e50 ddbd
00000200: f2f5 58be 937f 5e3e 97b6 eabd e086 a73e
00000210: 8790 a7bd 294b 013e 8d9e c73d 59db 833e
00000220: 5615 1dbe 8c1c 653e bdf4 aabe dfdd f93d
00000230: 562b a33e ad66 903e 726f 04bd 424b 833e
00000240: 4451 9dbc 7a3b ebbc da03 283e e587 b03d
00000250: d88a 583e c670 81be ddf4 243e 494c b0bd
00000260: 0c75 353e 9242 1dbe 9524 c4bd d5ca f1bd
00000270: 9a89 463e 29d8 80be b9e1 36be b010 fabc
00000280: 2e20 b6bd b119 9dbe 60bc 5abe 9d35 6a3e
00000290: ea12 ce3d 069d bc3e 977c e43d d17d 9bbe
000002a0: 1aeb 0f3e add0 1d3e f0ee 3c3e 36bc 983d
000002b0: 49db 2e3d 1206 4e3e 4820 4dbd c27e 523e
000002c0: 69f3 63be b10c 6a3d 13aa 683c b104 5f3e
000002d0: c25a 6abd 70ec c2be cc25 f9bd 9a0f a3bd
000002e0: 2ac6 05be a385 7fbe 3c3e 113e 9659 17be
000002f0: 39b6 e2bc d972 76be 1f80 333e 5b67 3abe
00000300: db9c f03a 90c9 823d 5e9d 1fbe 32c9 f63d
00000310: 28a4 203c 4e6d 103d 9080 29bc babe bc3c
00000320: ff91 c2bd a0fb c33d 7593 3bbd f138 4c3b
00000330: 2672 b93d 411c d73d 8d8a fe3c c2ed a8bd
00000340: cf03 193e 826d 783d 3c5c 8bbc 0574 22be
00000350: 7bdc 2c3d 7311 143d 5e98 1ebd ef54 03bd
00000360: f9ca 89bd 4531 37bc 88c4 c2bd 5547 783d
00000370: 3627 b63d bb8c 86be 54a0 29be 1529 a8bc
00000380: 6ab5 4d3d 74e1 13be 5224 08be 2da3 a6bd
00000390: 03e6 e7bd 4517 173e f31d 3e3d 130a fdbc
000003a0: d52b 58bd 94f9 a33d 7f8a 803d 7db5 48bd
000003b0: 18d4 a73d dd98 a2bd 7d01 193d c7f2 38be
000003c0: 389c 4dbe 4a64 2cbe c112 b5bd ed6b f63a
000003d0: 67b3 01be dc4a 1dbb b59a a23d 79e2 ac3d
000003e0: 54e1 6d3c 4af5 aabc 8b99 0fbb 5617 15bd
000003f0: 17a1 87bd a5da 1abd 215c 00be 4ba5 74bc
0.10723935 0.27836165 0.09098474 0.0954441 -0.07296992 0.090391904 0.16422799 0.1359361
0.1804903 0.117036715 -0.38979098 0.21947493 0.16982704 0.10656779 -0.08910233 -0.04937338
-0.18008435 0.09038493 0.31089407 -0.11587245 -0.016001312 -0.12823138 0.15673472 -0.13041839
0.3860279 0.09327463 0.23109199 0.12545264 0.23676817 -0.20717278 -0.39746293 -0.15504265
-0.1858666 0.012769818 -0.18533805 -0.30231756 0.18314381 0.41349488 0.22457244 -0.23796062
-0.044277407 0.16310067 0.026260184 -0.5974218 0.28757757 -0.30029142 -0.15243018 -0.0044691074
-0.30058694 0.16153438 -0.07291898 0.2507436 -0.31091866 -0.22057684 -0.18524395 0.10038357
-0.18486279 -0.2757855 0.11186726 -0.080599666 0.079116106 -0.32175866 -0.26045 -0.48812366
-0.0631694 0.050708275 0.07654887 -0.036379933 -0.117141515 0.031593498 0.097825184 0.18989433
-0.07585092 0.20527656 -0.1867612 0.06302979 0.23520334 0.095406644 -0.0037146192 -0.03960927
0.02483527 0.04706166 0.09866488 0.028347962 -0.06760102 0.0006850005 -0.010315562 0.05887943
0.13152473 0.12950103 -0.0389445 0.12296149 0.14286105 -0.18751621 -0.2612855 -0.078979716
-0.032036465 -0.24746533 -0.15839186 -0.01501736 -0.13261585 0.009901642 0.17746131 -0.13710564
-0.08806714 0.10823662 -0.0068960786 -0.08189751 0.053696364 -0.09107908 0.0038457315 -0.030010084
-0.16493186 0.09789469 -0.08376129 0.03187146 -0.05725884 0.026524216 -0.17700753 0.14939463
0.03457496 -0.04647116 0.15176907 0.04664166 -0.121108286 -0.022573272 -0.0032226958 -0.108063206
-0.2118757 0.21728353 -0.114606075 0.3272009 -0.08181863 0.12626328 0.09747038 0.25753286
-0.1534017 0.22374171 -0.33389845 0.12200522 0.31869 0.28203335 -0.032332845 0.25643355
-0.01920379 -0.028714884 0.16407719 0.0861967 0.21146715 -0.25281352 0.16109033 -0.086083
0.17720431 -0.15357426 -0.0957729 -0.11806265 0.19388428 -0.25164917 -0.17859544 -0.030525535
-0.088928565 -0.30683663 -0.21360922 0.22872014 0.10062201 0.3683855 0.11156576 -0.30369428
0.14054528 0.15411635 0.18450522 0.074577734 0.042689595 0.20119503 -0.050079614 0.20556167
-0.22260822 0.05714101 0.014200705 0.21779133 -0.05721546 -0.38071012 -0.12165412 -0.0796196
-0.13063875 -0.24953322 0.14183897 -0.14780268 -0.027674781 -0.24067248 0.17529343 -0.1820349
0.0018357293 0.06386101 -0.15587375 0.12050094 0.009804763 0.03526049 -0.010345593 0.023040164
-0.09500503 0.09569478 -0.045794923 0.003116187 0.09054975 0.10503436 0.031071926 -0.08248474
0.14942859 0.06065131 -0.017011754 -0.1586457 0.042202454 0.036149453 -0.038719527 -0.03206342
-0.06728167 -0.01118118 -0.095101416 0.060614903 0.08894198 -0.26279244 -0.16565067 -0.020527402
0.050221838 -0.14441472 -0.13295105 -0.08136592 -0.11323168 0.1475497 0.04641528 -0.030888593
-0.052776176 0.080065876 0.06276416 -0.049001206 0.081947505 -0.079393126 0.037354935 -0.18061362
-0.20079124 -0.16835132 -0.08841468 0.0018800475 -0.12666093 -0.0024000918 0.07939664 0.08441634
0.014519054 -0.020868916 -0.0021911587 -0.036399208 -0.06622522 -0.037806172 -0.12535144 -0.014931987

bias f4 [64]
00000000: a10f cdbd 3090 cdbd 8fef 89bd bdc7 78be
00000010: 4a6d a5bc 5095 a83d 607b a63d 2bdb 74be
00000020: b7a7 12be c584 0d3e 3404 453e 7bd7 823e
00000030: a99b 453d c084 32bd 2365 033e 4118 093e
00000040: be3a 05be 3e97 903d 326d 22be 9b1e 6a3e
00000050: 3b74 83bd 1ca9 2c3e 9ea1 d2bd 8875 e53d
00000060: 4e9c 6ebd 3bf7 b23c cc64 083e 371e e9bd
00000070: 8ab1 f8bd 2d0d 013d a5e5 083e fd62 9d3d
00000080: 4114 94bd 75e1 cf3d c1be d03c 987a 35bd
00000090: 5b7b 21be ffb2 9ebd e8dd 2bbd 263d ccbb
000000a0: 44a5 083d 0282 05be 5335 eb3d 099a 10be
000000b0: 2760 73be b971 cd3d 9913 70bb 79bc cabd
000000c0: 4466 8d3d cfcf a83c e37d 043e 3eff 973d
000000d0: 3415 fd3d 40d0 153e 329f e83d ec23 353e
000000e0: a342 d4bd 36ec 70bd e786 adbd b0c8 a9bd
000000f0: 8cc1 dd3d e871 e7bc e2e7 b7bd 06d5 2abd
-0.100127466 -0.10037267 -0.06735145 -0.24294944 -0.020193715 0.08231604 0.08129001 -0.23911731
-0.1432179 0.13820179 0.19239885 0.25555024 0.048244152 -0.04358363 0.1283155 0.13388158
-0.1301069 0.07060097 -0.15861967 0.22863238 -0.064186536 0.16861385 -0.10284732 0.11204058
-0.058254533 0.021846404 0.13319701 -0.11382716 -0.12143238 0.031506706 0.13368852 0.07684896
-0.072304256 0.101504244 0.025481584 -0.044306368 -0.15769713 -0.077489845 -0.041959673 -0.0062328754
0.033360735 -0.13037875 0.1148478 -0.1412126 -0.23767148 0.100314565 -0.0036632775 -0.098992296
0.06904271 0.020606903 0.12938647 0.074217305 0.1235756 0.14630222 0.11358489 0.17689484
-0.103642724 -0.05881902 -0.08472996 -0.08290231 0.10827932 -0.028252557 -0.08979775 -0.04170706
