TP/save_models_MLP_512_256_128/model_3.pt (torch, 827725 bytes, 8 tensors)

weight f4 [512, 64]
-0.24451797 0.03753399 0.0004384292 0.0022494239 -0.12788449 0.049888767 0.0019488698 -0.037387434
-0.09920205 0.0650364 -0.066243485 -0.04240879 -0.06596892 0.08164279 -0.14986143 0.08619652
-0.11439638 0.059653673 0.058240663 -0.14649662 -0.056080453 -0.047215167 0.06372245 0.047033276
0.028950913 0.008626358 -0.12398304 0.08680093 0.04388427 0.093605086 -0.030294249 -0.03624407
-0.014537697 -0.053027198 -0.08709056 0.10974207 -0.14600235 0.13222066 0.0402066 0.07111066
-0.07639394 -0.059579335 -0.112298794 -0.073316775 0.05366892 0.14274539 -0.13863215 0.034474228
-0.058660384 -0.12126217 0.18475737 -0.09570387 0.06343826 -0.050424494 -0.114755005 0.01941182
-0.23085399 -0.10852162 -0.067925796 0.11530134 0.12937467 0.09932544 -0.009226875 -0.071351126
0.28731054 0.068170115 0.016887149 -0.090060614 0.07656903 -0.060469892 0.06916009 -0.04851738
0.11379062 0.23754776 0.07609119 0.029239073 -0.04441254 -0.102468506 -0.080461234 -0.07042436
0.011894129 0.059208535 -0.037025854 0.09883494 -0.08140776 -0.025779268 0.0037860854 0.098963566
-0.042831834 -0.13924651 -0.10051588 0.085188106 0.061361838 -0.014351147 0.09000767 -0.047888152
0.07325336 -0.1292933 -0.15736474 0.09389935 0.05040927 0.05140748 -0.11012174 -0.07049243
0.074295685 0.121735655 -0.09764119 0.11612617 -0.15063849 -0.07298647 -0.06544954 -0.032265365
0.11075277 -0.05863185 -0.1302262 -0.04472004 0.094164856 0.04891965 0.058024805 0.13694477
0.18746327 0.085540034 0.007915707 0.13332687 0.040328063 0.013138958 -0.07502598 0.169212
0.14143793 -0.15679859 0.11725523 -0.053545557 -0.09551402 -0.05529736 0.021635395 0.05378644
0.07686379 0.34534317 -0.03981726 0.023086498 -0.051285308 0.0845112 -0.115391895 -0.12540536
0.010001718 -0.12102274 -0.17173839 -0.04551211 0.12137787 -0.107913785 -0.023848984 -0.097889654
0.12276006 -0.037140395 1.096593e-05 0.11474918 0.028252413 -0.009930087 -0.16241427 -0.09071506
0.03973774 0.010818303 -0.030152453 -0.03832116 0.08162705 -0.058655422 -0.016229484 0.101662725
0.055424612 -0.062144395 0.06844886 -0.01783232 -0.019205557 0.026338039 -0.06256514 -0.118268736
-0.09744497 -0.0012756609 0.040633854 0.10625117 0.049297083 0.08276553 0.0006440609 -0.07543746
0.025747273 0.007335119 0.02724786 0.09324508 0.062507264 0.03313583 0.008085351 -0.11757351
-0.23135407 0.1073808 -0.052971013 0.14273624 -0.03358022 0.08074371 0.032935027 0.08788491
-0.05605795 -0.2894683 -0.09286528 -0.09482439 0.07667116 0.025830498 -0.053328738 0.067455724
0.06388979 0.05106428 -0.10080288 -0.08203178 -0.12934764 0.06176757 -0.007531892 0.009654152
-0.11384145 -0.050504707 0.01813495 0.052134536 -0.06123862 -0.11315746 -0.058931675 0.100657284
0.011592525 0.030745346 0.08363455 0.12439148 -0.0945122 0.11585268 0.09889914 -0.059557866
-0.10853415 0.1267929 -0.09511418 0.10629566 -0.12737688 -0.0072881742 -0.12973717 -0.081527434
-0.07774992 0.12050559 0.07251707 0.07018067 0.03451617 -0.11014022 0.033957366 0.012367284
0.0076993285 -0.085848264 -0.0114973765 -0.106364354 0.09999234 0.071288526 -0.029352719 0.1265748
00000000: eb62 7abe 3ebd 193d f9dc e539 126b 133b
00000010: 27f4 02be 2a58 4c3d 3871 ff3a 9123 19bd
00000020: 722a cbbd ce31 853d aaaa 87bd d7b4 2dbd
00000030: b71a 87bd 5634 a73d 4675 19be cd87 b03d
00000040: a648 eabd 6957 743d c38d 6e3d 3603 16be
00000050: 9eb4 65bd b164 41bd ea80 823d f7a5 403d
00000060: 772a ed3c 9155 0d3c d2ea fdbd b0c4 b13d
00000070: febf 333d 06b4 bf3d a52b f8bc a974 14bd
00000080: 852f 6ebc 0c33 59bd 895c b2bd 73c0 e03d
00000090: a481 15be da64 073e adaf 243d 77a2 913d
000000a0: 6d74 9cbd 7609 74bd e9fc e5bd 1b27 96bd
000000b0: f1d3 5b3d d92b 123e 96f5 0dbe d934 0d3d
000000c0: df45 70bd 4d58 f8bd 0931 3d3e 6400 c4bd
000000d0: ebeb 813d ea89 4ebd ac04 ebbd 8a05 9f3c
000000e0: fd64 6cbe 9540 debd ae1c 8bbd 1c23 ec3d
000000f0: cb7a 043e 236b cb3d 522c 17bc 8a20 92bd
00000100: 5e1a 933e c69c 8b3d eb56 8a3c b371 b8bd
00000110: 39d0 9c3d 47af 77bd cea3 8d3d 29ba 46bd
00000120: 0e0b e93d b83f 733e b3d5 9b3d c886 ef3c
00000130: ece9 35bd 02db d1bd dcc8 a4bd a63a 90bd
00000140: 98df 423c a684 723d 6ca8 17bd f969 ca3d
00000150: 1db9 a6bd 0b2f d3bc f91f 783b 69ad ca3d
00000160: 6f70 2fbd a396 0ebe 45db cdbd 1a77 ae3d
00000170: 8d56 7b3d 1321 6bbc f155 b83d 5e26 44bd
00000180: dc05 963d 7665 04be 3924 21be 4d4e c03d
00000190: f379 4e3d a690 523d 8287 e1bd 565e 90bd
000001a0: 5628 983d 8b50 f93d 1bf8 c7bd 8fd3 ed3d
000001b0: fa40 1abe ee79 95bd 690a 86bd b028 04bd
000001c0: 59d2 e23d f327 70bd 045a 05be 5c2c 37bd
000001d0: 81d9 c03d f95f 483d 6bab 6d3d 403b 0c3e
000001e0: 5ff6 3f3e 9d2f af3d e2b0 013c d786 083e
000001f0: 0a2f 253d c944 573c 39a7 99bd e945 2d3e
00000200: 1bd5 103e cf8f 20be 8323 f03d 9652 5bbd
00000210: db9c c3bd 7c7f 62bd b63c b13c 2c4f 5c3d
00000220: c36a 9d3d d2d0 b03e 6c17 23bd e51f bd3c
00000230: 8b10 52bd 3514 ad3d 9652 ecbd 436a 00be
00000240: 3fde 233c c5da f7bd 30dc 2fbe e86a 3abd
00000250: f694 f83d e701 ddbd f25e c3bc 5f7a c8bd
00000260: a069 fb3d 8720 18bd 50fa 3737 9e01 eb3d
00000270: 9b71 e73c ceb1 22bc ed4f 26be d1c8 b9bd
00000280: 0ac4 223d 403f 313c 4702 f7bc a6f6 1cbd
00000290: 152c a73d ab40 70bd b2f3 84bc 8c34 d03d
000002a0: eb04 633d 1f8b 7ebd ea2e 8c3d 1615 92bc
000002b0: f954 9dbc dfc2 d73c 2722 80bd e136 f2bd
000002c0: 3a91 c7bd 1434 a7ba af6f 263d 379a d93d
000002d0: bdeb 493d f980 a93d 32d6 283a f47e 9abd
000002e0: f2eb d23c 705b f03b e736 df3c 47f7 be3d
000002f0: cf03 803d 70b9 073d 6c78 043c 61ca f0bd
00000300: 15e8 6cbe 77ea db3d 22f8 58bd 7329 123e
00000310: 6a8b 09bd f55c a53d e1e6 063d 01fd b33d
00000320: 059d 65bd 3035 94be 2730 bebd 4a33 c2bd
00000330: c505 9d3d 7b9a d33c 3c6f 5abd 3a26 8a3d
00000340: a6d8 823d c728 513d be71 cebd 4700 a8bd
00000350: b573 04be feff 7c3d 17ce f6bb 732c 1e3c
00000360: b525 e9bd 06de 4ebd bf8f 943c 068b 553d
00000370: 59d5 7abd 19bf e7bd 5762 71bd 6825 ce3d
00000380: 93ee 3d3c aadd fb3c 9748 ab3d f6c0 fe3d
00000390: 9d8f c1bd 2b44 ed3d a28b ca3d f3f2 73bd
000003a0: 2747 debd ffd5 013e 39cb c2bd 8ab1 d93d
000003b0: 166f 02be a3d1 eebb d2d9 04be dbf7 a6bd
000003c0: 5a3b 9fbd a3cb f63d d483 943d e2ba 8f3d
000003d0: d460 0d3d 3291 e1bd e116 0b3d 26a0 4a3c
000003e0: a64a fc3b 37d1 afbd 7e5f 3cbc 8ed5 d9bd
000003f0: c9c8 cc3d b8ff 913d 1d75 f0bc d39c 013e

bias f4 [512]
0.056558613 -0.050028883 -0.065953046 -0.0065952423 0.03775823 -0.044139933 0.12576896 -0.07287497
0.11002415 0.14839715 0.08305413 0.090150416 -0.040070694 -0.048576623 -0.019343447 -0.0019437931
0.081365615 -0.11095903 -0.089149676 -0.100771874 -0.023237467 0.036155883 -0.0966746 -0.04361998
-0.004249271 -0.08035314 -0.009871152 -0.06116816 -0.056973696 -0.097673945 0.01532834 0.14674723
0.02600037 0.039690763 -0.024066802 0.028768143 -0.020850433 0.03722616 -0.092819996 0.03512938
-0.082628086 0.09937477 -0.089473195 0.08441708 -0.07197162 0.012341981 0.085444435 0.044757
-0.002483807 0.07066376 0.11848201 0.025724098 -0.12552334 -0.017149594 0.085425094 -0.010053911
-0.07629411 0.10036716 0.047434907 -0.018139433 -0.075891174 0.115731046 -0.024867933 -0.050878357
-0.050651435 -0.075883046 0.0001728246 0.0026640212 0.11044798 -0.014951894 -0.08551917 0.14878796
0.0914447 0.08995242 -0.04012582 -0.023582462 0.057404548 -0.030099131 0.005270364 0.09455565
-0.10783101 0.16804487 -0.1334325 -0.09025441 -0.0815401 -0.085434265 0.06925272 -0.056665894
-0.13993102 -0.04051419 0.06913655 -0.028590476 -0.05215162 0.053877823 0.07302399 0.015950581
0.03478934 0.10183894 0.09995435 -0.028774252 0.088862516 -0.024885396 -0.06890173 0.08087267
0.07580988 -0.109906234 -0.030095538 0.07376648 -0.09861674 0.05965117 -0.028928185 -0.037570786
0.017814469 0.11436805 0.066395715 0.061873756 -0.06191017 0.069978036 0.009877099 -0.07050851
0.021578023 -0.016597541 -0.05266743 0.020714136 -0.10714888 0.06389828 0.067615576 -0.13154806
0.04044365 0.041159153 0.015126736 -0.021428188 0.03239764 0.04745779 -0.10233501 0.027168743
0.07859675 -0.029033476 0.10762136 -0.07064804 -0.0021455223 -0.012367654 -0.10579375 0.015161814
-0.09955246 0.0837443 0.06940583 -0.10385079 -0.1335687 0.07294674 0.07574032 -0.008219138
0.13691972 -0.037796166 -0.039333433 -0.13051747 -0.07240177 -0.09798582 0.004552132 0.08709436
-0.023452403 -0.046942662 0.089166254 -0.016451523 0.024899872 -0.08906514 0.0031716698 0.037484713
0.14222367 0.067594394 -0.06651994 0.043634232 -0.044133242 0.06970548 -0.057860028 0.091694415
0.017652119 -0.030812178 -0.090859264 -0.05976187 0.009614582 0.024666894 0.026214514 0.12539178
0.005087629 -0.03871641 0.049904846 -0.1319256 0.1102763 0.09126892 -0.034858428 -0.106553555
0.056853097 -0.107466824 -0.118161775 -0.057328027 -0.029734997 0.05977306 -0.041066587 -0.030523537
-0.09927324 0.08840984 0.0035266676 -0.012213809 0.010372883 0.012751814 0.076004766 0.020152677
0.070529535 0.009479186 0.041598532 0.014783117 -0.07186342 -0.063554056 -0.043673836 0.0646842
-0.06839819 0.14587656 0.025495578 0.07449204 0.07857571 -0.0060896 0.09060874 -0.09870619
-0.008299645 0.080468565 0.087935194 0.086049415 0.108635366 -0.06701994 0.028869286 -0.07435579
-0.0058970596 -0.055406902 0.022636276 -0.08027423 0.006411315 0.028607262 -0.017729143 0.105925046
0.046181634 -0.05000533 -0.055295642 0.04323486 -0.12960811 -0.06122807 0.15375079 0.01627243
0.079932675 0.014784724 0.049957618 -0.036766108 0.12928793 0.07192884 0.022106888 0.05818113
00000000: 01aa 673d 16eb 4cbd 6412 87bd e71c d8bb
00000010: 60a8 1a3d 13cc 34bd 94c9 003e 793f 95bd
00000020: 5754 e13d 6cf5 173e 4918 aa3d c8a0 b83d
00000030: 2b21 24bd 48f8 46bd 2676 9ebc e0c6 feba
00000040: 04a3 a63d 7d3e e3bd 1b94 b6bd 7c61 cebd
00000050: 805c bebc 3118 143d 55fd c5bd ddaa 32bd
00000060: 783d 8bbb 3090 a4bd 9dba 21bc 778b 7abd
00000070: 405d 69bd 4709 c8bd b823 7b3c e844 163e
00000080: bafe d43c c892 223d be27 c5bc 2bab eb3c
00000090: 87ce aabc 757a 183d 6918 bebd d3e3 0f3d
000000a0: ea38 a9bd 0085 cb3d b93d b7bd dde2 ac3d
000000b0: db65 93bd 0536 4a3c 7efd ae3d 1e53 373d
000000c0: 5ec7 22bb 29b8 903d b2a6 f23d 58bb d23c
000000d0: 3189 00be 4e7d 8cbc 5af3 ae3d 29b9 24bc
000000e0: 1640 9cbd 4c8d cd3d 1b4b 423d 2699 94bc
000000f0: d56c 9bbd 6604 ed3d d6b7 cbbc d365 50bd
00000100: e177 4fbd 9268 9bbd 4038 3539 dc96 2e3b
00000110: 8d32 e23d caf8 74bc ad24 afbd df5b 183e
00000120: 5c47 bb3d f938 b83d f95a 24bd 0230 c1bc
00000130: 0821 6b3d 7492 f6bc 05b3 ac3b 65a6 c13d
00000140: 81d6 dcbd f413 2c3e 87a2 08be 4ed7 b8bd
00000150: 7ffe a6bd 29f8 aebd 5fd4 8d3d 7f1a 68bd
00000160: 144a 0fbe 35f2 25bd 7797 8d3d 9336 eabc
00000170: f09c 55bd feae 5c3d 9a8d 953d cbaa 823c
00000180: 447f 0e3d ef90 d03d deb4 cc3d fbb7 ebbc
00000190: 8dfd b53d 75dc cbbc 5a1c 8dbd 92a0 a53d
000001a0: 3642 9b3d 8516 e1bd eb8a f6bc e112 973d
000001b0: 93f7 c9bd c954 743d cdfa ecbc d3e3 19bd
000001c0: a6ef 913c cc39 ea3d 7afa 873d 566f 7d3d
000001d0: 8595 7dbd a550 8f3d 8ed3 213c c466 90bd
000001e0: 65c4 b03c 91f7 87bc ceb9 57bd b1b0 a93c
000001f0: df70 dbbd 1add 823d 097a 8a3d 89b4 06be
00000200: 3ea8 253d 8096 283d 21d6 773c 2b8a afbc
00000210: 63b3 043d 1963 423d 0595 d1bd fc90 de3c
00000220: 55f7 a03d 9dd7 edbc 9668 dc3d ebaf 90bd
00000230: e49b 0cbb b3a1 4abc 65aa d8bd 4269 783c
00000240: 29e2 cbbd 2282 ab3d a524 8e3d b9af d4bd
00000250: 3cc6 08be 1a65 953d be1d 9b3d 90a9 06bc
00000260: af34 0c3e 27d0 1abd 181c 21bd 5fa6 05be
00000270: 6147 94bd caac c8bd 0d2a 953b 875e b23d
00000280: 411f c0bc f346 40bd cc9c b63d 58c5 86bc
00000290: d1fa cb3c c967 b6bd cadb 4f3b 9289 193d
000002a0: 15a3 113e ee6e 8a3d 9b3b 88bd cfb9 323d
000002b0: 0fc5 34bd bfc1 8e3d a3fe 6cbd 48ca bb3d
000002c0: 2d9b 903c d269 fcbc 6c14 babd ddc8 74bd
000002d0: 7b86 1d3c 3a12 ca3c d2bf d63c b466 003e
000002e0: 20b6 a63b 1995 1ebd 0669 4c3d 8117 07be
000002f0: 8ad8 e13d 33eb ba3d b6c7 0ebd c038 dabd
00000300: cbde 683d 9117 dcbd cdfe f1bd cbd0 6abd
00000310: cf96 f3bc 99d4 743d 7035 28bd 7f0c fabc
00000320: c54f cbbd 3810 b53d aa1f 673b 6e1c 48bc
00000330: 06f3 293c fcec 503c 63a8 9b3d 3a17 a53c
00000340: ca71 903d 964e 1b3c 3963 2a3d e334 723c
00000350: 212d 93bd a128 82bd 56e3 32bd 2679 843d
00000360: 5a14 8cbd aa60 153e 1adc d03c 488f 983d
00000370: 4dec a03d 448b c7bb 1391 b93d 7926 cabd
00000380: 3cfb 07bc b4cc a43d 5e17 b43d ad3a b03d
00000390: 387c de3d c041 89bd 487f ec3c d947 98bd
000003a0: 1f3c c1bb 59f2 62bd b66f b93c d166 a4bd
000003b0: 0216 d23b c759 ea3c b53c 91bc 3bef d83d
000003c0: f428 3d3d 64d2 4cbd af7d 62bd 0917 313d
000003d0: fdb7 04be 49ca 7abd d970 1d3e c24d 853c
000003e0: beb3 a33d a13b 723c 5ca0 4c3d 0f98 16bd
000003f0: 0e64 043e 6d4f 933d 8119 b53c 564f 6e3d

weight f4 [256, 512]
-0.026172368 -0.06980093 -0.0038693731 0.07658326 -0.045514535 0.020165103 0.010679402 0.13238375
-0.015644828 0.0016169276 -0.04241586 -0.06274724 -0.008660288 0.019046813 -0.037708424 0.059309952
0.08372802 -0.0010919194 0.043749124 -0.060450003 0.04077882 -0.04146388 0.03180835 -0.032613255
-0.023746552 -0.008764386 0.05713284 -0.014262426 0.045415238 -0.016580375 0.021432117 0.029307364
0.016207391 -0.012524602 -0.026978295 0.0106720645 -0.0029100822 -0.02651744 0.051452223 0.06060475
0.0648191 0.02238863 -0.028127387 0.035295174 0.015164539 -0.098838545 -0.065786645 0.016743615
-0.032936756 0.056300268 -0.014171709 -0.054172292 0.057843618 -0.080683805 0.0029518541 0.088713765
-0.045745466 -0.05129597 0.004471154 0.043238644 0.052847903 0.014348994 -0.06427825 0.03759178
-0.0036623417 0.015262874 -0.055950597 -0.0123928925 -0.0020248091 -0.032043744 -0.010144813 -0.0005621251
0.06052671 -0.0024934611 -0.024825364 0.05090152 0.12093484 -0.006903418 -0.062086962 0.045912642
-0.058243614 -0.056903735 0.02017273 -0.0051991628 -0.07855136 0.06123779 -0.026274508 0.026865434
-0.0094645 0.027698053 -0.012554728 -0.0002496366 -0.062382035 -0.054529 -0.111298434 -0.032030016
0.015590093 -0.076087095 -0.00041546128 0.0107944785 -0.017431911 -0.05826587 -0.003393276 0.06132244
-0.016512562 0.008314026 -0.07835807 0.051792666 0.007387807 -0.09703602 0.028846646 0.02852386
-0.058876034 -0.03242947 -0.048001647 -0.11163109 0.07130437 -0.032184135 0.02484669 0.005497603
-0.045263506 -0.034132075 -0.025039563 -0.10018373 0.06475751 -0.10620848 0.04213609 -0.06604558
-0.045682494 0.023228945 -0.049776968 0.01567709 -0.07341506 -0.052169096 0.102644734 0.03652646
0.015814207 -0.031576857 -0.0035183097 -0.005906665 -0.05781639 0.052772712 -0.016590036 -0.033425994
-0.060487922 -0.065430865 0.036170702 0.008295206 -0.039503846 -0.02384874 0.036908768 0.08873085
-0.062668115 -0.011382331 -0.019201882 0.025469348 -0.053851098 -0.07430385 0.017117431 -0.04288834
0.0596155 -0.004824759 -0.019475462 -0.07359163 -0.009347963 0.0027776626 0.0015497657 0.055429228
-0.026436405 0.029062474 -0.057032406 0.061797637 0.05090667 -0.021023888 0.116318084 -0.002894655
-0.008206962 -0.013776502 0.02106435 -0.0063383477 0.045686502 0.065528184 -0.04236918 -0.089170836
0.10739711 -0.0043321894 0.056494735 -0.013430967 -0.054511264 -0.0076214806 0.06601941 0.035212215
0.041895576 0.051407605 0.032747466 -0.017157994 -0.035146855 0.066893466 0.04665918 -0.0030285055
0.03399047 0.05330773 0.049515 -0.032919366 -0.0058430536 -0.004364365 0.068955496 -0.085978575
-0.0090133725 0.018898183 0.025891421 0.019726628 0.08909725 0.12739895 -0.048653655 0.010942188
0.07091746 0.031298205 -0.049010772 0.004464245 -0.0027986045 -0.019575946 -0.10269151 0.010905724
0.04665667 -0.11053511 0.087834135 0.023278294 0.031888977 0.07218799 0.05667451 -0.06736285
-0.045074776 -0.053301472 -0.05328117 -0.019058801 0.0117279515 -0.041264705 -0.036427483 0.0036876246
0.10808046 0.03703763 -0.020132674 0.019332256 0.05366704 -0.071319625 -0.018552683 -0.09194031
0.06618997 0.0045820153 0.02896511 -0.08439386 0.0034118153 -0.023348864 0.020438977 0.06089651
00000000: 6f67 d6bc caf3 8ebd 4f95 7dbb afd7 9c3d
00000010: 736d 3abd 4931 a53c a9f8 2e3c 9b8f 073e
00000020: 9529 80bc 16ef d33a 41bc 2dbd a081 80bd
00000030: e1e3 0dbc 1008 9c3c 2674 1abd feee 723d
00000040: 9979 ab3d bc1e 8fba 4832 333d 6c9a 77bd
00000050: b107 273d 08d6 29bd 7949 023d 7a95 05bd
00000060: 2188 c2bc 8098 0fbc 2004 6a3d f3ac 69bc
00000070: 5405 3a3d 91d3 87bc 6892 af3c ff15 f03c
00000080: 5dc5 843c fd33 4dbc 9601 ddbc e2d9 2e3c
00000090: 14b7 3ebb 1a3b d9bc 91bf 523d b03c 783d
000000a0: e0bf 843d 5c68 b73c 686b e6bc ac91 103d
000000b0: b074 783c dd6b cabd 26bb 86bd e829 893c
000000c0: b1e8 06bd 1c9b 663d 7530 68bc c4e3 5dbd
000000d0: 6eed 6c3d 8d3d a5bd e573 413b 90af b53d
000000e0: 995f 3bbd b91b 52bd c282 923b 011b 313d
000000f0: 0b77 583d 0b18 6b3c 51a4 83bd d7f9 193d
00000100: e603 70bb 2211 7a3c 742c 65bd 8f0b 4bbc
00000110: a9b2 04bb 4d40 03bd 6e36 26bc 945b 13ba
00000120: dbea 773d 5669 23bb 905e cbbc 1d7e 503d
00000130: afac f73d 1136 e2bb e64e 7ebd e50e 3c3d
00000140: db90 6ebd e413 69bd 4841 a53c bd5d aabb
00000150: 89df a0bd 7ad4 7a3d a33d d7bc e614 dc3c
00000160: fd10 1bbc 07e7 e23c 59b2 4dbc a8e1 82b9
00000170: 4e84 7fbd cd59 5fbd 6ff0 e3bd e831 03bd
00000180: 976d 7f3c 8dd3 9bbd 45d2 d9b9 53db 303c
00000190: 5ecd 8ebc 31a8 6ebd b961 5ebb 3d2d 7b3d
000001a0: 5a45 87bc 8d37 083c 327a a0bd 8c24 543d
000001b0: 6b15 f23b d2ba c6bd cd4f ec3c dfaa e93c
000001c0: ff27 71bd c4d4 04bd 609d 44bd d79e e4bd
000001d0: 0708 923d 83d3 03bd 498b cb3c 3d25 b43b
000001e0: 3a66 39bd 13ce 0bbd c51f cdbc 212d cdbd
000001f0: 969f 843d d583 d9bd e596 2c3d e842 87bd
00000200: 911d 3bbd a14a be3c efe2 4bbd 3e6d 803c
00000210: a35a 96bd 43af 55bd 6737 d23d c59c 153d
00000220: cc8c 813c bc56 01bd 7193 66bb b38c c1bb
00000230: e1d0 6cbd 3328 583d d4e7 87bc b2e9 08bd
00000240: 2fc2 77bd 9e00 86bd bb27 143d 9ee8 073c
00000250: c9ce 21bd 6f5e c3bc a62d 173d 85b8 b53d
00000260: 2458 80bd f57c 3abc 444d 9dbc 18a5 d03c
00000270: f892 5cbd 9e2c 98bd db39 8c3c afab 2fbd
00000280: 622f 743d 0319 9ebb 018b 9fbc 35b7 96bd
00000290: 3328 19bc 7209 363b 8221 cb3a c209 633d
000002a0: 2991 d8bc 6d14 ee3c d09a 69bd 851f 7d3d
000002b0: 8383 503d 4a3a acbc 2d38 ee3d 41b4 3dbb
000002c0: 7e76 06bc d6b6 61bc 258f ac3c eab1 cfbb
000002d0: c521 3b3d a433 863d 4e8b 2dbd 339f b6bd
000002e0: 04f3 db3d 0af5 8dbb 0667 673d 8f0d 5cbc
000002f0: 3447 5fbd 9dbd f9bb 2f35 873d af3a 103d
00000300: b29a 2b3d c890 523d 3522 063d ec8e 8cbc
00000310: 26f6 0fbd 71ff 883d b21d 3f3d e479 46bb
00000320: 9739 0b3d 3559 5a3d 3ed0 4a3d 75d6 06bd
00000330: 1677 bfbb f202 8fbb 8a38 8d3d 8915 b0bd
00000340: d3ac 13bc 5dd0 9a3c 3f1a d43c bd99 a13c
00000350: 9e78 b63d df74 023e 0e49 47bd dd46 333c
00000360: 2c3d 913d 8c32 003d 85bf 48bd cd48 923b
00000370: cb68 37bb bc5d a0bc ed4f d2bd ecad 323c
00000380: 101b 3f3d 3b60 e2bd 62e2 b33d 1fb2 be3c
00000390: 049e 023d 4cd7 933d 8823 683d 89f5 89bd
000003a0: 54a0 38bd a552 5abd 5b3d 5abd 3421 9cbc
000003b0: 9826 403c 2e05 29bd fc34 15bd 13ac 713b
000003c0: 4a59 dd3d c5b4 173d 47ed a4bc ae5e 9e3c
000003d0: f8d1 5b3d 0610 92bd ccfb 97bc 344b bcbd
000003e0: 9b8e 873d bb24 963b 3d48 ed3c b0d6 acbd
000003f0: c398 5f3b 1e46 bfbc a46f a73c 9e6e 793d

bias f4 [256]
-0.0062933606 -0.022098625 -0.02744878 0.0059051546 -0.01544023 0.038575586 -0.054000523 -0.015517689
-0.018447442 -0.08737678 0.081647694 0.007082842 -0.007696379 0.007167235 0.004165687 0.0022681758
0.017679613 -0.034306705 0.013224706 -0.0057278173 0.016311109 0.054959748 0.07276573 -0.017589873
-0.00044768368 0.034470916 -0.014218887 0.0044256994 -0.0018969811 0.038059298 -0.028276054 -0.0506037
-0.0015253283 0.016688243 -0.020548383 -0.044472136 -0.012156267 0.011334244 0.04038843 -0.038978815
0.016717995 -0.03472 0.032652374 0.0055362973 -0.05463532 -0.039320856 0.046867143 0.040945943
0.011025239 -0.037375856 -0.013428207 -0.03281369 0.0012915346 -0.025618443 -0.0052098054 -0.037252616
0.052505612 -0.01786862 0.005678447 0.010277973 0.051340453 -0.03212421 -0.06685598 -0.00050367985
-0.021140007 -0.036000248 -0.009348634 0.06719869 -0.000773653 -0.07282877 0.027233336 -0.00600409
0.0249299 0.00673011 0.017013 0.034376953 -0.005897973 0.03342918 0.058162883 0.054723445
-0.04873412 0.032728672 -0.03231446 0.029281475 0.04889622 -0.04147486 0.004101266 0.0079352
0.025637709 -0.013995001 -0.008767194 -0.034814175 -0.0490122 -0.005255487 0.016158706 0.050820272
-0.04666741 -0.035030074 0.052859664 0.007530482 0.06276982 -0.011498165 -0.042471994 0.033731353
0.030927405 -0.018587938 0.0067712804 -0.0109790815 -0.003464726 -0.002071548 -0.010000285 -0.031296887
-0.033492025 -0.010186007 0.010261508 -0.047943678 -0.010693659 0.014507192 0.0070409905 0.044209782
-0.07033154 0.031434402 0.019921845 -0.021697097 -0.08143193 -0.012695455 -0.052159518 0.015303515
0.03986699 -0.029940657 -0.012298543 -0.049819652 0.02995164 0.0062913965 -0.012261245 -0.040183943
0.0022463626 0.027592445 0.0054978244 0.039078988 -0.010706019 0.022936177 -0.015502034 0.031277925
-0.010689875 -0.04188914 -0.012689712 0.06164536 -0.017234815 -0.0656142 -0.06602133 -0.011598807
-0.012710899 0.017392306 -0.001674508 -0.06935397 -0.0466701 0.028004922 0.04112002 -0.059726305
-0.054932732 0.011431617 -0.06633119 0.022105496 -0.020062469 -0.0063967044 -0.06819912 -0.021801518
0.016810147 0.015047143 -0.04099475 0.0467128 -0.011844886 0.025761483 -0.021902759 0.029074801
2.466084e-05 0.009398395 0.019966032 -0.024655597 0.012735604 0.017190138 0.06117161 -0.025749044
0.025719922 -0.010267236 -0.044783585 -0.020145895 0.047934815 -0.0005366527 0.026732657 -0.05298878
0.047106817 -0.022702912 0.041567314 -0.027722778 0.043627806 0.009634015 0.024452785 -0.04682729
0.025525704 0.03558886 0.01872132 -0.023017626 0.041258134 -0.031714186 -0.04954973 -0.0015164084
0.009041919 0.0027829376 0.026384009 0.022655057 -0.026391843 0.035857316 0.024828227 0.017983306
-0.0022340121 -0.019693436 -0.009873748 0.01336151 -0.01925187 0.02221435 -0.02193076 0.0023341675
-0.010983732 0.025695918 0.029190386 -0.0071542193 -0.04360075 -0.0008155413 0.005587837 0.043140452
-0.0032542858 -0.018488405 0.03327203 -0.083446585 -0.048128173 0.015421162 -0.002996665 -0.003978287
-0.009495958 0.014237594 -0.030664347 0.00061642623 -0.025246495 -0.0064684344 -0.034993183 -0.031274598
0.011297742 0.030621314 0.053873558 0.022007827 -0.036655355 -0.022122664 -0.028392654 0.08221432
00000000: 8938 cebb 2d08 b5bc 44dc e0bc 0780 c13b
00000010: 05f9 7cbc 6f01 1e3d a72f 5dbd e83d 7ebc
00000020: 171f 97bc 99f2 b2bd e836 a73d 2f17 e83b
00000030: e831 fcbb 20db ea3b 5180 883b ada5 143b
00000040: d6d4 903c 3085 0cbd 70ac 583c 6ab0 bbbb
00000050: e09e 853c 791d 613d 3306 953d a318 90bc
00000060: 16b7 eab9 6031 0d3d 56f6 68bc 7505 913b
00000070: 20a4 f8ba 11e4 1b3d 2fa3 e7bc d345 4fbd
00000080: 86ed c7ba c8b5 883c 1555 a8bc 6a28 36bd
00000090: 142b 47bc 44b3 393c 576e 253d 40a8 1fbd
000000a0: 2df4 883c 8f36 0ebd 7fbe 053d d469 b53b
000000b0: 49c9 5fbd e80e 21bd c3f7 3f3d efb6 273d
000000c0: 34a3 343c 6d17 19bd fb01 5cbc a667 06bd
000000d0: b648 a93a c5dd d1bc 04b7 aabb 3396 18bd
000000e0: 2010 573d 3661 92bc 4412 ba3b f164 283c
000000f0: 5e4a 523d ad94 03bd caeb 88bd 6209 04ba
00000100: cf2d adbc ff74 13bd 032b 19bc 779f 893d
00000110: f9ce 4aba 4027 95bd 7218 df3c f5bd c4bb
00000120: ca39 cc3c 4188 dc3b d95e 8b3c d9ce 0c3d
00000130: c943 c1bb 09ed 083d 343c 6e3d b125 603d
00000140: 6e9d 47bd 800e 063d 2b5c 04bd b4df ef3c
00000150: 6747 483d 8be1 29bd ea63 863b a402 023c
00000160: 2c06 d23c 4a4b 65bc 47a4 0fbc 4f99 0ebd
00000170: 04c1 48bd 3836 acbb 435f 843c eb28 503d
00000180: 5326 3fbd b27b 0fbd 6083 583d 43c2 f63b
00000190: 778d 803d cd62 3cbc 1df7 2dbd e329 0a3d
000001a0: 785b fd3c bb45 98bc 9ee1 dd3b 9be1 33bc
000001b0: 7510 63bb cfc2 07bb 3cd8 23bc 2a31 00bd
000001c0: ef2e 09bd 36e3 26bc e21f 283c 9760 44bd
000001d0: 7534 2fbc 93af 6d3c 1cb8 e63b 5115 353d
000001e0: fc09 90bd 5cc1 003d 2333 a33c 1cbe b1bc
000001f0: c9c5 a6bd 9900 50bc 38a5 55bd 98bb 7a3c
00000200: 924b 233d 1c46 f5bc d47f 49bc b10f 4cbd
00000210: 245d f53c 0f28 ce3b 64e3 48bc eb97 24bd
00000220: b637 133b 8d09 e23c 1827 b43b 4a11 203d
00000230: 4c68 2fbc a6e4 bb3c 3efc 7dbc 481d 003d
00000240: 9624 2fbc f293 2bbd 83e8 4fbc d87f 7c3d
00000250: 0730 8dbc bd60 86bd 3136 87bd ec08 3ebc
00000260: 6041 50bc 4f7a 8e3c 2a7b dbba 7409 8ebd
00000270: 2629 3fbd 946a e53c 776d 283d 92a3 74bd
00000280: 2501 61bd ad4b 3b3c a6d8 87bd 9616 b53c
00000290: 0c5a a4bc 729b d1bb fbab 8bbd 1999 b2bc
000002a0: 6fb5 893c 4b88 763c 1cea 27bd ec55 3f3d
000002b0: 0d11 42bc bf09 d33c 6a6d b3bc 472e ee3c
000002c0: c0de ce37 bafb 193c ce8f a33c 89fa c9bc
000002d0: ffa8 503c 55d2 8c3c 158f 7a3d a9ef d2bc
000002e0: 96b2 d23c e937 28bc fe6e 37bd 0109 a5bc
000002f0: 4c57 443d 27ae 0cba 72fe da3c c30a 59bd
00000300: 14f3 403d 75fb b9bc 7d42 2a3d e11a e3bc
00000310: 12b3 323d fdd7 1d3c 3551 c83c f9cd 3fbd
00000320: 481b d13c a0c5 113d 745d 993c 768f bcbc
00000330: 4afe 283d bce6 01bd a8f4 4abd 39c2 c6ba
00000340: 8f24 143c f261 363b 4723 d83c 1997 b93c
00000350: b533 d8bc 1fdf 123d 9164 cb3c ba51 933c
00000360: 8168 12bb 2154 a1bc 80c5 21bc 3cea 5a3c
00000370: 19b6 9dbc defa b53c 23a8 b3bc d5f8 183b
00000380: 1cf5 33bc 3f80 d23c ad20 ef3c f16d eabb
00000390: b396 32bd 0dca 55ba 2d1a b73b 0bb4 303d
000003a0: db45 55bb ff74 97bc 4148 083d 0be6 aabd
000003b0: 0c22 45bd 0ba9 7c3c b263 44bb 4a5c 82bb
000003c0: ef94 1bbc cc44 693c cc33 fbbc aa97 213a
000003d0: bdd1 cebc 29f5 d3bb 0355 0fbd cb19 00bd
000003e0: 2a1a 393c 8dd9 fa3c 85aa 5c3d c249 b43c
000003f0: ed23 16bd 973a b5bc b697 e8bc fb5f a83d

weight f4 [128, 256]
0.01532508 0.032867942 0.08003349 -0.10095189 -0.046850406 0.0019273189 0.06668874 -0.091288336
0.008629447 0.08333825 0.011966229 0.0080835195 0.016125044 -0.09086357 0.08631269 0.09048628
0.03039257 -0.03897943 0.01341701 0.036640204 0.048462976 -0.02001794 0.025738882 0.10088531
-0.07033936 -0.024727516 0.030633096 0.05308123 0.038521033 0.07638093 -0.03315498 0.08825756
-0.020629544 0.024875175 0.053940292 -0.0006130171 0.020938583 0.10743238 0.05024672 -0.02656317
-0.058307063 0.10356631 0.021929327 -0.00217705 -0.018722674 0.01811041 0.08912451 -0.06546197
0.049838334 0.04200783 0.0041854107 -0.08788673 -0.069190755 0.057378776 0.058982022 -0.01749066
-0.046588723 0.004228881 -0.021933282 -0.10769665 -0.017317662 -0.09118781 0.010902669 -0.02738343
-0.07292567 0.06475754 0.035697456 -0.14949805 0.05429711 0.109845296 0.069392994 0.079772554
0.026371319 -0.04080513 -0.009563185 0.04955253 -0.029860545 0.026139911 -0.051975664 0.06855075
0.002787698 -0.028119344 0.0010785733 0.017946154 0.13507175 0.011673015 0.077471584 -0.0027967955
0.03211516 -0.029703345 0.063624345 -0.050142374 0.00549238 0.008156001 -0.025589794 -0.073678344
0.009232152 0.068787545 0.07709883 -0.04611621 0.007909925 -0.0035093683 -0.09091205 -0.007003321
0.016540999 -0.015781445 -0.023865161 0.116192505 -0.017663682 0.14294985 0.0054440084 -0.021421844
0.029836213 0.08538796 0.013530634 -0.006504477 0.06566605 0.07434351 -0.047439914 0.019358845
0.122462645 0.0048276465 0.031270284 0.045780748 0.043441117 0.052772336 0.01604692 -0.0021751418
0.008110639 0.058683302 -0.012205748 0.029420735 -0.011040419 -0.08500891 -0.047849793 -0.0026860347
0.0808803 0.10005672 -0.060839932 0.03903209 -0.10149325 -0.09451066 0.046906542 0.0101836035
0.09428496 0.0053102626 -0.1024064 -0.02416598 -0.0034187818 -0.019540709 -0.017707426 -0.10555405
0.0063634044 0.00397856 -0.098707475 -0.04345746 -0.030980784 0.029983316 0.049589086 0.09921076
-0.00650287 -0.06083412 0.09070842 0.0502991 -0.028350173 0.077660196 -0.03838704 0.07852006
-0.0010092406 0.05692102 0.053634495 0.06557745 0.00024261758 0.07397003 -0.063357815 0.0068674926
0.08344218 0.013593959 -0.08417019 -0.011461599 -0.03807904 -0.071572036 -0.12571056 0.029825645
-0.061463892 0.02275525 0.03133492 0.082398 0.033285905 -0.06903339 0.08557828 0.01800702
0.050201803 0.012120939 -0.08079677 0.078278266 0.03202335 0.07126641 0.046931114 0.03065867
-0.012808707 0.007867938 -0.061730385 -0.01958477 0.04552647 0.029563459 0.0005491495 -0.08061139
-0.07589135 0.0069408175 -0.014399752 -0.09621759 0.01687104 -0.005395316 0.03284529 -0.0073013604
-0.011451839 -0.031308033 0.05974992 -0.08474579 -0.019610371 0.057805862 0.07333366 0.03139835
-0.020509556 -0.06096004 0.023341471 -0.12787838 0.033215623 0.07900951 0.049542893 0.109390825
-0.036621574 0.09489938 0.09958561 0.013768998 0.007954329 0.102219015 -0.06179425 -0.055516932
-0.0064607924 -0.062894456 -0.049507964 0.086790375 0.10958864 0.019232634 -0.02297389 -0.008870321
0.01347602 -0.07564962 -0.08404255 0.059388757 0.03238713 -0.04910195 -0.06748131 0.013741518
00000000: 0b16 7b3c 89a0 063d 99e8 a33d ddbf cebd
00000010: 36e6 3fbd 179e fc3a 1b94 883d 61f5 babd
00000020: 8662 0d3c 3fad aa3d 010e 443c bd70 043c
00000030: ab18 843c ae16 babd b5c4 b03d df50 b93d
00000040: d7f9 f83c e5a8 1fbd 05d3 5b3c 0a14 163d
00000050: 1d81 463d aafc a3bc 59da d23c f59c ce3d
00000060: 150e 90bd 5c91 cabc 42f2 fa3c b46b 593d
00000070: 3bc8 1d3d 9b6d 9c3d 84cd 07bd 61c0 b43d
00000080: 4aff a8bc 06c7 cb3c 7ff0 5c3d e2b2 20ba
00000090: 6487 ab3c 8205 dc3d 81cf 4d3d 019b d9bc
000000a0: 63d3 6ebd 931a d43d 22a5 b33c d7ac 0ebb
000000b0: 4b60 99bc 485c 943c e986 b63d ed10 86bd
000000c0: 4823 4c3d 6710 2c3d c525 893b f5fd b3bd
000000d0: e2b3 8dbd 0206 6b3d 2297 713d 9348 8fbc
000000e0: d1d3 3ebd 6d92 8a3b 6dad b3bc 1090 dcbd
000000f0: c5dd 8dbc adc0 babd 1ca1 323c 3753 e0bc
00000100: 0e5a 95bd 9a9f 843d 7f37 123d 0416 19be
00000110: a566 5e3d 92f6 e03d ea1d 8e3d cb5f a33d
00000120: aa08 d83c 4823 27bd e8ae 1cbc 98f7 4a3d
00000130: 1a9e f4bc 5e23 d63c 6fe4 54bd 5664 8c3d
00000140: d0b1 363b 8a5a e6bc ea5e 8d3a d003 933c
00000150: 4050 0a3e 2c40 3f3c 6ca9 9e3d 714a 37bb
00000160: 308b 033d 6e54 f3bc 7b4d 823d 1762 4dbd
00000170: 6cf9 b33b bfa0 053c b0a1 d1bc ace4 96bd
00000180: 7442 173c 7ce0 8c3d fee5 9d3d 5ae4 3cbd
00000190: a198 013c 6efd 65bb 1930 babd 1d7c e5bb
000001a0: fd80 873c 1748 81bc df80 c3bc 56f6 ed3d
000001b0: 6db3 90bc 7261 123e a763 b23b dd7c afbc
000001c0: 136b f43c e2df ae3d 98af 5d3c 8223 d5bb
000001d0: ec7b 863d 6941 983d 5b50 42bd 7196 9e3c
000001e0: b2cd fa3d 3c31 9e3b 4515 003d 9884 3b3d
000001f0: 50ef 313d ce27 583d d574 833c d38c 0ebb
00000200: 7ce2 043c e75d 703d 9efa 47bc c103 f13c
00000210: e0e2 34bc 2719 aebd 25fe 43bd 2f08 30bb
00000220: 92a4 a53d 8aea cc3d 4b33 79bd 1de0 1f3d
00000230: b1db cfbd ce8e c1bd 1321 403d 21d9 263c
00000240: 7918 c13d b601 ae3b 72ba d1bd bcf7 c5bc
00000250: a40d 60bb d613 a0bc 2a0f 91bc b92c d8bd
00000260: 1b84 d03b 955e 823b 2527 cabd 7300 32bd
00000270: 6acb fdbc 929f f53c ed1d 4b3d 032f cb3d
00000280: 0716 d5bb 332d 79bd 56c5 b93d 6e06 4e3d
00000290: 9f3e e8bc 4f0c 9f3d bb3b 1dbd 20cf a03d
000002a0: 7f48 84ba 0426 693d d8af 5b3d 784d 863d
000002b0: 2967 7e39 997d 973d bec1 81bd b408 e13b
000002c0: bce3 aa3d 32b9 5e3c 6c61 acbd 6ec9 3bbc
000002d0: c4f8 1bbd 5c94 92bd 45ba 00be e954 f43c
000002e0: 90c1 7bbd 3869 ba3c 0c59 003d 48c0 a83d
000002f0: cd56 083d 6161 8dbd aa43 af3d 7583 933c
00000300: 68a0 4d3d e796 463c c778 a5bd 5b50 a03d
00000310: eb2a 033d 20f4 913d d73a 403d e427 fb3c
00000320: 9cdb 51bc 86e8 003c 00d9 7cbd 3d70 a0bc
00000330: f779 3a3d 112f f23c cdf4 0f3a 9617 a5bd
00000340: ed6c 9bbd cc6f e33b f0ec 6bbc ba0d c5bd
00000350: 2335 8a3c 31cb b0bb c888 063d 4040 efbb
00000360: 7ea0 3bbc da3c 00bd 55bc 743d 338f adbd
00000370: eea5 a0bc d7c5 6c3d f52f 963d 8e9b 003d
00000380: a803 a8bc 3cb1 79bd 9d36 bf3c 8df2 02be
00000390: 1b0d 083d bdcf a13d 7ded 4a3d 4c08 e03d
000003a0: 8100 16bd 9b5a c23d 8af3 cb3d 5d97 613c
000003b0: e052 023c 3458 d13d f81b 7dbd b965 63bd
000003c0: 0eb5 d3bb cfce 80bd ddc8 4abd 27bf b13d
000003d0: 0270 e03d c28d 9d3c bd33 bcbc d354 11bc
000003e0: 86ca 5c3c 30ee 9abd 801e acbd a041 733d
000003f0: 5ea8 043d 201f 49bd a433 8abd 1b24 613c

bias f4 [128]
-0.007647774 -0.067327686 -0.019724196 -0.02572629 0.020932393 0.009976146 -0.0043665944 0.05433429
-0.04365588 0.043677572 0.013799276 -0.04209792 -0.004184662 0.0020969727 -0.01979196 -0.06091813
0.016027981 0.04180643 0.07705065 0.037016317 0.037558336 -0.05158461 -0.03946441 0.03420741
0.021284526 0.038678706 -0.03137624 -0.050375655 0.04821944 -0.073850855 -0.057728045 0.051458307
-0.053868342 0.079055406 -0.030227121 0.035492808 0.10692232 -0.038753793 -0.039132446 0.062975384
-0.023758236 0.09093519 -0.04393223 0.032078765 0.051114097 -0.022584595 0.019728791 0.099994995
-0.032710295 -0.0012547795 0.014402074 0.017086849 -0.06890109 0.01854839 0.058078207 -0.037279014
0.011306642 0.09955359 -0.06639422 -0.0031086302 -0.01849386 -0.004300901 0.07960003 -0.06162885
0.087162636 0.04864444 -0.11901781 -0.025913019 -0.029542632 0.039555877 0.05891992 -0.08342775
0.001070544 -0.06211303 -0.018778892 -0.0077961027 0.03020164 -0.023860093 0.02866006 0.041361492
-0.0029577569 0.0063529043 0.07487246 -0.02116263 -0.024297636 -0.050286517 -0.001426676 -0.06331351
0.07986114 -0.010671882 0.005979324 -0.058271043 0.025303816 -0.06736778 0.03367951 0.022548169
0.03621647 0.078947134 0.014405315 0.020539297 -0.00015724753 -0.020277083 0.03386947 -0.008013032
-0.055613276 -0.009981918 0.0710714 0.05992859 0.025307216 -0.062223803 0.023535797 -0.10136172
-0.0062270695 -0.054885454 0.045532424 -0.057292696 -0.0033399356 0.031282313 -0.047874916 -0.049733523
-0.039995782 -0.023348842 0.008957277 0.05544955 0.022194799 -0.08141338 0.04548169 -0.0013012673
00000000: 2e9a fabb 19e3 89bd a394 a1bc f1bf d2bc
00000010: 697a ab3c fd72 233c a615 8fbb a28d 5e3d
00000020: 82d0 32bd 41e7 323d 5c16 623c de6e 2cbd
00000030: 7d1f 89bb 5d6d 093b c022 a2bc 4a85 79bd
00000040: 1d4d 833c 383d 2b3d bbcc 9d3d 6c9e 173d
00000050: c5d6 193d 624a 53bd 6fa5 21bd 121d 0c3d
00000060: e35c ae3c 906d 1e3d 5f84 00bd b456 4ebd
00000070: bf81 453d 1e3f 97bd 3e74 6cbd f2c5 523d
00000080: 0da5 5cbd cde7 a13d de9e f7bc e860 113d
00000090: 17fa da3d 4cbc 1ebd 5849 20bd 3df9 803d
000000a0: a2a0 c2bc 3b3c ba3d 48f2 33bd 0665 033d
000000b0: 045d 513d 5403 b9bc 469e a13c 2dca cc3d
000000c0: 3bfb 05bd 6a77 a4ba adf6 6b3c b8f9 8b3c
000000d0: 041c 8dbd cbf2 973c 6ae3 6d3d e1b1 18bd
000000e0: 7e3f 393c c1e2 cb3d b1f9 87bd 29ba 4bbb
000000f0: 6f80 97bc 93ee 8cbb 5705 a33d 886e 7cbd
00000100: 5382 b23d 643f 473d 9cbf f3bd 8a47 d4bc
00000110: 6403 f2bc 5805 223d 0456 713d 2bdc aabd
00000120: 7f51 8c3a 3c6a 7ebd 31d6 99bc 7376 ffbb
00000130: 6e69 f73c 3e76 c3bc 81c8 ea3c ab6a 293d
00000140: edd6 41bb 062c d03b bb56 993d 405d adbc
00000150: d60b c7bc 3cf9 4dbd 4eff baba 83aa 81bd
00000160: 3d8e a33d 1ed9 2ebc 35ee c33b 9ead 6ebd
00000170: f349 cf3c 1ef8 89bd 87f3 093d f0b6 b83c
00000180: b957 143d 09af a13d 4504 6c3c 0742 a83c
00000190: d0e2 24b9 201c a6bc b7ba 0a3d 1849 03bc
000001a0: bfca 63bd 338b 23bc e28d 913d ae77 753d
000001b0: 1451 cf3c 63de 7ebd 25ce c03c bc96 cfbd
000001c0: 720c ccbb 92cf 60bd 3580 3a3d bfab 6abd
000001d0: d2e2 5abb e221 003d 7d18 44bd 61b5 4bbd
000001e0: 9ed2 23bd 1246 bfbc 8bc1 123c 111f 633d
000001f0: ded1 b53c 0fbc a6bd 024b 3a3d 498f aaba

weight f4 [64, 128]
-0.07534674 0.021769047 -0.10823222 0.12177133 -0.1423162 0.015177858 0.07664216 0.08736075
-0.15355621 0.004720492 -0.040309362 0.09158977 -0.11869893 0.095672 -0.10836817 0.12236148
0.003404485 0.02898162 -0.06244839 -0.07162925 0.09092288 0.013787339 -0.06872069 -0.059473604
-0.033155102 -0.06409062 -0.057102546 0.12782098 -0.16421309 -0.023488449 0.15418799 0.08824636
0.13492309 0.04281455 0.12500055 0.013989292 -0.09289936 0.04013317 -0.0007098221 0.017846975
0.10787148 -0.013339089 0.099996805 -0.11556481 -0.03338413 -0.065396346 0.09636678 -0.16183388
-0.16688903 0.108490564 -0.13818157 -0.11051713 0.18065889 0.08352931 -0.110902116 -0.032074172
0.12652992 0.11430452 -0.051243007 -0.15745571 -0.09886841 0.07697853 0.060399935 -0.042827986
0.0024777632 0.0445507 0.078283295 0.018949065 0.01974596 -0.072075784 0.023965947 -0.106434934
0.04088179 0.13946253 0.12669247 0.03248539 -0.04629103 0.07514586 0.025093265 -0.06528864
0.054237865 -0.016302256 0.024628595 -0.0921586 -0.046985477 0.03219028 -0.0562542 0.049044438
-0.035212 -0.063633755 -0.09969401 0.13305157 0.024145111 0.087128855 -0.000108136184 -0.11660304
0.089857236 -0.17944236 -0.036737263 -0.109613985 0.034782223 -0.09882405 -0.09696032 -0.111138895
-0.08950155 -0.06730837 -0.14657234 0.043162674 -0.11452271 0.08246631 0.04598847 0.12687968
0.12001738 0.03552859 0.0048441053 -0.0030306387 -0.07909235 -0.12697957 0.07895637 -0.014910736
0.16362067 -0.095964804 -0.0900702 0.12450976 0.12346056 0.092538506 0.0910632 0.047564827
0.095063135 0.03271196 0.053211387 0.007492071 -0.062332984 0.012329985 -0.0018217467 -0.051187232
-0.093626134 0.086721435 -0.017350534 -0.09104892 0.092017606 -0.018320745 0.11068048 0.108946726
0.052712444 -0.019078325 -0.095796354 -0.02326299 0.09879217 -0.033127148 -0.020583563 -0.13352697
-0.08564783 0.005151426 -0.07915488 0.08963169 -0.10830488 0.10838447 0.14536165 0.098510556
0.039258417 -0.028595814 0.12526608 -0.036005456 -0.037504964 0.016529053 0.1138987 0.07878329
0.07031879 -0.008580308 0.0148987 -0.020057036 -0.07460384 -0.0778842 -0.11294543 -0.13768135
-0.112503275 0.061851867 -0.071298435 0.021434067 0.0889988 0.0986918 0.037720397 0.052096598
-0.08226482 0.060975157 0.07845721 -0.115871914 0.097682424 0.0027097787 0.10522901 -0.061125252
0.120918825 0.10875504 0.17774494 0.06242914 0.072821744 0.097374246 0.056715798 -0.05401472
-0.111490086 0.028351294 0.121418275 -0.04905468 -0.052810222 0.08051045 -0.097381696 -0.14485714
0.034197878 0.03291646 -0.13164866 -0.011454219 -0.058385797 -0.075142324 0.030404031 0.04965709
0.052792594 -0.093357936 0.016579406 0.087620795 -0.092051245 0.028151862 -0.08311163 0.03728959
0.008221731 -0.1381607 0.08995448 -0.028940016 0.12070204 0.005029688 -0.08895882 -0.018142428
-0.049216356 0.037376158 -0.009792884 -0.05554543 -0.13831598 -0.06842877 -0.12206979 -0.019062039
0.028705075 -0.11458409 -0.09631148 -0.074243315 -0.111610316 -0.12131066 0.15929104 0.045173395
0.12817101 0.0949926 0.005166867 0.1288639 0.04026376 0.013276994 -0.0525306 0.09339367
00000000: 644f 9abd 0055 b23c dba8 ddbd 3f63 f93d
00000010: 57bb 11be 8dac 783c 91f6 9c3d 31ea b23d
00000020: d73d 1dbe 5bae 9a3b 6e1b 25bd 6b93 bb3d
00000030: 6d18 f3bd aeef c33d 22f0 ddbd a898 fa3d
00000040: c81d 5f3b dd6a ed3c e2c9 7fbd 5bb2 92bd
00000050: c635 ba3d 4be4 613c 6fbd 8cbd 989a 73bd
00000060: a5cd 07bd f141 83bd 5ce4 69bd 81e3 023e
00000070: 7a27 28be d96a c0bc 75e3 1d3e 82ba b43d
00000080: 4729 0a3e 4f5e 2f3d 2500 003e 5833 653c
00000090: 0542 bebd ae62 243d 5b13 3aba d233 923c
000000a0: b9eb dc3d 328c 5abc 20cb cc3d 3ead ecbd
000000b0: ccbd 08bd 85ee 85bd f25b c53d c8b7 25be
000000c0: f5e4 2abe 4d30 de3d 787f 0dbe ce56 e2bd
000000d0: a5fe 383e 6a11 ab3d a620 e3bd 3560 03bd
000000e0: 0f91 013e 7d18 ea3d 30e4 51bd 123c 21be
000000f0: 857b cabd eba6 9d3d ec65 773d 666c 2fbd
00000100: f861 223b cb7a 363d fe52 a03d 123b 9b3c
00000110: 48c2 a13c 789c 93bd 3c54 c43c 8ffa d9bd
00000120: aa73 273d 44cf 0e3e acbb 013e 660f 053d
00000130: aa9b 3dbd 13e6 993d 6490 cd3c 0db6 85bd
00000140: 8628 5e3d 4f8c 85bc e8c1 c93c a6bd bcbd
00000150: d873 40bd f4d9 033d ce6a 66bd d2e2 483d
00000160: 753a 10bd 6a52 82bd 602c ccbd ac3e 083e
00000170: f8cb c53c 9d70 b23d 2cc7 e2b8 93cd eebd
00000180: 1207 b83d bdbf 37be d079 16bd 4c7d e0bd
00000190: ce77 0e3d 4364 cabd 2293 c6bd ca9c e3bd
000001a0: 974c b7bd f8d8 89bd 0f17 16be 58cb 303d
000001b0: e28a eabd 19e4 a83d 685e 3c3d bfec 013e
000001c0: accb f53d 6d86 113d 4dbb 9e3b ae9d 46bb
000001d0: 2cfb a1bd ef06 02be e1b3 a13d 294c 74bc
000001e0: 2d8c 273e 3289 c4bd ba76 b8bd f9fe fe3d
000001f0: e4d8 fc3d d484 bd3d 587f ba3d 56d3 423d
00000200: 76b0 c23d fafc 053d 2ff4 593d 0c80 f53b
00000210: df50 7fbd b503 4a3c adc7 eeba b4a9 51bd
00000220: 0fbf bfbd 029b b13d b522 8ebc db77 babd
00000230: ba73 bc3d 6315 96bc 73ac e23d 761f df3d
00000240: 01e9 573d 264a 9cbc e130 c4bd 0792 bebc
00000250: 8d53 ca3d 55b0 07bd dc9e a8bc 4bbb 08be
00000260: 2168 afbd 4bcd a83b f41b a2bd d290 b73d
00000270: f3ce ddbd adf8 dd3d afd9 143e e7bf c93d
00000280: 6fcd 203d c541 eabc c045 003e 757a 13bd
00000290: ce9e 19bd f067 873c b943 e93d 2259 a13d
000002a0: 4c03 903d 6c94 0cbc ad19 743c a74e a4bc
000002b0: e6c9 98bd c081 9fbd ef4f e7bd 57fc 0cbe
000002c0: 1e68 e6bd 6258 7d3d ea04 92bd 7f96 af3c
000002d0: 0145 b63d ed1e ca3d b480 1a3d 3e63 553d
000002e0: 757a a8bd 16c1 793d 2cae a03d 414e edbd
000002f0: b90d c83d 8b96 313b 4f82 d73d 795e 7abd
00000300: 4aa4 f73d f6ba de3d c502 363e b3b5 7f3d
00000310: 9123 953d 266c c73d d34e 683d 8a3e 5dbd
00000320: ea54 e4bd f940 e83c 25aa f83d 8fed 48bd
00000330: 884f 58bd aae2 a43d 0e70 c7bd 6e55 14be
00000340: 1313 0c3d 69d3 063d e8ce 06be 7aaa 3bbc
00000350: f225 6fbd 38e4 99bd e011 f93c 3c65 4b3d
00000360: 0c3d 583d 7232 bfbd 89d1 873c 8872 b33d
00000370: 5d85 bcbd bc9e e63c 6e36 aabd f8bc 183d
00000380: 70b4 063c 007a 0dbe 0e3a b83d 9d13 edbc
00000390: a232 f73d 15d0 a43b 0b30 b6bd 6e9f 94bc
000003a0: 1797 49bd be17 193d 5572 20bc 9b83 63bd
000003b0: b4a2 0dbe 6224 8cbd baff f9bd fe27 9cbc
000003c0: e826 eb3c 10ab eabd f43e c5bd e10c 98bd
000003d0: f393 e4bd b971 f8bd 311d 233e bd07 393d
000003e0: 433f 033e 7b8b c23d d24e a93b e6f4 033e
000003f0: 9deb 243d c087 593c 542a 57bd 2e45 bf3d

bias f4 [64]
0.0027118959 -0.007903835 -0.054460615 -0.025708424 -0.10260151 0.026860066 0.040411197 -0.1069674
-0.05073763 -0.063513815 0.02866659 -0.015138261 0.09462893 -0.052011617 -0.05692839 -0.060143914
0.042864308 -0.0049469545 0.091444604 -0.045459848 0.03943092 0.015018989 0.029902302 0.061926395
0.110970594 0.045628965 0.043653145 -0.04466323 -0.10882844 0.059046943 0.07551364 -0.017341059
0.010721646 0.009637625 -0.028271304 -0.025883244 -0.04124233 0.1015861 -0.01922479 -0.06745303
-0.059035238 -0.09255616 -0.037807427 -0.064861976 -0.040350992 0.00013732509 0.024743626 -0.019449499
0.028387526 -0.034464866 -0.041949615 0.081911616 0.0799731 0.041968174 -0.037604287 -0.10272692
-0.036813974 0.048034616 -0.0243983 -0.085418686 -0.010825101 -0.01702393 -0.03045577 -0.0714656
00000000: 10ba 313b 167f 01bc 1812 5fbd 799a d2bc
00000010: be20 d2bd a409 dc3c 3686 253d b911 dbbd
00000020: 43d2 4fbd 8813 82bd 32d6 ea3c 7806 78bc
00000030: d0cc c13d 220a 55bd be2d 69bd 7759 76bd
00000040: 7c92 2f3d 101a a2bb 4f47 bb3d 1b34 3abd
00000050: 5182 213d 3512 763c acf5 f43c 88a6 7d3d
00000060: 8d44 e33d 70e5 3a3d a4cd 323d cbf0 36bd
00000070: 72e1 debd 35db 713d e5a6 9a3d d60e 8ebc
00000080: d8a9 2f3c 21e7 1d3c 3999 e7bc 1909 d4bc
00000090: b8ed 28bd 600c d03d 4f7d 9dbc d024 8abd
000000a0: efce 71bd 168e bdbd f6db 1abd 5bd6 84bd
000000b0: 1547 25bd ecfe 0f39 25b3 ca3c 8e54 9fbc
000000c0: f58c e83c 082b 0dbd 5cd3 2bbd 47c1 a73d
000000d0: f0c8 a33d d2e6 2b3d f406 1abd 7e62 d2bd
000000e0: 40ca 16bd f2bf 443d f2de c7bc feef aebd
000000f0: c45b 31bc c575 8bbc 617e f9bc 8e5c 92bd
