TP/save_models_LSTMOutputSequence_64/model_2.pt (torch, 153761 bytes, 6 tensors)

weight_ih_l0 f4 [256, 64]
-0.49386942 -0.26776242 0.10747603 -0.025478026 -0.12987329 0.05655833 -0.045115545 0.43763468
-0.31676218 -0.87495077 -0.16521004 0.26258305 0.2041957 0.10483003 0.25752264 0.15679839
-0.07976297 0.06704072 0.028817257 0.14046098 0.029671075 0.06509624 0.37081113 0.25939035
0.005438694 0.01894121 0.015162114 -0.22837889 -0.15062216 -0.17667437 0.13171774 0.35974848
-0.1907725 0.009653339 0.100907005 -0.07295197 0.3436965 0.05794509 0.121976316 -0.026157003
-0.06321106 0.15470222 0.24787286 -0.118326046 0.20720977 -0.47520596 0.16060469 -1.6423419e-05
0.2663352 0.88522863 0.3712319 0.34281304 0.16156621 -0.16643253 0.11048319 0.18939835
0.0668703 0.04718392 -0.07024004 -0.08885958 -0.111279994 -0.27044463 -0.10026804 -0.058796715
0.032016065 -0.07010812 0.00013691113 -0.021384194 -0.06798831 -0.13533826 -0.2156147 0.23746352
-0.21071604 0.14362368 0.16379759 -0.11136108 0.050918013 -0.068501905 -0.07403078 0.24141137
-0.4160316 -0.21036899 0.16962475 -0.11462789 0.03357965 0.1915485 -0.13569939 -0.080216475
-0.7473808 -0.27478418 0.19309737 0.04876588 -0.10057974 0.19318713 0.045784876 0.06724068
-0.6337665 -0.40740803 -0.14328615 -0.06697001 -0.16941136 -0.023815531 -0.06004265 0.14836274
-0.46482784 -0.33908212 -0.14551188 -0.1534932 0.1537536 -0.046398632 0.040904082 0.1786531
-0.58027303 0.17708194 -0.0072741616 0.10376018 0.035821605 0.06917842 -0.18587804 0.06147097
-0.07376927 0.18688375 0.0821634 0.041875638 0.108601525 -0.017843783 0.18108134 0.09763664
0.1457341 0.08839334 0.27086762 0.106990404 0.052396875 0.06332784 0.15933388 0.77111125
-0.16951603 0.19370809 0.04004423 0.07910463 -0.11556561 -0.15568075 -0.09070651 -0.081729814
0.07262437 0.23126984 0.08498249 -0.3532436 0.055612676 0.42253834 -0.30499592 -0.23181352
-0.00843584 -0.27892366 -0.07248795 -0.1447734 -0.2512227 -0.19417414 -0.29952088 -0.07235414
-0.085421905 -0.20120724 -0.09751267 -0.04465728 0.36320534 -0.28401235 0.0013234122 0.22877817
0.05855707 0.03834951 -0.49898002 0.38512224 -0.12467442 0.3200996 0.012587599 0.30474946
0.24728201 0.08497299 -0.07054143 0.21570806 0.11946937 0.122472785 -0.15703326 0.004668395
-0.26756862 -0.025758915 -0.25226608 0.16975796 0.03747274 -0.21504432 -0.015905658 -0.10457296
0.15724996 -0.36602858 -0.4815412 -0.30315852 -0.26350242 -0.28170246 -0.34599426 -0.4301622
0.4210142 0.22809193 -0.37219074 -0.269155 -0.44466427 -0.28480557 0.15839659 0.2036627
0.09682529 -0.04959246 -0.20551197 -0.09400974 -0.09476179 0.08987609 0.3871641 0.2031996
0.3097517 -0.2899011 0.06883502 -0.035855547 0.16652752 -0.039227888 -0.0039130184 0.042773984
0.29352212 0.049293295 0.12438285 0.04685614 0.096932895 -0.0348599 -0.21937746 0.14850998
0.119691595 0.06671323 0.011056016 -0.054930888 -0.14985704 -0.15005529 -0.119821645 0.09612678
0.328752 0.09851865 0.085840255 0.18625058 0.12893969 -0.117205314 -0.18063122 -0.045137588
0.20118313 0.13388625 0.1608542 0.026005121 0.06226596 0.16444148 0.2806638 0.27499008
00000000: 74dc fcbe 2818 89be 651c dc3d 4bb7 d0bc
00000010: 81fd 04be b5a9 673d 14cb 38bd a711 e03e
00000020: a72e a2be c6fc 5fbf d22c 29be 4971 863e
00000030: ad18 513e 20b1 d63d 02da 833e c28f 203e
00000040: c55a a3bd a54c 893d 2b12 ec3c 01d5 0f3e
00000050: c110 f33c 2d51 853d f5da bd3e d0ce 843e
00000060: 1237 b23b 992a 9b3c 846a 783c 28dc 69be
00000070: b23c 1abe 20ea 34be 04e1 063e f430 b83e
00000080: de59 43be 0a29 1e3c 55a8 ce3d d867 95bd
00000090: fdf8 af3e d557 6d3d b8ce f93d 3647 d6bc
000000a0: cd74 81bd 426a 1e3e 62d2 7d3e ed54 f2bd
000000b0: cc2e 543e 324e f3be 8e75 243e 06c5 89b7
000000c0: 165d 883e 589e 623f 1c12 be3e 3185 af3e
000000d0: 9d71 253e 4a6d 2abe 0345 e23d a4f1 413e
000000e0: 4cf3 883d ed43 413d 03da 8fbd 03fc b5bd
000000f0: c4e6 e3bd b877 8abe 5559 cdbd d3d4 70bd
00000100: 4723 033d d994 8fbd cd8f 0f39 e82d afbc
00000110: 743d 8bbd 1d96 0abe 1aca 5cbe a329 733e
00000120: f2c5 57be 1612 133e 8eba 273e 4711 e4bd
00000130: 688f 503d ba4a 8cbd 739d 97bd 8b34 773e
00000140: 1802 d5be f86a 57be 1cb2 2d3e 07c2 eabd
00000150: d18a 093d 4a25 443e c8f4 0abe 8948 a4bd
00000160: 5954 3fbf 83b0 8cbe 51bb 453e bbbe 473d
00000170: c0fc cdbd d9d2 453e ec88 3b3d 7bb5 893d
00000180: 853e 22bf c997 d0be 9bb9 12be 9327 89bd
00000190: 2c7a 2dbe ca18 c3bc 48ef 75bd 67ec 173e
000001a0: eafd edbe 2c9c adbe 1101 15be 522d 1dbe
000001b0: 9571 1d3e 7e0c 3ebd 0a8b 273d d7f0 363e
000001c0: c68c 14bf f854 353e 175c eebb 3880 d43d
000001d0: adb9 123d 6aad 8d3d d056 3ebe fcc8 7b3d
000001e0: 5814 97bd 745e 3f3e 4945 a83d ca85 2b3d
000001f0: 7a6a de3d 202d 92bc 636d 393e b8f5 c73d
00000200: 523b 153e 9107 b53d 29af 8a3e c91d db3d
00000210: 1b9e 563d 07b2 813d 6c28 233e 8c67 453f
00000220: 9c95 2dbe 6a5b 463e 6b05 243d 9c01 a23d
00000230: aaad ecbd c66a 1fbe 56c4 b9bd f661 a7bd
00000240: 16bc 943d 00d2 6c3e 4d0b ae3d 58dc b4be
00000250: 1eca 633d f256 d83e 6d28 9cbe 8660 6dbe
00000260: 7a36 0abc 15cf 8ebe 9074 94bd 7a3f 14be
00000270: 43a0 80be 96d5 46be cd5a 99be 682e 94bd
00000280: aef1 aebd 4509 4ebe b9b4 c7bd 8dea 36bd
00000290: 0df6 b93e 116a 91be 5876 ad3a d344 6a3e
000002a0: 8ad9 6f3d 6014 1d3d 4f7a ffbe be2e c53e
000002b0: 4d55 ffbd 18e4 a33e 383c 4e3c 1f08 9c3e
000002c0: 7f37 7d3e 5206 ae3d 0678 90bd 93e2 5c3e
000002d0: 5bac f43d 03d3 fa3d 54cd 20be 56f9 983b
000002e0: c1fe 88be 5c04 d3bc 0529 81be 08d5 2d3e
000002f0: 047d 193d 9434 5cbe 954c 82bc 592a d6bd
00000300: 2206 213e 1968 bbbe 918c f6be 9837 9bbe
00000310: cae9 86be 4e3b 90be 2926 b1be 383e dcbe
00000320: 2c8f d73e ee90 693e c98f bebe afce 89be
00000330: 09ab e3be 09d2 91be b732 223e f48c 503e
00000340: 564c c63d 7721 4bbd bb71 52be 2e88 c0bd
00000350: 7812 c2bd f510 b83d 5f3a c63e 8e13 503e
00000360: c697 9e3e eb6d 94be 60f9 8c3d 44dd 12bd
00000370: 3186 2a3e 6cad 20bd c738 80bb c633 2f3d
00000380: 8848 963e c4e7 493d 70bc fe3d 39ec 3f3d
00000390: c184 c63d 41c9 0ebd 7ca4 60be 0013 183e
000003a0: de20 f53d f2a0 883d 4b24 353c 36ff 60bd
000003b0: 2074 19be 18a8 19be 0d65 f5bd 1ede c43d
000003c0: 2f52 a83e 25c4 c93d 04cd af3d 79b8 3e3e
000003d0: c408 043e 5709 f0bd 64f7 38be 31e2 38bd
000003e0: f302 4e3e 7a19 093e f7b6 243e b108 d53c
000003f0: 970a 7f3d 5963 283e 2ab3 8f3e 80cb 8c3e

weight_hh_l0 f4 [256, 64]
0.28664795 0.010287516 -0.24830014 0.032931644 -0.106026754 0.18095419 -0.10380166 0.29780626
-0.04262279 0.25444776 0.19420852 0.14859827 -0.1736911 -0.45718035 0.29483402 -0.34198597
0.4634958 0.2493157 0.29744393 -0.0748646 0.14688058 -0.32810837 -0.42028144 0.16706605
-0.050306313 0.1318428 0.003932837 -0.070992775 0.04948798 0.17723112 0.0071415156 0.020815657
0.39246154 0.065715455 -0.14784384 0.3110857 0.19215187 -0.036092248 0.22235875 0.34255442
0.0072251707 0.19597046 -0.16058311 0.37779438 0.18783379 0.10345734 -0.1911101 -0.122482546
-0.32591107 0.099212565 -0.12449948 -0.035552654 0.17145233 0.19101343 0.21838221 -0.04468788
-0.05058013 0.117346756 0.028892826 0.19425137 0.27078187 -0.29472598 0.59208125 -0.1452825
0.027323987 -0.19708636 -0.10083095 -0.14984699 -0.18927826 0.109991886 0.071710646 -0.12020246
0.10290148 -0.059106857 -0.12017523 0.08792792 0.10485809 0.17101751 -0.12347071 0.0033196697
-0.005135654 0.24130665 0.0012429432 0.011704353 0.22178416 -0.054295715 -0.3256539 -0.38600108
-0.08579583 0.1985531 -0.16438837 0.018402409 0.29479536 0.040036738 0.0065717734 -0.21615554
0.12666622 -0.046229865 -0.054235388 -0.18273482 0.14366281 -0.033565972 0.14462866 -0.18447801
-0.08606673 0.15559967 0.007882967 -0.031331334 -0.05071664 -0.07072992 -0.04080506 0.10309666
0.08425653 0.020765904 -0.07488499 -0.02421091 -0.083848365 0.093324915 0.1494947 -0.21210957
-0.16104601 -0.081954576 -0.02795813 0.27854335 -0.091900215 -0.27303553 0.029566238 -0.04246915
-0.12366666 0.2543047 -0.09067786 0.06083785 -0.53595203 -0.049372163 0.332041 0.029399436
-0.08618121 -0.30594015 -0.04308872 0.043891422 -0.20075972 0.0677389 -0.24086925 -0.29036978
0.388918 -0.088425495 0.58014023 -0.26163888 0.21082233 0.004191081 -0.533986 -0.23806918
0.15936434 0.21286076 -0.016917482 0.13393801 -0.21633711 -0.3671438 0.11286888 0.005890405
0.31843424 0.21989627 -0.28803954 -0.4084795 0.10524064 0.06248483 -0.0065404433 -0.2855354
0.30451488 -0.19656497 -0.132757 -0.0011822778 -0.34948948 -0.059821445 0.058812812 -0.06474577
-0.12724465 0.21651305 -0.2052141 -0.33239177 0.107953206 -0.2799046 0.006383992 -0.22981696
0.57415164 0.14158271 -0.08841119 0.11951445 0.026656711 -0.35073963 0.08367305 -0.41308296
0.2839215 -0.019458946 -0.15562208 0.2804181 -0.018948453 0.29148704 0.1142633 -0.29351622
0.0353633 -0.06590448 0.056915678 0.14005126 -0.025381846 -0.15944767 -0.033541836 -0.25935006
-0.064051196 -0.1370609 -0.0140997 0.3706905 0.39537838 0.15876342 -0.16510433 -0.16316529
0.26746827 -0.18690084 0.04255649 0.2754896 0.118470885 0.019610392 0.20669305 0.021324057
-0.032740906 -0.042702895 0.033821173 -0.20039734 -0.20013866 0.036043946 0.07601471 -0.17984235
-0.15473978 -0.10374372 0.12904826 0.01924912 0.20333874 -0.1310133 0.59550315 0.036322657
-0.092564315 -0.057916723 -0.058716893 -0.27256536 0.11190114 -0.12272736 -0.06015979 0.14706592
0.12793733 0.20325327 -0.12530275 -0.4384751 -0.34349138 -0.051551204 0.17245264 -0.03157608
00000000: 85c3 923e f88c 283c 6442 7ebe 55e3 063d
00000010: 8e24 d9bd 0e4c 393e f795 d4bd 107a 983e
00000020: 3c95 2ebd fa46 823e 99de 463e 252a 183e
00000030: 14dc 31be 8b13 eabe 7cf4 963e c918 afbe
00000040: 524f ed3e 9d4c 7f3e 924a 983e 9d52 99bd
00000050: dd67 163e d2fd a7be 212f d7be 5d13 2b3e
00000060: fe0d 4ebd cd01 073e 07df 803b a964 91bd
00000070: e8b3 4a3d 137c 353e 6003 ea3b 9985 aa3c
00000080: b8f0 c83e d395 863d 6064 17be a046 9f3e
00000090: 76c3 443e 77d5 13bd 03b2 633e 4b63 af3e
000000a0: 20c1 ec3b 7bac 483e e66f 24be 446e c13e
000000b0: 8057 403e 71e1 d33d 5eb2 43be 21d8 fabd
000000c0: d1dd a6be f52f cb3d 95f9 febd a99f 11bd
000000d0: 3391 2f3e 0699 433e 969f 5f3e a30a 37bd
000000e0: 1c2d 4fbd 7f53 f03d a6b0 ec3c d5e9 463e
000000f0: eca3 8a3e 53e6 96be a392 173f f0c4 14be
00000100: 8ed6 df3c 02d1 49be 7580 cebd 7d71 19be
00000110: 29d2 41be 6d43 e13d 08dd 923d b52c f6bd
00000120: 03be d23d 081a 72bd 6e1e f6bd 8e13 b43d
00000130: d7bf d63d 371f 2f3e 36de fcbd d18e 593b
00000140: fd48 a8bb 1719 773e 41ea a23a 9dc3 3f3c
00000150: 631b 633e 2f65 5ebd 1cbc a6be efa1 c5be
00000160: b9b5 afbd 8151 4b3e 6d55 28be a6c0 963c
00000170: 6bef 963e 90fd 233d 0858 d73b e157 5dbe
00000180: cab4 013e 875b 3dbd ed25 5ebd d61e 3bbe
00000190: 581c 133e 797c 09bd 8919 143e cee7 3cbe
000001a0: c143 b0bd 8555 1f3e 8f27 013c 4955 00bd
000001b0: 40bc 4fbd d9da 90bd 3523 27bd 5724 d33d
000001c0: b08e ac3d 421d aa3c 4d5d 99bd f555 c6bc
000001d0: b1b8 abbd 2221 bf3d 2315 193e 4033 59be
000001e0: 3fe9 24be cdd7 a7bd 7308 e5bc 3c9d 8e3e
000001f0: 2e36 bcbd 50cb 8bbe e534 f23c 22f4 2dbd
00000200: f244 fdbd 3a34 823e 50b5 b9bd 1c31 793d
00000210: 2734 09bf 773a 4abd 4701 aa3e 16d7 f03c
00000220: c67f b0bd 30a4 9cbe cc7d 30bd 7ec7 333d
00000230: f593 4dbe b1ba 8a3d 6ea6 76be 59ab 94be
00000240: 4320 c73e 6d18 b5bd 1284 143f 88f5 85be
00000250: cfe1 573e 5655 893b 4eb3 08bf 68c8 73be
00000260: 6830 233e 2cf8 593e 8896 8abc 0c27 093e
00000270: 7a87 5dbe 46fa bbbe cd27 e73d 4c04 c13b
00000280: d009 a33e 7d2c 613e eb79 93be 3a24 d1be
00000290: 6888 d73d 18f0 7f3d 3751 d6bb b231 92be
000002a0: 60e9 9b3e 5448 49be 73f1 07be a9f6 9aba
000002b0: 49f0 b2be 5507 75bd b4e5 703d 6e99 84bd
000002c0: 6c4c 02be 99b5 5d3e a523 52be 412f aabe
000002d0: 9216 dd3d a84f 8fbe ce30 d13b 2355 6bbe
000002e0: 9afb 123f 0ffb 103e ed10 b5bd fec3 f43d
000002f0: 2d5f da3c 2594 b3be c75c ab3d 9c7f d3be
00000300: 295e 913e 5e68 9fbc 655b 1fbe f692 8f3e
00000310: c939 9bbc ca3d 953e e102 ea3d c247 96be
00000320: 1cd9 103d eef8 86bd 6a20 693d 9969 0f3e
00000330: 97ed cfbc 4046 23be 2a63 09bd 88c9 84be
00000340: 462d 83bd b159 0cbe 6e02 67bc 25cb bd3e
00000350: 096f ca3e e192 223e 1c11 29be cd14 27be
00000360: 9af1 883e ef62 3fbe b74f 2e3d f90c 8d3e
00000370: dda0 f23d f9a5 a03c 58a7 533e caaf ae3c
00000380: 541b 06bd 3be9 2ebd 1288 0a3d f634 4dbe
00000390: 26f1 4cbe d1a2 133d 9aad 9b3d 9828 38be
000003a0: 1b74 1ebe 9677 d4bd 3a25 043e 55b0 9d3c
000003b0: 0838 503e 5a28 06be e572 183f 11c7 143d
000003c0: 5c92 bdbd 163a 6dbd 2081 70bd b08d 8bbe
000003d0: 6d2c e53d 7b58 fbbd 1d6a 76bd 7398 163e
000003e0: 0102 033e a021 503e 5d4f 00be cf7f e0be
000003f0: 1ade afbe 5b27 53bd 6d97 303e eb55 01bd

bias_ih_l0 f4 [256]
0.09029413 0.076678984 0.03484284 0.082544595 0.0347593 0.028452476 -0.026288247 0.042789776
0.16905735 -0.028846214 0.11100639 0.2106442 0.13930728 0.058911502 0.09070318 0.1583039
0.16740786 -0.18548147 0.22336172 -0.10666663 0.19756527 0.09807007 0.15921871 0.05372295
0.21187158 -0.041788764 -0.04803189 0.057442125 0.09676589 0.1764364 0.12722982 0.016008232
-0.07584651 0.16214928 0.14460996 0.22713475 0.1179521 0.21735157 0.34631583 0.28680292
0.06792846 0.022192987 0.02302454 0.25999197 0.26072776 -0.08588014 0.03621877 0.04392124
0.020502001 0.14813595 0.17613345 0.28759193 0.17614336 0.029033694 0.14253107 0.043740112
0.04480607 0.010394975 -0.15844433 -0.00013505734 -0.010281209 0.27585593 0.1713801 0.013908651
0.16466317 0.26017138 0.020248098 0.14466056 0.051674947 0.27242786 0.18340798 0.030450454
0.086629555 -0.08373389 0.23429921 0.019171903 0.026763298 -0.24779682 0.17555682 0.099780306
-0.16774523 0.030761039 -0.049651388 0.04552644 0.17107344 0.046274398 -0.08348629 0.20151168
0.116529696 -0.054887176 0.120962664 0.36657688 0.164406 -0.1350239 0.07012198 -0.08653117
-0.16278814 -0.0025044677 0.25713497 0.005678278 0.18543711 0.102565415 0.11446308 0.08442117
0.006729457 -0.07455747 -0.0781463 -0.18817481 0.12758674 0.101770505 0.32362062 0.17052746
-0.11278773 0.12354844 0.08292837 0.18249823 -0.08207313 -0.059417885 0.2998232 0.16311657
-0.081060305 0.3908361 0.09000221 0.21298784 0.057818264 0.26030815 0.086248636 0.014397837
0.16804841 -0.20927033 -0.2339476 -0.074569754 0.021436285 0.105858855 0.112589635 0.030606277
-0.014968687 0.07534243 0.074244924 0.07349054 -0.20747268 -0.0840789 0.14885263 -0.03116203
0.050265897 0.098808184 0.12723024 0.06990701 0.12692171 0.15676844 -0.033945296 -0.18730508
-0.013476195 -0.029149279 0.17331888 0.1950321 0.17072846 -0.14363861 0.15924501 0.035381764
0.04259338 -0.09336692 0.07733549 -0.22333582 0.19261914 0.12787567 -0.01713259 -0.15159911
-0.28403056 0.08360839 -0.055822603 -0.037330367 0.24575816 -0.25840676 -0.1996055 -0.13708262
0.034887154 0.17476441 -0.088106036 -0.24184905 0.16865024 0.121052004 0.20485376 0.058963545
0.12509097 0.09374333 -0.10912199 0.08060586 0.13440195 -0.22655253 0.06578783 -0.20303115
0.35004795 -0.013750091 0.30430827 0.110754244 0.26227477 0.29638532 0.120304726 0.10538382
0.37248316 0.06773537 0.023972677 0.23841643 0.4089884 0.15191251 0.17389552 0.23605141
0.2468295 0.088281885 0.06034912 0.03098696 0.16969426 0.40863347 0.3195126 0.32806674
0.27437794 0.09365551 0.1203882 0.23973677 0.22564761 0.27520645 0.430282 0.18003453
0.1684596 0.06385043 0.20956834 0.39877126 0.14687118 0.20769638 0.25499102 0.3415609
0.12191412 -0.004504545 0.16620503 0.21961558 0.19881316 0.0479688 0.15015587 0.25585535
0.10406732 0.47046408 0.06668573 0.17417836 0.24366234 0.22831975 0.18985176 0.17825396
0.12686674 0.5748697 0.09891457 0.13997443 0.2504577 0.4921104 0.20226671 0.110239126
00000000: 21ec b83d df09 9d3d 5eb7 0e3d 240d a93d
00000010: c55f 0e3d 2b15 e93c 735a d7bc 5544 2f3d
00000020: 5f1d 2d3e e54e ecbc 5157 e33d 1db3 573e
00000030: 91a6 0e3e 304d 713d 97c2 b93d 6b1a 223e
00000040: f76c 2b3e dbee 3dbe efb8 643e 0974 dabd
00000050: 8d4e 4a3e f6d8 c83d 3b0a 233e 990c 5c3d
00000060: ddf4 583e b22a 2bbd 16bd 44bd 6f48 6b3d
00000070: 322d c63d beab 343e 8948 023e b223 833c
00000080: 6a55 9bbd 760a 263e a214 143e 0396 683e
00000090: df90 f13d 6991 5e3e 4f50 b13e d5d7 923e
000000a0: 141e 8b3d 11ce b53c f69d bc3c ab1d 853e
000000b0: 1c7e 853e ede1 afbd 225a 143d c2e6 333d
000000c0: d0f3 a73c f3b0 173e 545c 343e 403f 933e
000000d0: ed5e 343e 12d8 ed3c aaf3 113e d528 333d
000000e0: 9286 373d af4f 2a3c 3b3f 22be 2e9e 0db9
000000f0: 8472 28bc fd3c 8d3e 447e 2f3e 1ce1 633c
00000100: 769d 283e 2f35 853e 57df a53c e621 143e
00000110: 1ca9 533d aa7b 8b3e 4dcf 3b3e 3b73 f93c
00000120: d66a b13d ac7c abbd 22ec 6f3e 650e 9d3c
00000130: b43e db3c 73be 7dbe 2bc5 333e 9e59 cc3d
00000140: 68c5 2bbe 93fe fb3c 415f 4bbd ef79 3a3d
00000150: e02d 2f3e 398a 3d3d dcfa aabd 1459 4e3e
00000160: 1fa7 ee3d 60d1 60bd 46bb f73d f7af bb3e
00000170: 0c5a 283e b543 0abe 1d9c 8f3d 4137 b1bd
00000180: efb1 26be ff21 24bb 32a7 833e d910 ba3b
00000190: 3ae3 3d3e d10d d23d 9f6b ea3d 02e5 ac3d
000001a0: c782 dc3b 96b1 98bd 2b0b a0bd e6b0 40be
000001b0: 19a6 023e 0e6d d03d 9ab1 a53e c09e 2e3e
000001c0: 41fd e6bd f706 fd3d 59d6 a93d d1e0 3a3e
000001d0: f515 a8bd 2b60 73bd 6d82 993e 0808 273e
000001e0: f202 a6bd ab1b c83e 1453 b83d 7c19 5a3e
000001f0: d8d2 6c3d 1c47 853e 20a3 b03d e8e4 6b3c
00000200: e214 2c3e f64a 56be f68f 6fbe 07b8 98bd
00000210: 269b af3c 87cc d83d 6595 e63d 04ba fa3c
00000220: 393f 75bc 224d 9a3d b90d 983d 3582 963d
00000230: b873 54be 8f31 acbd d36c 183e 8347 ffbc
00000240: 9de3 4d3d f25b ca3d a548 023e 682b 8f3d
00000250: c4f7 013e e887 203e 390a 0bbd e7cc 3fbe
00000260: 42cb 5cbc 78ca eebc 817a 313e 7fb6 473e
00000270: 71d3 2e3e 0016 13be 2011 233e 78ec 103d
00000280: 6576 2e3d 2837 bfbd 1262 9e3d 25b2 64be
00000290: f43d 453e d7f1 023e a559 8cbc cc3c 1bbe
000002a0: 746c 91be e03a ab3d 3ea6 64bd bae7 18bd
000002b0: 07a8 7b3e e44d 84be 6265 4cbe 635f 0cbe
000002c0: d5e5 0e3d 71f5 323e f070 b4bd 47a7 77be
000002d0: a6b2 2c3e 1dea f73d 2fc5 513e c283 713d
000002e0: d917 003e 81fc bf3d 5a7b dfbd af14 a53d
000002f0: aaa0 093e 63fd 67be c5bb 863d 66e7 4fbe
00000300: 7c39 b33e 1048 61bc 4bce 9b3e 1fd3 e23d
00000310: e148 863e d1bf 973e 5362 f63d 79d3 d73d
00000320: 1db6 be3e d7b8 8a3d 5962 c43c 7023 743e
00000330: ed66 d13e f48e 1b3e ab11 323e 76b7 713e
00000340: dfc0 7c3e 22cd b43d a430 773d 5dd8 fd3c
00000350: 55c4 2d3e 6838 d13e 2897 a33e 5df8 a73e
00000360: 447b 8c3e 76ce bf3d 178e f63d 8e7d 753e
00000370: 2b10 673e dce7 8c3e ec4d dc3e f95a 383e
00000380: ac80 2c3e 04c4 823d 1599 563e bf2b cc3e
00000390: 6665 163e 5cae 543e 2f8e 823e 12e1 ae3e
000003a0: 1cae f93d dd9a 93bb a731 2a3e e8e2 603e
000003b0: ad95 4b3e ef7a 443d 76c2 193e 79ff 823e
000003c0: 3f21 d53d abe0 f03e 8792 883d d05b 323e
000003d0: 9f82 793e a7cc 693e 8068 423e 3588 363e
000003e0: 5be9 013e a92a 133f b993 ca3d 7555 0f3e
000003f0: fe3b 803e e5f5 fb3e 011f 4f3e 0dc5 e13d

bias_hh_l0 f4 [256]
-0.07621549 0.073462345 0.060713258 0.14807574 0.13054672 0.11071548 0.045412492 0.049439404
0.16088712 0.13494694 -0.04564813 0.07887849 0.09943486 0.14839022 0.15216288 0.19446582
0.29995987 -0.033365842 0.10848525 -0.16858792 0.22831278 0.078995846 0.20773292 0.28081077
0.15694726 0.0076490273 0.12357647 0.014395349 0.17749806 0.06329891 0.049098905 0.060367644
-0.022073917 0.00085052534 0.013477441 0.08587592 0.0025061695 0.08971673 0.1487199 0.11981104
0.13402371 0.088703856 -0.10390326 0.16135652 0.21417579 0.118633166 0.06894493 0.0054037217
0.09895612 0.12468757 0.068027936 0.06413164 0.102000386 -0.05200266 -0.060000576 -0.058736607
-0.056141984 -0.05662074 0.004840958 -0.053551063 -0.07890024 0.2462425 0.079809055 -0.025528897
0.1267005 0.19654365 0.16026723 0.025051108 0.03917733 0.22807923 0.037931114 0.0023449112
0.0264742 0.00052159355 0.08984075 0.068841286 -0.020467704 -0.1228583 0.283267 0.18608683
-0.1192076 -0.024385618 0.09120603 0.083669275 0.24322847 0.102048516 -0.12446277 0.118272424
0.030225363 -0.08361601 0.25608882 0.291042 0.12019239 0.09593641 0.15943457 0.08285095
-0.098607406 0.009935015 0.066949435 0.14929277 0.12066016 0.225209 0.14501296 0.067325234
0.11547446 -0.20398496 -0.058040302 -0.005227383 0.1290916 0.11673289 0.33232045 0.24249367
-0.19287992 0.17942107 -0.030095031 0.1238538 0.03826006 0.089248 0.34170133 0.13312966
-0.0025539354 0.5553364 0.19061619 0.09777539 0.113858536 0.23105058 0.07324977 0.11262799
0.22754891 -0.116297774 -0.14376804 -0.025391228 -0.1586336 0.1659584 0.16959086 0.038832344
-0.19881153 0.053510204 -0.08400295 -0.0019297131 -0.18158984 0.13718745 0.060932208 0.06948685
0.0276039 0.15298212 -0.007181721 -0.1477496 0.052023996 0.0043336735 -0.005933158 -0.037417024
0.17052959 -0.17835525 0.07607501 0.3390818 0.3194348 0.07459037 0.22963785 0.06930962
0.09714061 -0.10948241 -0.014801792 -0.1562273 0.17977966 0.08051275 0.094747424 -0.2737881
-0.06820284 0.09048941 0.11321793 0.15402423 0.21711922 -0.29621777 -0.18707648 -0.11540364
0.006092853 0.17812286 -0.014247628 -0.16384642 -0.0004347532 0.11059422 0.3616762 0.17162104
0.13484436 0.047352023 -0.03772708 0.022841714 0.025463969 -0.123279 -0.004622303 -0.16695742
0.19338378 0.16648857 0.32125756 0.011499195 0.1625015 0.25303054 0.1930444 0.16739786
0.3937452 0.043411236 0.114327684 0.13180561 0.39690042 0.15631661 0.187168 0.23846616
0.27750826 0.16666938 0.10559143 0.024804039 0.21228936 0.3185603 0.42224437 0.28646195
0.25557998 0.04166847 0.21031451 0.2200096 0.026107246 0.280416 0.4183254 0.2128057
-0.04912101 0.26193455 0.21797413 0.1811433 0.027842604 0.2227424 0.20919317 0.27018666
0.06814071 0.10679549 0.20707513 0.293774 0.3116902 0.1884273 0.28007776 0.20057027
0.21035442 0.4500338 0.2313972 0.2937381 0.19491522 0.108541645 0.18599117 0.03792209
0.13831519 0.5388743 0.24020962 0.24301244 0.21233177 0.42420462 0.074737586 0.2449839
00000000: de16 9cbd 6d73 963d 77ae 783d 2ba1 173e
00000010: 0aae 053e ccbe e23d 7302 3a3d f980 4a3d
00000020: 98bf 243e 882f 0a3e 89f9 3abd 0c8b a13d
00000030: 81a4 cb3d 9bf3 173e 96d0 1b3e 0c22 473e
00000040: 5794 993e 9faa 08bd 842d de3d 50a2 2cbe
00000050: d3ca 693e 93c8 a13d f0b7 543e 6ec6 8f3e
00000060: c8b6 203e b1a4 fa3b a915 fd3d 78da 6b3c
00000070: 0dc2 353e dca2 813d ef1b 493d 1044 773d
00000080: 5cd4 b4bc caf5 5e3a 7cd0 5c3c b7df af3d
00000090: 8c3e 243b 68bd b73d 084a 183e 7e5f f53d
000000a0: 833d 093e 5eaa b53d 3bcb d4bd a53a 253e
000000b0: e650 5b3e f2f5 f23d 0033 8d3d b411 b13b
000000c0: 82a9 ca3d 325c ff3d 3b52 8b3d 7357 833d
000000d0: 94e5 d03d be00 55bd 2ac3 75bd cc95 70bd
000000e0: 23f5 65bd 26eb 67bd e6a0 9e3b 5c58 5bbd
000000f0: 7396 a1bd fe26 7c3e ee72 a33d fa21 d1bc
00000100: c7bd 013e bd42 493e 181d 243e fb37 cd3c
00000110: 6878 203d 9a8d 693e a85d 1b3d 15ad 193b
00000120: 6ce0 d83c 8dbb 083a 6dfe b73d a9fc 8c3d
00000130: e3ab a7bc 229d fbbd 5f08 913e 8c8d 3e3e
00000140: 1d23 f4bd 59c4 c7bc 3aca ba3d cc5a ab3d
00000150: e210 793e d0fe d03d 56e6 febd d038 f23d
00000160: 2e9b f73c df3e abbd 131e 833e 7503 953e
00000170: 6e27 f63d 4f7a c43d d142 233e c2ad a93d
00000180: aef2 c9bd 79c6 223c c91c 893d 34e0 183e
00000190: ad1c f73d 309d 663e 477e 143e d0e1 893d
000001a0: e07d ec3d 6fe1 50be abbb 6dbd 784a abbb
000001b0: 9730 043e a711 ef3d e825 aa3e 4350 783e
000001c0: 5082 45be 28ba 373e db89 f6bc 10a7 fd3d
000001d0: 95b6 1c3d a8c7 b63d 7af3 ae3e 2453 083e
000001e0: ed5f 27bb 872a 0e3f e430 433e 773e c83d
000001f0: aa2e e93d 8698 6c3e fa03 963d 81a9 e63d
00000200: 9502 693e 872d eebd ee37 13be 4401 d0bc
00000210: d970 22be 00f1 293e 3aa9 2d3e aa0e 1f3d
00000220: 4095 4bbe 842d 5b3d bd09 acbd 6dee fcba
00000230: b0f2 39be de7a 0c3e 0d94 793d 1f4f 8e3d
00000240: 9321 e23c 58a7 1c3e a454 ebbb ac4b 17be
00000250: 1d17 553d 7d01 8e3b f06a c2bb 9842 19bd
00000260: 4f9f 2e3e c2a2 36be 37cd 9b3d 219c ad3e
00000270: f58c a33e d6c2 983d 2f26 6b3e 34f2 8d3d
00000280: a8f1 c63d 5038 e0bd 3783 72bc 0dfa 1fbe
00000290: 2918 383e dee3 a43d f00a c23d f42d 8cbe
000002a0: eead 8bbd 8352 b93d cdde e73d 87b8 1d3e
000002b0: 8054 5e3e dba9 97be fa90 3fbe be58 ecbd
000002c0: 8ea6 c73b d765 363e e26e 69bc 5bc7 27be
000002d0: 96ef e3b9 397f e23d 9f2d b93e 6dbd 2f3e
000002e0: a414 0a3e 32f4 413d b687 1abd 8c1e bb3c
000002f0: d099 d03c b379 fcbd b076 97bb e3f6 2abe
00000300: 6606 463e fb7b 2a3e df7b a43e 1f67 3c3c
00000310: cb66 263e 388d 813e 6ead 453e 586a 2b3e
00000320: f998 c93e fbcf 313d a224 ea3d 0df8 063e
00000330: 8836 cb3e 7611 203e f8a8 3f3e 7930 743e
00000340: 9015 8e3e 61ab 2a3e 5240 d83d d731 cb3c
00000350: 6262 593e 561a a33e 6a30 d83e 24ab 923e
00000360: 61db 823e 8fac 2a3d b05c 573e 324a 613e
00000370: ddde d53c b092 8f3e bf2e d63e bde9 593e
00000380: 1d33 49bd 491c 863e 9c34 5f3e a17d 393e
00000390: 2c16 e43c 9516 643e bc36 563e e855 8a3e
000003a0: 5b8d 8b3d 98b7 da3d 810b 543e 8c69 963e
000003b0: dc95 9f3e 16f3 403e 5a66 8f3e 4b62 4d3e
000003c0: 2667 573e d56a e63e 63f3 6c3e d764 963e
000003d0: db97 473e 154b de3d 7874 3e3e 3254 1b3d
000003e0: 7fa2 0d3e abf3 093f 83f9 753e 41d8 783e
000003f0: 806d 593e 5931 d93e 0510 993d 0fdd 7a3e

weight f4 [64, 64]
-0.020927466 0.30769816 0.46349412 0.046926063 0.16811033 -0.29190284 -0.22844896 -0.065534845
0.04339793 -0.14681317 -0.08094379 0.012677254 0.13964732 0.104009524 -0.044398066 -0.055230163
-0.20072936 -0.10073386 0.021507237 0.034828108 -0.4593309 -0.104623884 0.16770372 0.25949603
0.13102491 -0.013089675 -0.017756913 -0.45792076 -0.26282418 -0.10402388 -0.52216893 -0.20190468
-0.08515285 -0.10035074 -0.23027082 0.2674296 -0.171717 -0.107188076 -0.08927772 0.123103
-0.09996888 -0.002616035 0.25055674 -0.16701573 -0.09799243 0.3022978 -0.09159516 0.05170948
0.18862611 0.13572481 -0.060923528 0.21509555 -0.063190736 -0.04007014 -0.15526636 -0.3887531
-0.051650062 -0.061385322 -0.05853441 -0.09882838 -0.24500361 0.19218102 -0.000368665 0.14856948
-0.057569694 0.05674729 0.19830841 -0.025605783 0.24188532 0.025237896 -0.060332976 -0.1876784
-0.052875333 -0.026064584 0.112642504 0.005157376 0.04218314 0.07709437 -0.040153056 0.06293792
-0.14045972 0.025420893 0.026238022 -0.058412973 -0.16725792 -0.08101979 0.054096743 0.16074549
-0.0022896894 0.07872238 0.03541717 -0.1478724 -0.19247653 0.0039557028 -0.43641797 0.03082508
0.006033204 0.040377926 -0.21948874 0.02599223 -0.055601485 0.020322964 -0.27061144 -0.005104403
0.1357496 -0.028948529 -0.06582303 -0.1498325 0.1558202 0.24454439 0.19532092 -0.01700425
0.058314674 0.16738527 -0.068152785 0.0720789 -0.046303835 -0.1265973 -0.17835417 -0.111532986
-0.24346161 -0.3649554 0.18459634 -0.051084 0.03957922 0.27608442 -0.09774802 -0.042837355
-0.18551664 0.3369477 0.78359807 -0.42847514 -0.21591108 0.6740916 0.49192792 -0.19585848
0.50052917 0.5696841 0.23749647 0.28653523 -0.32640204 0.03191774 -0.19881207 -0.63376117
0.6040909 0.053482577 -0.17223398 -0.36475858 0.107427575 -0.5013664 -0.046605386 0.34879956
-0.16496028 0.3943067 -0.3846656 0.37912136 0.20901783 -0.44709313 -0.10683468 -0.6628067
-0.0130205 0.31925756 -0.1524619 -0.32708853 -0.13972203 -0.4708799 -0.2746136 0.24723107
0.3539683 0.14549994 -0.21054573 -0.44691938 -0.34287882 -0.075533204 0.1296524 0.2725223
0.04222468 0.5480154 -0.046236154 -0.39727074 -0.34281218 -0.45151907 0.6163337 -0.50946367
0.40994138 -0.25763148 0.7756223 -0.7179899 -0.2519716 -0.22975576 -0.28425792 0.012452966
0.12398785 0.21117261 0.25924215 -0.31816217 -0.034705263 0.17530032 0.021522189 0.025347693
-0.1556925 0.06179613 -0.016510006 0.031751625 0.10537295 -0.046591718 -0.20737071 0.095422745
0.20631874 -0.0824766 -0.12416864 -0.114282236 -0.4180854 -0.12897307 0.2428321 0.2672438
-0.1997535 -0.0106168 -0.08338443 -0.08953 -0.06067805 0.1206358 -0.25897947 -0.09384848
-0.12580694 -0.118160814 0.17772362 0.10619723 -0.03747983 0.05297115 -0.087378986 0.1216431
0.22891498 0.08209944 -0.015738366 -0.13606293 -0.1680917 -0.015786929 -0.01751274 0.31536037
0.007915397 0.117380075 0.23718917 0.32178116 -0.18731451 0.13014743 0.052466817 -0.16574526
-0.11179001 -0.3910363 0.24056073 -0.20555739 -0.14269164 0.28424639 -0.25138497 0.042529028
00000000: 1470 abbc 9d8a 9d3e 1a4f ed3e 8b35 403d
00000010: 1d25 2c3e 4a74 95be 86ee 69be 2237 86bd
00000020: 07c2 313d 3156 16be dcc5 a5bd 42b4 4f3c
00000030: b5ff 0e3e f202 d53d bfda 35bd 0639 62bd
00000040: ff8b 4dbe 8e4d cebd f22f b03c eba7 0e3d
00000050: 6b2d ebbe 0c45 d6bd 86ba 2b3e aadc 843e
00000060: 652b 063e 1476 56bc f276 91bc 9774 eabe
00000070: e490 86be 790a d5bd ddac 05bf 1ac0 4ebe
00000080: 9e64 aebd b084 cdbd 1dcc 6bbe 88ec 883e
00000090: 95d6 2fbe 6c85 dbbd 3dd7 b6bd 6d1d fc3d
000000a0: 7cbc ccbd c971 2bbb f948 803e 2c06 2bbe
000000b0: 41b0 c8bd c7c6 9a3e 3e96 bbbd 52cd 533d
000000c0: 3427 413e 72fb 0a3e f38a 79bd 0242 5c3e
000000d0: 256a 81bd 9620 24bd 25fe 1ebe a50a c7be
000000e0: 048f 53bd 2d6f 7bbd c7c1 6fbd 8966 cabd
000000f0: 3ae2 7abe 1acb 443e 6149 c1b9 9922 183e
00000100: 33ce 6bbd d96f 683d 5c11 4b3e 38c3 d1bc
00000110: c9b0 773e b4bf ce3c b61f 77bd c42e 40be
00000120: ce93 58bd 6585 d5bc 1db1 e63d 35ff a83b
00000130: 3ac8 2c3d a7e3 9d3d 8877 24bd 99e5 803d
00000140: acd4 0fbe 7a3f d03c 1ff1 d63c 7142 6fbd
00000150: a945 2bbe b4ed a5bd 8c94 5d3d 779a 243e
00000160: 9d0e 16bb 3339 a13d 9811 113d dd6b 17be
00000170: 9118 45be d79e 813b 2d72 dfbe e184 fc3c
00000180: 2fb2 c53b 5363 253d a8c1 60be a8ed d43c
00000190: 62be 63bd 587c a63c 958d 8abe d642 a7bb
000001a0: f101 0b3e 7725 edbc 3ace 86bd b16d 19be
000001b0: 558f 1f3e d869 7a3e 3502 483e 7f4c 8bbc
000001c0: 5edb 6e3d 0b67 2b3e b093 8bbd 1a9e 933d
000001d0: 17a9 3dbd b9a2 01be 7aa2 36be 686b e4bd
000001e0: 004e 79be 6fdb babe d306 3d3e 753d 51bd
000001f0: d21d 223d f05a 8d3e 1d30 c8bd 3976 2fbd
00000200: 13f8 3dbe 6984 ac3e e299 483f 1861 dbbe
00000210: cb17 5dbe 4491 2c3f fadd fb3e 208f 48be
00000220: ae22 003f d1d6 113f 4632 733e bfb4 923e
00000230: 2b1e a7be 2dbc 023d 6495 4bbe 2c3e 22bf
00000240: b4a5 1a3f 8c10 5b3d 1b5e 30be a3c1 babe
00000250: fd02 dc3d 8c59 00bf 4ae5 3ebd db95 b23e
00000260: 59eb 28be 91e2 c93e e4f2 c4be 321c c23e
00000270: c508 563e 64e9 e4be 24cc dabd b3ad 29bf
00000280: ef53 55bc ba75 a33e f91e 1cbe 2678 a7be
00000290: 4b13 0fbe 2c17 f1be 279a 8cbe 242a 7d3e
000002a0: 553b b53e f0fd 143e 4d99 57be 9ed2 e4be
000002b0: d08d afbe 27b1 9abd 99c3 043e 0b88 8b3e
000002c0: c9f3 2c3d bd4a 0c3f 1f62 3dbd 1267 cbbe
000002d0: 1485 afbe 822d e7be 0cc8 1d3f 366c 02bf
000002e0: d6e3 d13e 46e8 83be 2f8f 463f 30ce 37bf
000002f0: 6c02 81be 1845 6bbe 418a 91be 8607 4c3c
00000300: 58ed fd3d a23d 583e 63bb 843e 27e6 a2be
00000310: 1b27 0ebd ed81 333e 4d4f b03c f7a5 cf3c
00000320: db6d 1fbe f01d 7d3d fe3f 87bc fe0d 023d
00000330: c6cd d73d f5d6 3ebd fd58 54be 006d c33d
00000340: 3845 533e 7ee9 a8bd 214c febd ce0c eabd
00000350: 4a0f d6be 8411 04be faa8 783e 2ed4 883e
00000360: 2e8c 4cbe 16f2 2dbc 75c5 aabd 815b b7bd
00000370: 8c89 78bd e70f f73d f598 84be a233 c0bd
00000380: 89d3 00be 4cfe f1bd 2efd 353e ef7d d93d
00000390: 7384 19bd 47f8 583d c1f3 b2bd 0520 f93d
000003a0: b068 6a3e c023 a83d bfed 80bc 1554 0bbe
000003b0: 3b20 2cbe 9753 81bc e176 8fbc ea76 a13e
000003c0: 95af 013c f764 f03d b8e1 723e 80c0 a43e
000003d0: 60cf 3fbe 5e45 053e 72e7 563d 20b9 29be
000003e0: 29f2 e4bd e935 c8be 8d55 763e a37d 52be
000003f0: c21d 12be be88 913e 88b5 80be eb32 2e3d

bias f4 [64]
-0.31557477 -0.22499992 0.21734573 -0.20026976 -0.21537197 -0.26037303 -0.13061832 -0.10180184
-0.14030097 0.37601817 -0.3507905 -0.026050158 0.117823616 -0.22905366 0.28916597 -0.0057396432
0.17569502 -0.33311868 -0.32217544 -0.06541938 -0.15087199 -0.29366255 -0.006362109 0.2708016
0.1511811 0.06344409 -0.17967781 -0.24197717 -0.37905288 -0.23959559 -0.03179392 0.01077189
-0.11769479 0.10809564 -0.07536577 -0.3553906 -0.24019283 0.045799125 0.24914709 0.24748665
-0.23261915 -0.34374312 -0.115736894 -0.11120951 -0.055629067 -0.22594851 0.27069584 -0.1076745
-0.11294942 0.25944185 0.12036721 0.16250144 0.37608027 0.031160718 0.37431616 -0.24002358
-0.2125621 0.06606154 0.071318865 0.39601478 0.39512548 0.5166843 -0.25600287 -0.47398737
00000000: 0493 a1be 6166 66be e18f 5e3e 8413 4dbe
00000010: 788a 5cbe 9d4f 85be cfc0 05be 7c7d d0bd
00000020: 0fab 0fbe 7485 c03e d09a b3be 2467 d5bc
00000030: 824d f13d 0b8d 6abe 900d 943e 9e13 bcbb
00000040: 65e9 333e 888e aabe 2ef4 a4be 99fa 85bd
00000050: 307e 1abe f05a 96be 3d79 d0bb 82a6 8a3e
00000060: 38cf 1a3e faee 813d 76fd 37be ddc8 77be
00000070: 3813 c2be 8c58 75be 573a 02bd 957c 303c
00000080: f709 f1bd 3f61 dd3d 5e59 9abd c2f5 b5be
00000090: 1cf5 75be dd97 3b3d 6a20 7f3e 246d 7d3e
000000a0: b733 6ebe 19ff afbe 7707 edbd d0c1 e3bd
000000b0: 4edb 63bd 0c5f 67be a598 8a3e 7384 dcbd
000000c0: 0752 e7bd 90d5 843e 1583 f63d c766 263e
000000d0: 988d c03e c344 ff3c 5ea6 bf3e bec8 75be
000000e0: e1a9 59be 464b 873d a00f 923d 73c2 ca3e
000000f0: e34d ca3e 6c45 043f cf12 83be 79ae f2be
