TP/save_models_LSTMHiddenState_Dropout_Tanh_Gridsearch_64/model_17.pt (torch, 170410 bytes, 6 tensors)

weight_ih_l0 f4 [256, 64]
00000000: ca8e 923e 036b 7ebe 5b53 56bc 43e9 81bd
00000010: 075e 063e 7280 3cbe b12b 2b3d 3bb5 80bf
00000020: 3f24 14be 5a1c bf3d b31d 50bd f9b9 243e
00000030: 6298 e63d aa59 3ebe f0f5 1a3d 458b d23e
00000040: b941 1fbc 59bf dc3c 1e48 a93d 5aa8 ccbd
00000050: bc3a 553e 6a56 203e dbba a33d d223 84be
00000060: 6e4d 58be e433 6fbd c092 473e 3cd0 9dbd
00000070: 05e9 40be a7ad 573d 4ab7 023e 1679 a93d
00000080: f527 d93c 71a4 853c bb23 0b3d 8a7e ddbd
00000090: 93b4 c83d e3e8 7a3e 8443 0cbf 2a73 59bf
000000a0: 3943 9d3d e3d3 5d3e e183 37bc 661c 39be
000000b0: 8b70 a8bd 1b34 673e 38f5 2d40 a821 dcbf
000000c0: 58ab 383e c428 fbbe 8dfa 0b3e 45f1 e2bd
000000d0: 87f4 7dbd 5183 893e ad2c e540 f23c 4dc1
000000e0: 9c89 25bd b509 643e 5b3f 01be fd1b 783d
000000f0: 838f 3e3e bd23 bdbe 3a12 d03d b13c d13f
00000100: cdaa 16bf f854 9a3d da96 363b 9202 efbe
00000110: 2cf2 343e 4549 c3bf e6c6 3fc1 f8ba b13e
00000120: 37e2 aa3e 2663 843e e2bf 26bd 6ee5 ccbd
00000130: 0369 803d 1620 dcbe c53a 613f 72dc 773e
00000140: 46f9 de3d 823c 86bd 6d9c 78be 4303 c8bd
00000150: 892b e13d 6809 e63c b087 0bbe 059d 213e
00000160: 742f 38be 8b06 d9bd b904 b73d 66ab 4fbe
00000170: fb32 15be d4ae 6fbe f1b5 33bd 0777 6cbe
00000180: ac8a 34bd fa90 683e b8e8 e8bc e0ee a0bc
00000190: d238 d3bd c71a 7ebe 0f57 283e a48d 0fbf
000001a0: fa0a c53e 7391 adbe ad68 14be c498 75bd
000001b0: 5472 aebc 8c92 163e fe8d 8b3c 65f6 cc3d
000001c0: bed2 d2be 992a b73c f66e 85bd 235e b5bd
000001d0: 6909 78be 9368 af3d b685 263e 32ca 82bc
000001e0: 8dbe 853d 38c9 983d ef72 c43d 650f 803e
000001f0: 25fa 98bd d074 e23e d2fb 96be 64df a33d
00000200: f800 3ebe 60d0 9d3d 5799 8a3e 5210 2cbe
00000210: 3e7c 3fbe 4b34 3d3d 9e45 c6bd db56 d93f
00000220: b03f 583d bdff dabe 8ddf 5f3e b074 cabd
00000230: 291a 3dbc cb42 55bd d7f9 a83e 0e5f eb3d
00000240: 20ea c3be e3c8 b83d 8499 d83c 1f19 18be
00000250: fa30 3a3d 446a c23c b0fe 953e e81d 373e
00000260: acca 7c3e 3435 8dbe 00f3 47be 78fc 1f3e
00000270: 37de a3bd e997 6e3d 7ac6 ce3e 0922 d43d
00000280: 228c 5fbe 3e0e 06be 24be 50be d892 06be
00000290: 2b14 59be 232f e13d 797e ee3d e491 573d
000002a0: aa28 3dbe fa31 01be 45e2 e6be 8f4b 253e
000002b0: 78a9 d3be 4d5a 23bd c5b6 eebd 0aae 99be
000002c0: fa6b f6bc b616 ff3e aab6 34bf 5cf6 1bbd
000002d0: 4abc 92be e94a 173e 2f50 02be 435a b23e
000002e0: 5419 b13e ca84 f9be b5c9 a53e 0d2a e0be
000002f0: 6a1d 573e 9520 44be 33d0 3abd 29df 2fbf
00000300: e23c 823f 7ba5 4441 d8c9 123f 0289 b0be
00000310: 18a8 70be fdc9 57be 9dad b2be bf48 25bf
00000320: 57e1 753d becc 923f f8d7 d53f 296f 553e
00000330: 9290 5d3e 091d cdbe cfe8 e33e d5dc ee3e
00000340: e07f 85bd d73c cfbe da51 613e 7dce 28be
00000350: 17f5 013d 5a9d f9bd dd22 c4bd ad36 12bf
00000360: ed40 bebb 7d53 87be d17f 3dbd 9099 4abd
00000370: 28d3 50bc abb6 96bd c814 83bd 6c6a 95be
00000380: 5423 d7be e672 10bd 6b28 3d3e 3d4d 94be
00000390: d42c 26be 3fc6 203d 7cad 733d cfcb 4c3d
000003a0: 5538 aa3c f7b7 493e 8c4c 5abe 12b0 bbbd
000003b0: 2d9f 933e 0340 4f3c 7cc5 68be 7d9c 103e
000003c0: 6abb ba3d 8286 4bbe 15bc 083e 00ef 763e
000003d0: 5b5a c4bc 70b7 82bd 1990 d0b8 1ebd 7bbd
000003e0: 2dfe fb3d 49c0 67bd d413 77bd 6776 213e
000003f0: c182 d5bc 58a0 c2bd a288 053c 0597 6d3d
0.28624564 -0.24845509 -0.013081397 -0.06343319 0.13121806 -0.18408373 0.041789714 -1.0055307
-0.14466952 0.093315795 -0.050809573 0.16086568 0.112595335 -0.18588892 0.0378322 0.4112188
-0.009720259 0.02694671 0.082657084 -0.09993048 0.20823187 0.15657964 0.07994624 -0.2580858
-0.21123287 -0.058399096 0.19489574 -0.07705733 -0.1883889 0.052655842 0.12765232 0.082750484
0.02650831 0.016313763 0.033969622 -0.10815151 0.09800067 0.24502902 -0.5479052 -0.8494135
0.07678837 0.2166286 -0.011200876 -0.1807724 -0.08224591 0.2257847 2.718092 -1.7197771
0.18034112 -0.4905454 0.13669796 -0.11081175 -0.062000778 0.26858 7.1617036 -12.827379
-0.040414438 0.22269328 -0.12621824 0.060573567 0.18609433 -0.3694133 0.101597264 1.6346647
-0.5885437 0.07535738 0.002786091 -0.46681648 0.17670506 -1.5256735 -11.986059 0.34712958
0.33375713 0.25856894 -0.040710337 -0.10004698 0.062700294 -0.4299323 0.879803 0.24205187
0.10887389 -0.0655451 -0.24278422 -0.09766247 0.10994632 0.028080657 -0.1362598 0.15782554
-0.17986852 -0.10596951 0.08936448 -0.20280227 -0.14570229 -0.23406535 -0.043874685 -0.2309228
-0.04407756 0.22711554 -0.028431281 -0.019645154 -0.10313572 -0.24814902 0.1643946 -0.560755
0.38484937 -0.3390003 -0.14493056 -0.05996014 -0.02129475 0.1470434 0.01703548 0.100079335
-0.4117641 0.02235918 -0.06515305 -0.08855846 -0.2422234 0.08564868 0.16261944 -0.015965555
0.06530485 0.074602544 0.09592234 0.25011745 -0.07469586 0.44229746 -0.29489 0.08001593
-0.18555057 0.0770576 0.27070114 -0.168031 -0.18699738 0.04619245 -0.09681247 1.6979631
0.052795112 -0.42773238 0.21862622 -0.098855376 -0.011541882 -0.052065652 0.33003113 0.114927396
-0.3826456 0.09022691 0.02644039 -0.14853333 0.045456864 0.023732312 0.29295874 0.17882502
0.24686688 -0.27579653 -0.19526291 0.15623653 -0.080013685 0.05825034 0.403858 0.10358054
-0.218308 -0.1309137 -0.20385033 -0.13141954 -0.211991 0.10995319 0.116452165 0.052629367
-0.18472543 -0.12616721 -0.45094505 0.16142105 -0.41340232 -0.03988104 -0.11655954 -0.30015594
-0.030080784 0.49822015 -0.70591223 -0.038076743 -0.28659278 0.1477467 -0.127259 0.3483449
0.34589636 -0.48734123 0.32380453 -0.43782082 0.21007314 -0.19153054 -0.04560871 -0.6869989
1.017483 12.2904005 0.5733924 -0.3447953 -0.23501623 -0.21073146 -0.3489808 -0.64564127
0.060029354 1.1468732 1.6706533 0.20843185 0.2163718 -0.40061215 0.44513556 0.46652856
-0.06518531 -0.40476105 0.2200388 -0.16485019 0.031727877 -0.121882156 -0.09576962 -0.5711468
-0.0058060796 -0.26430884 -0.046264473 -0.049462855 -0.012745656 -0.0735906 -0.06400448 -0.29182756
-0.4201914 -0.035265826 0.1847245 -0.28965178 -0.16228038 0.039251562 0.05949162 0.049999055
0.020778814 0.19699083 -0.21318263 -0.09164442 0.2883238 0.012649539 -0.22731584 0.14122196
0.09117778 -0.1987553 0.13352998 0.24114609 -0.023968866 -0.06382644 -9.945053e-05 -0.061459653
0.123043396 -0.05657986 -0.060321644 0.15767823 -0.026063325 -0.095032394 0.008150252 0.05800535

weight_hh_l0 f4 [256, 64]
00000000: 0896 0ec0 0f83 783e a875 76be 8fae 93bd
00000010: ca51 b73d 819a 15be a05b 963e ed66 04bf
00000020: 5ad5 8c3e 375a d1be 92e2 6fbe 9b49 d9be
00000030: bc2e 88bc ed5b 17bc 81f1 3d3f 345e 5dbf
00000040: d9ba 193f fe2c 57bf 236d 803d 7c0f 0bbe
00000050: 7d5a f6bd 86a0 3e3f fb2b 603f 866c 19bf
00000060: 758a 8e3d 79a5 7a3e 3056 4e3e cebd 8bbe
00000070: c4d5 b63e 2efb 0440 4a21 1bbd ddee aebe
00000080: fcca f2be 1ced 0e3f d018 393f 35ae 8fbc
00000090: 251d 60be 8ad5 243f 8828 153e 3fdd 25bf
000000a0: f1c9 f23e 10f7 1a3e f27e 3a3f 8c93 20bd
000000b0: 386c 8e3e 3476 803c 13b9 fc3e f681 97bd
000000c0: b29f c03d 47d2 88bf 8631 bebf 30c6 823e
000000d0: f7b5 953e 89ed 00be 31fd 483f 24ec 323f
000000e0: a0cb e6be 6027 f93e ca72 c4bd ab4f 873e
000000f0: ba4a 223d 3b43 c33c 6e68 903f dfbd 683d
00000100: 8236 2cbf e48c 7e3f 706e 793f c09d 653f
00000110: ff5c 8c3d 43d7 853d 5cfb 28be 8b68 61bf
00000120: 9eb1 dd3e 5234 303f 9a61 56bf e008 bb3e
00000130: 8776 9fbe 1dba 94bf 60dd dabd 3f46 023f
00000140: 3e22 b33e 62df 2fbe 24f9 6d3f de41 1f3e
00000150: 518c 8f3e 4a0d 0140 2834 9d3e f742 50bf
00000160: 6775 9e3d 13af 95be f3a5 01bf e4a0 d63e
00000170: 3c2c 393e f3d1 703d 77bb 993f 5a7e b2be
00000180: 9c20 eb3f 4d59 a53e 8f8a 84be 2f0a 86be
00000190: 295c a1be 533c 44be e388 f9be 2fa3 9abf
000001a0: 4799 ee3f f607 9d3e 6b94 07bf 5474 d0bf
000001b0: 90e2 723e 7502 cd3d 227e 493e 5522 983d
000001c0: e898 c7bd 99b5 18bf 7c21 a53f 1d9e 90be
000001d0: 5f5b 11be ec8d 953f dad1 31bf 1e52 febe
000001e0: ebcb c93e 4683 5d3e 2a1a 0dbf aebd 973f
000001f0: 0d57 1ebf 1195 0f3f 8609 b4be 6b04 c7bc
00000200: 15b4 4fbf 378c 59be ebce 3340 6eda ccbe
00000210: 7faa a2be 01ee 8abe ca07 45bf e98b a13e
00000220: ca86 943e 3a86 47bf f1ac 403f d5f9 91be
00000230: ea8f 2a3d fb53 a9be b6b6 343e 539e 813e
00000240: 35b0 51bf 7ec9 683d a2b5 d93d 63fb 383e
00000250: 91bf b5be 86b9 8c3b c901 643e 80c4 c83e
00000260: 5905 97be b00e 573e 7fee 023f d898 08bf
00000270: d3d4 7bbe 4baf 3bbf a249 bebe 6b50 aabf
00000280: bb97 8c3d 89a1 0dbe 9fb7 a6bf 6789 c8bd
00000290: 8b50 563e e276 adbe 8a12 373f 442d 4bbd
000002a0: e442 7fbf 7a8f 96bd fb99 39be 194c cfbd
000002b0: aa26 9a3e afd5 e9be 6a90 b2be 5840 52be
000002c0: 3119 8fbe 6606 3940 3970 423f 8e76 e5be
000002d0: fc8f ffbe e9b3 01bf 8a30 b6be d895 13bf
000002e0: aa98 9c3e 408a dabe bcfc 01be 56cc 05bf
000002f0: 1b1a abbe ee3a abbe 04df cbbe 5a8b 993c
00000300: dc19 21be 6232 143e 28a5 1d3f d572 c33f
00000310: c0e0 c93d 50c9 0abf b514 a8bd f15c 93be
00000320: 6c6a 1240 8367 23bf 4203 753f 17f7 3bbe
00000330: 08af 28bf 27a7 53be 2170 f33e f1b7 b1bf
00000340: 10b9 d13e aa63 dfbe 8faa a03e 03dd d6be
00000350: ace2 213d 1495 3240 884b 2ebf efb9 8ebe
00000360: e795 593e 7c7a 0dbf a371 e73e 9eb3 163f
00000370: 32bf 40bf 6a67 26bf f586 953e 4d49 bcbf
00000380: de8f 3c3f 41d1 47bf 1b7b c93f 587e c53e
00000390: 5867 033e c2d2 f6be e59b 60bc 977c aebf
000003a0: 2feb 64bf 1ad4 843e 9c0c ac3e 03e0 4f3e
000003b0: 596f 88bd fc3e a33e ca6b 2340 9a05 cbbc
000003c0: d21e c83e 9060 5ebf 28b1 783e 58ef 9abf
000003d0: 4210 f2be 488e d33e 4ab5 633f 3e5c 43bf
000003e0: 8a01 1c3a 38d7 373f fe9d 0f3f 90f0 c1bd
000003f0: 1b69 e6be ab49 24be b160 053f 436e 083f
-2.2279072 0.24268745 -0.2406832 -0.07211029 0.08951147 -0.1460972 0.2936678 -0.5171955
0.27506524 -0.4088914 -0.23426273 -0.4243897 -0.016623847 -0.009238225 0.7419663 -0.8647187
0.6005073 -0.8405303 0.06270816 -0.13580126 -0.12028978 0.7446369 0.8756711 -0.5993122
0.06960002 0.24477185 0.20150065 -0.27293247 0.35709965 2.0778308 -0.037873544 -0.34166613
-0.4742049 0.5583055 0.72303486 -0.017539123 -0.21886118 0.64388335 0.14566243 -0.6479072
0.47419694 0.1513331 0.72849953 -0.03920321 0.2781694 0.015681364 0.4935995 -0.07397835
0.094054595 -1.0689172 -1.4858863 0.2554183 0.2924039 -0.12590612 0.7851134 0.6989157
-0.4507723 0.48662853 -0.09592207 0.2642797 0.039622046 0.023835769 1.128187 0.0568217
-0.6727067 0.9943373 0.9743414 0.8969383 0.06853675 0.065351985 -0.16502136 -0.88050145
0.43299574 0.68829834 -0.8374268 0.3653021 -0.31145117 -1.1619297 -0.10686755 0.5088844
0.34987062 -0.17175058 0.92958283 0.1555247 0.2803674 2.016436 0.30703855 -0.8135218
0.077372365 -0.29235134 -0.50643843 0.41919625 0.1808328 0.058793973 1.2010335 -0.34862024
1.8369327 0.32294694 -0.25886962 -0.26179644 -0.31515625 -0.19163637 -0.4873725 -1.208105
1.8640527 0.30670136 -0.5296084 -1.62855 0.23719239 0.10010234 0.19677022 0.07428423
-0.097459614 -0.59652096 1.2900844 -0.2824563 -0.14195012 1.1683936 -0.69460833 -0.49672025
0.3941339 0.21632108 -0.5511805 1.1854761 -0.6185158 0.5608683 -0.35163516 -0.024294099
-0.8113416 -0.21244894 2.8095043 -0.400104 -0.31770703 -0.27134708 -0.7696501 0.31552055
0.29009086 -0.7793919 0.7526389 -0.2851092 0.041641153 -0.33071885 0.17647824 0.25316104
-0.81909496 0.056832783 0.10630347 0.18064646 -0.35497716 0.004294577 0.22266306 0.39212418
-0.29496267 0.21001697 0.51145166 -0.5335822 -0.24592905 -0.7331435 -0.37165552 -1.3305792
0.06864878 -0.13831152 -1.3024787 -0.097918324 0.20929162 -0.33879763 0.71512663 -0.049603716
-0.9971144 -0.07351585 -0.18125145 -0.10121936 0.30107623 -0.4567084 -0.34875804 -0.20532358
-0.27948907 2.8910155 0.7595249 -0.44817013 -0.4991454 -0.50665146 -0.35583907 -0.5765052
0.30585223 -0.426836 -0.12694067 -0.52264917 -0.33418354 -0.33443397 -0.39818585 0.018743206
-0.15732521 0.14472345 0.61580133 1.5269419 0.09857321 -0.5421343 -0.082070746 -0.28781846
2.2877455 -0.6382982 0.95708096 -0.18355976 -0.65892076 -0.20669232 0.47546485 -1.388426
0.40961504 -0.43630725 0.31380126 -0.41965494 0.03952281 2.790349 -0.68084 -0.2787623
0.2124859 -0.5526502 0.45203885 0.58867824 -0.7529174 -0.6500155 0.29204527 -1.470987
0.73657024 -0.7805367 1.5740694 0.38572955 0.12832391 -0.4820767 -0.013709043 -1.3631772
-0.8942136 0.2594307 0.3360337 0.20300297 -0.06661863 0.3188399 2.553454 -0.024782944
0.39086014 -0.8686609 0.2428633 -1.2104292 -0.4727803 0.4131949 0.889485 -0.76312625
0.0005951157 0.7181277 0.5610045 -0.09469712 -0.45002064 -0.16043727 0.52100664 0.53293246

bias_ih_l0 f4 [256]
00000000: 551f 61be bbb2 c0bd 425c 9b3d d225 b3be
00000010: 448d 12be 332c fdbe 1ce2 d1bd f7b0 fcbe
00000020: 4b94 b63e 6b06 1fbf eeb0 32bf 8df6 78bf
00000030: c378 cebd e1ff f5be fcbb 26bf b2a6 50bf
00000040: 036b 2abe 241c 37bf 8efa 0abe 45a7 143f
00000050: 6b85 11bf dd22 903e 7544 87bf 8fc1 94be
00000060: 3d70 e9bd 985f febe 6b8b 5c3e 3db9 36bf
00000070: 20a5 433e 23a8 823e 3c85 0c3e 08ad bd3c
00000080: ab28 36be 2428 003e c392 02bf 2253 79bf
00000090: ce02 56bd d2e9 82bf d18b f83e 9828 35bf
000000a0: a2be 63bf dd9a edbe 9653 66bf 52a3 42be
000000b0: c8d7 f1be a309 e9bd 2033 22bf 5afe 70bd
000000c0: d294 42bf 15ee bcbe e7ea 8fbf 2316 85be
000000d0: 63af df3d 9bc5 c43e 23be 3abf f975 88bf
000000e0: 4829 dabe c832 223e a88e 18bf 4a4b 04bf
000000f0: 7ef3 03bf 5c31 a7be b2a2 02bf 485d 06bf
00000100: e0e0 d8bf 48d5 88bf 9d24 e4bf f145 0ec0
00000110: 592c 0ac0 4db9 81bf 6dd7 cbbf fa27 2ebf
00000120: 1a0f 9dbf 6b09 febf 9be4 0ec0 a96e c7bf
00000130: f161 f1bf 9986 1dc0 4e2a 8ebf 14b0 b8bf
00000140: 2c81 ecbf f472 ebbf 56b7 01c0 5f19 0fc0
00000150: b5c9 9fbf 9507 ccbf e3cc 3fbf 5814 e9bf
00000160: 2906 c1bf a957 8dbf f8ee b7bf 634c 86bf
00000170: aeae febf d913 19bf c242 a1bf 38b0 bbbf
00000180: bdba c3bf a487 05c0 a1ac b9bf 7653 c1bf
00000190: f4fc efbf c037 efbf 13ce 08c0 6bdd 6fbf
000001a0: f725 e5bf e285 7cbf 1233 33c0 e556 f2bf
000001b0: c4cc 95bf 4276 ebbf 7316 c6bf 7205 a3bf
000001c0: 6b8b d5bf d60e d4bf 5d31 e1bf f925 cfbf
000001d0: bb9f c2bf 7783 f4bf 0f63 8bbf afa6 7dbd
000001e0: 75b7 b8bf 9253 1bbe 6f6f bfbe 5a36 f6bf
000001f0: f282 ebbe 0fdf 52bf aef1 04c0 e56a 40bf
00000200: dcb3 d2be 97e7 1e3f 9e14 363d 6b50 17bf
00000210: e9f5 42bf 0407 653f ba94 06bf 322c 743f
00000220: 6f12 5c3f c17c 153e 7285 213e bde5 afbe
00000230: 496c 17bf 4089 a43e 7b3d 893f f3c8 d83e
00000240: b578 933f 149f 473f ebc8 84bf 0e3d 31bd
00000250: 3599 90bf 87a1 babe 6575 303e e89d 6dbf
00000260: 66a5 3abf c1ff 8e3f 6d33 eebe d562 733f
00000270: 0c90 20bf 09cb c53e 08bc 47bf 43e0 64bf
00000280: b8a4 85be f112 06bf 5603 50bf cd28 08bf
00000290: 435c 8f3f aa3c aebe 191e 4a3d c3da 30be
000002a0: 213b ccbc 918e 4f3f aecf c93e 10f2 473f
000002b0: 0d9e 8fbf 287f b5be 45df 22bf cc39 39bf
000002c0: 8c3d d93e 4ab8 31b9 b788 123f 161d 3e3f
000002d0: a6ef 75bf 7b0a debf 86b2 05bf 87b5 2a3f
000002e0: b995 b0bf 017f a13f 25ba b23f 6264 533f
000002f0: 4e74 9e3e 99e7 963f 2cc4 b8bd 5432 90bf
00000300: 1b5f 1a3e 45e3 29be 1d6d 503f 011a 553f
00000310: cb83 eb3e 85f9 49bf 675d 813f cb82 563e
00000320: 6fbf 633e 0314 bc3e 944d 82be 8d90 8bbe
00000330: 8c20 243f 3055 563f a2b2 373f cc9a 10bf
00000340: 838c 69bf 8402 e7be 86e4 26bf 3f0e 8e3f
00000350: 6c99 f63e cdb7 c7bf 93f3 3c3f e9bb 933e
00000360: fd57 b43e 0e3e 44bf e0c0 283f 1cc2 8a3e
00000370: 180e 933d c5ac aabd 88c0 783e b13d 00be
00000380: b98e bb3d e457 cf3e f7c1 29bd 7dda c93e
00000390: 97b8 3a3c 57f0 b1bd 382b 863f 5b2d 79be
000003a0: 8e52 81be fdcf 283e e644 18bf 278d 893e
000003b0: 6ec4 e7be caac e13e 80a5 7e3f cd0b f6bb
000003c0: 9faa 3b3f 0ede 76bf 4e9e 433f d229 ca3d
000003d0: de3d fa3e fbff 50be ff49 053f 4d5a 003f
000003e0: a92d d13e 0117 e03d c8ec 023e cfe3 5b3e
000003f0: 6abb ebbe 26bd 013f c0f1 a1be ffe7 f1be
-0.21984608 -0.0940909 0.07585956 -0.34989792 -0.14311701 -0.49447784 -0.10248205 -0.49353763
0.35660014 -0.6211917 -0.69801223 -0.97251207 -0.10081627 -0.48046783 -0.6513059 -0.81504357
-0.16642384 -0.71527314 -0.13572142 0.58067733 -0.56844205 0.281516 -1.0567766 -0.29053923
-0.11398361 -0.49682307 0.21537559 -0.713764 0.19105959 0.25518903 0.137227 0.023153797
-0.17788951 0.12515312 -0.5100519 -0.97392476 -0.05224877 -1.0227606 0.4854417 -0.70765066
-0.8896276 -0.46407214 -0.8997129 -0.19007614 -0.4723494 -0.11378791 -0.6335926 -0.05883632
-0.7600833 -0.36900392 -1.1243562 -0.2599345 0.10922124 0.3843201 -0.72946376 -1.0661002
-0.4260962 0.15839684 -0.59592676 -0.5167738 -0.51543415 -0.32654846 -0.51029503 -0.52486086
-1.6943626 -1.0690088 -1.7823673 -2.223019 -2.1589568 -1.0134674 -1.5925118 -0.6802975
-1.2270234 -1.9846624 -2.232703 -1.5580646 -1.8858014 -2.4613402 -1.110666 -1.4428735
-1.847692 -1.8394456 -2.026815 -2.2359235 -1.2483431 -1.5939814 -0.7492201 -1.8209333
-1.5080005 -1.1042377 -1.4369802 -1.0492061 -1.9897058 -0.5979591 -1.2598498 -1.4663153
-1.5291363 -2.0864038 -1.4505807 -1.5103595 -1.874907 -1.8688889 -2.1375778 -0.9369723
-1.7902211 -0.9864179 -2.799992 -1.8932768 -1.1703115 -1.8395464 -1.5475601 -1.2736037
-1.6683172 -1.6567028 -1.759319 -1.6183463 -1.5204996 -1.910262 -1.0889605 -0.06192654
-1.4430987 -0.15168598 -0.37389705 -1.9235337 -0.4599834 -0.8237161 -2.077251 -0.7516311
-0.41152847 0.6207213 0.044453256 -0.59107083 -0.7615648 0.8946383 -0.5257069 0.95379937
0.8596563 0.14598371 0.15773562 -0.34354964 -0.59149605 0.32135963 1.0721887 0.42340812
1.1521212 0.7797711 -1.0373815 -0.043271117 -1.1296755 -0.3645136 0.17232282 -0.9281907
-0.7290863 1.11718 -0.4652361 0.9507268 -0.627198 0.38631466 -0.7802129 -0.89404696
-0.26102233 -0.5237265 -0.8125509 -0.5318726 1.1200031 -0.34030658 0.04934511 -0.17270951
-0.024930539 0.81076914 0.3941626 0.78103733 -1.1220108 -0.35448575 -0.6362193 -0.72353816
0.4242977 -0.00016948688 0.5723986 0.7426313 -0.960688 -1.7346948 -0.5222553 0.6668324
-1.3795692 1.2616884 1.3963057 0.82575047 0.30948108 1.1789428 -0.09021792 -1.1265359
0.15075342 -0.16590603 0.81416494 0.83242804 0.45998988 -0.7889636 1.0106629 0.20948331
0.22240995 0.36734018 -0.25449812 -0.2725872 0.6411216 0.83723736 0.7175695 -0.564862
-0.9123003 -0.45119107 -0.6519245 1.1098098 0.48163927 -1.5602967 0.73809165 0.28854302
0.3522338 -0.7665719 0.65919304 0.2710122 0.071804225 -0.083337344 0.24292195 -0.12523533
0.091580816 0.40496743 -0.041444745 0.39424506 0.011396549 -0.08688419 1.0481939 -0.24333708
-0.25258297 0.16485591 -0.5948013 0.26865503 -0.4526705 0.4407714 0.9947128 -0.007508731
0.7330722 -0.9643258 0.7641343 0.09871258 0.48875326 -0.20410149 0.52066034 0.5013779
0.40855148 0.10941888 0.12785637 0.21473621 -0.46041423 0.5067924 -0.31629753 -0.4724731

bias_hh_l0 f4 [256]
00000000: 3521 c2be 3f43 f9bd 2b2f 9d3e 5d41 f8be
00000010: 4294 a5be 9548 cbbe 7689 24be aab7 21bf
00000020: f862 b83e 381f 20bf 31e3 0fbf 1eb5 7cbf
00000030: 9447 cbbc 5c78 eebe e440 ecbe 8836 4bbf
00000040: 4b53 7abe 870f 30bf 7b92 09be 86ac 423f
00000050: 4ad7 0abf 81d4 233e e753 69bf a098 d7be
00000060: f209 dcbd 1f00 c4be 2312 743e 2398 29bf
00000070: 9965 a83d 9f25 6c3e 995a 26bc 815d a8bd
00000080: 5d73 0ebc 8452 b03d 474f 16bf 4bdd 93bf
00000090: 5db1 44be b28b 96bf 0eeb bf3e 8dd7 21bf
000000a0: 6fbe 57bf 7e45 01bf bb09 8bbf b962 cfbd
000000b0: 6d6a ebbe fb19 26bd c682 4cbf 9fa8 713d
000000c0: 2855 2dbf c42d c2be 88f5 92bf 14fc 36be
000000d0: 6afc fd3d f6bc 813e dbef 3fbf d116 75bf
000000e0: 3572 c6be 9a50 843e b77a 28bf a8de a0be
000000f0: e79e d5be 74f9 89be b1dc debe cf68 13bf
00000100: 90aa d9bf 031a 72bf 4057 d8bf 69fb 0ec0
00000110: f70f 05c0 1e20 5cbf 03c6 d4bf a27e 20bf
00000120: ca3d 9cbf e65d febf c078 1cc0 e0a1 cbbf
00000130: 3261 ebbf 895e 17c0 874f 80bf 997f c5bf
00000140: c498 e7bf 1f97 f6bf b2e4 02c0 5158 16c0
00000150: af01 92bf 69e5 c8bf c38f 29bf 9242 f0bf
00000160: 6158 babf 7e0b 98bf 954d adbf 4628 83bf
00000170: c938 07c0 0618 ecbe ab81 8ebf b014 aebf
00000180: ac19 b6bf 03dd 06c0 f552 c3bf 8f54 d3bf
00000190: ea32 f6bf 32be e3bf 2e29 fdbf 6268 81bf
000001a0: cc0f d8bf 651b 80bf 4f91 34c0 8acd f3bf
000001b0: 9499 97bf 51e7 eabf 31dc bebf 1927 a4bf
000001c0: 4335 c9bf af78 cebf f072 edbf 6dc0 b4bf
000001d0: daa5 d5bf a90e efbf 5195 90bf 9515 e13c
000001e0: 5644 b1bf 3126 82bd e673 f4be 217a ecbf
000001f0: a2c4 0abf 20f9 41bf 48e9 fdbf 1bfe 30bf
00000200: ff42 d1be a66d ce3e 1f94 e1bc 540f 15bf
00000210: 98cd 6dbf efbe 8b3f e0be fabe b671 943f
00000220: 9305 633f fc23 573e 3dcd 053e 2d2a 67be
00000230: cc9b 05bf c674 dd3e e6c4 853f 4b8e e63e
00000240: fdb4 8d3f 2921 2c3f a57d 80bf 8ede 7d3d
00000250: 814a 83bf 95b8 07bf 5cdc 873e cf31 69bf
00000260: d4c4 44bf 5336 8c3f 13df d2be e394 813f
00000270: 8b8a 2fbf 4807 af3e 581b 69bf 07e4 5dbf
00000280: a820 a2be 0fbc d7be ed06 3bbf 516d 27bf
00000290: 1395 8d3f 5cb0 b5be 0506 613e 3acb 7cbe
000002a0: 7d8f 41be e1b5 673f 16b0 c03e f144 523f
000002b0: 2dc5 93bf b11f eabe 1877 04bf 4944 3abf
000002c0: 7f44 1a3f 1138 af3d 7dea 033f 50a6 453f
000002d0: 88e3 8abf 62b4 d9bf f242 0dbf 833a 2e3f
000002e0: ba4f aebf b983 a53f ce01 ad3f 1256 513f
000002f0: 9b5d b93e 4ba5 953f e982 4fbe c4e3 96bf
00000300: 3ab4 843d a3e1 02bb 1b77 2a3f 8329 473f
00000310: 2772 0b3f 7079 46bf 49c0 543f 3143 b13d
00000320: 6b08 153e 9bfe b63e f478 69be c220 6dbe
00000330: 8b11 263f 501a 453f 11a7 263f a484 c7be
00000340: c544 87bf a3b3 d8be af80 1dbf a633 953f
00000350: 657d 9f3e e388 bdbf be19 0e3f 7e5e 5c3e
00000360: f00a 803e 5e4b 32bf 2f50 243f 4486 833e
00000370: af18 843e 542e 043e d425 2f3e cc2c 2cbe
00000380: f6c1 0aba 6b68 f73e c299 4bbd 6076 cf3e
00000390: c32a bdbd c833 0d3d 2db0 903f 272c 25be
000003a0: 0a54 88be 2858 9c3e c9e3 4bbf 12ad d43e
000003b0: ca57 edbe e08d e63e a2c7 7b3f e78f ab3c
000003c0: 59bf 353f a664 84bf f426 1a3f 7ab8 5b3c
000003d0: 748e f93e a1ef 09be 5f62 293f 102f bf3e
000003e0: 0561 a73e c376 973e 30fe 783e 043d b73e
000003f0: 0586 15bf 82b7 143f ed75 76be 97aa c2be
-0.3791596 -0.12171029 0.3070005 -0.48487368 -0.32339674 -0.39703813 -0.16068062 -0.63170874
0.36013007 -0.62547636 -0.5620604 -0.9871386 -0.024814405 -0.46576202 -0.46143258 -0.79380083
-0.24445836 -0.6877369 -0.13434784 0.760445 -0.54234755 0.15999033 -0.9114365 -0.4210863
-0.107440844 -0.38281342 0.23835044 -0.6624777 0.08222503 0.23061226 -0.010153436 -0.082209595
-0.008694497 0.086094886 -0.5871472 -1.1551908 -0.19208284 -1.1761382 0.3748402 -0.6321953
-0.84274954 -0.5049666 -1.0862345 -0.10126252 -0.45979634 -0.04055212 -0.79887044 0.0589987
-0.67708063 -0.3792554 -1.148118 -0.17869598 0.1240166 0.25339478 -0.74975365 -0.9573794
-0.38759008 0.25842744 -0.6581225 -0.31419873 -0.41722795 -0.2694813 -0.4352775 -0.575818
-1.7005177 -0.9457094 -1.6901627 -2.2340949 -2.0790994 -0.85986507 -1.6622928 -0.62693226
-1.2206357 -1.9872406 -2.44487 -1.5908775 -1.8389037 -2.365145 -1.002427 -1.5429565
-1.8093495 -1.9264868 -2.0452085 -2.3491404 -1.1406764 -1.569501 -0.6623499 -1.8770316
-1.4558221 -1.1878507 -1.3539301 -1.0246665 -2.112841 -0.46112078 -1.1133322 -1.3600063
-1.4226584 -2.1072395 -1.5259691 -1.651018 -1.9234288 -1.7792418 -1.9778192 -1.010998
-1.6879821 -1.000836 -2.821369 -1.90471 -1.1843743 -1.8351842 -1.4910947 -1.2824432
-1.5719379 -1.613058 -1.8550701 -1.4121224 -1.6691239 -1.8676349 -1.1295568 0.027476111
-1.384898 -0.06354941 -0.47744673 -1.8474771 -0.5420629 -0.7577076 -1.9836817 -0.69137734
-0.40871426 0.4031803 -0.02753645 -0.58226514 -0.92891836 1.0917643 -0.4897375 1.1597202
0.8868038 0.2100982 0.13066573 -0.22574683 -0.5219085 0.43253154 1.0450714 0.45030436
1.1070858 0.672381 -1.0038344 0.061979823 -1.0257112 -0.53016025 0.26535308 -0.91091627
-0.76862836 1.0954078 -0.41185817 1.0123562 -0.68570775 0.34185243 -0.9105735 -0.8667607
-0.3166554 -0.42135665 -0.7305744 -0.6540118 1.1061119 -0.35486114 0.21974953 -0.246869
-0.18902393 0.905119 0.37634343 0.82136446 -1.1544548 -0.45727304 -0.5174422 -0.72760445
0.60260767 0.08555616 0.51529676 0.772069 -1.0850687 -1.7008173 -0.55180275 0.6805803
-1.3618081 1.2930824 1.3516176 0.8177196 0.36204228 1.1691068 -0.20264782 -1.1788259
0.06479688 -0.0019970916 0.6658799 0.77797717 0.5447106 -0.7752905 0.83105904 0.08655394
0.14553992 0.35741124 -0.22800046 -0.23157027 0.6487052 0.76993275 0.65098673 -0.38968384
-1.0567862 -0.42324552 -0.6152448 1.1656387 0.31150356 -1.48074 0.5550803 0.21520421
0.25008345 -0.6964625 0.6418485 0.25688374 0.25800082 0.12908298 0.17104274 -0.16813964
-0.00052931847 0.48321852 -0.04970718 0.4052 -0.09236672 0.03447321 1.1303765 -0.16130124
-0.26626617 0.30536008 -0.7964445 0.41538292 -0.4635604 0.45030117 0.9835149 0.020942641
0.709951 -1.0343215 0.6021569 0.013410682 0.48741496 -0.13470317 0.6616573 0.37340593
0.32691208 0.29582796 0.24315715 0.3578874 -0.5840762 0.5809251 -0.24068423 -0.38020775

weight f4 [64, 128]
00000000: 10d2 a9be 4ee2 96be e3f4 a7bc 8529 cf3e
00000010: aaba 2840 a226 0c3e 3825 e63d ff45 e0be
00000020: 0329 37bf e3a7 2ebe 222f b4bf 51aa ecbe
00000030: 9e2f 6abe e2df aebe 1d7e 853e cf23 10bf
00000040: f1f0 0bbd 2fca 023f 66ef d73e 4e40 a23e
00000050: 5e2a 523e 19ca 80bf 4878 443f ed5d a9bd
00000060: 5455 c73e 8e9f 04bf 624c 513c bc6a eabd
00000070: cdb4 9d3e 7b0a 3abd 003d e83e d3db b63e
00000080: 87bb 373e b067 953e b29c e53e 89b6 ba3e
00000090: 1477 98be fcc0 8dbe 604a 9abe 4d96 bd3f
000000a0: 696b 13bf 3783 18bf 0f7f a73e de64 9abe
000000b0: 038f 35be 6428 283e 4110 fcbe 0de9 403e
000000c0: 5df4 b7be 2e29 7abe 44af 063f e1d3 853d
000000d0: d0ac c03d 7d25 6c3e c863 25bf f8d8 86be
000000e0: d606 b73e 3822 ca3d 45b9 49be bff3 463e
000000f0: 9d4a c0be b6aa d8be 33ea 6d3d 7309 223f
00000100: eb22 42be 9ab8 acbe 9e47 debd fafc 923e
00000110: 0518 0c40 a833 7f3e 1955 2ebb 217e abbe
00000120: 0acf 2cbf 5a2e 20be d43e 34be 0b3d 58be
00000130: dae8 203d e9c3 9dbe 79fc 41be 0d4e 60bd
00000140: 0f89 4f3e ec69 33be de22 ac3b 72eb 5f3e
00000150: 8c64 323e 863d 793e 459e c53d 869c b8bd
00000160: cb9f 613e 9dad aebe de0b 423b 759f 61be
00000170: 5d80 7f3d e1d4 3fbe 0605 3f3e 88d2 863e
00000180: 6652 04bc 1cb3 713d 39f0 a7bc 941e 073e
00000190: 671f 39be 7b90 9cbe f163 01be 6700 a33e
000001a0: 0da8 0ebf eed3 1fbe 34ee 083c 789c 9dbe
000001b0: 7281 563e 50b8 513e e9d5 2abd e19b 623e
000001c0: b99a 65be 203a e1bd a684 473e 4ec0 6cbb
000001d0: b1ac 1c3e 95eb 8b3d dced 8abe 1350 9fbe
000001e0: 6db4 733e 71e6 4ebe 6d6b bf3d 20a2 86be
000001f0: 5f3d 08be 85ef a2be 9527 223d 388a 963e
00000200: 5c07 26be 88e0 9abe dbd7 ccbe 01d4 ebbf
00000210: c3ec 04bf f6b5 c43e d275 a53b 96bd b7be
00000220: af35 52bf 4018 b0be fcea a5bf 1aca 0bbe
00000230: 5dbb 823e ae17 b3be e178 283e 3c3b 1fbf
00000240: 30a9 1d3f 2381 52be b0bd 0d3e 2e1b ab3e
00000250: eed1 4cbd 97bd babf bde4 723e 419c 51be
00000260: 9484 d23e 771e 7abe 080d b03c 0d4e 8abd
00000270: d0d1 e13d 602b 87bb 933c e93e 3347 2a3e
00000280: fc8f 04bf e821 df3e 33e0 383e c959 233e
00000290: 09f0 8dbd 462b 82be 0a87 dfbd b96f 1a3e
000002a0: fc9a 96bd 285f 96be f131 b03e 2858 babe
000002b0: 613d 9f3e 27ff 243e ae30 c23e 59c8 303e
000002c0: 7f32 d2bd 4fbc 44be d190 b13e 50a6 8b3f
000002d0: 7e2f 4e3d 6f8d d43d 84e9 91bd f84b 48be
000002e0: bec9 3f3e 332e 293e 8886 75be c65d 81bf
000002f0: d7ec 33be 5a70 0abc ed39 abbd 8f55 963e
00000300: 5db2 49be 5fa5 9cbe c8f4 dabe d762 d7bf
00000310: acd4 bdbe a84d 3f3e 9d4a d53d e83b abbe
00000320: c9d2 09bf 8daa 94bc 98f3 25be c5a3 45be
00000330: 9e98 0d3e 0250 8dbe 0aba d23c 6d10 6fbd
00000340: 3e25 de3d 5c39 93bd b582 d2bc acae 923e
00000350: 4b25 d93d b292 5a3e 2f06 bcbd 2658 2fbe
00000360: 8078 de3d 352f 12bf e3d7 00be c0a1 5dbe
00000370: b842 ca3d a339 04bd f26c de3e f780 303e
00000380: 8ed9 ed3c 567a 3f3e c55b 19be 4db9 0a3e
00000390: 5a7f 12bd 8b4b 91be 4445 ffbb d2d0 943d
000003a0: b0fa 95be 97da 6fbe 9b7e 53be d57e 3abe
000003b0: c49e 763c f3a7 f53d ea5c 4fbe 2b47 cb3d
000003c0: c767 f1bd a2f5 acbc d530 823e 5949 643f
000003d0: 93ab 083e e03c 263d a906 8ebe 682f 7dbe
000003e0: 74d5 003e d46f 283d dfd7 12be 7fdc 4cbe
000003f0: 8c66 a4bd 084e 6ebe aed6 043e c176 6c3e
-0.33168077 -0.29469532 -0.020502513 0.40461364 2.636393 0.13686612 0.11237568 -0.43803403
-0.71546954 -0.17056231 -1.4076884 -0.4622369 -0.22869727 -0.34155184 0.2607278 -0.5630464
-0.034165327 0.5108976 0.42174834 0.31689686 0.20523974 -1.0061675 0.76746035 -0.08269868
0.38932288 -0.5180596 0.012774559 -0.11446139 0.30802003 -0.04542015 0.4535904 0.35714588
0.1794263 0.2918067 0.44846112 0.36467388 -0.2977835 -0.27686298 -0.3013487 1.4811493
-0.5758577 -0.5957522 0.32714126 -0.3015508 -0.17730336 0.16421658 -0.4923115 0.18838902
-0.35928622 -0.24429771 0.52611184 0.06534553 0.09407961 0.23061176 -0.6460538 -0.2633741
0.35747403 0.09869808 -0.19699581 0.1942892 -0.37556925 -0.42317742 0.058084678 0.6329567
-0.18958633 -0.3373459 -0.10853504 0.2870863 2.188966 0.24922049 -0.0026601015 -0.33494666
-0.67503417 -0.15642682 -0.17602092 -0.21117036 0.039284565 -0.3081353 -0.18943967 -0.054761935
0.20267127 -0.17520875 0.00525318 0.21867159 0.17421168 0.24339876 0.09649328 -0.090142295
0.22033612 -0.3411683 0.0029609124 -0.22033484 0.062378276 -0.1873355 0.1865426 0.26332498
-0.008076286 0.059008703 -0.02050029 0.13195258 -0.18078385 -0.3057898 -0.12635781 0.31836244
-0.55725175 -0.15608189 0.008357573 -0.3078344 0.20947817 0.20480466 -0.041707907 0.22129776
-0.22422303 -0.109974146 0.19484195 -0.0036125365 0.15300252 0.06832043 -0.27134597 -0.3111578
0.23799296 -0.20205094 0.09346662 -0.26295567 -0.13304661 -0.31823364 0.03958853 0.29402328
-0.16213745 -0.3024943 -0.40008435 -1.8424073 -0.5192377 0.38420075 0.0050494457 -0.3588683
-0.82113165 -0.343935 -1.2962337 -0.13651314 0.25533572 -0.34979004 0.16452362 -0.6219976
0.61586285 -0.20557074 0.13841891 0.33419174 -0.050004892 -1.4589108 0.23720069 -0.20469762
0.41116774 -0.24425684 0.021490589 -0.06753168 0.11026347 -0.0041250437 0.45554027 0.16628723
-0.517822 0.43580556 0.18054275 0.15952219 -0.06930549 -0.2542364 -0.109144285 0.15081681
-0.0735378 -0.29369473 0.34413102 -0.36395383 0.31101516 0.16112958 0.37927765 0.17263927
-0.102635376 -0.19212459 0.346808 1.091013 0.05033826 0.10378539 -0.07124618 -0.1956023
0.18729302 0.1652153 -0.23977101 -1.0106742 -0.17570816 -0.008449638 -0.08360658 0.2936215
-0.19696946 -0.30594918 -0.42764878 -1.6827039 -0.37076318 0.18681967 0.10414622 -0.33444142
-0.5383726 -0.018147731 -0.16206205 -0.19300754 0.1382775 -0.27600104 0.025723476 -0.058365274
0.10846947 -0.07188675 -0.025697092 0.2864889 0.10602816 0.21345022 -0.09180867 -0.1712347
0.10862827 -0.5710328 -0.12582354 -0.21643734 0.09876007 -0.03228153 0.43442494 0.17236696
0.029034402 0.18699011 -0.14976414 0.13547249 -0.035765983 -0.28377947 -0.0077902395 0.07266392
-0.29292822 -0.23423229 -0.20653765 -0.18212445 0.015052501 0.119949244 -0.20250288 0.099256836
-0.11787372 -0.02111322 0.2542788 0.8917442 0.133467 0.0405854 -0.27739456 -0.24725115
0.12581426 0.041122273 -0.14340161 -0.20005988 -0.08027372 -0.23271954 0.12972519 0.23092176

bias f4 [64]
00000000: a444 b4bf a9b7 57bf 1136 5d3d be3e 953d
00000010: 3a1c 1a3e 53c5 1d3e 2e14 0bbf a7ec eebf
00000020: fbb5 0abf c0af 23bf c7a7 083f f130 bebc
00000030: 9ccf 7f3e 9915 193f 85cb 05bf 32cc 1ebe
00000040: efba 5d3d 630a 823f fd00 4c3f 4e71 063f
00000050: c1a8 8e3e 74ab a03e 05cf 593f 184a 5d3e
00000060: 8667 2c3f 45e1 0a3f 3503 903e 9b57 1fc1
00000070: 8198 1ec1 b08c db3e 8853 753f 0fd9 0e3f
00000080: 5d75 993e f3d2 fb3e 0fd8 08be 2e49 20c1
00000090: 4050 1fc1 ef59 a6bc a791 a63e b120 cc3e
000000a0: 9d71 f03d b87c 963e 3b21 bb3e 6c12 9f3e
000000b0: 8990 fbbd 24b9 913f 52a2 8c3f ba38 5b3e
000000c0: ff0a 44bf 6891 6bbf 73fb bc3e 741f 903d
000000d0: 212c 403e 842f 683f 0704 a3be bac8 7cbf
000000e0: 5d77 0cc0 d606 71bf 4683 103e 6361 073f
000000f0: 01bd c03e 89a9 e03d bdf5 b43d 5269 bebf
-1.4083447 -0.8426462 0.05400664 0.07287358 0.1504983 0.15407304 -0.54327667 -1.866597
-0.5418393 -0.6394005 0.5338101 -0.023216696 0.2498154 0.5979858 -0.5226367 -0.15507582
0.054133352 1.015942 0.7968901 0.5251664 0.27863124 0.31380808 0.8508151 0.21610296
0.67345464 0.54249984 0.28127447 -9.958888 -9.912232 0.42880774 0.95830584 0.55799955
0.29972354 0.4918438 -0.1336367 -10.017866 -9.957092 -0.020306556 0.32533 0.39868692
0.1174042 0.29392028 0.3654879 0.31068742 -0.12283427 1.1384625 1.0987036 0.21408358
-0.7657928 -0.9201875 0.3691059 0.07037249 0.18766834 0.90697503 -0.3183901 -0.98743784
-2.1947854 -0.94151056 0.14112577 0.52882975 0.376442 0.10969836 0.08835933 -1.4875891
