TP/save_models_MLP_512_256_128_64/model_3.pt (torch, 844997 bytes, 10 tensors)

weight f4 [512, 64]
0	0xbd28dd62	-0.041226752
1	0xbde67a9d	-0.112538554
2	0xbbc8c43a	-0.0061269077
3	0xbdf77d35	-0.12084428
4	0xbdab3303	-0.08359339
5	0xbd467131	-0.04844779
6	0x3dc55f7c	0.09637353
7	0xbd23f333	-0.040026855
8	0x3e0aba67	0.1354767
9	0x3c5a64b3	0.013329673
10	0xbdc71152	-0.097201005
11	0x3cd2e725	0.025744984
12	0xbd1f7f4a	-0.03893975
13	0x3dac1b62	0.0840366
14	0xbda26716	-0.07929818
15	0xbe49ee9d	-0.1971993
16	0x3da5d569	0.080973454
17	0x3dfaf1d1	0.12253154
18	0x3e02e342	0.12782004
19	0xbc96cb8f	-0.018407611
20	0x3d16cae3	0.03681458
21	0xbdaf4538	-0.08558124
22	0x3d658890	0.05603844
23	0xbe6981d3	-0.2280343
24	0xbe0a6c88	-0.13517964
25	0xbd7bdf02	-0.061491974
26	0xbaa4d9b2	-0.0012577085
27	0x3d01d6f8	0.03169915
28	0xbc9e1540	-0.019297242
29	0xbe095760	-0.13412237
30	0xbe09c45f	-0.13453816
31	0xbdf4eba3	-0.11959007
32	0xbd43f618	-0.047842115
33	0xbd771613	-0.060323786
34	0x3d35f048	0.044418603
35	0x3dc2c153	0.0950953
36	0xbe1cd00f	-0.15313743
37	0xbd7e472b	-0.06207959
38	0x3bb7ccb2	0.0056091184
39	0xbc189be1	-0.009314508
40	0x3d79bb8d	0.060969878
41	0xbd73e1b4	-0.05954142
42	0xbda5057c	-0.08057687
43	0xbb7118c5	-0.0036788445
44	0x3cd08073	0.025451874
45	0xbe32099c	-0.17386478
46	0xbde42392	-0.11139597
47	0x3ccfd41e	0.0253697
48	0xbda8cecf	-0.082425706
49	0x3ccf17b4	0.025279857
50	0xbdc823b0	-0.09772432
51	0x3dd80e0b	0.105495535
52	0x3c629609	0.0138297165
53	0x3d3cf980	0.04613638
54	0xbd9edb93	-0.07756724
55	0x3c70f5cd	0.014707041
56	0x3e0f1019	0.13970985
57	0x3ddcddd8	0.10784501
58	0xbdbac1fc	-0.09119031
59	0x3de4f64b	0.11179789
60	0x3e08ff83	0.1337872
61	0xbd2bcf9a	-0.04194603
62	0x3e1811cb	0.14850537
63	0x3dfe9f94	0.12432781
64	0xbd957697	-0.0729801
65	0xbd91b793	-0.07115092
66	0xbdadd3a0	-0.0848763
67	0xbd84d8d5	-0.0648667
68	0x3d640ac4	0.05567433
69	0x3dba9f1e	0.091123804
70	0xbdd1ca5c	-0.10243675
71	0x3caf274a	0.02138104
72	0xbdba8df9	-0.091091104
73	0x3de2e3ba	0.11078592
74	0x3bbc3292	0.005743333
75	0xbd9401fd	-0.07226942
76	0x3dcac80a	0.09901436
77	0x3de1744d	0.11008511
78	0x3dbf2c89	0.09334666
79	0xbe0f5985	-0.13998993
80	0x3d501e7f	0.050810333
81	0x3dba5745	0.090986766
82	0x3e1d36ba	0.15352908
83	0x3bae3ded	0.0053174407
84	0x3dffa174	0.124819666
85	0xbdd05aa7	-0.101735406
86	0xbe0e44c1	-0.13893415
87	0xbdbfb399	-0.093604274
88	0xbc466895	-0.012109895
89	0xbca7a9fa	-0.020466793
90	0xbc2d64e0	-0.0105831325
91	0x3dd185d1	0.102306016
92	0x3c98521e	0.018593844
93	0xbdc88bf3	-0.09792318
94	0x3cf29e2e	0.029616442
95	0xbd91e7c2	-0.071242824
96	0x3e1a7131	0.15082242
97	0x3d6937bd	0.05693792
98	0xbe03efef	-0.12884496
99	0xbb9df325	-0.004820245
100	0x3d46281a	0.048378088
101	0x3dbd9b68	0.09258157
102	0xbd03cc2f	-0.032177147
103	0xbe291158	-0.16510522
104	0xbc7d005a	-0.015441978
105	0x3e133d92	0.14378956
106	0x3d990c30	0.07473028
107	0xbc8e7b78	-0.017392859
108	0x3d2f7c79	0.042843316
109	0xbd8747b1	-0.06605471
110	0x3d798495	0.060917456
111	0xbda452a5	-0.08023576
112	0x3ce50937	0.027958496
113	0x3d99696e	0.07490812
114	0x3d55880c	0.052131698
115	0xbd869aaf	-0.06572472
116	0x3e0d8a55	0.138223
117	0xbdc07306	-0.09396939
118	0xbd8fed1f	-0.07027649
119	0xbdd9d7c6	-0.10636859
120	0x3c9d579d	0.019206816
121	0xbda25252	-0.079258576
122	0x3a8e5794	0.001085984
123	0xbd81694f	-0.06318914
124	0xbda6a869	-0.081375904
125	0x3d189198	0.037248224
126	0x3ddded51	0.1083628
127	0xbd4a596d	-0.04940169
128	0xbbd330d0	-0.006445028
129	0x3dcb912d	0.099397995
130	0x3d26c628	0.04071632
131	0xbd25d627	-0.040487435
132	0xbd7b3161	-0.06132639
133	0xbe054c11	-0.13017298
134	0x3baa98e4	0.0052062143
135	0xbdbdf588	-0.09275347
136	0xbce0f5c5	-0.027460942
137	0x3cdc8b46	0.02692188
138	0x3c799f50	0.015235737
139	0xbd16da4a	-0.03682927
140	0xbc29a336	-0.010353854
141	0xbc7961db	-0.0152210845
142	0xbec7b1a2	-0.3900271
143	0x3e0d79fb	0.13816063
144	0x3da2c1ac	0.07947096
145	0xbdb99a6c	-0.09062657
146	0xbdba6ad2	-0.091024056
147	0xbd1a8e20	-0.037733197
148	0x3d9aa87f	0.07551669
149	0xbdabbfae	-0.083861694
150	0xbe17d8b2	-0.14828756
151	0xbd8e9aa8	-0.06963092
152	0xbde20c76	-0.11037533
153	0xbbf99f45	-0.0076178634
154	0xbc0d135c	-0.008610573
155	0x3c6d613e	0.014488516
156	0x3e08dc41	0.1336527
157	0x3e20667f	0.15664099
158	0xbd8ab978	-0.067736566
159	0xbd125063	-0.035721194
160	0xbd627c43	-0.055294286
161	0xbc1c8c4b	-0.009554933
162	0x3dd39cf0	0.10332668
163	0xbd9b33ea	-0.07578261
164	0xbd81fe74	-0.06347361
165	0xbdad08b4	-0.084489256
166	0x3bfd39e9	0.0077278507
167	0xbcab9ecb	-0.020949742
168	0xbd75d037	-0.060013022
169	0xbd3171de	-0.043321483
170	0xbe25dbdd	-0.16197152
171	0xbd925fa2	-0.07147147
172	0xbb1da53c	-0.0024054786
173	0x3e0e3adb	0.13889639
174	0x3e1343ea	0.14381376
175	0x3e54714f	0.20746349
176	0x3dc48b8b	0.09596928
177	0xbdc9fca2	-0.09862639
178	0xbda078d3	-0.078355454
179	0x3db74457	0.08948582
180	0x3dab6e9a	0.08370705
181	0x3ab04302	0.0013447704
182	0x3d4d5239	0.05012724
183	0x3d697841	0.05699945
184	0x3d96b109	0.073579855
185	0xbd064d91	-0.032788817
186	0x3dbb67e5	0.09150676
187	0x3d7c8ccb	0.06165771
188	0x3d3e9e80	0.046537876
189	0x3df842bc	0.121221036
190	0x3cbc7ae7	0.023007823
191	0x3dcd7ee7	0.1003397
192	0xbd050786	-0.032477878
193	0x3d93262c	0.07185015
194	0xbde6a8f8	-0.11262697
195	0x3db2afb1	0.08724917
196	0x3c7c9c3f	0.015418111
197	0x3c559e93	0.013038295
198	0x3db46de6	0.08810024
199	0xbe704140	-0.23462391
200	0x3d8f7fb8	0.07006782
201	0x3daf888f	0.08570968
202	0x3dbee682	0.093213096
203	0xbc86339f	-0.016382037
204	0xbc8e626c	-0.017380916
205	0x3dca2a7a	0.09871383
206	0xbbd96b87	-0.0066351327
207	0xbdfb65c9	-0.12275273
208	0x3d1588db	0.03650747
209	0xbdeac37f	-0.11463069
210	0x3dcd31ca	0.10019262
211	0xbdc8daa6	-0.09807329
212	0xbc9a1ced	-0.018812621
213	0xbcab6761	-0.020923318
214	0xbe016266	-0.12635192
215	0xbe620b4f	-0.22074626
216	0x3b1137e0	0.0022158548
217	0x3dbb22ee	0.09137522
218	0x3dbe4a44	0.09291509
219	0x3de83cc7	0.11339717
220	0xbd9edecc	-0.07757339
221	0xbcc7b12b	-0.024376472
222	0xbc8f4a89	-0.017491596
223	0x3db195a8	0.08671123
224	0x3d81f65b	0.06345817
225	0xbd411121	-0.047135476
226	0xbddb56e1	-0.1070993
227	0x3d59be2c	0.053159878
228	0x3c15bd07	0.009139306
229	0xbbbe6636	-0.0058105243
230	0xbde32fd4	-0.11093107
231	0xbd8dd03c	-0.06924483
232	0xbde13687	-0.109967284
233	0xbdb6e382	-0.089301124
234	0x3dfefa05	0.12450031
235	0xbdbcfa4c	-0.09227428
236	0x3e1e50d8	0.15460527
237	0xbe084b93	-0.1331008
238	0x3e08828a	0.13331047
239	0xbe07b9a9	-0.13254417
240	0x3b4abcdc	0.0030935323
241	0xbd7fc7ac	-0.06244628
242	0x3e030933	0.12796478
243	0x3bb23bd7	0.0054392624
244	0xbdec7865	-0.11546401
245	0xbd26a9c3	-0.04068924
246	0x3d04fd42	0.032468088
247	0x3daf6a08	0.08565146
248	0x3d34c9f5	0.044137914
249	0x3d4eaae9	0.05045596
250	0xbb297ae8	-0.0025860611
251	0x3c87ceb1	0.01657805
252	0xbdb15d0b	-0.08660325
253	0x3cc5b1d8	0.024132654
254	0xbd9a41d6	-0.075320885
255	0x3d9a31fb	0.07529064

bias f4 [512]
0	0x3dd7f8b4	0.10545483
1	0xbd69bc3e	-0.057064287
2	0x3d9f71fe	0.07785414
3	0x3c6ab1df	0.014324634
4	0xbc3ef24d	-0.011654449
5	0x3b69f67e	0.00356999
6	0xbaf02652	-0.0018321967
7	0x3d5b96d9	0.053610656
8	0x3d67e058	0.056610435
9	0x3dd1094b	0.102068506
10	0x3dacc638	0.08436245
11	0xbd1a05d4	-0.037603214
12	0xbd43a389	-0.04776338
13	0x3c3db85a	0.011579597
14	0xbdc3c669	-0.09559328
15	0xbc37c71f	-0.011216908
16	0x3dc54f29	0.09634239
17	0xbdad8cdf	-0.08474135
18	0x3e186480	0.14882088
19	0xbd31eb1e	-0.043437116
20	0xbd8f458e	-0.069956884
21	0xbc632621	-0.013864071
22	0x3d3e6c36	0.046489917
23	0xbd4052bd	-0.046953905
24	0xbc1ed6d6	-0.009694776
25	0x3b53a30c	0.0032293228
26	0xbd8400be	-0.06445454
27	0xbd4e4cbd	-0.050366152
28	0xbcc0f6ad	-0.023555124
29	0xbdccfdaf	-0.10009324
30	0x3d3e4470	0.046451986
31	0xbe1a9bcf	-0.15098499
32	0xbd8c7618	-0.06858462
33	0xbd65b153	-0.056077313
34	0xbdd325d7	-0.10309952
35	0x3dc91b6c	0.098196834
36	0x3ccd1e13	0.025038755
37	0x3c7f38d2	0.015577512
38	0xbdd12fe3	-0.10214212
39	0xbda69646	-0.08134131
40	0x3e09e99c	0.13468021
41	0x3d683a9d	0.056696523
42	0x3d95052c	0.07276377
43	0xbdd5a846	-0.10432486
44	0xbd886391	-0.06659616
45	0xbdb1944a	-0.08670862
46	0x3d223b88	0.039607555
47	0xbd9aaefb	-0.07552906
48	0x3ca69dfb	0.020339003
49	0xbd8786ff	-0.06617545
50	0xbdebe37a	-0.11517997
51	0x3dce33af	0.100684516
52	0xbc141887	-0.009039051
53	0xbd980313	-0.07422461
54	0x3ccd41db	0.025055816
55	0xbde2b473	-0.11069574
56	0xbe09e5c7	-0.1346656
57	0x3d690d6e	0.056897573
58	0x3db51ef6	0.08843796
59	0x3daf954c	0.08573398
60	0xbd86d3cf	-0.06583368
61	0xbde77e27	-0.113033585
62	0x3d6fc7e4	0.05854024
63	0xbd567014	-0.05235298
64	0x3cd5feb9	0.026122438
65	0xbd01db60	-0.031703353
66	0xbda3512c	-0.07974467
67	0xbc907a9e	-0.017636593
68	0x3dfeaadf	0.12434935
69	0xbd093874	-0.033501104
70	0xbda14b10	-0.07875645
71	0x3e226a23	0.158608
72	0x3dd648ff	0.10463142
73	0xbdd4d1b8	-0.10391563
74	0xbd9c8efc	-0.076444596
75	0x3dffc62b	0.124889694
76	0x3d37bdf9	0.044858906
77	0x3dcbfc7f	0.09960269
78	0x3d9f4205	0.07776264
79	0x3ded1064	0.11575392
80	0xbdd3bbce	-0.10338555
81	0x3d03a393	0.03213842
82	0xbdbeea3e	-0.09322022
83	0x3d9c9e03	0.07647326
84	0x3d369e6f	0.044584688
85	0x3dae4d9f	0.08510899
86	0x3e0d6a8f	0.1381018
87	0xbce3dce0	-0.027815282
88	0xbd11ef30	-0.035628498
89	0x3dac9aed	0.08427987
90	0xbc895a18	-0.016766593
91	0x3d9a8eef	0.07546794
92	0xbd57355a	-0.052541114
93	0x3d52b038	0.051437587
94	0x3e08b078	0.13348567
95	0x3e011d0d	0.12608738
96	0xbdf7deed	-0.121030666
97	0x3dfb5513	0.12272086
98	0xbc4ee36d	-0.012627465
99	0x3df73303	0.120702766
100	0x3dcd11e5	0.10013179
101	0xbde9a3b0	-0.11408174
102	0x3dde41a1	0.108523615
103	0xbd99f392	-0.075171605
104	0x3d3132ee	0.04326146
105	0x3ddd23fa	0.107978776
106	0xbd3a24fc	-0.045445427
107	0xbd8b40c6	-0.06799464
108	0xbda6fca7	-0.08153658
109	0xbd122c25	-0.03568663
110	0x3e1177d1	0.14205863
111	0x3d141dee	0.036161356
112	0xba442452	-0.0007482219
113	0xbe0b72b1	-0.1361797
114	0x3ce638ca	0.028103251
115	0x3d303e65	0.043028254
116	0xbdddea2f	-0.108356826
117	0xbddf5f7a	-0.109068826
118	0x3d6eab48	0.058268815
119	0x3d2082b0	0.039187133
120	0x3dc7e851	0.09761108
121	0xbd0db66b	-0.034597795
122	0x3cea9888	0.028637186
123	0x3d789e0b	0.060697597
124	0x3d1a6e96	0.03770312
125	0x3dd7d6a2	0.10538985
126	0x3cdbcb6a	0.026830394
127	0xbd3242e8	-0.043520838
128	0xbdb3c2d5	-0.08777396
129	0xbd0371d6	-0.032090984
130	0xbdc0747f	-0.0939722
131	0x3da26db8	0.079310834
132	0xbd8ec19e	-0.06970523
133	0x3b45730f	0.0030128395
134	0xbda9a7cf	-0.0828396
135	0x3d691876	0.056908093
136	0x3a0cd08a	0.0005371651
137	0xbe229ff8	-0.15881336
138	0x3c348b05	0.011019473
139	0x3cdcfc5b	0.026975801
140	0xbd4e4705	-0.0503607
141	0x3b046233	0.0020200133
142	0x3ddfdd31	0.10930861
143	0x3c37bba9	0.011214175
144	0x3d1051e6	0.035234354
145	0xbdd36058	-0.103211105
146	0xbd3df33f	-0.046374556
147	0xbd82e99f	-0.06392216
148	0xbd4a1cb0	-0.049343765
149	0x3daf0847	0.08546501
150	0xbdb9226a	-0.09039767
151	0xbdcbb622	-0.099468485
152	0x3cac9a98	0.02106981
153	0x3d020aff	0.031748768
154	0x3ce0f2e0	0.027459562
155	0xbddae10e	-0.10687457
156	0x3de3e3c1	0.11127425
157	0xbc8f4088	-0.017486826
158	0x3d3fec79	0.046856377
159	0xbd01701b	-0.031601053
160	0xbd15b2d0	-0.036547482
161	0x3db50fa5	0.088408746
162	0x3d13a3ee	0.036045007
163	0xbda9c4ca	-0.08289488
164	0x3d02e14a	0.031953134
165	0x3d0fa47f	0.035068985
166	0x3d87489e	0.066056475
167	0x3d936415	0.071968235
168	0xbb103486	-0.0022003963
169	0x3b62c33c	0.0034601232
170	0x3da1ac79	0.07894225
171	0xbddd0fac	-0.10794005
172	0x3cdb2f9f	0.026756106
173	0x3da2c345	0.07947401
174	0xbd2d03bf	-0.0422399
175	0xbc74b00c	-0.014934551
176	0xbc571974	-0.013128627
177	0xbdd9d977	-0.10637181
178	0x3e172b2d	0.14762564
179	0x3db77b36	0.089590475
180	0xbd65c391	-0.05609471
181	0x3df86747	0.121290736
182	0x3d628cf9	0.055310223
183	0xbd528148	-0.051392823
184	0x3da5681e	0.080764994
185	0xbe0448c1	-0.12918378
186	0xbd7e91e5	-0.062150855
187	0xbdbde6b9	-0.092725225
188	0x3da47281	0.080296524
189	0xbdfbacd3	-0.12288823
190	0x3a0c376d	0.0005348835
191	0x3d60b6c8	0.054861814
192	0xbe05f99f	-0.13083504
193	0xbbef7430	-0.007307552
194	0x3d8c80a6	0.06860475
195	0xbc70bf56	-0.014694056
196	0xbd844b98	-0.06459731
197	0x3d9b68ae	0.075883254
198	0x3c469396	0.012120148
199	0xbd826fa2	-0.063689485
200	0x3bb7e31d	0.005611791
201	0xbe109e21	-0.14122821
202	0xbd764f40	-0.060134172
203	0x39e6924e	0.00043978024
204	0xbd98c406	-0.074592635
205	0x3d6934cc	0.056935117
206	0x3d1fc05d	0.03900181
207	0xbdb84179	-0.08996863
208	0x3de16e61	0.11007381
209	0xbc00804c	-0.007843088
210	0xbdb64ba7	-0.08901148
211	0x3db10b4a	0.08644731
212	0xbe0a29a1	-0.13492443
213	0x3d240f10	0.040053427
214	0xbc164925	-0.009172712
215	0xbd7eb164	-0.06218089
216	0x3c1f8854	0.009737093
217	0x3e2ab6f7	0.16671358
218	0x3d30ab5f	0.043132182
219	0x3de420c2	0.111390606
220	0xbdcc17e9	-0.09965498
221	0x3de38039	0.11108441
222	0x3da123cc	0.07868156
223	0x3dbe4fd2	0.09292568
224	0xbc9c95db	-0.019114425
225	0x3cefd547	0.029276503
226	0x3cedf1eb	0.02904602
227	0xbdc5cd48	-0.09658295
228	0xbe0d7fa1	-0.13818218
229	0xbbdbf0fd	-0.0067120777
230	0xbd81739e	-0.0632088
231	0xbde783ed	-0.1130446
232	0x3dd01602	0.10160448
233	0x3d56403b	0.05230735
234	0x3d5fe038	0.05465719
235	0xbd1643c6	-0.036685728
236	0x3d9e43cc	0.07727775
237	0xbd8fccef	-0.0702151
238	0xbdadfad2	-0.08495106
239	0x3cf81ba3	0.030286616
240	0x3d772d44	0.060345903
241	0xbdaafa6a	-0.08348544
242	0x3cfb64fb	0.0306878
243	0x3dc86001	0.09783936
244	0x3d92b47a	0.071633294
245	0xbe01092b	-0.12601154
246	0xbc89cb60	-0.01682061
247	0xbd16db92	-0.036830492
248	0xb91f4ae4	-0.0001519132
249	0xbb0bbdaa	-0.0021322765
250	0xbd4e482d	-0.0503618
251	0x3d87c1e4	0.066287786
252	0x3d580756	0.05274137
253	0x3c116050	0.00887306
254	0xbdbb344f	-0.091408364
255	0xbdc27e2d	-0.09496722

weight f4 [256, 512]
0	0x3d4b8fa2	0.049697526
1	0x3cb9e326	0.02269132
2	0x3c1179c6	0.008879131
3	0x3caa2d8e	0.020773675
4	0x3c33c7dc	0.010972943
5	0x3d45451f	0.048161622
6	0xbcf8644b	-0.03032126
7	0x3cefbbf0	0.02926442
8	0x3cb7ba03	0.022427564
9	0x3d1059c3	0.035241853
10	0xbd8d7597	-0.06907194
11	0xbaaa40cc	-0.0012989282
12	0x3d1511cf	0.036393937
13	0x3d08f86f	0.03344005
14	0x3d240140	0.040040255
15	0x3bda1430	0.0066552386
16	0x3cc2239f	0.023698626
17	0x3d23304c	0.03984098
18	0xbd649c00	-0.055812836
19	0x3cc02ade	0.02345794
20	0x3cb14d3e	0.021643277
21	0xbc595802	-0.013265612
22	0x3c9cf6ae	0.019160595
23	0x3c94df9c	0.018173032
24	0x3d28f2f8	0.041247338
25	0x3d321566	0.04347744
26	0xbd3e36b8	-0.046438903
27	0xbc70230c	-0.014656793
28	0xbd30cf53	-0.04316647
29	0xbca050a6	-0.019569706
30	0xbc1e38da	-0.009657109
31	0x3c9dc5aa	0.019259293
32	0x3d0bb9ff	0.034112927
33	0x3bc2fbeb	0.005950441
34	0x3cef467b	0.029208412
35	0x3c6c0012	0.014404314
36	0xbc877485	-0.016535053
37	0x3c801ae0	0.015637815
38	0xba421592	-0.0007403727
39	0xbd7b0e01	-0.061292652
40	0xbc76287a	-0.015024299
41	0x3d0f8c44	0.035045877
42	0x3cfbf4c9	0.030756371
43	0xbc12aac6	-0.008951848
44	0xbd8eca3c	-0.06972167
45	0x3ca2f58a	0.019892473
46	0xbc8affd9	-0.0169677
47	0x3b8e5b42	0.004344375
48	0xbd4a4ed9	-0.0493916
49	0xbd3c1061	-0.045914058
50	0x3bdef463	0.0068040355
51	0x3d031772	0.03200478
52	0xbb6c1a6f	-0.0036026498
53	0xbc2ee176	-0.010673871
54	0xbac2abb4	-0.0014852197
55	0x3da028ef	0.078203075
56	0x3c51a6e6	0.012796139
57	0x3d65991a	0.056054212
58	0xbb823536	-0.0039736284
59	0x3d34a0b7	0.044098582
60	0xbc3520ea	-0.011055211
61	0xbca3589b	-0.019939711
62	0xbbbf7c5a	-0.0058436813
63	0x3d199a51	0.037500683
64	0x3c2ab996	0.010420224
65	0xbd140923	-0.036141526
66	0x3d05290e	0.032509856
67	0xbb8904dd	-0.004181488
68	0x3c0067fe	0.007837294
69	0xbd0f31bd	-0.034959543
70	0x3c83a8b0	0.016071647
71	0xbc1a701c	-0.009426143
72	0xbd5dda4d	-0.054163266
73	0xbd9c1fbc	-0.0762324
74	0x3a97edce	0.0011591257
75	0x3d3f7fe3	0.04675282
76	0x3d41840c	0.04724507
77	0xbce73ef7	-0.028228266
78	0xbd92f406	-0.0717545
79	0xbd23cf07	-0.03999236
80	0x3da8d7d9	0.08244295
81	0x3d895a60	0.06706691
82	0x3c975c58	0.01847665
83	0x3b72b4fc	0.0037034145
84	0x3bedda3a	0.0072586806
85	0xbc5adb4c	-0.0133579485
86	0x3cd35377	0.025796635
87	0x3cf6f6db	0.030147007
88	0xbc878413	-0.01654247
89	0xbc2365b8	-0.009972982
90	0x3c82b0d2	0.015953455
91	0x3b7862da	0.0037900717
92	0x3cb20a61	0.021733465
93	0x3b5d5d05	0.0033777368
94	0x3c8712ed	0.016488517
95	0xbceb50c7	-0.028725041
96	0x3c40393b	0.011732395
97	0xbd577d9a	-0.052610017
98	0x3ded0fa3	0.11575248
99	0x3c4b427c	0.012405988
100	0xbc5e967b	-0.013585682
101	0xbd7d86ef	-0.06189626
102	0xbb90eb43	-0.0044225766
103	0xbd9def50	-0.07711661
104	0xbd1228fb	-0.035683613
105	0xbcee858b	-0.029116413
106	0xbd9a8b49	-0.07546098
107	0xbd29974f	-0.041404065
108	0xbd0b7bd7	-0.03405365
109	0xbd224291	-0.039614264
110	0x3c9ef6af	0.019404737
111	0x3d2c9569	0.042134676
112	0x3cc4b337	0.024011238
113	0x3c554964	0.013017986
114	0xbdaad5b0	-0.08341539
115	0x3d4131cd	0.047166634
116	0x3dc64792	0.0968162
117	0x3cb67a7d	0.022275204
118	0x3d7fb76c	0.062430784
119	0x3d139b5c	0.036036834
120	0x3d54b661	0.051931743
121	0xbd080867	-0.033211138
122	0x3d7733a2	0.060351975
123	0xbd90ddb1	-0.07073534
124	0x3d899af5	0.06719009
125	0xbd185d5e	-0.037198417
126	0xbce869ff	-0.028370855
127	0x3cd74999	0.026280211
128	0x3db9e01a	0.09075947
129	0x3d1d270f	0.038367327
130	0x3ce1403b	0.027496448
131	0x3d86fdfa	0.06591411
132	0xbc849782	-0.016185526
133	0xbd96ade6	-0.07357387
134	0x3da3b970	0.07994354
135	0x3d2a74f5	0.041615445
136	0x3cfacb7c	0.030614607
137	0x3d21d96c	0.03951399
138	0xbc9e6538	-0.019335374
139	0xbd46c5dc	-0.048528537
140	0x3d812bd2	0.06307186
141	0xbc583646	-0.013196534
142	0xbcb0e5e0	-0.021593988
143	0x3d168d1f	0.036755677
144	0xbd0d4977	-0.03449389
145	0x3d93ece4	0.07222918
146	0xbd3f14e1	-0.04665077
147	0x3c87089b	0.016483596
148	0xbd28fb67	-0.04125538
149	0xbd732e08	-0.05937007
150	0x3cdaf066	0.026725959
151	0x3c8e515b	0.017372778
152	0x3d108e2d	0.03529184
153	0x3d2798d1	0.04091722
154	0xbd579df7	-0.05264088
155	0x3c0753f3	0.008259761
156	0xbd40ea57	-0.047098484
157	0xbcb22d3c	-0.021750085
158	0x3c7f9778	0.015600078
159	0x3be70312	0.0070499266
160	0xbd9ba25f	-0.07599329
161	0xb9e38cf3	-0.0004340183
162	0x3bd52b0b	0.0065053753
163	0xbc656ba5	-0.014002715
164	0x3cfa9080	0.030586481
165	0xbd778ccb	-0.060437005
166	0xbd89f857	-0.0673682
167	0x3ce50a45	0.027958998
168	0x3d3d9d64	0.046292678
169	0x3d40d3b3	0.047076892
170	0x3d6ce268	0.057833105
171	0xbca2ff60	-0.019897163
172	0x3d7bdd91	0.0614906
173	0x3cf0c31c	0.02938991
174	0xbd2606df	-0.040533897
175	0xbcf79b43	-0.030225402
176	0xbd1c0c3a	-0.038097598
177	0x3d886dea	0.066615894
178	0x3ace07da	0.0015718893
179	0xbda2adf4	-0.07943335
180	0x3c6aff12	0.01434304
181	0x3c296411	0.010338799
182	0xbd358aab	-0.044321697
183	0xbca3a7b8	-0.019977435
184	0x3c8e5e3a	0.017378915
185	0xbc8d1a77	-0.017224533
186	0x3bd62ec9	0.006536339
187	0x3d0e5144	0.03474547
188	0x3cd94c24	0.026525564
189	0x3d7bd71b	0.061484437
190	0x3d1e07bd	0.0385816
191	0x3d845288	0.06461054
192	0x3d415f34	0.047209933
193	0x3d8b0ae1	0.06789184
194	0xbcac4a1f	-0.021031437
195	0x3d8fb789	0.070174284
196	0xbc90ecf4	-0.017691113
197	0x3bde4081	0.006782592
198	0x3b5f7a7c	0.0034100106
199	0x3b6cbb1e	0.0036122273
200	0x3d226e3c	0.03965591
201	0x3ba6fff5	0.0050964304
202	0xbcebe65b	-0.028796365
203	0xbda1a633	-0.07893028
204	0x3cecbad1	0.028897675
205	0x3ca9d839	0.020732986
206	0xbbc839b9	-0.0061103967
207	0xbd01704d	-0.03160124
208	0xbd70a501	-0.05875111
209	0xbc0ba702	-0.0085237045
210	0x3c9ade73	0.0189049
211	0xbd87a3f0	-0.066230655
212	0x3db750cc	0.08950958
213	0xbd7e3731	-0.062064353
214	0x3d1dfab9	0.038569186
215	0x3c3dcb2c	0.0115840845
216	0xbcb0656d	-0.021532739
217	0x3da188ab	0.078873955
218	0x3beb7542	0.007185609
219	0x3d319ca2	0.043362267
220	0xbdbe16ba	-0.092816785
221	0x3b04fb8c	0.0020291535
222	0xbcedec59	-0.029043363
223	0xbcc3c9c7	-0.023899926
224	0x3be2a38b	0.0069164685
225	0xbd2b265d	-0.041784633
226	0x3d4af76b	0.049552362
227	0xbbfd6b11	-0.0077337106
228	0xbd2e48d4	-0.042549923
229	0xbd0308e8	-0.031990916
230	0x3c8cb15e	0.017174419
231	0xbd605198	-0.054765314
232	0xbc83b839	-0.016079055
233	0xbccf4a33	-0.025303936
234	0xbbbc7d62	-0.0057522515
235	0x3ca1fc18	0.019773528
236	0xbd934e20	-0.071926355
237	0xbd576596	-0.052587114
238	0xbc962a31	-0.018330665
239	0xbda2ca98	-0.07948798
240	0x3d51acc1	0.05119014
241	0x3d4f215c	0.050568923
242	0x3c1c4c78	0.009539716
243	0xbcddac23	-0.02705962
244	0x3d5c5cc4	0.053799406
245	0xbc119cc0	-0.00888747
246	0xbc8fe116	-0.017563384
247	0xbd44296c	-0.047891065
248	0x3cfeb54a	0.031092305
249	0xbd880f53	-0.06643548
250	0x3d1a3718	0.037650198
251	0xbdaa27e6	-0.08308391
252	0x3d20a733	0.039221954
253	0xbc9c4133	-0.019074058
254	0x3cb239d3	0.021756088
255	0x3d7ccbac	0.061717674

bias f4 [256]
0	0xbbc019d6	-0.005862455
1	0x3d248e28	0.040174633
2	0xbd47bb84	-0.048762813
3	0xbd3b82e9	-0.045779143
4	0x3c6d7744	0.014493767
5	0x3ca7d8fd	0.02048921
6	0x3cd2c3c0	0.025728106
7	0x3aa1e4a8	0.001235147
8	0xbd2f7af4	-0.042841867
9	0xbd89fb71	-0.06737412
10	0xbd135cf1	-0.035977308
11	0x3d154d62	0.03645075
12	0xbcf591ea	-0.029976804
13	0x3d0ebd03	0.034848224
14	0xbce98898	-0.028507516
15	0x3cd40f8e	0.025886323
16	0x3c3d7d86	0.011565572
17	0xbc8d137d	-0.017221207
18	0xbd56752f	-0.05235785
19	0xbbab1f59	-0.005222243
20	0xbc8c62ea	-0.01713701
21	0xbac45b72	-0.0014980866
22	0xbd8d461b	-0.06898137
23	0x3d4b9829	0.049705658
24	0x3d0ee5ea	0.034887232
25	0x3d0ad5bb	0.033895236
26	0x3bed4c44	0.0072417576
27	0x3ce9504a	0.028480668
28	0xbd3d431a	-0.04620657
29	0xbda13e85	-0.07873253
30	0x3d3b9ed9	0.045805786
31	0xbd371405	-0.044696826
32	0xb6ae8e00	-5.202135e-06
33	0x3d769b88	0.06020692
34	0x3ae149d1	0.0017188137
35	0x3d63755c	0.055531844
36	0xbb863c94	-0.004096577
37	0xbcafd7f9	-0.021465288
38	0x3d29826a	0.04138414
39	0x3cd12724	0.025531359
40	0xbd887edd	-0.06664822
41	0x3d13c107	0.036072757
42	0xbd044d71	-0.032300416
43	0xbc7ac1f7	-0.015305034
44	0xbcb543d1	-0.022127064
45	0xbd1608ca	-0.036629476
46	0x3d175aef	0.036951955
47	0xbd6d954d	-0.058003712
48	0xbd7b499b	-0.061349493
49	0xbd0a8850	-0.033821404
50	0x3bc8ae60	0.0061243027
51	0xbd4a609a	-0.049408533
52	0x3a9fb2ac	0.0012183986
53	0x3d63082c	0.055427715
54	0xbcd7f6ff	-0.026362894
55	0xbd0a0205	-0.033693332
56	0xbc4539b3	-0.012037682
57	0xbb2c8230	-0.0026322715
58	0xbbad96eb	-0.005297532
59	0xbcb56cda	-0.022146631
60	0xbd0bb4c9	-0.034107957
61	0x3d647f0d	0.055785228
62	0x3c17e555	0.009270986
63	0xbd06aa8e	-0.032877497
64	0xbd55474d	-0.05206995
65	0xbd498aaa	-0.049204506
66	0xbd0b282e	-0.033973865
67	0xbd699a66	-0.05703201
68	0x3c3cdf1d	0.011527804
69	0x3ccfc2a0	0.02536136
70	0xbc70a774	-0.014688361
71	0x3d236d3a	0.03989909
72	0xbceb7b55	-0.028745333
73	0xbd9e3b6e	-0.07726179
74	0x3d6b2103	0.05740453
75	0xbdd1718f	-0.10226738
76	0xbbd6e8f5	-0.0065585324
77	0x3d8d2568	0.068919
78	0x3d174a32	0.036935993
79	0x3b81c2c4	0.0039599854
80	0x3d2fdbc8	0.04293421
81	0x3d874084	0.06604102
82	0xbc86552f	-0.01639804
83	0xbd1a5ce3	-0.03768624
84	0x3d98b89e	0.07457088
85	0x3cc0a76e	0.023517337
86	0x3d964ee9	0.0733927
87	0xbbd01180	-0.0063497424
88	0xbba3998a	-0.0049926685
89	0x3c437d97	0.011931798
90	0xbdad0233	-0.08447685
91	0x3b61490a	0.003437581
92	0x3d45abdf	0.048259612
93	0xbc3c6f11	-0.01150109
94	0x3c67d7f8	0.014150612
95	0x3c89c81c	0.016819052
96	0x3b3b8a0d	0.002861622
97	0xb9a0b591	-0.00030652856
98	0x3d18d18e	0.037309222
99	0x3d051304	0.032488838
100	0xbc55c5e1	-0.013047666
101	0xbd3f8882	-0.046761043
102	0x3cce1bdc	0.025159769
103	0xbc762c37	-0.01502519
104	0x3d8340e5	0.06408862
105	0xbd890a68	-0.06691438
106	0x3cfd6893	0.030933654
107	0x3dac3e4e	0.08410321
108	0xbd812e73	-0.063076876
109	0xbc7cd06c	-0.015430551
110	0x3d232503	0.03983022
111	0xbc71e731	-0.014764593
112	0xbb1c2ecd	-0.0023831606
113	0x3cb07104	0.021538265
114	0xbcbdca46	-0.02316774
115	0x3d8a508e	0.06753646
116	0xbc9c4195	-0.01907424
117	0xbd9aa28a	-0.07550533
118	0x3c8c6d5c	0.01714199
119	0xbd3d7958	-0.0462583
120	0xbca7449f	-0.020418463
121	0xbd389b12	-0.04506976
122	0x3d04813f	0.03234982
123	0x3bcb93ad	0.0062126727
124	0x3d93d72d	0.07218776
125	0xbbff8e4e	-0.0077989465
126	0xbd322135	-0.0434887
127	0xbc82685b	-0.015918901
128	0x3bd8b1a1	0.006612972
129	0x3c2ff3d6	0.010739287
130	0xbd84e0b1	-0.06488169
131	0x3c4b12d7	0.0123946285
132	0xbd250f00	-0.04029751
133	0x3b8f66b0	0.004376255
134	0x3cc316ff	0.023814676
135	0xbc4496c9	-0.011998841
136	0xb6f83906	-7.3976144e-06
137	0xbd1bf0a8	-0.038071305
138	0x3ce28239	0.027649986
139	0x3cd73855	0.026271978
140	0x3b3d20c2	0.0028858637
141	0x3cf4dcc3	0.029890424
142	0x3c85c2ec	0.016328298
143	0xbd407f51	-0.04699642
144	0xbd8bc443	-0.06824543
145	0xbc1734b1	-0.009228871
146	0xbd75c0be	-0.059998266
147	0x3c7a8fbb	0.015293057
148	0x3d5c6588	0.053807765
149	0x3d403ea5	0.046934742
150	0xbc114272	-0.008865939
151	0x3cef623c	0.029221646
152	0x3bee0042	0.0072632143
153	0xbdc6bbba	-0.09703775
154	0xbc864e65	-0.016394803
155	0x3c6e517b	0.014545794
156	0x3c4a101d	0.012332943
157	0xbc75cb68	-0.015002109
158	0x3d3799f9	0.044824574
159	0xbc8954fe	-0.01676416
160	0x3d217821	0.039421204
161	0x3be553b7	0.006998505
162	0x3d8e48dd	0.06947491
163	0x3cd42e41	0.025900962
164	0xbd3fa2d3	-0.04678614
165	0x3d265555	0.040608723
166	0x3b9ed29c	0.004846884
167	0x3b779a40	0.003778115
168	0x3c9e6b3a	0.019338239
169	0x3d6b0960	0.057381988
170	0xbc7ef81f	-0.015562086
171	0x3ba0ea4a	0.004910742
172	0xbdaff3e0	-0.08591437
173	0xbc7d42be	-0.015457807
174	0x3a1f70fd	0.0006082205
175	0xbd53eec2	-0.05174137
176	0xbdad1a51	-0.08452285
177	0x3c912997	0.017720027
178	0xbcf1ff19	-0.029540585
179	0xbc3f370b	-0.011670838
180	0x3cfd924f	0.030953554
181	0x3cf0d951	0.0294005
182	0x3c0bb70b	0.008527528
183	0x3d2ae4bf	0.041722056
184	0xbce277d0	-0.027645022
185	0xbd09d889	-0.03365377
186	0x3bde0f0a	0.006776695
187	0x3cb22f9f	0.021751223
188	0x3a86373c	0.001023985
189	0xbc9aa9a5	-0.018879721
190	0xbd3789a0	-0.044808984
191	0x3d8c5271	0.06851662
192	0x3c668a6c	0.014071088
193	0x3c871e0d	0.016493822
194	0x3caefc62	0.02136058
195	0x3cd99e2d	0.026564682
196	0x3d63e0c5	0.05563428
197	0xbcb00964	-0.021488853
198	0x3c809b83	0.015699154
199	0x3c0d383d	0.008619365
200	0x3cc1a709	0.023639219
201	0x3c0c638c	0.008568656
202	0x3c8d0c46	0.017217766
203	0x3ccb9f1c	0.024856143
204	0x3ca0eac1	0.01964319
205	0xbd64cac8	-0.05585745
206	0xbdb56607	-0.08857351
207	0x3c252e49	0.010081836
208	0xbd393f91	-0.045226637
209	0xbc3a0dcf	-0.011355831
210	0xbc585194	-0.0132030435
211	0x3cff6cec	0.031179868
212	0xbc8bb1d5	-0.01705257
213	0x3ce07781	0.027400734
214	0x3c3d535d	0.01155552
215	0xbca78118	-0.020447299
216	0x3d6fba05	0.05852701
217	0x3bad7efc	0.0052946787
218	0xbd6bd329	-0.057574425
219	0x3c869d8f	0.016432552
220	0xbd029aa1	-0.031885747
221	0xbc811534	-0.01575718
222	0x3d05fea9	0.032713566
223	0x3d6040fb	0.05474947
224	0xbbc74eef	-0.0060824077
225	0xbd2e904d	-0.042618085
226	0xbbeb2526	-0.0071760593
227	0xbce7de53	-0.028304255
228	0x3d1a056f	0.037602838
229	0x3d4299b8	0.04750988
230	0x3d614cdd	0.055004943
231	0xbd65a002	-0.0560608
232	0xbcf13823	-0.029445713
233	0x3cec858c	0.028872274
234	0x3ca5e6b1	0.020251604
235	0xbc0ceb12	-0.008600967
236	0x3c7c2c6c	0.01539145
237	0xbd431273	-0.047625016
238	0x3d673fcc	0.056457326
239	0xbd2f6d8c	-0.04282908
240	0xbd2f5e07	-0.04281428
241	0x3cfda04b	0.030960223
242	0xbd776382	-0.060397632
243	0x3c55a4ca	0.013039777
244	0x3d5776cd	0.05260353
245	0x3c8aa7d4	0.01692573
246	0xbb51ebda	-0.0032031448
247	0x3dd88ca4	0.105737
248	0x3cb52b60	0.02211541
249	0xbd29b132	-0.041428752
250	0xbab0e401	-0.0013495685
251	0xbc34ae80	-0.011027932
252	0x3da1b97f	0.07896709
253	0x3cf7189e	0.030163106
254	0x3cc517d1	0.024059208
255	0xbb393e1b	-0.0028265778

weight f4 [128, 256]
0	0x3d94a770	0.07258499
1	0x3ca4b7b0	0.02010712
2	0x3a985f70	0.0011625122
3	0xbcf048c3	-0.02933157
4	0xbdab5059	-0.083649345
5	0xbceb476a	-0.028720576
6	0xbd0b999a	-0.034082033
7	0xba2b5d15	-0.00065370026
8	0x3d172846	0.036903642
9	0xbda5de95	-0.08099095
10	0x3cf5e9a4	0.030018635
11	0xbd4e3ce5	-0.050351042
12	0x3d4bcb37	0.049754348
13	0xbc491821	-0.012273819
14	0x3c881d7f	0.016615627
15	0xbd1c6359	-0.038180683
16	0x3bf803bb	0.007568804
17	0x3d92e940	0.07173395
18	0x3c9e02bb	0.019288411
19	0xbd8a05ef	-0.06739413
20	0xbd8a4695	-0.06751744
21	0x3c1ca68f	0.009561195
22	0xbcef7715	-0.029231587
23	0xbdf03823	-0.11729457
24	0x3d7f83f9	0.06238172
25	0xbc3d3520	-0.0115483105
26	0x3de6548d	0.112465955
27	0xbdd9645d	-0.10614846
28	0xbce41a10	-0.027844459
29	0xbd39731c	-0.045275792
30	0xbdc02b5e	-0.09383272
31	0xbd6c9f73	-0.05776925
32	0xbc85c977	-0.016331417
33	0x3c8869c3	0.016651994
34	0x3b4fde18	0.0031718072
35	0x3c1c0f99	0.009525203
36	0xbc99a72a	-0.018756468
37	0xbd8558a8	-0.065110505
38	0xbcf9e9da	-0.030507017
39	0xbd1b3b90	-0.0378986
40	0x3dc1e8da	0.09468241
41	0x3d2a9854	0.041649178
42	0xbbb229e9	-0.005437125
43	0x3b748766	0.003731215
44	0x3c972ee4	0.018454976
45	0x3a8744e5	0.0010320215
46	0xbc6a02b4	-0.014282871
47	0xbd5ef9ac	-0.054437324
48	0x3d699e69	0.057035837
49	0xbd0c5594	-0.0342613
50	0xbd36f59a	-0.044667818
51	0x3d469091	0.048477713
52	0xbd109060	-0.035293937
53	0x3ca7075d	0.020389253
54	0x3b94ed32	0.0045448774
55	0x3d64cb25	0.055857796
56	0x3d3abf87	0.04559281
57	0x3d94f441	0.0727315
58	0xbc8b5311	-0.017007383
59	0x3c40521a	0.011738325
60	0x38b40c1e	8.585326e-05
61	0x3c0239ca	0.007948348
62	0xbd53eed5	-0.05174144
63	0x3dae5245	0.085117854
64	0x3dc4a4d0	0.09601748
65	0x3d271d53	0.04079945
66	0x3db22dd8	0.0870015
67	0xbce398d5	-0.027782837
68	0xbce4aa04	-0.027913101
69	0xbd2beab8	-0.041971892
70	0xbdc7082e	-0.09718357
71	0x3d768ddd	0.060193885
72	0xbc7bb011	-0.015361802
73	0xbd90fe32	-0.07079734
74	0x3d93219a	0.07184143
75	0xbc2a5908	-0.010397203
76	0x3dbfce74	0.0936555
77	0x3d944b29	0.07240898
78	0xb9944acf	-0.00028284497
79	0x3b3e904b	0.0029077705
80	0xbc534cc4	-0.01289672
81	0xbcc0da33	-0.023541545
82	0x3da3e5fe	0.08002852
83	0x3da4c7eb	0.08045944
84	0xbd81633d	-0.06317756
85	0x3de1e7b2	0.110305205
86	0xbd9025d7	-0.070384674
87	0xbd156152	-0.036469765
88	0x3e074228	0.1320883
89	0x3ced8423	0.028993672
90	0x3d590244	0.052980676
91	0xbd875292	-0.06607546
92	0xbcab8460	-0.020937145
93	0xbcbdd41a	-0.023172427
94	0xbd8b424f	-0.06799757
95	0xbdbd7dee	-0.09252535
96	0xbd9d2198	-0.07672423
97	0x3cea575b	0.028606107
98	0x3cf86957	0.030323667
99	0x3c0868ab	0.008325736
100	0x3d5c629f	0.05380499
101	0xbdb18d9c	-0.08669588
102	0xbcddb5f9	-0.02706431
103	0xbdc659a7	-0.096850686
104	0x3a6deef8	0.00090764416
105	0xbdd25b20	-0.10271287
106	0xbda6485b	-0.081192695
107	0xbc760509	-0.015015849
108	0xbd0cd5a1	-0.03438342
109	0x3d746635	0.059667785
110	0xbcadedef	-0.02123162
111	0x3d840247	0.06445747
112	0xbd923fef	-0.071411006
113	0x3d702ac5	0.05863454
114	0x3d5baa50	0.05362922
115	0xbd99138d	-0.07474432
116	0x3cdbaf47	0.026816977
117	0xbd530821	-0.051521424
118	0x3d825560	0.0636394
119	0x3ddc609c	0.10760614
120	0x3c217af5	0.009855975
121	0x3dd38860	0.10328746
122	0x3d493919	0.04912672
123	0x3dc0c152	0.09411873
124	0x3d59c92c	0.053170368
125	0x3ca31353	0.019906675
126	0x3dc801a0	0.09765935
127	0x3d19f260	0.037584662
128	0xbd4202d4	-0.04736598
129	0xbd0cf64a	-0.034414567
130	0x3ca6b748	0.020351067
131	0xbd5d5bec	-0.05404274
132	0x3d713392	0.058887072
133	0x3d1d3f06	0.038390182
134	0xbcff9cf0	-0.031202763
135	0x3cd7316e	0.026268687
136	0x3d480f4b	0.04884271
137	0xbd46f62d	-0.048574615
138	0xbc57752e	-0.013150496
139	0xbd19291e	-0.037392728
140	0x3ce25937	0.027630432
141	0xbc65a07e	-0.014015315
142	0x3dceb19a	0.100924686
143	0x3d44ea5f	0.048075076
144	0xbde52353	-0.11188378
145	0xbd9f46b5	-0.07777158
146	0xbda626b2	-0.08112849
147	0x3d88c1fc	0.066776246
148	0x3daf4c23	0.08559444
149	0xbd852bdb	-0.065025054
150	0x3d86e929	0.065874405
151	0x3cb3a24f	0.02192798
152	0x3d50b062	0.05094946
153	0x3d4b0508	0.049565345
154	0xbd40ae29	-0.047041092
155	0x3c80b83e	0.015712854
156	0x3dcc7d3b	0.09984823
157	0xbd75642a	-0.059909977
158	0x3cb400a2	0.021972958
159	0x3c9c52ba	0.019082416
160	0x3d66bf74	0.056334928
161	0xbd8a430c	-0.067510694
162	0xbd37519b	-0.04475556
163	0x3d883590	0.06650841
164	0xbd917b50	-0.07103598
165	0x3dd40798	0.10353011
166	0xbd5eb2ba	-0.054369666
167	0xbd0cc718	-0.034369558
168	0x3d56a25c	0.05240093
169	0xbd9ea6c0	-0.07746649
170	0x3d4f5890	0.05062157
171	0x3d28bfdf	0.041198608
172	0xbd8ce7d7	-0.068801574
173	0xbd474435	-0.04864903
174	0x3cb11dca	0.02162065
175	0x3da126a4	0.07868698
176	0xbd94038a	-0.072272375
177	0x3d414daa	0.047193207
178	0x3da68781	0.08131314
179	0x3dd5a1c4	0.10431245
180	0x3d0db717	0.034598436
181	0xbd221cde	-0.03957831
182	0xbdbc12dc	-0.09183285
183	0xbc91aa56	-0.017781418
184	0xbbf50998	-0.0074779503
185	0xbce3a612	-0.02778915
186	0x3d2f7069	0.042831812
187	0xbcb1e990	-0.021717817
188	0x3c93cceb	0.018042048
189	0xbd0bc628	-0.034124523
190	0x3d7ad649	0.061239514
191	0x3deebecd	0.11657486
192	0xbc4870fa	-0.012233967
193	0xbc2c2324	-0.010506425
194	0xbd87f2ac	-0.06638083
195	0xbbf798e3	-0.0075560673
196	0x3da99b08	0.08281523
197	0xbc63e5f3	-0.013909805
198	0x3a72dde1	0.000926463
199	0x3c93ce75	0.018042782
200	0x3d7e0281	0.062014107
201	0xbd0cc806	-0.034370445
202	0xbca64f24	-0.020301409
203	0xbd28f778	-0.04125163
204	0xbb95843b	-0.0045628822
205	0x3da43284	0.080174476
206	0xbd20a184	-0.039216533
207	0xbcc3a0fb	-0.023880472
208	0x3d779095	0.06044062
209	0x3db54b3c	0.088522404
210	0x3c5167b6	0.012781074
211	0xbcd75be1	-0.026288928
212	0x3dbd3cf6	0.09240143
213	0xbd2c6c96	-0.042095743
214	0xbd437ed8	-0.04772839
215	0x3d3306c8	0.04370764
216	0xbd632ec3	-0.055464517
217	0x3ccaaa90	0.024739534
218	0xbcbefb97	-0.023313327
219	0xbd827fad	-0.063720085
220	0x3c7afd67	0.015319205
221	0x3be006bb	0.00683674
222	0xbd7b1853	-0.061302494
223	0xbc38408c	-0.011245858
224	0xbc34141d	-0.0109911235
225	0x3c141faf	0.009040757
226	0x3daf230c	0.085516065
227	0x3ce9b675	0.028529385
228	0x3da8e831	0.08247412
229	0x3d82b39c	0.06381914
230	0x3cd73227	0.026269032
231	0x3ca286c1	0.019839646
232	0xbda71954	-0.08159128
233	0x3dac182d	0.08403049
234	0xbd4b834d	-0.049685765
235	0x3d8564ec	0.0651339
236	0xbd10ee79	-0.035383675
237	0xbdf84b3d	-0.121237256
238	0x396bd8fa	0.00022492177
239	0x3d0d4759	0.03449187
240	0x3d8c1e87	0.0684176
241	0x3db2bba6	0.08727197
242	0xbce9c32a	-0.028535444
243	0x3d5ce882	0.053932674
244	0xbdd1d4f1	-0.102456935
245	0xbcf898e9	-0.03034635
246	0x3c60e781	0.01372707
247	0xbce5bb91	-0.02804354
248	0xbd59ce36	-0.053175174
249	0xbc97cf31	-0.018531414
250	0xbd631f66	-0.055449866
251	0x3d462fae	0.048385315
252	0xbd9b092d	-0.075701095
253	0xbca0d40c	-0.019632362
254	0xbdc6cf9c	-0.09707567
255	0x3c8a8296	0.016907971

bias f4 [128]
0	0x3cb8894a	0.022526402
1	0xbcda2462	-0.026628677
2	0xbd58e410	-0.052951872
3	0x3d3be35b	0.04587112
4	0x3d6ad22f	0.057329353
5	0x3d495b0c	0.049159095
6	0x3cb85015	0.022499124
7	0x3c00e8b9	0.007867985
8	0xbd627a20	-0.05529225
9	0xbd80c8f6	-0.0628833
10	0x3d5a86f5	0.05335136
11	0x3caaac4b	0.020834109
12	0x3da24c69	0.0792473
13	0x3d10ad2d	0.035321403
14	0xbcfd7cc0	-0.030943274
15	0xbd3c5808	-0.04598239
16	0xbdc5fc17	-0.09667223
17	0x3d83bce8	0.064325154
18	0xbd60e020	-0.054901242
19	0x3d934be7	0.071922116
20	0xbd20efc5	-0.039291162
21	0xbb806f53	-0.003919521
22	0x3c614ba2	0.013750942
23	0xbd987c1f	-0.07445549
24	0x3c5cac50	0.013468817
25	0x3d2cff98	0.04223594
26	0xbd15049f	-0.03638136
27	0xbd19b0da	-0.037522174
28	0xbd8f0690	-0.069836736
29	0xbca3e412	-0.020006213
30	0x3d3506b0	0.04419583
31	0xbd3cc66a	-0.04608766
32	0xbc550178	-0.013000838
33	0xbd01b706	-0.031668685
34	0xbd964d55	-0.07338969
35	0xbcc6e3f2	-0.024278615
36	0x3b0f1c9b	0.0021837119
37	0x3bd3fcbb	0.006469337
38	0x3c8661c2	0.016404036
39	0x3dad5627	0.08463698
40	0xbcc9bdf5	-0.024626711
41	0x3ce2859f	0.027651606
42	0xbd440d00	-0.04786396
43	0x3c9f3de1	0.019438686
44	0xbd76e29e	-0.060274713
45	0x3d19e5be	0.037572615
46	0x3d18c871	0.03730053
47	0xbd733a8e	-0.059382014
48	0xbcbb9614	-0.022898711
49	0x3d77978c	0.06044726
50	0xbbad720a	-0.0052931355
51	0xbd794044	-0.060852304
52	0xbd469662	-0.04848326
53	0x3d2de17d	0.04245137
54	0xbd9f1b36	-0.07768862
55	0xbd0ae4f4	-0.033909753
56	0xbc98ba15	-0.018643418
57	0x3db0b122	0.086275354
58	0x3d1aed26	0.03782382
59	0xbc83463e	-0.016024705
60	0xbd43e218	-0.04782304
61	0x3d156e73	0.036482286
62	0xbcef79a4	-0.029232807
63	0xbc62b984	-0.013838176
64	0x3c86f2e8	0.016473249
65	0x3d4f4439	0.05060217
66	0xbd91dbb5	-0.07121984
67	0xbd310829	-0.043220673
68	0x3cff9e42	0.031203393
69	0x3d02527b	0.03181694
70	0xbde699d4	-0.11259809
71	0xbcbd2802	-0.023090366
72	0xbc888b5f	-0.01666802
73	0xbd131c0f	-0.03591543
74	0xbc53d820	-0.012929946
75	0x3dd9ae64	0.106289655
76	0x3cc7c5cb	0.024386307
77	0x3ce222f6	0.027604561
78	0xbd135b7f	-0.03597593
79	0x3da77462	0.08176495
80	0xbaae2272	-0.0013285412
81	0x3ca114bd	0.01966321
82	0x3d8f7b19	0.07005901
83	0x3dab2f48	0.083586276
84	0xbcd8f908	-0.026485935
85	0x3d169475	0.036762673
86	0x3c0d8776	0.008638253
87	0xbda5437b	-0.080695115
88	0x3d116627	0.03549781
89	0xbc7778a0	-0.015104443
90	0x3cec82fa	0.028871048
91	0xbb000534	-0.0019534351
92	0x3c686a33	0.014185476
93	0x3d0fd595	0.035115797
94	0xbd7e246c	-0.062046453
95	0xbd4452ff	-0.047930714
96	0xbcae652c	-0.021288477
97	0xbcb26bf4	-0.021779992
98	0x3cf979b9	0.03045355
99	0x3d4f85c8	0.050664693
100	0xbd037ecd	-0.03210335
101	0xbc2bca42	-0.010485234
102	0xbd38031b	-0.044924837
103	0x3d83263c	0.06403777
104	0xbd0dec73	-0.034649324
105	0xbd338a3c	-0.043833002
106	0xbc59cda2	-0.013293656
107	0x3d02ad27	0.031903412
108	0x3c9e3562	0.019312564
109	0x3d2fc188	0.042909175
110	0xbc900f28	-0.017585352
111	0x3b9bfa1c	0.00476004
112	0xbd95c5fd	-0.07313154
113	0x3ca2a3fa	0.01985358
114	0x3d2844d1	0.041081253
115	0xbc55f659	-0.013059222
116	0xbc9cdca7	-0.019148184
117	0xbc9fb2ca	-0.019494433
118	0x3b4a0fae	0.00308321
119	0xbab10896	-0.0013506587
120	0xbd95b337	-0.07309573
121	0xbc90438b	-0.017610332
122	0xbd2f8455	-0.04285081
123	0x3db7ea54	0.089802414
124	0x3e06528c	0.13117427
125	0x3d1b8461	0.037968043
126	0x3b131564	0.002244317
127	0xbdbaa4cb	-0.09113463

weight f4 [64, 128]
0	0xbbf87dcd	-0.007583356
1	0xbaf30950	-0.0018542204
2	0x3da0a8d6	0.07844703
3	0xbda08793	-0.07838359
4	0xbdb1182a	-0.08647187
5	0xbca69a5d	-0.020337278
6	0xbd10d4bd	-0.035359133
7	0x3d95e13f	0.07318353
8	0x3d8bdb8b	0.06828984
9	0xbd89a8cd	-0.06721649
10	0xbdaee0a2	-0.08538939
11	0xbd5943f1	-0.05304331
12	0x3d96cb38	0.0736298
13	0xbd96e22e	-0.07367359
14	0x3cf89eb6	0.030349117
15	0xbd907b8f	-0.07054817
16	0x3d22028d	0.039553214
17	0x3d065983	0.03280021
18	0x3d86f8da	0.065904334
19	0x3bba056a	0.005676915
20	0x3dc0dcb7	0.09417098
21	0xbc2a258a	-0.010384927
22	0x3d90b99a	0.07066651
23	0xbbf6d761	-0.0075329994
24	0x3cc6190e	0.024181869
25	0x3d83a917	0.06428736
26	0xbd64113b	-0.055680495
27	0xbd4a5c57	-0.04940447
28	0x3d630dc6	0.055433057
29	0xbd92dc03	-0.0717087
30	0xbc273979	-0.010206574
31	0xbdc04d72	-0.093897715
32	0xbdbcc445	-0.09217123
33	0x3df7af90	0.12094033
34	0x3dba95e4	0.091106206
35	0x3d86e279	0.06586165
36	0x3d48799c	0.0489441
37	0xbd60e97c	-0.054910168
38	0x3d1f2489	0.038853202
39	0x3d8c423e	0.06848572
40	0xbd65d0aa	-0.0561072
41	0xbdaffdb0	-0.08593309
42	0x3d6bc6fd	0.057562817
43	0xbd8aa17a	-0.067690805
44	0xbd7d45ab	-0.06183402
45	0xbb019db0	-0.0019777827
46	0x3d8e0ee9	0.06936438
47	0x3db39682	0.087689415
48	0xbc8853fe	-0.016641613
49	0x3da31da8	0.07964641
50	0xbde7f1f1	-0.113254435
51	0xbda6239f	-0.08112263
52	0xbc0ef046	-0.008724278
53	0xbdc37fec	-0.095458835
54	0x3d3b63ae	0.04574936
55	0x3d01f7dc	0.031730518
56	0x3d56f769	0.052482042
57	0xbd9f5a93	-0.077809475
58	0x3db4a742	0.088209644
59	0x3da8622a	0.08221848
60	0xbd4f9849	-0.05068234
61	0x3d000e52	0.031263657
62	0x3cb1b82e	0.021694269
63	0x3dcd8432	0.1003498
64	0xbd863d88	-0.06554705
65	0xbd5c3213	-0.053758692
66	0xbc4149ea	-0.011797408
67	0x3d8bcb8e	0.06825934
68	0x3da35bc8	0.0797649
69	0x3e07e9df	0.13272808
70	0xbd4d5e78	-0.05013892
71	0xbbe7cdb5	-0.0070740827
72	0x3d87b465	0.066262044
73	0xbcdcdb44	-0.026960023
74	0x3dddc245	0.108280696
75	0x3d2dd06b	0.04243509
76	0xbe0b1d8b	-0.13585488
77	0x3de2114d	0.11038456
78	0xbd2f5b23	-0.042811524
79	0x3d3e7fe8	0.0465087
80	0x3c118cc6	0.008883661
81	0x3d93ac7a	0.07210632
82	0xbd33f058	-0.04393038
83	0xbd9a0f22	-0.075224176
84	0xbd124251	-0.035707776
85	0x3d899f48	0.067198336
86	0xbd3ee3c8	-0.046603948
87	0xbd3aad73	-0.04557557
88	0x3c7f7f6e	0.015594346
89	0x3d8b54b2	0.06803264
90	0x3c974ad6	0.018468302
91	0xbd22e5d2	-0.039769955
92	0x3cbe62d1	0.023240479
93	0x3d94bf8a	0.07263096
94	0x3d74518c	0.05964808
95	0xbbbdd264	-0.005792903
96	0x3deee05f	0.11663889
97	0x3d25711f	0.040391084
98	0x3d860431	0.06543768
99	0xbd91f53a	-0.071268514
100	0xbc3ed8e0	-0.011648387
101	0xbdac8249	-0.084232874
102	0x3d99a8a4	0.07502869
103	0x3d7d3652	0.061819382
104	0x3dd99d38	0.1062569
105	0x3cc90b34	0.024541475
106	0xbde98ae0	-0.114034414
107	0x3c2169c7	0.009851879
108	0x3d955f81	0.072936065
109	0xbc4e8618	-0.012605213
110	0x3cdfc82b	0.027317127
111	0xbda4e48a	-0.08051403
112	0xbc6fa896	-0.014627596
113	0x3d92c2a0	0.07166028
114	0x3c26f08f	0.01018919
115	0xbc5cacd4	-0.01346894
116	0xbd047f2f	-0.032347854
117	0x3c21a8e2	0.009866925
118	0xbc5d701a	-0.013515497
119	0x3c21b260	0.009869188
120	0x3db63d9f	0.08898472
121	0xbdaeffcf	-0.08544885
122	0x3d9b1bd2	0.07573666
123	0x3a315f8a	0.00067662506
124	0x3d9d6eb9	0.07687134
125	0x3c4e1c5d	0.0125800045
126	0x3c8eba3e	0.017422792
127	0xbe0e641b	-0.13905375
128	0x3daa587e	0.0831766
129	0x3d534488	0.05157903
130	0xbe22904f	-0.15875362
131	0x3b8d9183	0.004320325
132	0x3d453f12	0.04815585
133	0xbd7ff38d	-0.062488127
134	0x3d76f34e	0.060290627
135	0x3d39f30a	0.045397796
136	0x3d477e6c	0.04870455
137	0x3d98ac6c	0.07454762
138	0x3d0f5f4a	0.035002984
139	0xbde509b6	-0.11183493
140	0x3e0df827	0.13864194
141	0xbddfbaf6	-0.10924332
142	0xbd82aa8a	-0.06380184
143	0x3dba953f	0.09110498
144	0xbd9465e7	-0.07245999
145	0x3cf39f31	0.029738994
146	0xbe324bf1	-0.17411782
147	0xbd6ceb64	-0.057841673
148	0x3c89b8c3	0.016811734
149	0xbd6219ab	-0.05520026
150	0x3defee42	0.11715366
151	0x3c97a608	0.018511787
152	0x3dfc9f19	0.12335033
153	0x3ca2be33	0.019866085
154	0x3db5534a	0.08853777
155	0x3ddfa000	0.109191895
156	0x3da36fb1	0.07980288
157	0x3e19d885	0.15024002
158	0x3d374f80	0.04475355
159	0x3dba02bd	0.090825535
160	0x3cfde751	0.03099409
161	0xbd6994d3	-0.057026695
162	0x3d370250	0.04467994
163	0x3bb92b92	0.005650946
164	0xb9b1217f	-0.00033785027
165	0x3d97d88b	0.07414349
166	0x3d232f00	0.039839745
167	0xbd4a736e	-0.04942649
168	0xbe048455	-0.12941106
169	0x3da599ec	0.08085999
170	0xbd918ebe	-0.07107304
171	0x3d3c1330	0.045916736
172	0x3c955830	0.018230528
173	0x3d8171ab	0.063205086
174	0x3d47345d	0.048633922
175	0xbdde071b	-0.10841199
176	0xbe1caa6c	-0.15299386
177	0xbde6a0d2	-0.11261143
178	0xbde1ed41	-0.11031581
179	0xbd7d5797	-0.06185111
180	0xbc2ebc98	-0.010665081
181	0xbc0449a6	-0.0080742
182	0x3d4f6ee8	0.050642878
183	0xbdb32173	-0.08746614
184	0x3b6ce6e2	0.003614836
185	0x3d8bae7c	0.0682039
186	0x3d74415a	0.059632637
187	0xbbad7bf3	-0.005294317
188	0x3dca8625	0.09888867
189	0xbd525f1c	-0.051360235
190	0x3d68b5c5	0.056813974
191	0xbd583de6	-0.052793406
192	0xbcfabf59	-0.03060882
193	0x3bc1b285	0.0059111738
194	0x3d495968	0.04915753
195	0x3d16f610	0.036855757
196	0xbd8afa13	-0.06785979
197	0x3c545e07	0.012961871
198	0xbd3a2c61	-0.04545248
199	0xbd375baf	-0.04476517
200	0xbc5c789d	-0.013456491
201	0xbdb0a61a	-0.08625431
202	0xbd51b9af	-0.051202472
203	0x3d5e2c07	0.054241206
204	0xbddf0404	-0.10889438
205	0xbce47c4c	-0.0278913
206	0xbccb1f9f	-0.024795352
207	0xbd07754e	-0.033070855
208	0x3d942d1f	0.07235169
209	0xbddb4fff	-0.107086174
210	0x3e027bc3	0.12742524
211	0xbd9524f5	-0.072824396
212	0x3dc60807	0.096695
213	0xbdbde3f8	-0.09271997
214	0x39395a6c	0.0001767666
215	0x3dbf68b7	0.09346145
216	0x3da911ce	0.08255349
217	0xbd61f63a	-0.05516646
218	0xbd46b1f9	-0.04850957
219	0xbdb825dc	-0.08991596
220	0x3da0c483	0.07849982
221	0xbdbdd7ef	-0.09269702
222	0x3ddf0dee	0.10891329
223	0xbd847799	-0.06468124
224	0x3d8b93db	0.068153106
225	0x3913a18f	0.00014079198
226	0x3d8beb3b	0.06831976
227	0xbe0075bd	-0.12544914
228	0x3d8bd030	0.06826818
229	0x3dd8f32b	0.105932556
230	0xbcfe5066	-0.031044196
231	0xbddc4876	-0.10756008
232	0xbda6a28e	-0.081364736
233	0xbbff3d21	-0.0077892696
234	0x3dae632f	0.085150115
235	0x3b238b9c	0.002495504
236	0x3dd4e159	0.10394544
237	0x3d6bfe56	0.0576156
238	0xbdab263a	-0.083569005
239	0xbdc993aa	-0.09842618
240	0x3cab206d	0.020889485
241	0xbdcb6292	-0.0993091
242	0xbade92de	-0.0016981026
243	0x3e039df6	0.12853226
244	0x3d132aff	0.035929676
245	0xbe1429e1	-0.144691
246	0x3ceee602	0.02916241
247	0x3d8ade49	0.06780679
248	0xbd6aa6f1	-0.057288114
249	0xbd0ee907	-0.0348902
250	0xbb809df1	-0.003925078
251	0x3d0d27fb	0.034461956
252	0x3d6de164	0.058076277
253	0x3c8bb1d3	0.017052567
254	0x3c81ef4b	0.015861174
255	0xbb95eaf4	-0.0045751277

bias f4 [64]
0	0x3d764d03	0.060132038
1	0xbbc40204	-0.0059816856
2	0xbc736732	-0.014856147
3	0x3d3b9b46	0.045802377
4	0x3bb52498	0.005528044
5	0x3d693657	0.05693659
6	0x3d47e9d5	0.048806984
7	0x3d80014c	0.06250247
8	0x3dd1a6d8	0.10236901
9	0x3de2800a	0.11059578
10	0x3d8689c0	0.065692425
11	0xbde2adde	-0.11068319
12	0xbe0594b4	-0.13045007
13	0xbd6e576e	-0.05818885
14	0xbc835063	-0.016029542
15	0xbd7c095c	-0.061532363
16	0x3d3d4531	0.046208564
17	0x3d290915	0.041268427
18	0xbd056e36	-0.03257581
19	0x3d5a532c	0.053301975
20	0xbd878738	-0.06617588
21	0x3d7c49e8	0.06159392
22	0x3ce0c6e1	0.027438583
23	0xbcafd044	-0.021461613
24	0x3cb58307	0.022157205
25	0xbd98f76d	-0.07469068
26	0x3d1fb053	0.038986515
27	0x3bdd7a79	0.0067589846
28	0x3d33b948	0.04387787
29	0xbbae4d57	-0.005319278
30	0x3dabf7c0	0.08396864
31	0xbbcde9fc	-0.0062839966
32	0x3c942478	0.018083796
33	0xbe0cee36	-0.13762745
34	0xbd6cced3	-0.05781443
35	0xbd35d6ce	-0.044394307
36	0x3d93ce8c	0.0721713
37	0x3c7ec155	0.015549024
38	0x3dd2dac3	0.10295632
39	0xbc83c619	-0.016085671
40	0xbd89e93d	-0.0673394
41	0xbd211b70	-0.039332807
42	0xbd4b72b9	-0.049669955
43	0xbc844ccf	-0.016149906
44	0xbd07d136	-0.033158503
45	0xbc956271	-0.018235417
46	0x3cf08f71	0.029365273
47	0xbdbda45c	-0.09259865
48	0x3d717cbc	0.058956847
49	0xbc04229d	-0.008064893
50	0xbd34f277	-0.044176545
51	0x3d92139a	0.07132645
52	0xbc741ffa	-0.014900202
53	0x3d416848	0.04721859
54	0x3d231f12	0.039824553
55	0x3d0ab48a	0.03386358
56	0xbd543ba8	-0.051814705
57	0xbc199a58	-0.009375177
58	0x3d919ce5	0.071100034
59	0xbd170cea	-0.03687755
60	0xbc7ef284	-0.01556075
61	0x3d5990df	0.053116675
62	0x3cff631d	0.03117519
63	0xbdbec355	-0.093146004
