TP/save_models_CNN_32_Dropout_Gridsearch_Relu/model_11.pt (torch, 530023 bytes, 4 tensors)

weight f4 [32, 1, 3, 3]
-0.06650338 -0.07307152 -0.075222865 0.012178617 0.054588787 0.022113811 -0.023051621 1.202499
-0.09367179 -0.007830518 -1.1594167 0.031099461 -0.13563639 0.039551016 0.17144382 0.3889838
0.24471886 -0.28177083 0.09319839 -0.024217336 0.051604927 -0.04490652 0.027796581 -0.5658612
-0.5776718 0.081653595 -0.22850075 -0.32791743 -0.36754227 -0.40754384 0.33130345 0.19195196
0.7082648 -0.052709103 -0.07924695 -0.048085336 -0.3879301 0.18754895 0.17184527 -0.097570844
0.068416744 -1.514295 -0.062080655 0.18839177 0.11169363 0.035258804 -1.3086504 0.101048395
0.055475328 0.122379586 0.13848056 0.0101698795 -0.21868894 0.0014070519 -0.10673348 0.14980468
-0.006637153 0.38452628 0.27728426 0.5999173 -0.28490186 -0.40029 0.40993932 0.40448156
-0.005613211 0.24759963 0.1203918 -0.04034406 -0.05606915 -0.3271954 -0.28256243 -0.10604538
0.11607837 -0.5517872 -0.0054312954 -0.017967684 0.17534779 -0.060076807 -0.39082614 -0.014471473
0.627231 -0.29964963 0.2657133 -0.17897095 -0.037518192 0.48504478 -0.2241647 -0.15845603
-0.24413215 0.23352581 0.39264196 -0.08904382 -0.16785824 -0.42084935 0.6184276 0.025203915
-0.028823983 -0.7605585 0.16155784 -0.12627289 0.019001381 0.010036041 0.07274735 0.0023645952
0.31516114 0.15038145 -1.3392775 0.013250523 0.09564642 0.24518514 -0.11923462 -0.6475181
0.0518195 0.058192693 0.23213367 -0.06828381 0.57347 0.06341772 -0.0205542 0.09396733
0.04756207 -0.09283731 -0.070271 -0.033020034 0.06848842 0.02418872 0.657237 0.014124859
-0.015251081 -0.07927691 0.04256847 -0.32590157 0.1400452 -0.28449595 0.3214277 0.25703388
-0.11999081 -0.10360579 -0.19630897 0.14739566 0.13508287 -0.025166065 0.07770755 -0.1356846
-0.09113517 -0.073697075 -0.04952305 -0.0833615 -0.20134085 -0.14931658 -0.073904335 -0.13640037
-0.125347 0.9004603 -0.14381537 0.036233593 -0.06787467 0.50577617 -0.41363958 -0.3842378
-0.08067713 0.098764464 0.020023191 -0.020305028 -0.019197177 -0.019269207 -0.620818 -0.58097833
0.014204775 -0.5907408 -0.59554344 -0.25183305 0.666255 0.035055276 0.5204941 -0.08330802
-0.04887088 0.02628363 0.035726458 0.016266631 -0.10811393 -0.08190962 -0.058329348 -0.15299836
0.09135971 0.21300747 -0.15399341 0.1806768 -0.16852908 0.2653933 -0.22646542 0.07169964
-0.11682787 -0.485068 0.08251887 -0.39098382 0.8399043 -0.47571215 -0.30170375 0.21989988
0.1489451 0.44447666 0.110123634 -0.48866907 -0.30167732 -0.15215363 0.008841516 -0.019504134
0.24398376 0.04054509 0.044860214 -0.139378 -0.0910628 -0.027613966 -0.06175369 1.0216244
0.048941854 -0.07922192 -0.09260661 -0.12801051 -0.13699067 1.2524896 0.09034255 -0.11253778
-0.13867344 -0.07500386 -0.027105263 -0.03785288 -0.0067906366 0.030295948 0.05599186 -0.05549844
1.2497346 -0.08446046 0.3483006 -0.50096405 0.1413294 0.5374927 -0.033918753 0.046303395
0.09976762 0.007222474 0.061515916 0.4608547 -0.03582567 -0.2497193 0.2874768 -0.04263449
-0.7046983 -0.030451294 0.19304098 0.043540213 0.33767363 -0.12558958 -0.14318106 0.1058215
00000000: ed32 88bd 85a6 95bd 720e 9abd d288 473c
00000010: 7e98 5f3d 0628 b53c c1d6 bcbc 7deb 993f
00000020: ffd6 bfbd 934b 00bc c467 94bf 4cc4 fe3c
00000030: 44e4 0abe 3f00 223d f88e 2f3e e228 c73e
00000040: 9597 7a3e 4444 90be ccde be3d 6f63 c6bc
00000050: b05f 533d e6ef 37bd a8b5 e33c 48dc 10bf
00000060: 4de2 13bf 003a a73d 1afc 69be cbe4 a7be
00000070: 802e bcbe 96a9 d0be 9ba0 a93e 0e8f 443e
00000080: d850 353f 80e5 57bd 3a4c a2bd 21f5 44bd
00000090: c69e c6be d50c 403e 35f8 2f3e 39d3 c7bd
000000a0: 141e 8c3d 6bd4 c1bf 4948 7ebd c6e9 403e
000000b0: a1bf e43d 896b 103d db81 a7bf 76f2 ce3d
000000c0: 193a 633d 26a2 fa3d d9cd 0d3e 919f 263c
000000d0: feef 5fbe d46c b83a 1597 dabd 6666 193e
000000e0: 7a7c d9bb a1e0 c43e 34f8 8d3e 2e94 193f
000000f0: a8de 91be d0f2 ccbe 91e3 d13e 3518 cf3e
00000100: 07ef b7bb c28a 7d3e fa8f f63d d03f 25bd
00000110: c4a8 65bd 2886 a7be 06ac 90be 522e d9bd
00000120: 7fba ed3d ed41 0dbf 02f9 b1bb f730 93bc
00000130: 5f8e 333e 1913 76bd 5d1a c8be c219 6dbc
00000140: 3692 203f ad6b 99be 930b 883e 2944 37be
00000150: adac 19bd ca57 f83e 6e8b 65be 4c42 22be
00000160: c7fd 79be 6421 6f3e 5e08 c93e 9b5c b6bd
00000170: 08e3 2bbe 9179 d7be 4551 1e3f 7178 ce3c
00000180: 4620 ecbc f6b3 42bf 6b6f 253e ae4d 01be
00000190: c9a8 9b3c 356e 243c 90fc 943d 53f7 1a3b
000001a0: cd5c a13e 98fd 193e 726d abbf b918 593c
000001b0: 45e2 c33d d011 7b3e 4831 f4bd bfc3 25bf
000001c0: af40 543d 765b 6e3d 73b4 6d3e 62d8 8bbd
000001d0: eece 123f 26e1 813d 4861 a8bc f271 c03d
000001e0: 72d0 423d 7d21 bebd 3eea 8fbd 0440 07bd
000001f0: a843 8c3d 6c27 c63c af40 283f f46b 673c
00000200: acdf 79bc ef5b a2bd 475c 2e3d 92dc a6be
00000210: 0268 0f3e 74a9 91be 2c92 a43e f299 833e
00000220: bebd f5bd 462f d4bd 3805 49be e3ee 163e
00000230: 2a53 0a3e 1029 cebc 2325 9f3d e7f0 0abe
00000240: 13a5 babd 7eee 96bd afd8 4abd 6fb9 aabd
00000250: 4c2c 4ebe 72e6 18be 285b 97bd 8aac 0bbe
00000260: f75a 00be 9184 663f 5644 13be ad69 143d
00000270: e001 8bbd 8c7a 013f 91c8 d3be d1ba c4be
00000280: 0d3a a5bd 0645 ca3d ad07 a43c bb56 a6bc
00000290: 6643 9dbc 75da 9dbc eeed 1ebf ffba 14bf
000002a0: 25bb 683c ca3a 17bf 8975 18bf 43f0 80be
000002b0: b08f 2a3f 1f96 0f3d 1a3f 053f 659d aabd
000002c0: d52c 48bd c450 d73c e855 123d 9941 853c
000002d0: d66a ddbd 3bc0 a7bd c1ea 6ebd 9aab 1cbe
000002e0: cd1a bb3d a11e 5a3e 73b0 1dbe 5703 393e
000002f0: e392 2cbe a1e1 873e 8de6 67be 43d7 923d
00000300: 7343 efbd d55a f8be a7ff a83d 082f c8be
00000310: f803 573f 8b90 f3be ea78 9abe 6f2d 613e
00000320: 1085 183e 7292 e33e 8088 e13d d532 fabe
00000330: 7375 9abe 29ce 1bbe 02dc 103c 22c7 9fbc
00000340: e1d6 793e 9c12 263d 58bf 373d 1bb9 0ebe
00000350: 227f babd af36 e2bc 70f1 7cbd 97c4 823f
00000360: 4177 483d 1a3f a2bd 89a8 bdbd 3015 03be
00000370: 4847 0cbe 9451 a03f 8405 b93d 357a e6bd
00000380: 6900 0ebe a09b 99bd db0b debc 9f0b 1bbd
00000390: fd83 debb 352f f83c b857 653d 5552 63bd
000003a0: 4ef7 9f3f 9bf9 acbd 7554 b23e 2e3f 00bf
000003b0: a7b8 103e 1f99 093f 64ee 0abd a1a8 3d3d
000003c0: f752 cc3d 81aa ec3b 1df8 7b3d 26f5 eb3e
000003d0: f0bd 12bd 6bb6 7fbe 2930 933e 81a1 2ebd
000003e0: 1c67 34bf fe74 f9bc 89ac 453e 3957 323d
000003f0: 8fe3 ac3e 8e9a 00be 0e9e 12be f1b8 d83d

bias f4 [32]
-0.5230211 -0.6433967 -0.28899226 -0.53310084 -0.77457553 -0.537117 -0.7222105 -0.22358105
-0.41978228 -0.28839275 -0.62912214 -0.6619084 -0.41504377 0.05528667 -0.35819432 -0.02319538
0.091147386 -0.6067357 -0.65255755 -0.25084484 -0.069236785 -0.5533343 -0.33035603 -0.28884792
-0.368848 -0.57795066 -0.2732314 -0.44884002 -1.0175008 -0.5381578 -0.3958473 -0.5585838
00000000: b6e4 05bf a5b5 24bf cbf6 93be 4c79 08bf
00000010: 954a 46bf 8080 09bf cae2 38bf 6ef2 64be
00000020: b4ed d6be 37a8 93be 260e 21bf d472 29bf
00000030: 9e80 d4be 4674 623d 3f65 b7be 3d04 bebc
00000040: 7bab ba3d 0853 1bbf 030e 27bf bc6e 80be
00000050: 04cc 8dbd 51a7 0dbf 6d24 a9be e0e3 93be
00000060: a5d9 bcbe 93f4 13bf fce4 8bbe 5cce e5be
00000070: 773d 82bf b6c4 09bf 7fac cabe 59ff 0ebf

weight f4 [64, 2048]
0.19323158 0.33635458 0.066209525 0.003816 -0.011501017 -0.03682842 -0.020438414 0.05004682
0.09194549 0.06834308 0.031306203 -0.0019693754 -0.009420028 0.02540276 0.00092490297 0.04529509
-0.007917684 -4.272749e-06 -0.04993499 -0.061157286 -0.085482016 -0.02097541 0.02790181 -0.01516647
-0.036846735 -0.030021897 -0.034356367 -0.070216395 -0.10570204 -0.06114806 0.00014504412 0.01377839
0.057853103 -0.0038009256 -0.018010452 -0.07286218 -0.07371213 -0.033775214 -0.013621555 -0.02561566
0.038217172 -0.03890503 -0.020674845 -0.032438315 -0.023826297 0.016995756 -0.1271719 0.0048769796
0.019951528 0.0085483035 0.024320362 0.020819318 -0.06779401 -0.038598806 0.042315733 -0.017487533
0.042873528 0.046932023 0.0065707527 0.03383052 0.00726924 0.02054575 0.0011273694 0.044201788
-0.49900085 0.022825347 0.6125681 -0.13050981 -0.087491125 0.12124393 0.06821532 0.09115908
-3.0609035 -0.019703738 0.05435863 0.0724955 0.19088581 0.0072476147 0.16795166 0.09786136
-0.17248872 -0.019762106 -0.027265573 0.008265592 0.05556629 -0.061006825 -0.008139635 0.023079941
0.063523285 -0.044221286 -0.00041263428 -0.05867604 0.005920025 -0.009488362 -0.047289286 -0.012652785
0.07186238 -0.09685375 -0.058025848 0.016434764 -0.059883088 -0.019772625 -0.08729533 -0.031553484
0.015970623 -0.0253518 -0.12191171 0.03936601 -0.024457447 -0.12267941 -0.05428311 0.009872739
0.111102164 -0.04838548 -0.03265197 -0.005201116 -0.040698085 -0.013911841 0.031870354 0.011533124
0.11081466 0.013577826 0.0054843696 -0.040120084 0.056404356 0.09878983 0.124928854 -0.0057092025
-0.036665622 -0.16414991 -0.06073961 -0.05327484 0.00688995 0.11553046 0.0912428 -0.015916308
-0.04775983 0.2382373 -0.04393074 0.06650985 0.03688265 0.02085238 -0.028124744 0.03846268
-0.060787603 0.075756416 -0.021377109 -0.024394777 -0.10923541 0.027814457 0.006677008 -0.029333966
0.049739394 -0.013629965 -0.09857482 0.021834007 -0.059427947 -0.037445433 -0.017926255 0.030670553
-0.009704062 -0.097190276 0.023934837 -0.0071534207 -0.07095102 0.00935453 0.01870595 0.013799075
0.12307017 -0.05951585 -0.08651183 0.0040654317 0.015824184 0.014528004 0.07959952 -0.0008222057
0.060629502 -0.010127914 0.07159384 0.0718586 0.07495068 0.07651661 0.17236082 -0.08649632
0.09551502 0.06515443 0.121083885 0.036923762 0.06335677 -0.042453326 0.040534224 0.05251274
0.2282804 -0.07023395 0.14355178 -0.050862085 0.06270587 -0.027304092 -0.04748208 -0.023031425
0.06992588 -0.027290465 0.022196362 0.019671727 -0.035477612 -0.07236535 -0.12544271 -0.35995045
-1.5132915 -0.1298328 0.021076374 -0.0034029938 0.002852283 0.050772764 -0.021913048 -0.11664981
0.0006172796 0.082880124 -0.08915709 -0.058142025 -0.084164694 -0.037774067 -0.090530135 -0.17785133
-0.104695424 -0.0117943585 -0.062337786 -0.032327063 -0.09854892 -0.18085477 0.0049307817 0.009802346
-0.10017402 0.024155999 -0.061667915 -0.042924214 0.061532818 0.120523326 0.049591985 -0.051735263
-0.06392208 -0.05280835 0.04950156 -0.058444083 0.002251266 0.1922936 0.08541835 0.03206234
0.106695 0.024917176 0.017650113 -0.018711867 0.016714612 0.01668982 0.14200212 0.15239973
00000000: 80de 453e ab36 ac3e dc98 873d db15 7a3b
00000010: c36e 3cbc 66d9 16bd 766e a7bc e5fd 4c3d
00000020: eb4d bc3d 75f7 8b3d ef3a 003d a310 01bb
00000030: 7656 1abc 7319 d03c 3075 723a 5887 393d
00000040: 2cb9 01bc a25e 8fb6 a288 4cbd 1080 7abd
00000050: 3211 afbd 9fd4 abbc 5692 e43c c97c 78bc
00000060: 9aec 16bd 7bf0 f5bc 43b9 0cbd 9dcd 8fbd
00000070: 507a d8bd 6376 7abd fc16 1839 c2be 613c
00000080: 60f7 6c3d f318 79bb a88a 93bc c438 95bd
00000090: 63f6 96bd e157 0abd f12c 5fbc efd7 d1bc
000000a0: 9c89 1c3d e15a 1fbd 4b5e a9bc 0ade 04bd
000000b0: 5e2f c3bc af3a 8b3c 5a39 02be 12cf 9f3b
000000c0: 6371 a33c 2f0e 0c3c 7f3b c73c 468d aa3c
000000d0: 96d7 8abd c819 1ebd 4353 2d3d 0442 8fbc
000000e0: 279c 2f3d cb3b 403d 784f d73b df91 0a3d
000000f0: ce32 ee3b 904f a83c 3dc4 933a ef0c 353d
00000100: 0a7d ffbe 39fc ba3c 43d1 1c3f 5da4 05be
00000110: 8c2e b3bd bd4e f83d 79b4 8b3d 9db1 ba3d
00000120: d8e5 43c0 bc69 a1bc 28a7 5e3d 8578 943d
00000130: 9277 433e 667d ed3b 85fb 2b3e 896b c83d
00000140: e2a0 30be 24e4 a1bc 0d5c dfbc 686c 073c
00000150: 7a99 633d 4be2 79bd 1b5c 05bc 2512 bd3c
00000160: 7f18 823d 6121 35bd d656 d8b9 4a56 70bd
00000170: c5fc c13b 1375 1bbc 69b2 41bd a04d 4fbc
00000180: 952c 933d 425b c6bd 83ac 6dbd 33a2 863c
00000190: f847 75bd 33fa a1bc e5c7 b2bd 3a3e 01bd
000001a0: d3d4 823c 94ae cfbc d9ac f9bd 413e 213d
000001b0: fc5a c8bc 583f fbbd f757 5ebd 45c1 213c
000001c0: 8889 e33d da2f 46bd 12be 05bd 206e aabb
000001d0: 09b3 26bd 7eee 63bc 7d8a 023d 6ef5 3c3c
000001e0: ccf2 e23d 8875 5e3c 3ab6 b33b f554 24bd
000001f0: 4108 673d 5352 ca3d b3da ff3d 4314 bbbb
00000200: b12e 16bd ea16 28be 19ca 78bd b836 5abd
00000210: 17c5 e13b 3c9b ec3d 81dd ba3d eb62 82bc
00000220: d09f 43bd 7bf4 733e b8f0 33bd 5136 883d
00000230: 4312 173d 9cd2 aa3c dd65 e6bc 0b8b 1d3d
00000240: 6cfc 78bd 2e26 9b3d 0c1f afbc 8ed7 c7bc
00000250: d1b6 dfbd 25db e33c cdca da3b c94d f0bc
00000260: 89bb 4b3d 3750 5fbc 98e1 c9bd 3bdd b23c
00000270: b86a 73bd 6260 19bd 15da 92bc d040 fb3c
00000280: c9fd 1ebc b20b c7bd fe12 c43c 3e67 eabb
00000290: c54e 91bd be43 193c 383d 993c 8415 623c
000002a0: 370c fc3d e4c6 73bd 1d2d b1bd 5037 853b
000002b0: b8a1 813c de06 6e3c 1305 a33d 4a89 57ba
000002c0: a456 783d 8def 25bc cb9f 923d 9a2a 933d
000002d0: be7f 993d beb4 9c3d 5b7f 303e fc24 b1bd
000002e0: 619d c33d b06f 853d d4fa f73d 5f3d 173d
000002f0: 32c1 813d 8ae3 2dbd 3707 263d 9917 573d
00000300: 56c2 693e d1d6 8fbd 3dff 123e c354 50bd
00000310: ef6b 803d d5ac dfbc 927c 42bd 66ac bcbc
00000320: 4d35 8f3d 4190 dfbc 25d5 b53c 9a26 a13c
00000330: f950 11bd 4934 94bd 0e74 00be 6d4b b8be
00000340: 89b3 c1bf e4f2 04be 5ca8 ac3c c304 5fbb
00000350: 5eed 3a3b 1af7 4f3d fe82 b3bc 18e6 eebd
00000360: efd0 213a 0ebd a93d fe97 b6bd 5526 6ebd
00000370: 8a5e acbd fbb8 1abd dd67 b9bd a91e 36be
00000380: 8e6a d6bd 203d 41bc e855 7fbd 6269 04bd
00000390: 04d4 c9bd fe31 39be 6592 a13b 059a 203c
000003a0: 0928 cdbd cde2 c53c 7f97 7cbd 4dd1 2fbd
000003b0: d609 7c3d efd4 f63d f720 4b3d 5be8 53bd
000003c0: 94e9 82bd 924d 58bd 26c2 4a3d 1063 6fbd
000003d0: fa89 133b 9de8 443e d1ef ae3d cd53 033d
000003e0: e882 da3d 1b1f cc3c f896 903c a149 99bc
000003f0: 15ed 883c 17b9 883c 0169 113e ad0e 1c3e

bias f4 [64]
-0.17350876 -0.092826344 -0.054609176 -0.06345633 -0.036778312 -0.060784865 -0.10232582 -0.19409569
-0.10579866 -0.15986401 0.033576496 0.029751398 -0.019402847 -0.021199135 -0.18656787 -0.09462658
-0.07373823 0.007801542 0.405499 0.25270033 0.26706913 0.15030304 -0.0010276674 -0.054221895
-0.02390013 0.046081144 0.26158333 -0.13168375 -0.16892172 0.28052503 0.052577805 -0.05671219
-0.013736818 0.008825922 0.2759172 -0.1350032 -0.1504988 0.22151479 0.09540021 -0.034846913
-0.06888569 -0.0038507965 0.15425482 0.2277587 0.24459642 0.36261615 0.020969883 -0.08794274
-0.1183771 -0.15659544 -0.03138838 0.05784779 0.07268308 0.048640244 -0.16489153 -0.13245961
-0.20897022 -0.11789581 -0.03672029 -0.044175953 -0.019993369 -0.01784292 -0.10265713 -0.20246293
00000000: 48ac 31be bd1b bebd dfad 5fbd 64f5 81bd
00000010: dba4 16bd 8df9 78bd 3390 d1bd 05c1 46be
00000020: f8ac d8bd 64b3 23be 8287 093d 34b9 f33c
00000030: b8f2 9ebc cfa9 adbc a60b 3fbe 95cb c1bd
00000040: 1204 97bd 14a4 ff3b 919d cf3e f061 813e
00000050: 49bd 883e 0ae9 193e ccb2 86ba c717 5ebd
00000060: 35ca c3bc 95bf 3c3d 40ee 853e 1bd8 06be
00000070: d1f9 2cbe faa0 8f3e d35b 573d 0b4b 68bd
00000080: 6410 61bc 9a9a 103c 0545 8d3e 473e 0abe
00000090: 5c1c 1abe c6d4 623e 2f61 c33d a3bb 0ebd
000000a0: f113 8dbd a55d 7cbb faf4 1d3e 9439 693e
000000b0: 7c77 7a3e d3a8 b93e 08c9 ab3c 531b b4bd
000000c0: b16f f2bd 8e5a 20be 1a91 00bd cef1 6c3d
000000d0: deda 943d fe3a 473d 53d9 28be 7ea3 07be
000000e0: 4afc 55be 5c73 f1bd 0468 16bd d8f1 34bd
000000f0: 22c9 a3bc 512b 92bc e73d d2bd 7152 4fbe
