TP/save_models_MLP_512_256_128_64_Dropout_Gridsearch_Tanh/model_5.pt (torch, 845189 bytes, 10 tensors)

weight f4 [512, 64]
0.5539674 0.50092095 0.8642829 0.37226728 0.46887738 0.41348255 -0.4263602 0.22799876
-0.57187647 -1.0148598 -0.32607964 -0.24246386 -0.41277388 -0.5082519 0.36125255 0.13595362
-0.7749677 -0.4933623 -0.5216026 -0.28596172 -0.4189084 0.6406395 0.117526196 0.38807285
-0.17063998 -0.28261387 -0.55400825 -0.066221334 0.23753399 -0.21218854 0.8175674 -0.27966315
-0.17977162 0.3039205 -0.6168793 -0.99179286 -0.047147002 0.42913878 -0.04760142 -0.39326483
-0.3998528 0.2784979 0.6038722 -0.75361717 -0.3906446 -0.21442068 -0.3946343 -0.292302
-0.4317851 -0.77665806 0.0050031124 -0.20423314 0.073996626 -0.41873693 0.8235276 -0.25087908
-0.18244961 -0.686814 -0.40772855 0.072322555 0.42261523 0.23613335 0.36591917 -0.4341571
0.22704755 0.012282841 0.027319634 -0.004123597 -0.018752715 -0.19750698 -0.3006937 0.10020484
0.94138193 0.3494483 0.060248133 -0.38103643 -0.38545492 -0.19741872 -0.46336147 -0.8534965
0.2289783 0.47969782 0.76223177 0.43362865 0.40686673 0.41671914 -0.7266669 -0.353755
-0.08413495 -1.0084 0.40764007 -0.085647814 0.46475038 -0.32810128 0.69491625 0.34370485
0.049740702 -0.47883463 0.21685645 -0.8267563 0.64279693 -0.6871304 0.5974345 0.41387475
0.18332377 -0.14187463 0.19865392 -0.6485846 0.13306084 0.6408558 -0.12283244 0.591918
0.7537518 0.60641783 0.23469728 0.010480595 0.0847511 -0.014835133 1.2774384 -0.085850075
-0.24700248 -0.4064355 -0.35061443 -0.49604413 -0.03205203 -0.43981507 0.11407933 -0.100994304
0.21257663 0.03943044 0.026508678 0.14690033 0.014997323 0.37113252 -0.343392 -0.459872
0.8731246 0.68458587 0.22450791 -0.47602597 0.25818253 -0.05205324 0.048748698 -0.37604153
1.2688987 1.223645 0.04075861 -0.19147481 -0.25160268 -0.82932764 -0.031115104 -0.21421136
0.9786548 -0.10800801 -0.04181143 -0.24841663 1.0048229 -0.05504518 0.21759126 0.16615835
0.7161369 -0.52111846 0.044776004 -0.15374546 0.60625786 -0.575862 0.49635202 -0.352754
0.44264442 0.6561338 -0.16131432 0.08422174 0.47455218 -0.31712115 0.3349081 -0.1599087
0.35426584 -0.3026658 0.4855749 0.4723735 0.10193543 0.1375548 0.59936684 -0.7741859
0.30561492 -0.123071276 -0.20155758 0.072604746 0.033448867 -0.24767081 0.0947342 -0.46536663
0.32246444 0.2795919 0.66624343 -0.60427076 -0.19633546 0.79777116 0.12619185 0.5551002
0.45058343 -0.4319721 -0.1681237 -0.4922106 -0.91504735 -0.8358433 1.0463538 -0.12389239
0.14769343 -0.04360968 -0.3902979 -0.48320132 0.014123315 -0.32909834 0.18478128 0.35646906
0.26447222 -0.78298396 -0.62671626 -0.06645563 0.4849244 0.17189722 0.47333884 0.0068036234
0.8159491 -0.5107343 0.32633153 0.6556146 0.15346967 0.4951735 -0.3649121 0.20210576
0.40634114 0.37898505 -0.1285838 -0.005700832 0.2778444 0.19857931 -0.13724822 -0.1096912
0.5593991 0.5346291 0.08337054 0.31205174 0.54486835 -0.21541952 0.39915994 -0.16087529
-0.24834652 -0.37893933 -0.88074255 -0.7687323 -0.3056689 -1.0000145 -0.8409145 -0.30042186
00000000: cfd0 0d3f 5b3c 003f a541 5d3f d199 be3e
00000010: b210 f03e fcb3 d33e e24b dabe 8278 693e
00000020: 7f66 12bf ede6 81bf e9f3 a6be 7248 78be
00000030: 1957 d3be cc1c 02bf 18f6 b83e 6d37 0b3e
00000040: 4864 46bf fc99 fcbe bf87 05bf 9369 92be
00000050: 297b d6be f300 243f 93b1 f03d 7cb1 c63e
00000060: 3fbc 2ebe c4b2 90be 7cd3 0dbf 0d9f 87bd
00000070: 1c3c 733e f447 59be 194c 513f 0230 8fbe
00000080: 0d16 38be 789b 9b3e cdeb 1dbf 23e6 7dbf
00000090: 371d 41bd 14b8 db3e b5f9 42bd 025a c9be
000000a0: 82b9 ccbe 4797 8e3e 5e97 1a3f 0eed 40bf
000000b0: 9202 c8be 1891 5bbe 820d cabe 9ca8 95be
000000c0: f012 ddbe 10d3 46bf 26f1 a33b 7e22 51be
000000d0: 8b8b 973d b064 d6be b4d2 523f 3973 80be
000000e0: 12d4 3abe 0bd3 2fbf ccc1 d0be d91d 943d
000000f0: 0661 d83e f1cc 713e c259 bb3e d749 debe
00000100: 277f 683e f83d 493c 6dcd df3c 3d1f 87bb
00000110: 4b9f 99bc 453f 4abe 86f4 99be 3238 cd3d
00000120: 68fe 703f e3ea b23e bfc6 763d 3517 c3be
00000130: 595a c5be 2228 4abe b73d edbe bf7e 5abf
00000140: 4a79 6a3e f49a f53e 9f21 433f 9304 de3e
00000150: d650 d03e 365c d53e d806 3abf 601f b5be
00000160: f24e acbd 4013 81bf 33b6 d03e 1f68 afbd
00000170: c3f3 ed3e e4fc a7be 08e6 313f 15fa af3e
00000180: e8bc 4b3d d029 f5be 9e0f 5e3e 4da6 53bf
00000190: 578e 243f c7e7 2fbf 78f1 183f 64e7 d33e
000001a0: 3ab9 3b3e 9547 11be ef6b 4b3e a409 26bf
000001b0: 1a41 083e 200f 243f 938f fbbd f087 173f
000001c0: e1f5 403f 333e 1b3f 7c54 703e cdb6 2b3c
000001d0: fc91 ad3d 0f0f 73bc 1a83 a33f 2ad2 afbd
000001e0: 38ee 7cbe 5018 d0be bc83 b3be 7ff9 fdbe
000001f0: fd48 03bd 712f e1be 6ca2 e93d 1ad6 cebd
00000200: b0ad 593e d081 213d ba28 d93c 0a6d 163e
00000210: 55b7 753c 1505 be3e 14d1 afbe 5874 ebbe
00000220: 1885 5f3f 0541 2f3f 67e5 653e adb9 f3be
00000230: 8030 843e c735 55bd b7ac 473d 8488 c0be
00000240: 466b a23f 66a0 9c3f 80f2 263d f911 44be
00000250: 11d2 80be d14e 54bf 1ae5 febc 395a 5bbe
00000260: 1f89 7a3f 4e33 ddbd 7642 2bbd ee60 7ebe
00000270: 099e 803f 0e77 61bd 3ed0 5e3e 6a25 2a3e
00000280: bf54 373f 0568 05bf 0b67 373d 736f 1dbe
00000290: b733 1b3f b16b 13bf da21 fe3e 2c9c b4be
000002a0: 4aa2 e23e 62f8 273f 952f 25be 737c ac3d
000002b0: 81f8 f23e b45d a2be 1379 ab3e 1bbf 23be
000002c0: 5562 b53e 03f7 9abe 469d f83e f0da f13e
000002d0: 86c3 d03d 2adb 0c3e 1b70 193f 0c31 46bf
000002e0: 8f79 9c3e cb0c fcbd 1c65 4ebe ccb1 943d
000002f0: ae01 093d 6b9d 7dbe 0104 c23d 8944 eebe
00000300: 0f1a a53e ab26 8f3e ee8e 2a3f 7db1 1abf
00000310: 2a0c 49be bb3a 4c3f 7038 013e 0c1b 0e3f
00000320: dfb2 e63e 722b ddbe 9f28 2cbe 0703 fcbe
00000330: 8b40 6abf d4f9 55bf ecee 853f 4bbb fdbd
00000340: f23c 173e 10a0 32bd 20d5 c7be 2a66 f7be
00000350: 7a65 673c 947f a8be 4e37 3d3e 1d83 b63e
00000360: e768 873e a371 48bf 7a70 20bf e419 88bd
00000370: 0348 f83e d305 303e 7859 f23e eef0 de3b
00000380: 0ae2 503f 7cbf 02bf ed14 a73e 5cd6 273f
00000390: 2727 1d3e 6287 fd3e c2d5 babe d0f4 4e3e
000003a0: f20b d03e 540a c23e 79ab 03be 0bce babb
000003b0: 9f41 8e3e 6058 4b3e cc8a 0cbe c8a5 e0bd
000003c0: c834 0f3f 74dd 083f 2cbe aa3d 3fc5 9f3e
000003d0: 7e7c 0b3f ef96 5cbe b15e cc3e 7ebc 24be
000003e0: 8d4e 7ebe 5604 c2be 5878 61bf a4cb 44bf
000003f0: a280 9cbe 7a00 80bf 2c46 57bf e5d0 99be

bias f4 [512]
0.12359922 0.15993057 -0.5999486 0.19110063 0.818419 -0.8753735 -0.12596005 0.058596503
-0.22123653 -0.89127016 0.80735606 -0.57828504 0.06885136 0.39590833 0.4538094 -1.6278836
-0.30819577 0.5278564 -0.37782338 0.40849146 0.6537181 -0.32871842 0.38002154 2.0294218
-0.9702 -1.1295695 -0.033134304 0.11129612 0.022644602 0.4938889 -0.07195786 0.14469215
-0.175204 -0.09383964 -0.39410713 0.2132007 -0.35925478 -0.820214 -0.040698357 -0.2807567
-0.40079692 0.077472284 -0.2684024 -0.29470342 0.5038797 0.19558007 -0.17023283 -0.47206718
-0.04703763 1.0095615 -0.19248246 2.08831 0.2424361 -0.18652171 0.70365167 -0.25340068
1.3898895 -0.5025554 0.21129014 0.16626985 0.4579376 -0.23097022 0.5482619 -0.24242383
-0.1126588 -0.065921724 -0.4361603 1.0250536 0.056967653 -0.1634567 -0.31052554 0.58912677
-0.12125636 -0.19244157 -0.19584657 0.041166265 0.459798 -0.97434086 -0.9666922 0.3036164
-0.14363983 0.0010541417 -0.79517907 -0.225254 0.053108975 0.41494408 -0.3087764 0.66675824
-0.082166195 1.2984433 -0.108199134 0.29727235 0.41157353 0.3507858 -1.7628766 0.1328154
0.71394694 -0.06275939 0.37680128 0.37262234 0.5204337 0.7175036 0.07304645 0.24427454
0.4554124 0.42996168 0.48067012 0.4338259 0.06293846 0.2106162 -0.46483716 -0.82894236
0.21074218 -0.020126795 -0.062452834 -0.056942005 -0.7307079 0.362112 0.19914834 -0.21563856
-0.5355574 1.9591956 -0.11371699 -0.6733033 -0.5455676 0.9917889 0.49940482 -0.15640835
0.08939752 -0.3690078 -0.5729152 0.05160909 1.1752342 -0.05667469 0.75227624 0.64170253
-0.5916469 -0.082715705 -0.14026336 0.14168787 0.0063617295 -0.100754544 -0.70386416 0.74230766
-0.056132607 -0.84523034 0.38978416 1.4379023 -0.12463113 0.17252724 -0.04818715 -0.13136858
0.075848505 -0.04030081 -0.1935188 -0.18989205 -0.6614436 -0.35245928 0.46091875 0.45254025
0.9904967 -0.366479 -0.7528421 -0.3886482 -0.33528662 0.6409223 -0.9131927 -0.14015377
0.29754385 -0.66470736 0.07888512 -0.6935539 -0.96070385 0.43111944 0.24257807 -0.3174137
0.36359072 -1.8013467 0.34294593 -0.11548732 -0.37477055 -0.1506699 0.39926645 -0.2711101
-0.38863993 0.82076883 -0.31524372 -0.32015103 0.36631772 0.74255294 -2.030555 0.081072874
-0.028739834 1.1942363 -1.9042981 0.06104272 -0.17128545 0.3244756 -1.026378 -0.62398326
0.07012268 -0.0804534 1.0598199 0.44111612 -0.7217139 -0.88129604 -0.118617386 0.47086984
1.853938 1.5863445 -0.7435921 0.57982224 -0.65809155 0.0051865154 0.40388796 0.081773624
-0.36033645 0.31501058 0.07229267 0.13305816 0.41196412 0.36783233 2.158363 -0.09836468
-0.12913036 0.41787863 -0.13111646 0.14018193 0.88363665 0.123676635 1.7175512 -0.261492
0.23774116 -1.1462787 0.4811568 -0.0325444 0.15721507 -1.5490953 0.56910145 -0.9104608
-0.21594837 -0.8295572 0.761681 0.4709179 0.6735436 1.6126837 0.1806218 1.0144401
-0.17115457 -0.4921443 -0.3087676 1.2852656 -0.6944944 0.59472483 0.65926397 0.23826976
00000000: 9621 fd3d d7c4 233e 3b96 19bf e2af 433e
00000010: e883 513f 7a18 60bf acfb 00be e302 703d
00000020: d48b 62be 482a 64bf e3ae 4e3f 7d0a 14bf
00000030: f101 8d3d 7fb4 ca3e b559 e83e 7d5e d0bf
00000040: d6cb 9dbe 9921 073f 1172 c1be cb25 d13e
00000050: 125a 273f c84d a8be 2f92 c23e 0ce2 0140
00000060: 075f 78bf bc95 90bf d6b7 07bd 38ef e33d
00000070: 2c81 b93c 02df fc3e a45e 93bd 2e2a 143e
00000080: ad68 33be ff2e c0bd 69c8 c9be 4951 5a3e
00000090: 3ef0 b7be 8bf9 51bf 52b3 26bd 58bf 8fbe
000000a0: 4135 cdbe caa9 9e3d 0a6c 89be 5ee3 96be
000000b0: 43fe 003f 2446 483e 8451 2ebe cab2 f1be
000000c0: 88aa 40bd 5039 813f 1f1a 45be dfa6 0540
000000d0: 2b41 783e 8cff 3ebe 8422 343f bcbd 81be
000000e0: e6e7 b13f 78a7 00bf 715c 583e a542 2a3e
000000f0: cc76 ea3e 7583 6cbe e45a 0c3f f43d 78be
00000100: a8b9 e6bd f801 87bd 6750 dfbe f534 833f
00000110: ea56 693d 3161 27be 34fd 9ebe 03d1 163f
00000120: 4155 f8bd 670f 45be 018c 48be f59d 283d
00000130: a56a eb3e 676e 79bf 2479 77bf 9c73 9b3e
00000140: 5216 13be 202b 8a3a db90 4bbf fca8 66be
00000150: cc88 593d 8d73 d43e f117 9ebe abb0 2a3f
00000160: c046 a8bd 6433 a63f 8297 ddbd 1534 983e
00000170: c4b9 d23e 329a b33e f1a5 e1bf c300 083e
00000180: 3ac5 363f ff87 80bd 19ec c03e 5bc8 be3e
00000190: 253b 053f 51ae 373f 6199 953d 1b23 7a3e
000001a0: d02b e93e f023 dc3e 651a f63e 6e1e de3e
000001b0: e1e5 803d c6ab 573e 23ff edbe 9135 54bf
000001c0: cccc 573e f3e0 a4bc 8bce 7fbd 053c 69bd
000001d0: ac0f 3bbf be66 b93e 8bed 4b3e 5bd0 5cbe
000001e0: 4a1a 09bf ecc6 fa3f 74e4 e8bd 9b5d 2cbf
000001f0: 51aa 0bbf e1e5 7d3f fdb1 ff3e 8329 20be
00000200: 0c16 b73d 97ee bcbe 92aa 12bf 0e64 533d
00000210: 136e 963f b823 68bd 2d95 403f 9e46 243f
00000220: 2c76 17bf da66 a9bd 33a1 0fbe a016 113e
00000230: 0e76 d03b 6658 cebd 7130 34bf e007 3e3f
00000240: 4eeb 65bd 0461 58bf ca91 c73e 2f0d b83f
00000250: 9b3e ffbd fbaa 303e e45f 45bd 7c85 06be
00000260: 7656 9b3d 7612 25bd cb29 46be 1073 42be
00000270: 5e54 29bf 8b75 b4be 8bfd eb3e 5bb3 e73e
00000280: 3191 7d3f 23a3 bbbe 43ba 40bf e6fc c6be
00000290: b0aa abbe 7c13 243f ffc6 69bf 7884 0fbe
000002a0: ab57 983e 432a 2abf 868e a13d c08c 31bf
000002b0: b0f0 75bf b0bb dc3e 6366 783e 0c84 a2be
000002c0: 9028 ba3e 8792 e6bf 9c96 af3e 9e84 ecbd
000002d0: ede1 bfbe 3649 1abe a76c cc3e f1ce 8abe
000002e0: d0fb c6be e81d 523f a067 a1be d6ea a3be
000002f0: ff8d bb3e f317 3e3f 9df4 01c0 8909 a63d
00000300: cd6f ebbc bcdc 983f 0ac0 f3bf ee07 7a3d
00000310: 7465 2fbe aa21 a63e 5b60 83bf 5ebd 1fbf
00000320: 7b9c 8f3d c1c4 a4bd 2ea8 873f f9d9 e13e
00000330: 3ec2 38bf 9e9c 61bf aced f2bd da15 f13e
00000340: d74d ed3f 560d cb3f 0d5c 3ebf 3b6f 143f
00000350: b078 28bf a5f3 a93b 67ca ce3e ee78 a73d
00000360: 057e b8be 1149 a13e 2e0e 943d 6640 083e
00000370: f6ec d23e 8554 bc3e 9f22 0a40 6c73 c9bd
00000380: c03a 04be 30f4 d53e 6543 06be da8b 0f3e
00000390: 0336 623f 2d4a fd3d b8d8 db3f 48e2 85be
000003a0: 6b72 733e 43b9 92bf 2f5a f63e 474d 05bd
000003b0: fdfc 203e c148 c6bf a2b0 113f f613 69bf
000003c0: 9221 5dbe dc5d 54bf 87fd 423f 271c f13e
000003d0: 5a6d 2c3f 6b6c ce3f ecf4 383e 2cd9 813f
000003e0: 2543 2fbe 56fa fbbe c916 9ebe 9583 a43f
000003f0: 63ca 31bf e33f 183f 86c5 283f fdfc 733e

weight f4 [256, 512]
0.13697824 0.2610374 -0.06206574 -0.010152594 0.06567822 0.3378859 -0.062688425 0.7850891
0.040083688 -0.6030432 0.05606882 0.87594104 -0.34547645 -0.2192533 0.2491439 -0.005418064
-0.25167057 -0.15395737 -0.20801298 0.3350937 -0.22393852 0.015417805 -0.5428079 -0.6452394
0.67615575 0.69903916 0.21450953 -0.274491 -0.42312706 -0.21603538 -0.51843345 0.016007563
-0.46810853 0.28811693 0.19539705 -0.93965185 0.09672196 0.15967447 -0.38630238 0.087948695
-0.010447781 0.3165413 0.2694613 -0.44913656 -0.17167163 0.067954145 -0.54021996 0.76199925
0.23300317 -0.27770725 0.27927727 0.032842387 0.15367708 0.29294866 -0.35388187 -0.43688956
-0.5094784 0.39909673 -0.3409051 -0.47968763 -0.8419038 0.0035836461 0.11674032 0.4553472
0.62881684 -0.6522575 -0.058492422 0.1989127 0.2706399 0.65207076 0.7572232 0.07752868
0.27247202 0.80864745 0.12507997 0.5176182 -0.5175435 -0.23792952 0.616904 0.5768752
0.40567666 0.31565467 0.16021046 -0.27773774 0.6021419 -0.5480472 0.8063104 -0.007952557
0.022807399 -0.04803189 -0.3800662 0.29334506 0.5126555 -0.391277 0.9220567 -0.6222093
-0.58071357 -0.33792895 0.3832562 0.27906758 0.1313972 -0.7048733 0.6757329 -0.22627272
-0.28028405 0.14193706 -0.23589078 -0.64017123 -0.062421348 0.23516741 -0.26402378 -0.5722428
-0.18986093 -0.1539157 0.27146405 -0.59804356 0.79910916 0.2543461 0.31366712 1.1671565
-0.35174796 -0.3149889 -0.012793247 -0.14801723 -0.060370337 0.021167226 -0.34226915 -0.42773822
-0.09318799 0.034384366 0.2674408 0.12408634 -0.13816065 -0.58848655 -0.6335376 -0.038962122
-0.37950587 0.023984592 0.53836876 -0.22655466 -0.3229771 0.5559646 0.7857814 -0.3361361
0.05569906 0.74600554 -0.13907005 0.15161103 -0.04207247 0.34556562 0.07139374 -0.41661346
-0.28052598 -0.24553417 0.6896687 0.5116637 -0.55871755 -0.122259796 0.10415642 0.5455226
-0.5200819 -0.04587521 0.36116672 0.6586088 0.38805836 -0.17925565 0.34091684 -0.072793454
-0.6611358 -0.6881659 0.53517824 -0.4896823 0.07885745 -0.4370605 1.151835 -0.6294463
-0.32951725 0.67597014 -0.105265975 -0.44998163 0.3611635 0.40390164 -0.45024028 -0.33989137
0.14390334 0.16694766 -0.12356797 0.34894753 -0.26739773 0.47293088 0.5815843 -0.7225781
-0.60701233 -0.07547653 0.5739829 0.05756888 -0.15832853 0.37117136 0.76921344 0.39886722
0.3448571 0.573582 -0.77129656 -0.2820995 0.45255876 0.38964263 0.6120237 0.06723827
-0.5724164 -0.37020263 0.09816492 -0.15092596 0.07125651 0.17785433 -1.1746063 0.15397684
-0.012995211 0.2920427 -0.16478756 -0.3959162 -0.030704355 -0.442203 -0.37149557 -0.016325835
0.27272293 -0.4575932 0.9132845 0.09501139 -0.3295327 0.5049213 -0.43692642 0.28414443
-0.2350505 -0.4503265 -0.18398279 0.21333715 -0.5773474 0.59272957 -0.3896279 -0.23919374
0.99213994 0.05081194 0.3880564 -0.030328773 -0.39883164 -0.1417531 -0.13772343 0.13978575
-0.5474025 0.4379104 0.38404208 0.0061445273 0.36666924 -0.17122206 -0.12352976 -0.46788073
00000000: 0644 0c3e b2a6 853e a538 7ebd 1157 26bc
00000010: 4d82 863d 61ff ac3e ca62 80bd 99fb 483f
00000020: cb2e 243d 0a61 1abf 6ba8 653d ac3d 603f
00000030: 4ae2 b0be f083 60be 941f 7f3e 048a b1bb
00000040: f7da 80be 00a7 1dbe 5b01 55be 6791 ab3e
00000050: 2450 65be f69a 7c3c 75f5 0abf 692e 25bf
00000060: 8b18 2d3f 3bf4 323f 63a8 5b3e 168a 8cbe
00000070: 1ca4 d8be 6138 5dbe 0eb8 04bf 4b22 833c
00000080: ecab efbe 1084 933e 2a16 483e 068d 70bf
00000090: 2a16 c63d b481 233e 6dc9 c5be 721e b43d
000000a0: 2b2d 2bbc b411 a23e d5f6 893e 3af5 e5be
000000b0: b0ca 2fbe 8b2b 8b3d db4b 0abf 6212 433f
000000c0: 6298 6e3e a52f 8ebe 6efd 8e3e bd85 063d
000000d0: 865d 1d3e 5efd 953e 0130 b5be fdaf dfbe
000000e0: 2d6d 02bf 6856 cc3e 1d8b aebe 9e99 f5be
000000f0: 0287 57bf 9bdb 6a3b 8d15 ef3d 4523 e93e
00000100: 24fa 203f 59fa 26bf c095 6fbd c5af 4b3e
00000110: 5091 8a3e 1cee 263f 61d9 413f 5bc7 9e3d
00000120: 7481 8b3e 8503 4f3f f714 003e a082 043f
00000130: bb7d 04bf cca3 73be 6ced 1d3f 18ae 133f
00000140: dab4 cf3e 7d9d a13e 360e 243e a433 8ebe
00000150: f925 1a3f d24c 0cbf 5c6a 4e3f 714b 02bc
00000160: 95d6 ba3c 16bd 44bd 0998 c2be 5331 963e
00000170: 643d 033f 7555 c8be e80b 6c3f 1c49 1fbf
00000180: a5a9 14bf 0605 adbe 283a c43e f2e1 8e3e
00000190: fd8c 063e 9472 34bf d5fc 2c3f 09b4 67be
000001a0: 6481 8fbe f357 113e 5a8d 71be 43e2 23bf
000001b0: 87ad 7fbd bacf 703e 202e 87be 817e 12bf
000001c0: e76a 42be 149c 1dbe 56fd 8a3e 6219 19bf
000001d0: 6b92 4c3f a739 823e fa98 a03e 6265 953f
000001e0: 4f18 b4be 3a46 a1be c49a 51bc d491 17be
000001f0: e346 77bd e466 ad3c e73d afbe 8100 dbbe
00000200: 58d9 bebd 9fd6 0c3d 00ee 883e fb20 fe3d
00000210: fc79 0dbe 0ea7 16bf 852f 22bf bf96 1fbd
00000220: 984e c2be 567b c43c 89d2 093f f2fd 67be
00000230: 415d a5be b253 0e3f f828 493f 081a acbe
00000240: b324 643d 38fa 3e3f 6168 0ebe ec3f 1b3e
00000250: 2f54 2cbd faed b03e e236 923d 5c4e d5be
00000260: 1aa1 8fbe 4f6d 7bbe 218e 303f 64fc 023f
00000270: 1d08 0fbf 5863 fabd f64f d53d 5ea7 0b3f
00000280: 1624 05bf a5e7 3bbd d8ea b83e 969a 283f
00000290: 96af c63e cb8e 37be a78c ae3e bc14 95bd
000002a0: 3240 29bf a42b 30bf 7101 093f a3b7 fabe
000002b0: 0480 a13d 65c6 dfbe 546f 933f 6523 21bf
000002c0: 7cb6 a8be 610c 2d3f b095 d7bd fe63 e6be
000002d0: 6cea b83e 32cc ce3e e585 e6be 3e06 aebe
000002e0: 665b 133e 54f4 2a3e 3411 fdbd 40a9 b23e
000002f0: 5be8 88be ff23 f23e b5e2 143f e1fa 38bf
00000300: 2965 1bbf 7093 9abd 8bf0 123f 59cd 6b3d
00000310: e020 22be 2c0a be3e 2ceb 443f 5338 cc3e
00000320: 1c91 b03e 45d6 123f b173 45bf 586f 90be
00000330: c8b5 e73e 3d7f c73e 96ad 1c3f 38b4 893d
00000340: e289 12bf 338b bdbe b10a c93d 568c 1abe
00000350: efee 913d 721f 363e 8059 96bf 1bac 1d3e
00000360: dee9 54bc 9f86 953e 12be 28be 87b5 cabe
00000370: b387 fbbc 6e68 e2be ab34 bebe c2bd 85bc
00000380: 57a2 8b3e a849 eabe 03cd 693f 5595 c23d
00000390: 83b8 a8be 8642 013f d2b4 dfbe 617b 913e
000003a0: 14b1 70be 3291 e6be fc65 3cbe 0e75 5a3e
000003b0: 0acd 13bf 20bd 173f 4f7d c7be 34ef 74be
000003c0: e2fc 7d3f 2e20 503d 54af c63e 0c74 f8bc
000003d0: a933 ccbe ba27 11be 5f07 0dbe ff23 0f3e
000003e0: 9222 0cbf cb35 e03e 2aa1 c43e 0858 c93b
000003f0: 12bc bb3e d654 2fbe 2cfd fcbd 108e efbe

bias f4 [256]
0.009233344 0.33774617 0.035185743 0.019762708 -0.7106229 -0.69562364 0.21439487 0.0021602237
-0.35858035 0.83302546 0.054480415 -0.82136494 0.32014692 -0.04797421 -0.4396434 -0.46005625
0.036740646 -0.9189788 -0.33672744 -0.51168334 0.449619 0.20994428 0.7817399 -0.9326624
-0.20634884 0.2456046 -0.02140226 -0.26634642 0.704683 0.3680821 0.060042944 0.5777994
0.6684971 -0.5529697 -0.045020476 0.30946395 0.4159981 -0.5317613 0.17304146 0.44517782
0.35916358 0.47575292 0.2615854 0.07339018 -0.63963366 -0.5623491 0.0065976093 0.22065958
-0.23325354 0.41583464 -0.069651544 0.05831895 0.252453 -0.17465158 -0.07221486 -0.12152243
-1.1800394 0.9605314 -0.39121312 -0.3773775 -0.19558966 -0.7024515 0.44922256 0.37759703
0.14408597 -0.13248026 0.5389237 0.4153097 0.38777384 0.21983746 0.9194442 0.2809836
-0.29543445 0.025239207 1.072927 0.16702113 -0.014982423 0.7195484 -0.3631127 -0.466824
-0.17344032 -0.5017247 0.3044887 0.5176068 0.78587925 -0.3141833 1.0915496 -0.2237357
0.17449112 -0.10805538 0.18401207 0.34597346 -0.5606597 0.33293268 0.52032727 -0.008808797
-0.35780227 0.34142366 0.17558147 0.51669216 0.1305406 0.8932049 -0.7983094 -0.41069132
-0.3530409 0.14914197 -0.21620901 0.23717906 0.5445392 -0.35032853 0.1466908 0.1531697
0.25335512 0.98143506 -0.08030457 1.1095597 -0.09172098 -0.8342204 -0.31658107 -0.20082395
0.31486613 -0.2649331 0.73689747 0.3973957 0.071506 0.10723025 0.05700634 0.51149416
-0.30107668 0.33017066 0.48823527 0.3347399 -0.5984415 0.40931317 -0.106342666 0.31229484
0.11321662 -0.101032816 0.19336195 0.21828082 -0.419784 -0.13225572 0.007477476 -0.8352824
0.50021774 0.01855666 0.16135047 -0.1497036 -0.11887177 -0.40195194 -0.17379758 0.6993345
0.8439615 0.82358754 0.9645966 0.035414677 0.16839235 0.45519167 0.14376712 -0.80859244
-0.21251628 0.8413027 -0.016253918 -0.17493528 -0.2477818 -0.53455526 0.37335607 0.46316963
0.35594893 -0.35622308 -1.0972469 0.2133341 0.132295 0.053543597 0.012392586 -0.2218861
0.27985835 0.20479862 0.6394401 -0.114643805 0.07848125 -0.15773398 -0.6100455 -0.69747746
0.43011093 0.37709704 -0.2549584 -0.14915058 -0.934106 0.49957484 0.03203269 0.07552952
0.8730992 -0.38961658 -0.34396586 0.03418572 -0.84196275 -0.020694379 -0.09523234 0.22620806
-0.35059237 -0.7582251 0.064865574 0.944431 -0.47239548 -0.36625305 0.7978621 -0.35565448
-0.5289442 -0.63630515 1.0302846 -0.38437572 0.49172452 0.72533023 0.45675302 -0.8262187
-0.31599694 0.3268517 -0.41285208 0.5079081 -0.5973703 0.26650316 0.51315725 -0.25445342
0.32435727 -0.3442893 0.005493778 -0.2538769 0.20843975 -0.075297005 0.035877656 -0.13126491
0.1511048 -0.50523525 0.28415388 -0.4195956 0.60601485 0.11550858 -0.107614726 -0.47992328
-0.3445685 -0.7863252 -0.20328106 0.121456675 0.14572833 -0.31712052 -0.42440516 0.38254392
0.7505056 -0.45910838 -0.792158 0.3643068 -0.1337103 0.20539631 -0.14450334 -0.16092561
00000000: 7447 173c 11ed ac3e ed1e 103d 67e5 a13c
00000010: 62eb 35bf 6414 32bf 548a 5b3e 8a92 0d3b
00000020: d897 b7be 2841 553f db26 5f3d f944 52bf
00000030: 4cea a33e 9b80 44bd f118 e1be 7e8c ebbe
00000040: 5c7d 163d 3242 6bbf 8a67 acbe aefd 02bf
00000050: 7634 e63e a2fb 563e 1b20 483f f7c2 6ebf
00000060: 1c4d 53be c67f 7b3e cb53 afbc 8f5e 88be
00000070: 1b66 343f 4275 bc3e 97ef 753d a9ea 133f
00000080: a022 2b3f 6c8f 0dbf 6467 38bd 0f72 9e3e
00000090: b4fd d43e 8221 08bf c831 313e 59ee e33e
000000a0: 4ae4 b73e e395 f33e 86ee 853e 974d 963d
000000b0: 08bf 23bf 1cf6 0fbf c230 d83b 96f4 613e
000000c0: 04da 6ebe 47e8 d43e 78a5 8ebd dadf 6e3d
000000d0: 8541 813e ddd7 32be 62e5 93bd c0e0 f8bd
000000e0: 880b 97bf 63e5 753f 164d c8be a037 c1be
000000f0: a848 48be ddd3 33bf 8000 e63e 6654 c13e
00000100: 468b 133e e8a8 07be e7f6 093f 79a3 d43e
00000110: 4b8a c63e 121d 613e b260 6b3f 15dd 8f3e
00000120: 2f43 97be 74c2 ce3c ac55 893f 9607 2b3e
00000130: d678 75bc 5334 383f e8e9 b9be 8e03 efbe
00000140: 579a 31be 0871 00bf f1e5 9b3e e181 043f
00000150: 622f 493f a2dc a0be e6b7 8b3f f91a 65be
00000160: cdad 323e 244c ddbd a96d 3c3e 6f23 b13e
00000170: 6587 0fbf 2776 aa3e 2b34 053f c652 10bc
00000180: dc31 b7be 15cf ae3e a1cb 333e f045 043f
00000190: 6fac 053e 14a9 643f 015e 4cbf 2246 d2be
000001a0: c7c1 b4be acb8 183e e565 5dbe 11df 723e
000001b0: ec66 0b3f 435e b3be 1d36 163e 85d8 1c3e
000001c0: c3b7 813e 543f 7b3f b976 a4bd 0d06 8e3f
000001d0: 36d8 bbbd 788f 55bf ea16 a2be cba4 4dbe
000001e0: 2236 a13e 50a5 87be 50a5 3c3f 7377 cb3e
000001f0: bd71 923d 899b db3d 7b7f 693d 48f1 023f
00000200: b926 9abe 210c a93e f9f9 f93e 0763 ab3e
00000210: 7633 19bf 7f91 d13e 2fca d9bd 1ce5 9f3e
00000220: 1ede e73d 4bea cebd ad00 463e 0285 5f3e
00000230: eeed d6be 0b6e 07be 9d05 f53b 11d5 55bf
00000240: 450e 003f 2304 983c 0f39 253e e74b 19be
00000250: 0b73 f3bd a5cc cdbe fef7 31be 9607 333f
00000260: dc0d 583f a2d6 523f ceef 763f fb0e 113d
00000270: 0b6f 2c3e e20e e93e b037 133e eaff 4ebf
00000280: de9d 59be 9d5f 573f f026 85bc 3c22 33be
00000290: 83ba 7dbe 9dd8 08bf 8728 bf3e 9224 ed3e
000002a0: f03e b63e df62 b6be 9672 8cbf 4174 5a3e
000002b0: 5778 073e 8850 5b3d 460a 4b3c 1c36 63be
000002c0: 9849 8f3e bbb6 513e 59b2 233f 5fca eabd
000002d0: c7ba a03d 0485 21be f12b 1cbf e28d 32bf
000002e0: 8037 dc3e dd12 c13e e889 82be eeba 18be
000002f0: 9221 6fbf 46c8 ff3e b634 033d 39af 9a3d
00000300: 6e83 5f3f d37b c7be 4b1c b0be 5306 0c3d
00000310: df8a 57bf 4287 a9bc 2c09 c3bd 16a3 673e
00000320: d880 b3be 0a1b 42bf 3ed8 843d 3bc6 713f
00000330: d2dd f1be 8585 bbbe b140 4c3f 5818 b6be
00000340: e368 07bf e5e4 22bf 5ee0 833f e5cc c4be
00000350: 51c3 fb3e 3eaf 393f 88db e93e 1283 53bf
00000360: 5aca a1be 1b59 a73e 5961 d3be 4406 023f
00000370: 43ed 18bf 1a73 883e 465e 033f b847 82be
00000380: 2812 a63e b046 b0be 2605 b43b 27fc 81be
00000390: 3b71 553e 5135 9abd 73f4 123d 4f6a 06be
000003a0: 37bb 1a3e 1957 01bf 9e7c 913e 3cd5 d6be
000003b0: ca23 1b3f c38f ec3d 1c65 dcbd 81b8 f5be
000003c0: 486b b0be 9c4c 49bf e928 50be 47be f83d
000003d0: cf39 153e 9f5d a2be a24b d9be ccdc c33e
000003e0: 2321 403f 4110 ebbe deca 4abf 6c86 ba3e
000003f0: 5aeb 08be 6953 523e aff8 13be afc9 24be

weight f4 [128, 256]
-1.0405496 0.45664874 0.5424687 -0.5773287 0.30432045 -0.55394477 0.035374686 0.19866955
-0.2664492 0.581951 -0.56903404 0.8840186 -0.2155571 -0.7679395 -0.03719237 0.07420896
-0.2724694 -0.011323869 -0.41922846 -0.08965797 -0.5753149 0.06278352 -0.14207259 -0.21014132
0.21278854 0.11324491 0.48247662 0.24044168 -0.26902494 -1.0176654 0.35213488 -0.16317664
-0.28306964 0.17846568 0.19739984 0.50764877 0.091769025 -0.04342966 0.08677777 -0.38242194
0.14543806 -0.25916657 0.05624141 0.32610962 -0.1659583 -0.045817517 -0.16551462 0.7421128
0.39695913 0.09155621 0.63584864 0.4272176 0.75704354 0.5725019 -0.08168888 -0.050117254
1.2891151 -0.35199258 -0.3246302 0.5622483 -0.73567307 -0.51778907 0.1852731 -0.25753328
-0.14416292 -0.5457203 -0.05718494 -0.31764066 0.5822202 0.30446622 -0.006962336 -0.42832968
-0.2599435 0.20772645 -0.30687714 -0.19448678 0.17301708 0.22889222 0.14653367 -0.09617005
0.15236174 0.017910177 -0.43397593 -0.32688576 -0.43855777 -0.30529413 0.11016518 0.80797774
0.2546345 -0.29905942 -0.6989167 -0.14310735 -0.1179099 0.45363024 -0.23606795 0.245786
-0.4171604 -0.029215716 -0.2770731 -0.26875052 -0.20693529 0.08025434 -0.56474686 -0.03702261
-0.00915407 0.18770896 0.33221322 0.22731672 -0.22677003 0.16037697 0.121345654 0.28016046
-0.05674837 -0.06180152 -0.08644048 -0.008089686 -0.26249063 -0.7412671 -0.14991029 0.068662256
-0.0317627 0.16296966 -0.26700002 -0.22661178 0.23035255 -0.24026617 0.06530776 -0.6825713
0.85159713 0.020473 -0.5188085 0.2283083 0.13343357 -0.45514807 -0.77636635 0.43541792
0.2878669 -0.28598994 0.18435782 0.50264055 0.50002056 0.38054532 -0.08752252 -0.13333271
-0.40402725 -0.47717834 -0.78545797 0.32168055 0.11300726 -0.050879225 0.2234819 0.47484243
-0.19622926 0.26196957 0.5462858 0.14142475 0.110884294 0.11932786 0.57357 0.2670589
-0.117253505 0.08162844 -0.08896656 -0.09621752 -0.8565337 0.19798212 0.7966167 0.27861124
-0.8998466 0.6528627 -0.5084741 -0.4992277 -0.63732046 0.13199706 0.34801418 -0.608871
0.3003137 -0.15711875 1.0684555 0.083667316 -0.4411041 0.16347095 -0.15938556 -0.019367209
-0.44751567 -0.03968824 -0.65105325 0.51115024 -0.2221241 0.18067825 -0.14038382 0.7431091
-0.11904923 0.39182553 -0.46252275 -0.2785406 -0.08089929 0.37398055 -0.432227 0.21441923
-0.2511985 0.0061738873 -0.06524658 0.35045692 0.5335391 0.7338866 0.24176571 0.21911594
0.5749761 -0.8099919 0.34171727 0.5694024 0.6355766 -0.4367468 0.41030642 0.7817133
-0.10376243 0.44935817 -0.1716352 -0.14777106 -0.16838005 -0.2995174 -0.3195909 0.18136966
0.14064632 0.20261201 0.20736906 0.09604904 0.27048093 -0.1132341 0.25489613 -0.25220343
0.1141048 0.31887466 -0.281083 -0.26767746 0.79509413 0.036139045 0.2949131 0.42469496
-0.30228 -0.020199466 0.3541683 -0.48185405 -0.268556 0.9288109 0.2580205 -0.08598951
-0.15673713 -0.38158247 0.21310526 -0.3420475 0.2126306 0.6142838 -0.26687795 -0.21115173
00000000: bb30 85bf ddcd e93e 3bdf 0a3f d0cb 13bf
00000010: e4cf 9b3e 53cf 0dbf 0ce5 103d 0870 4b3e
00000020: 086c 88be befa 143f 37ac 11bf 0b4f 623f
00000030: 00bb 5cbe af97 44bf 0757 18bd defa 973d
00000040: 1c81 8bbe c087 39bc 1da5 d6be 999e b7bd
00000050: d647 13bf a594 803d 7a7b 11be 492f 57be
00000060: 3de5 593e f3ec e73d 2d07 f73e 5836 763e
00000070: a3bd 89be dc42 82bf 064b b43e c717 27be
00000080: 81ee 90be b5bf 363e 2f23 4a3e 45f5 013f
00000090: 66f1 bb3d 4de3 31bd 8bb8 b13d cfcc c3be
000000a0: b7ed 143e 7bb1 84be 655d 663d d7f7 a63e
000000b0: f9f0 29be 26ab 3bbd aa7c 29be 1bfb 3d3f
000000c0: 3a3e cb3e d281 bb3d fac6 223f 44bc da3e
000000d0: 9bcd 413f 7c8f 123f 804c a7bd c047 4dbd
000000e0: b901 a53f 5f38 b4be ee35 a6be 81ef 0f3f
000000f0: 1255 3cbf d38d 04bf 3bb8 3d3e 67db 83be
00000100: 729f 13be 53b4 0bbf c13a 6abd cca1 a2be
00000110: 620c 153f ffe2 9b3e 4f24 e4bb 074e dbbe
00000120: 5017 85be 3eb6 543e 001f 9dbe 8b27 47be
00000130: 642b 313e b962 6a3e ec0c 163e cef4 c4bd
00000140: b704 1c3e 5db8 923c 1832 debe 925d a7be
00000150: a58a e0be 834f 9cbe 489e e13d a1d7 4e3f
00000160: 745f 823e 511e 99be 34ec 32bf bc8a 12be
00000170: bf7a f1bd 3942 e83e ccbb 71be 53af 7b3e
00000180: 0c96 d5be cc55 efbc 86dc 8dbe ab99 89be
00000190: d8e6 53be 635c a43d 4093 10bf 05a5 17bd
000001a0: f4fa 15bc c736 403e da17 aa3e b7c5 683e
000001b0: 6736 68be dc39 243e 1284 f83d 3171 8f3e
000001c0: fb70 68bd 9723 7dbd b507 b1bd 9a8a 04bc
000001d0: 2c65 86be aec3 3dbf 1582 19be cc9e 8c3d
000001e0: 9b19 02bd 85e1 263e 3ab4 88be eb0c 68be
000001f0: 8ae1 6b3e 5608 76be 13c0 853d febc 2ebf
00000200: 4502 5a3f feb6 a73c a2d0 04bf a7c9 693e
00000210: cfa2 083e 2b09 e9be f2bf 46bf 19ef de3e
00000220: 4a63 933e 466d 92be 4cc8 3c3e 0dad 003f
00000230: 5901 003f d6d6 c23e 023f b3bd 5f88 08be
00000240: a9dc cebe b850 f4be c613 49bf 50b3 a43e
00000250: 5a70 e73d bc66 50bd 70d8 643e 8c1e f33e
00000260: 53f0 48be e020 863e 63d9 0b3f a6d1 103e
00000270: 4e17 e33d 2a62 f43d 7cd5 123f f2bb 883e
00000280: 9b22 f0bd d02c a73d 1a34 b6bd b10d c5bd
00000290: cb45 5bbf d3bb 4a3e 12ef 4b3f 22a6 8e3e
000002a0: 595c 66bf 0322 273f 5c2b 02bf c69a ffbe
000002b0: 6f27 23bf 3d2a 073e ea2e b23e f8de 1bbf
000002c0: b8c2 993e bde3 20be 26c3 883f c559 ab3d
000002d0: 66d8 e1be ee64 273e f835 23be fba7 9ebc
000002e0: c620 e5be 2390 22bd 6dab 26bf beda 023f
000002f0: 8074 63be b803 393e c7c0 0fbe 663c 3e3f
00000300: 15d0 f3bd 5b9d c83e c8cf ecbe e09c 8ebe
00000310: 87ae a5bd 617a bf3e db4c ddbe b790 5b3e
00000320: 179d 80be 524e ca3b 00a0 85bd 176f b33e
00000330: 0596 083f fedf 3b3f 6e91 773e ee5f 603e
00000340: a231 133f a15b 4fbf 91f5 ae3e 5bc4 113f
00000350: 26b5 223f 479d dfbe af13 d23e 5d1e 483f
00000360: 6681 d4bd 4612 e63e 23c1 2fbe 4c51 17be
00000370: d26b 2cbe 585a 99be 6ba1 a3be f8b8 393e
00000380: 9705 103e 8679 4f3e 8e58 543e 5cb5 c43d
00000390: 7a7c 8a3e 48e7 e7bd bf81 823e cf20 81be
000003a0: c7af e93d 8a43 a33e 1cea 8fbe 050d 89be
000003b0: 4a8b 4b3f 8906 143d dafe 963e 9e71 d93e
000003c0: 72c4 9abe 5a79 a5bc 8c55 b53e 93b5 f6be
000003d0: 2c80 89be 8dc6 6d3f 431b 843e 451b b0bd
000003e0: b37f 20be c75e c3be 4438 5a3e da20 afbe
000003f0: d6bb 593e b441 1d3f 3aa4 88be 2938 58be

bias f4 [128]
-1.2625138 2.5602565 -0.94540435 -1.2107023 -0.7849195 -0.6799661 1.2571423 3.1415818
-2.415979 -0.3556832 -3.1110697 1.1120219 -2.562032 0.33111084 -1.1544473 -0.17598769
-2.1697042 -2.2834566 -0.1116175 0.5673972 0.86731917 -0.43550494 0.15203531 -3.3043756
0.5254551 -1.7254677 1.4287529 0.03202487 -0.5475424 -1.0000063 2.4814157 2.2592702
3.2103908 -2.2663615 1.8669021 0.9359417 -0.750252 -0.6337973 1.3633199 -0.49848622
-2.4172528 -1.060696 -1.5892093 -0.08706887 -1.0334487 -0.021955043 -0.12958182 -2.1392384
-3.2514818 -0.0026439072 2.6962144 -1.2699966 -1.4434928 -1.1068134 -0.7967351 -0.67472124
2.247338 -2.3632467 0.14828297 0.856156 -0.042232897 2.052315 0.57028383 0.4713003
2.1528385 2.8313723 -1.8155506 -0.24416381 -0.6478483 0.7000078 2.1404827 -0.6993969
2.3862684 2.3672216 -0.20869708 -1.4496447 0.34530702 0.24153528 -0.9827346 1.1885594
-0.03954784 -1.2388502 -2.679408 0.80951226 -0.06702078 0.8917028 2.4815903 -1.2319921
-2.423588 -2.0018392 -2.149184 -2.4109719 2.2067 1.0547912 -1.3557423 0.2104875
-0.21178275 0.23818587 -0.34406433 0.06427152 -0.40654817 0.81083626 2.488972 -1.6742735
-1.2642037 1.8446928 2.0173013 -2.3785293 -0.88746023 1.7206258 0.38235435 -0.91930234
-2.5058568 -1.813243 0.7541025 1.4979017 0.14954841 -0.83873063 -2.0916808 2.386188
0.75474066 -2.0652966 0.56606185 -3.0091853 0.20832667 0.17292231 2.5471294 -0.5634687
00000000: 0d9a a1bf 3edb 2340 0506 72bf 4bf8 9abf
00000010: 7cf0 48bf 4212 2ebf 0aea a03f ad0f 4940
00000020: 669f 1ac0 1c1c b6be c41b 47c0 bc56 8e3f
00000030: 55f8 23c0 5c87 a93e eec4 93bf 1e36 34be
00000040: 6fdc 0ac0 2724 12c0 b797 e4bd f140 113f
00000050: a108 5e3f 81fa debe 25af 1b3e e47a 53c0
00000060: 3a84 063f 20dc dcbf 60e1 b63f 832c 033d
00000070: bd2b 0cbf 3500 80bf 84cf 1e40 e297 1040
00000080: 0b77 4d40 110c 11c0 a6f6 ee3f e099 6f3f
00000090: 8410 40bf 8a40 22bf 4481 ae3f 9639 ffbe
000000a0: 45b4 1ac0 e3c4 87bf 366b cbbf 2a51 b2bd
000000b0: 0c48 84bf 10db b3bc 19b1 04be 48e9 08c0
000000c0: 4718 50c0 6745 2dbb c78e 2c40 408f a2bf
000000d0: 5fc4 b8bf 10ac 8dbf d5f6 4bbf 88ba 2cbf
000000e0: 63d4 0f40 6f3f 17c0 7ed7 173e 0a2d 5b3f
000000f0: 67fc 2cbd 2159 0340 1ffe 113f 464e f13e
00000100: 1bc8 0940 3435 3540 f663 e8bf 1406 7abe
00000110: 63d9 25bf b633 333f abfd 0840 ad0b 33bf
00000120: 9fb8 1840 8f80 1740 b0b4 55be f58d b9bf
00000130: 15cc b03e 0655 773e 7f94 7bbf b722 983f
00000140: eafc 21bd a592 9ebf 6c7b 2bc0 323c 4f3f
00000150: 3142 89bd a246 643f 60d2 1e40 ebb1 9dbf
00000160: 111c 1bc0 221e 00c0 3b8c 09c0 5d4d 1ac0
00000170: 933a 0d40 6603 873f f788 adbf 098a 573e
00000180: 94dd 58be ffe6 733e 3329 b0be c9a0 833d
00000190: 1527 d0be f792 4f3f 514b 1f40 984e d6bf
000001a0: 6dd1 a1bf e51e ec3f 771b 0140 d339 18c0
000001b0: 9830 63bf 773d dc3f f3c3 c33e 6657 6bbf
000001c0: f55f 20c0 5918 e8bf dd0c 413f 3ebb bf3f
000001d0: 3823 193e 0db7 56bf 19de 05c0 4eb7 1840
000001e0: af36 413f d22d 04c0 6ee9 103f 7e96 40c0
000001f0: 9653 553e 8c12 313e 2b04 2340 7c3f 10bf

weight f4 [64, 128]
0.19767937 0.011609318 -0.39308852 -0.091497526 0.20910311 -0.26008582 -0.26933485 0.10332026
0.075099185 0.33571637 0.05978391 0.09539771 -0.059262317 0.18969676 0.35002947 -0.21259218
-0.60986143 0.34627563 0.08932445 -0.56736356 -0.26137665 -0.19519028 0.1451028 0.39466786
0.05482899 0.13552871 -0.0023995726 0.63754445 0.44127727 0.13532393 0.21094403 -0.21306
-0.25105834 0.28940606 -0.81766003 0.25423515 0.580825 0.26902664 0.043366253 -0.6144121
-0.24307711 0.07345932 0.23185027 -0.1545799 -0.11377815 0.20903187 0.10703461 0.55427665
-0.074457526 0.30667982 0.026631057 -0.3831587 0.32722637 0.026936453 0.068060555 0.1892548
0.03484381 0.15950471 0.332488 -0.0626883 -0.021738285 -0.37546194 0.6004264 -0.06317179
0.16384564 0.24584405 -0.062395856 -0.26490265 0.031547204 -0.070653714 -0.0007126614 -0.3639252
-0.52330405 -0.045936424 0.26637283 0.16962619 0.09250175 0.11215493 0.13796069 -0.086436525
-0.39959264 0.2601423 0.13136281 0.43126842 0.03798676 -0.12151898 0.16456342 -0.2891038
0.22571844 -0.16443318 -0.039415777 0.2764326 -0.40463328 -0.087892205 0.5846351 -0.31185937
-0.20407026 0.36329487 0.2291302 -0.113695495 -0.60050607 0.009292196 0.3474324 0.23585881
-0.6493077 -0.0015062216 0.012630117 0.013084852 0.21671589 -0.32601783 0.7026306 -0.4963842
-0.24353509 0.5230957 0.15729274 0.034038812 0.45834503 0.59983087 0.14698659 -0.44729263
0.09542784 0.08503992 -0.11927855 -0.29499486 0.24904002 -0.029879069 0.036434885 0.42210022
0.07758488 -0.19198085 -0.011812287 0.20370209 0.24032626 -0.10250705 -0.013432846 0.23278691
-0.055380825 0.2210435 0.2631809 -0.03667686 0.015852831 0.43956167 -0.123305686 -0.029895807
0.35687658 -0.5437339 -0.049186975 -0.22296299 -0.12700477 -0.012181712 0.25380573 0.63832855
-0.3720904 -0.13857846 0.013345096 -0.09534071 -0.23866218 0.27957496 -0.1987777 -0.10539841
-0.18373321 0.113449104 -0.7515281 -0.48656827 0.019140525 -0.43552527 0.08025363 0.1488918
0.27755052 0.29930437 0.43778083 -0.048865147 -0.003752146 0.16760647 -0.044472642 -0.033739112
-0.005942177 0.04124391 -0.09084988 -0.06983779 -0.23099743 -0.26835003 -0.21255443 -0.2918238
0.5054713 -0.35688582 0.12408349 0.009598683 0.20912667 0.2144319 -0.091447815 0.14442194
0.3437271 0.41502166 0.5230146 -0.19079344 -0.22752449 0.0130730895 -0.43373823 -0.18736562
-0.09539818 -0.2988906 -0.006736009 -0.44668865 -0.020897625 0.05482006 0.3046267 -0.05280301
0.096679226 -0.13873008 0.5479751 -0.10323571 0.2174559 -0.53643566 0.19392706 -0.004981942
-0.3082776 0.22850749 0.04520168 -0.20908333 -0.005537258 -0.63096523 0.68636274 -0.11914647
-0.117992274 -0.38849497 -0.19260536 0.28760573 -0.23578866 0.11860363 0.07838228 0.031776957
-0.15805331 -0.21302445 0.3825759 -0.028622441 0.24808943 0.095890336 -0.1438111 0.4441695
0.25606078 0.83647346 -0.36513215 -0.39043024 -0.13006209 0.1030489 -0.02796515 -0.17761111
-0.046714753 -0.035533775 -0.35686323 -0.011875108 0.15733041 0.24426043 -0.65731215 -0.08009552
00000000: 766c 4a3e 0235 3e3c e642 c9be 0e63 bbbd
00000010: 201f 563e f829 85be 42e6 89be 9399 d33d
00000020: 9acd 993d 04e3 ab3e f9df 743d e05f c33d
00000030: 0bbd 72bd de3f 423e 1037 b33e c4b1 59be
00000040: e11f 1cbf 0a4b b13e bdef b63d bd3e 11bf
00000050: 29d3 85be f6df 47be d495 143e e811 ca3e
00000060: 5d94 603d 0ac8 0a3e 2642 1dbb 1d36 233f
00000070: 18ef e13e 5b92 0a3e b601 583e 672c 5abe
00000080: b88a 80be 082d 943e 2b52 51bf 1c2b 823e
00000090: f2b0 143f dcbd 893e d0a0 313d 1d4a 1dbf
000000a0: 35e9 78be d771 963d 286a 6d3e 314a 1ebe
000000b0: 8504 e9bd 730c 563e f634 db3d 13e5 0d3f
000000c0: 307d 98bd 2305 9d3e 6029 da3c 612d c4be
000000d0: 378a a73e d6a9 dc3c 5563 8b3d 03cc 413e
000000e0: 62b8 0e3d 3455 233e de3b aa3e b962 80bd
000000f0: 7d14 b2bc 8c3c c0be 8bb5 193f 3660 81bd
00000100: 27c7 273e 8bbe 7b3e cc92 7fbd 52a1 87be
00000110: a437 013d e5b2 90bd e6d1 3aba 6754 babe
00000120: 41f7 05bf d527 3cbd 0562 883e 7db2 2d3e
00000130: 8f71 bd3d 7cb1 e53d 9145 0d3e a205 b1bd
00000140: 6897 ccbe 5f31 853e f983 063e 37cf dc3e
00000150: 0198 1b3d f1de f8bd 5083 283e 6a05 94be
00000160: bc22 673e 2c61 28be 7072 21bd 9388 8d3e
00000170: 182c cfbe d400 b4bd a5aa 153f 08ac 9fbe
00000180: cbf7 50be c901 ba3e 1ba1 6a3e 2fd9 e8bd
00000190: c4ba 19bf 4b3e 183c a9e2 b13e f984 713e
000001a0: 0839 26bf 696c c5ba 8dee 4e3c d961 563c
000001b0: c5ea 5d3e cfeb a6be 99df 333f 1226 febe
000001c0: 4361 79be 9ae9 053f 5911 213e 486c 0b3d
000001d0: 33ac ea3e 848e 193f a783 163e 8a03 e5be
000001e0: ac6f c33d 6929 ae3d 5048 f4bd 9109 97be
000001f0: 5904 7f3e f3c4 f4bc bf3c 153d 851d d83e
00000200: d2e4 9e3d a196 44be 5388 41bc 4897 503e
00000210: 1618 763e 37ef d1bd 7115 5cbc b15f 6e3e
00000220: 01d7 62bd 3a59 623e a6bf 863e 7a3a 16bd
00000230: ccdd 813c 3a0e e13e b187 fcbd 0de8 f4bc
00000240: 87b8 b63e 2532 0bbf 4878 49bd 6950 64be
00000250: 8a0d 02be ce95 47bc d3f2 813e 8069 233f
00000260: a282 bebe 83e7 0dbe 64a5 5a3c fd41 c3bd
00000270: dc63 74be 7324 8f3e 628c 4bbe 1fdb d7bd
00000280: 8f24 3cbe 0158 e83d 2564 40bf 7a1f f9be
00000290: 97cc 9c3c 2bfd debe 045c a43d 1877 183e
000002a0: 1a1b 8e3e 6c3e 993e cf24 e03e d226 48bd
000002b0: 90e6 75bb 08a1 2b3e f228 36bd 0632 0abd
000002c0: 98b6 c2bb 60ef 283d 800f babd 1e07 8fbd
000002d0: 978a 6cbe 2d65 89be dea7 59be ee69 95be
000002e0: 9166 013f bdb9 b6be 7c1f fe3d cb43 1d3c
000002f0: 4d25 563e 0994 5b3e fe48 bbbd 58e3 133e
00000300: 00fd af3e b87d d43e 49e4 053f 5b5f 43be
00000310: 2efc 68be 8330 563c f012 debe c6dc 3fbe
00000320: 1f60 c3bd 3008 99be bdb9 dcbb 60b4 e4be
00000330: 7f31 abbc 008b 603d 08f8 9b3e f847 58bd
00000340: c2ff c53d 420f 0ebe 1948 0c3f 3e6d d3bd
00000350: c2ac 5e3e d953 09bf d194 463e 8f3f a3bb
00000360: 90d6 9dbe defd 693e 6625 393d f119 56be
00000370: e371 b5bb f086 21bf 78b5 2f3f 1103 f4bd
00000380: efa5 f1bd d0e8 c6be 573a 45be 0f41 933e
00000390: 9572 71be 76e6 f23d e486 a03d 8e28 023d
000003a0: bad8 21be 1523 5abe fde0 c33e 9c79 eabc
000003b0: 280b 7e3e 2762 c43d 3843 13be 2f6a e33e
000003c0: 661a 833e 2023 563f 9af2 babe 79e6 c7be
000003d0: ff2e 05be 4d0b d33d 2c17 e5bc b0df 35be
000003e0: f857 3fbd dd8b 11bd c7b6 b6be d08f 42bc
000003f0: 391b 213e 681f 7a3e 9c45 28bf 1f09 a4bd

bias f4 [64]
-0.72110873 -1.6250091 -1.0291315 1.9101771 0.9924448 -2.7522068 2.8711517 1.4117757
0.63596547 -3.2953088 1.467448 -0.12982589 2.920839 0.8554806 1.4428115 -3.5331995
-0.15910928 -1.0860405 -1.8086079 -2.3793442 2.0350523 -0.7476574 -0.05502586 1.6192267
1.1912116 2.993037 1.4282868 0.7291166 4.0501275 0.2992362 1.0074875 -0.9041464
0.083702035 2.9178624 -3.334724 -1.7688632 -1.2257175 2.9494905 -0.82566893 0.21679834
1.3117224 3.1579726 -1.5795633 -3.5752966 -1.2409974 -2.9135652 -1.1769814 3.3475761
-0.88632053 2.8883379 0.13963069 -0.84507394 -1.9228867 -1.286065 -0.977958 3.486416
-1.4929849 3.77901 -1.2376503 -0.0046084453 0.14723769 3.2533689 -0.49725583 3.2339265
00000000: 959a 38bf 4c00 d0bf 95ba 83bf af80 f43f
00000010: dd10 7e3f 2824 30c0 f3c0 3740 11b5 b43f
00000020: a2ce 223f 57e6 52c0 56d5 bb3f 14f1 04be
00000030: 07ef 3a40 c700 5b3f 0cae b83f f11f 62c0
00000040: 8bed 22be 6003 8bbf 7780 e7bf 2d47 18c0
00000050: 4c3e 0240 7a66 3fbf cc62 61bd d242 cf3f
00000060: 9f79 983f eb8d 3f40 1ad2 b63f 63a7 3a3f
00000070: a59a 8140 7d35 993e 5af5 803f 2376 67bf
00000080: f96b ab3d 42be 3a40 1e6c 55c0 1c6a e2bf
00000090: 50e4 9cbf 74c4 3c40 0a5f 53bf 6200 5e3e
000000a0: 85e6 a73f 391c 4a40 212f cabf a9d1 64c0
000000b0: 01d9 9ebf da77 3ac0 54a7 96bf b03e 5640
000000c0: e7e5 62bf 87da 3840 59fb 0e3e c456 58bf
000000d0: 2721 f6bf c79d a4bf 755b 7abf 7121 5f40
000000e0: 211a bfbf 4ddb 7140 536b 9ebf 7102 97bb
000000f0: 7ac5 163e 3237 5040 5198 febe a7f8 4e40

weight f4 [64, 64]
-0.04023639 -0.042774927 0.28416413 -0.061199147 0.21125852 -0.115522295 0.043406796 0.023283502
0.057177648 -0.05102451 0.03984156 0.077703506 0.01796305 0.10967579 0.020868339 -0.12569116
-0.08519288 -0.048133336 -0.040142156 0.05036471 0.034109555 0.05524447 -0.021998689 0.0536235
0.073948786 0.10294894 0.0030654056 -0.044822067 0.10907463 0.13934506 0.0019597933 0.04017881
0.02093794 0.03079521 -0.10782431 0.07400215 -0.018770743 0.03700283 -0.06618608 0.059355624
0.0019017658 0.13692635 0.037914913 -0.18030478 -0.10764437 -0.12872933 -0.014574284 0.105910584
-0.16105495 0.12006006 0.08743701 -0.02526748 -0.08299768 -0.033961337 -0.09730579 0.18433444
0.0022908968 0.17358413 -0.098435566 0.111112356 -0.07952031 0.10437707 0.039197598 0.0987387
-0.073469035 -0.111516416 0.16196269 -0.054297842 0.14863394 -0.0071715526 -0.05491333 0.0043904935
0.09806797 -0.08814123 -0.0015274131 0.06949003 0.06987814 0.080796786 0.00290958 -0.085466415
-0.03699949 0.10061589 -0.020944757 0.0016673773 0.012701477 0.068529256 0.04782771 0.056911927
0.02214266 0.03143564 0.05888447 0.008625547 0.06337705 0.0816445 0.0046190997 -0.08880165
0.079298675 0.03219006 -0.102561235 0.039785195 -0.007952485 0.14492176 -0.009588949 0.07521472
0.0914362 0.052767947 0.058764007 -0.10233192 -0.10745316 -0.055357065 0.006836466 0.14294273
-0.13618791 0.056829154 0.070508204 -0.018882243 -0.169519 -0.013536382 -0.037074953 0.17218561
-0.03717934 0.14939477 -0.040466797 0.13783202 -0.013593552 0.12782863 0.05695112 -0.005171137
0.05907768 -0.018402735 0.03429205 -0.012647 0.04268281 0.043443125 -0.027977683 -0.0020377487
0.043496203 -0.066911906 0.029290704 0.12290227 0.048588976 0.016971704 -0.038846213 0.015122987
-0.09466552 -0.005531626 0.062109552 -0.012465064 0.031683724 -0.067400746 -0.031899128 0.04997296
0.04004999 -0.06183041 -0.023518186 -0.024628475 0.14299095 0.048727233 0.029053219 -0.09068858
0.0025259475 -0.042469926 -0.12178034 0.06172119 -0.01050652 -0.048234325 -0.012070303 -0.02386675
0.045982756 -0.012589121 0.027508575 -0.021158785 -0.035871327 -0.050053824 -0.044201653 0.06744202
0.09117054 -0.032461174 0.08157265 -0.049334727 0.028644824 0.058633145 -0.06207408 -0.00546613
0.036426812 0.062362764 -0.014506808 0.03188682 -0.029662712 0.09345766 0.0101776 0.06487295
0.05143649 -0.014914057 0.022614958 0.035113797 0.005942841 -0.027386675 0.0009895267 0.038224924
-0.060752727 -0.07187606 -0.046547018 0.024426073 0.08695027 -0.0576816 0.011262844 0.02651349
0.03611077 -0.06651342 0.08978753 -0.07732673 0.052321985 -0.0077041807 -0.001419363 0.0661617
-0.026131881 -0.04198081 0.03171594 -0.03297361 0.044871673 0.0141224 -0.08379954 -0.06122354
-0.0028467954 -0.09716816 -0.113286234 -0.0070092287 -0.07749911 -0.011954097 0.01400705 -0.0010924214
0.053498507 -0.015250921 0.019955227 -0.054227315 -0.14703646 -0.029277766 0.06428616 0.013451678
-0.07593701 -0.022781057 0.053754147 0.087390415 -0.02007809 0.0148193035 -0.10848397 -0.029283633
0.057504445 0.04520394 -0.02228606 0.038881946 -0.06328543 0.006500023 0.09939685 0.0449399
00000000: eace 24bd c334 2fbd f67d 913e f5ab 7abd
00000010: 2754 583e f496 ecbd 53cb 313d 0bbd be3c
00000020: 1c33 6a3d 14ff 50bd e730 233d 0423 9f3d
00000030: 3f27 933c b39d e03d 14f4 aa3c 2fb5 00be
00000040: 9b79 aebd 7627 45bd 1a6c 24bd 3a4b 4e3d
00000050: 76b6 0b3d 0648 623d 9836 b4bc 51a4 5b3d
00000060: 7672 973d e5d6 d23d f9e4 483b 5897 37bd
00000070: 8562 df3d 79b0 0e3e e06f 003b 8992 243d
00000080: 0b86 ab3c 3c46 fc3c fed2 dcbd 708e 973d
00000090: 1ac5 99bc 4890 173d 918c 87bd e21e 733d
000000a0: ac44 f93a 6c36 0c3e ab4c 1b3d d1a1 38be
000000b0: a774 dcbd 9fd1 03be fac8 6ebc a6e7 d83d
000000c0: 97eb 24be 0ce2 f53d 2d12 b33d bffd cebc
000000d0: b0fa a9bd 0b1b 0bbd 4248 c7bd 2bc2 3c3e
000000e0: df22 163b 0ac0 313e 9698 c9bd e08e e33d
000000f0: 8bdb a2bd a5c3 d53d a98d 203d 8437 ca3d
00000100: ef76 96bd b862 e4bd 8cd9 253e 6a67 5ebd
00000110: 7f33 183e 58ff eabb cdec 60bd 21de 8f3b
00000120: dcd7 c83d 6483 b4bd 7b33 c8ba ca50 8e3d
00000130: 451c 8f3d c978 a53d a7ae 3e3b 0409 afbd
00000140: c78c 17bd b40f ce3d 5794 abbc e68b da3a
00000150: db19 503c 1159 8c3d fde6 433d 7b1c 693d
00000160: 8664 b53c a8c2 003d d830 713d 2b52 0d3c
00000170: d4cb 813d 3b35 a73d d15b 973b a4dd b5bd
00000180: 5867 a23d b9d9 033d a00b d2bd cdf5 223d
00000190: 244b 02bc 5f66 143e f81a 1dbc 2d0a 9a3d
000001a0: e742 bb3d 3423 583d 87b2 703d 6693 d1bd
000001b0: 6710 dcbd 17be 62bd 6f04 e03b 945f 123e
000001c0: d874 0bbe b0c5 683d 9b66 903d efae 9abc
000001d0: 6496 2dbe b3c7 5dbc e8db 17bd 6d51 303e
000001e0: 5d49 18bd f1fa 183e 83c0 25bd d623 0d3e
000001f0: 7db7 5ebc 82e5 023e 9445 693d a472 a9bb
00000200: 70fb 713d 55c1 96bc d275 0c3d 5d35 4fbc
00000210: 2cd4 2e3d 6bf1 313d 7431 e5bc c08b 05bb
00000220: 1329 323d 1c09 89bd 0ff3 ef3c 2fb4 fb3d
00000230: 3c05 473d 3e08 8b3c 351d 1fbd 68c6 773c
00000240: ffdf c1bd a442 b5bb 9666 7e3d 453a 4cbc
00000250: cbc6 013d 6709 8abd a9a8 02bd 72b0 4c3d
00000260: 750b 243d e241 7dbd 36a9 c0bc a8c1 c9bc
00000270: 386c 123e 3596 473d 0401 ee3c efba b9bd
00000280: 5e8a 253b f2f4 2dbd f967 f9bd 5ccf 7c3d
00000290: 8a23 2cbc 5b91 45bd 85c2 45bc 3484 c3bc
000002a0: 6a58 3c3d 9a42 4ebc aa59 e13c 3055 adbc
000002b0: d0ed 12bd 3d05 4dbd cb0c 35bd 0b1f 8a3d
000002c0: 9fb7 ba3d 02f6 04bd 900f a73d 3613 4abd
000002d0: 8da8 ea3c 4f29 703d 6441 7ebd 391d b3bb
000002e0: 4834 153d 1970 7f3d f6ad 6dbc c19b 023d
000002f0: 37ff f2bc bb66 bf3d f3bf 263c 1cdc 843d
00000300: 12af 523d 175a 74bc 0143 b93c 7cd3 0f3d
00000310: 2abc c23b 055a e0bc 02b3 813a bd91 1c3d
00000320: dad7 78bd c133 93bd 16a8 3ebd 3019 c83c
00000330: fc12 b23d 8b43 6cbd cb87 383c d232 d93c
00000340: e3e8 133d 3038 88bd 86e2 b73d 7a5d 9ebd
00000350: 944f 563d 5a73 fcbb eb09 baba c97f 873d
00000360: 8712 d6bc 12f4 2bbd 93e8 013d 560f 07bd
00000370: 5ccb 373d a461 673c 189f abbd 89c5 7abd
00000380: 4d91 3abb 1a00 c7bd 9d02 e8bd acad e5bb
00000390: dab7 9ebd 1edb 43bc d37d 653c 942f 8fba
000003a0: 4021 5b3d 00df 79bc 2579 a33c 761d 5ebd
000003b0: ba90 16be edd7 efbc 76a8 833d 6d64 5c3c
000003c0: dd84 9bbd 579f babc 4f2d 5c3d bff9 b23d
000003d0: ce7a a4bc aacc 723c d82c debd 3be4 efbc
000003e0: c889 6b3d c427 393d 4191 b6bc ad42 1f3d
000003f0: cb9b 81bd 25fe d43b 9390 cb3d e712 383d

bias f4 [64]
-0.71191084 0.16798472 0.38630292 0.35677585 0.390645 0.34085628 0.11793945 -0.8810734
0.1966877 0.29985863 0.45364425 0.29135504 0.30779612 0.56826895 0.27611774 0.13736528
0.20466173 0.40332538 -0.37823796 -0.13036092 -0.7815146 0.14793935 0.5226487 0.30946845
0.34009564 0.2611592 -0.5595604 -5.29261 -5.3651896 -0.9398387 0.35417774 0.4069535
0.35941216 0.16636772 -1.004394 -5.4288454 -5.323491 -0.4959543 0.24860528 0.48371318
0.30247718 0.37977332 -0.1648703 -1.0384219 -0.579939 -0.2367156 0.45648703 0.33761668
0.2599301 0.46268034 0.30069566 0.20458207 0.18394592 0.5094163 0.193461 0.23756154
-0.6888394 0.29344893 0.33638144 0.37419975 0.30376554 0.35096085 0.21647388 -0.72529423
00000000: ca3f 36bf 3004 2c3e 7fc9 c53e 53ab b63e
00000010: 9f02 c83e b784 ae3e 3d8a f13d 078e 61bf
00000020: 8068 493e 1287 993e 0f44 e83e 7d2c 953e
00000030: 7497 9d3e 137a 113f 4e5f 8d3e 7ca9 0c3e
00000040: d892 513e aa80 ce3e 68a8 c1be 557d 05be
00000050: 5711 48bf 6a7d 173e 4ecc 053f a672 9e3e
00000060: 0421 ae3e a9b6 853e 5a3f 0fbf 105d a9c0
00000070: a2af abc0 4599 70bf c956 b53e 365c d03e
00000080: df04 b83e 4d5c 2a3e fc8f 80bf 1ab9 adc0
00000090: 0a5a aac0 b9ed fdbe 6292 7e3e 41a9 f73e
000000a0: 4ade 9a3e a671 c23e c3d3 28be 02eb 84bf
000000b0: e276 14bf 9365 72be abb8 e93e 18dc ac3e
000000c0: 8f15 853e 70e4 ec3e c8f4 993e f67d 513e
000000d0: 525c 3c3e 1b69 023f a41a 463e 5543 733e
000000e0: c757 30bf f03e 963e 303a ac3e 1c97 bf3e
000000f0: 2887 9b3e 24b1 b33e 54ab 5d3e e2ac 39bf
