TP/save_models_MLP_256_128/model_12.pt (torch, 235617 bytes, 6 tensors)

weight f4 [256, 64]
00000000: af6c 5f3e 6ae8 a83d 8143 e83a e2fb c13d
00000010: 098e 683d f911 733d acdc 1a3c 0847 fdbd
00000020: 6d8a d139 1da6 9bbe 5d7a 1fbe 7d1c adbe
00000030: 2bc6 0dbe e28c 8e3e 644b 20bd 32e9 a63d
00000040: e53c d33b dbee ca3c 2f0e 083e 0670 3dbd
00000050: 4806 c6bd 6841 4c3d d290 f1bd 03c5 05be
00000060: 62c2 0f3e c42b 3abe 0a4a a3bd 0007 29be
00000070: 81d3 4fbd 6052 82bd 0532 ae3e 44bd 053e
00000080: b96f f9bd c7fe 89bc f20c a4bd 47ab 823e
00000090: 83fe a9bd 2fce 513d 6c70 e03d e2cb 723d
000000a0: 9f4d 193e 31f1 9d3d 4a67 4fba 0d59 9dbd
000000b0: 12b8 e13d 45ec 143d a66d 4c3e 3528 673e
000000c0: 84a4 ffbc 27ab 9fbd 03ed 4cbc 66ef 25be
000000d0: 07bb a63e 6c8d 31be 90bb 9e3d 8aed 343c
000000e0: e0d5 44bc 67d9 10bc d9ec 1fbd f750 283d
000000f0: 9467 083e da2b 84bc 7018 bc3d 4d40 ad3e
00000100: c348 4d3e 1f71 e5bc dc04 f83d 00e1 9e3d
00000110: 1901 8e3d 6d41 1fbe af81 9b3d 7bae bfbd
00000120: dd73 a73d 74dd d4be 7806 183d 4d0c 8bbd
00000130: 8f93 cbbd 92d4 4f3d 7d86 97be ca07 32be
00000140: d452 883d e323 3cbd 9e7d 9cbd a487 223e
00000150: 5d4c 46be d5ea 5cbc 8d94 b33b 2c4b c8bc
00000160: 5620 58bc bbca 51be 20e1 8abc 31d4 10be
00000170: bf7b 083e ccdc ea3d 6230 31bd 946f ac3d
00000180: df2b 003e a1ae e63d 22f2 9cbd 4b39 1bbe
00000190: 1c38 74bc d451 5cbe d747 58bd a8c5 f5bd
000001a0: 34f8 1f3e 59c6 28bd b7b9 d6bd c4b6 55bd
000001b0: efd3 91be 52fa 383e ec00 66bd 4526 4c3e
000001c0: ae2d 113d 4b99 b83d 69a7 f73c dbef 023e
000001d0: 1e11 e33c 767b 13bd 6bc3 9d3e db20 c23c
000001e0: 851a 843e be42 373e 4082 0f3e e195 3d3e
000001f0: 25c7 2fbc 1521 a53d 74d3 b43e 4255 033e
00000200: 5972 43bd 568a 49be 17a7 03be 7fc1 bcbd
00000210: 6f65 febd 0609 2c3d 9bf3 c2bd 110d a73e
00000220: 4bd9 69bc 9a5e 15be fbe3 3bbd 0025 4c3d
00000230: 0fb1 3d3e c23a 32bd eff8 49be 483e 6c39
00000240: b37e 553d a51f c43d 365d 6bbe be07 c6bd
00000250: eb09 ffbc fa96 c63d 170a 60be 33ea 52bd
00000260: 2048 edba 5aa5 4c3e b58d 203d 79bb 0c3e
00000270: eb72 0dbe 7d62 613e b420 ff3c 513a 3dbe
00000280: a265 16bd 2e5a e43c 883e d5bd d06e 5f3c
00000290: 1d50 9dbc 7d47 5e3c 8227 b3bb 9b34 1fbd
000002a0: c741 06bd 681d 863c f44f ff3d 6ab0 0cbd
000002b0: 0950 5b3e 9800 473e dccd e83d 8288 6e3e
000002c0: 1d1c 8abb 536f 693e 92e5 febd 46d8 a6bc
000002d0: 118a 593b 36ed a5bc ba77 043f 746f 673d
000002e0: 8784 3cbd 9663 07bb cc05 24be ac08 a5bd
000002f0: 3400 d9bd 4d5d 0a3e 5236 93bd b13c 1abe
00000300: dd6a 41be 2a4b 3ebd b41b dabb 4bb3 89be
00000310: 6ad1 cfbc f15c 21be 7a4e 22be 7c8d f4bd
00000320: c52d 6b3d 53ba 993e c56d febd ba24 0c3e
00000330: 0030 cb3c 131f be3d d7f9 a9bb b8e7 fc3d
00000340: 60f4 aabd 3391 1d3e 6ca6 0a3e ee80 763e
00000350: 7df7 133e 32c0 fcbd 8c2d 1cbd 77a4 3f3c
00000360: 7719 b7bd e74a df3a 31b2 b2bc bfd1 39be
00000370: f0c7 31be 39b8 37be 6677 9f3d 235c 02bd
00000380: 63a8 f7bd 3239 803d 3f35 0dbd 6e56 7b3e
00000390: 5773 963d 2434 1fbe 1c82 d9bc 48ef 4abe
000003a0: b0da fbbd 95ba 03be 36be c5bd db82 ed3c
000003b0: 1b50 97bd d84a 25be c358 923d 487e 123e
000003c0: 4b31 2abe 22b1 95be 6575 aabd 74e8 b9bd
000003d0: 4aac bf3d 5e60 073e 6818 0c3e bc8a 06be
000003e0: 2733 2fbd 688b ca3d 895e c63c 9ebe 9b3e
000003f0: 27ee 383e d81a 473e 7991 9d3e 01d4 acbe
0.21818803 0.082474545 0.0017720313 0.09471871 0.05677608 0.059343312 0.009452026 -0.12367064
0.00039966722 -0.30400172 -0.15574022 -0.33810797 -0.13845126 0.2784186 -0.039134398 0.08149947
0.006446468 0.024772098 0.1328666 -0.046249412 -0.09669167 0.049867064 -0.117952004 -0.13063435
0.14038995 -0.18180758 -0.07973106 -0.16506577 -0.050738815 -0.06363368 0.34022537 0.1306048
-0.121795125 -0.01684512 -0.080102816 0.255213 -0.083004974 0.051222023 0.10958943 0.05927647
0.14971016 0.07712019 -0.00079118146 -0.07683001 0.11021437 0.036358137 0.19963703 0.22573932
-0.031206377 -0.077963166 -0.01250768 -0.16204605 0.32564566 -0.17339104 0.077506185 0.011042962
-0.012013882 -0.008840895 -0.039044235 0.04109284 0.13320762 -0.016134191 0.091843486 0.3383812
0.20047288 -0.028008042 0.12110302 0.07757759 0.06933803 -0.15552302 0.075930946 -0.093594514
0.08176396 -0.41575205 0.037115544 -0.067894556 -0.09940254 0.050739832 -0.29594794 -0.17385784
0.06656423 -0.04593266 -0.07641147 0.15872055 -0.19365068 -0.013483723 0.005480355 -0.024449907
-0.013191303 -0.20487492 -0.016953051 -0.14143445 0.13328455 0.11467895 -0.043259032 0.08419719
0.12516735 0.112637766 -0.07663371 -0.15158574 -0.014905956 -0.2151559 -0.052802887 -0.120005906
0.15622026 -0.041204784 -0.10484641 -0.052176252 -0.28482005 0.1806424 -0.056153223 0.19936474
0.035443954 0.09013613 0.030231195 0.1278681 0.027718123 -0.036006413 0.30813155 0.023697307
0.25801483 0.17896554 0.1401453 0.18514206 -0.010728632 0.080629505 0.35317576 0.12825492
-0.047716472 -0.19681677 -0.12856708 -0.09216594 -0.12421691 0.042000793 -0.0951912 0.32627156
-0.014272998 -0.14586869 -0.045871716 0.049839973 0.18524574 -0.043513067 -0.19723867 0.00022529915
0.052122783 0.09576348 -0.22984776 -0.096694455 -0.031132659 0.09696765 -0.21878849 -0.05149288
-0.001810316 0.19984952 0.039197642 0.1374339 -0.13813369 0.22010227 0.031143524 -0.18479277
-0.03671802 0.027875032 -0.104123175 0.01363726 -0.01920324 0.013566849 -0.005467356 -0.038868528
-0.032777574 0.016371444 0.12466422 -0.03434793 0.2141725 0.1943382 0.113673896 0.23294261
-0.004214777 0.22796373 -0.12446131 -0.0203668 0.0033193866 -0.020254713 0.5174519 0.056502774
-0.046024825 -0.0020658723 -0.16017836 -0.08058295 -0.10595742 0.13512154 -0.07188095 -0.15062214
-0.18888421 -0.0464584 -0.0066561345 -0.26894602 -0.025368411 -0.1575811 -0.15850249 -0.119410485
0.057416696 0.30024967 -0.124232806 0.13685885 0.024803162 0.09283271 -0.005187254 0.12348884
-0.08347392 0.1538742 0.13540047 0.2407262 0.14449878 -0.12341346 -0.038129374 0.011696926
-0.08940404 0.0017035872 -0.021813484 -0.18146418 -0.17361426 -0.17941369 0.07786445 -0.03182615
-0.12092664 0.06260909 -0.034474608 0.24544689 0.07346218 -0.15547234 -0.026551299 -0.19817841
-0.12297571 -0.12864144 -0.096554205 0.02899306 -0.07388326 -0.16141832 0.07145836 0.14305985
-0.16620366 -0.29236704 -0.083231725 -0.0907754 0.093590334 0.13220355 0.13681185 -0.1313886
-0.042773392 0.09889871 0.024215 0.30418867 0.18059598 0.19443834 0.3077505 -0.33755496

bias f4 [256]
00000000: 69b5 cc3d bfed 6abd 0068 b03d 77b2 91bd
00000010: 7abf e9bc 0c5d 6abd 08b7 72bd 5003 e43d
00000020: 983c 17bd 1821 9abd 90d5 e43d b431 17be
00000030: d540 023d 8e7c 1c3e eb10 ce3d 44bf 453d
00000040: 876a 273e 0f73 223c e45d dd3d 5319 88bd
00000050: d442 7b3d 6316 fabc e51a b8bd c828 3abd
00000060: dc84 89bd 9ef3 a53c 0efe aabd 6690 863b
00000070: b763 213d c31c 083d 91a5 e8bd 97dc 46bc
00000080: fb8d 74bd fcca e53c a91a e0bd 19df 913d
00000090: b08a 10be 7006 03bd f032 853b 337a 9ebc
000000a0: 3dfc 843d d65a e1bd a627 33bc bf4d 313d
000000b0: 59d3 8dbd dd1f 39bb f201 39be 2139 be3d
000000c0: 81b1 283c 8482 493d 7079 03be 00b9 a13d
000000d0: 78b2 ff3d 18f8 f6bd f353 03be b083 29b9
000000e0: 6965 2bbe fac6 ccbd fc65 98bb 5b3a ff3d
000000f0: cf97 e2bd 8003 533e 535a 3ebd 86ce 2a3e
00000100: d42e 99bd c0a7 c53b 1e60 a0bd b3ed 9c3d
00000110: 6e88 e2bb 5375 a3bd 3d48 9bbd 2211 e0bc
00000120: dcd5 babd 7ac2 883d 2b55 b7bd f796 073d
00000130: 01d8 273d 400c e1bd f6db db3c eed4 90bc
00000140: f7c0 e9bd 9552 e3bd 6117 873c 18da 36be
00000150: e8a2 e63c 4ea9 e63d 1cff a6bd 8451 2b3e
00000160: a5c6 44bd eb0d a9bd 5117 ee3b 4085 353c
00000170: 7f8b 07bd a594 f93d cff1 35be ce0e ec3d
00000180: e03f c5bb 0a7c ef3d 654c 583d 34c8 02be
00000190: 7fd2 77bd 7fbd 2abd 3069 8f3d 9770 953d
000001a0: 2790 ee3d 43d1 efbd 8dbd 5bbd 23db f23d
000001b0: 062b ba3b 540e 25bd ebf3 113d 3025 803d
000001c0: 4dcd 03bd 346a d9bd 317e ae3d 4803 c4bc
000001d0: 072e 99bc a49a 9f3d 2de1 593d 6144 1d3e
000001e0: 9552 853d a65c 15bd 4026 febb 73ec 283d
000001f0: bbaa 4dbd ad33 39bc 080c 00bd 7dc4 14bd
00000200: 95ce c83d 9464 81bd fdb1 3e3c 0b91 593d
00000210: a3d3 993d 0cce 2cbc a15a a53d 5f33 513d
00000220: c770 a83d 5614 dabd 306d c5bc 5531 0dbd
00000230: e057 223d 770c 6cbd 4539 64bb e236 eeba
00000240: ae45 a53c c7bb 82bd d5e5 52bd db08 09bd
00000250: cb71 b0bd d33a a23d 33ef 0abe 9c57 fa3c
00000260: 4fa9 b03b f33a 2d3c f9b5 20bd b565 24bd
00000270: b92f 223d 1480 8b3d 644e d33d f721 06bc
00000280: 949d 273e 5d9e d2bd e961 863d a824 87bd
00000290: b6c5 3b3d 809a 82bd 41b3 be3d a624 b53d
000002a0: 749a eabc c21e d93d 10df 713d dd19 933d
000002b0: 4871 063e 062e 1b3e 612d b33c 7ed7 f13d
000002c0: 2448 cd3c 02d9 873d 873b 483d d496 9bbc
000002d0: e723 3f3e 6d18 d0bd bca5 abbd 2eab a93a
000002e0: eaf9 5abd 167e e9bd 5aa5 22be baa0 80bc
000002f0: b87b 5b3d 1fb8 8f3d aa2c 3cbc 3344 d13d
00000300: 79f2 c1bc 8175 50be e598 e2bd cf15 c5bd
00000310: e30f b6bd 5699 eabd eaf1 09bc 78d4 943d
00000320: d45e eabc 84da 31bd 50f4 30bd 0553 dc3d
00000330: f786 0a3e 648e 09bd 9674 89bc 5695 b03b
00000340: c5fc 04be acfa 173c da7f f03d de37 a7bd
00000350: 5a3b 413e 3614 933c 69e1 a73d 7f94 083d
00000360: ec55 a93d 65ee b7bd 408a 92bd 335e 6bbd
00000370: a4b4 903d beeb db3d 6d48 c2bc 73c2 c63d
00000380: 4de4 97bd f172 fa3d a5c1 d23d 0004 12bd
00000390: de5b 4f3d 2f40 0d3e 4c88 20be 9f78 db3d
000003a0: b59c a93d 17cf fd3c 0197 00be 4f7b 80bd
000003b0: e7c4 81bd 8cde a13d b128 f93d d4ff 3ebb
000003c0: 9015 a13d 8c39 ca3d eec2 a13d a10c 903d
000003d0: 132c 0dbd 437b 9abd 924b 7bbc 646e 103e
000003e0: a922 4e3d 9937 abbd 626c a6bd f0f8 6bbd
000003f0: 7525 8d3d 4b32 36bd ee59 70bd ee93 a13c
0.09995539 -0.05735564 0.086135864 -0.071141176 -0.028533686 -0.057217643 -0.059256583 0.11133444
-0.03692302 -0.075258434 0.11173546 -0.14765054 0.03180011 0.15281889 0.100618206 0.04827811
0.1634923 0.009915127 0.10808924 -0.06645455 0.06134303 -0.030528253 -0.08989505 -0.04544905
-0.06714794 0.020257767 -0.08349238 0.004106569 0.039401736 0.033230554 -0.11359704 -0.012137554
-0.059705716 0.028050892 -0.10942585 0.071226306 -0.14115405 -0.03198856 0.00406491 -0.019345379
0.06493423 -0.11003654 -0.010934746 0.043287035 -0.06925077 -0.0028247752 -0.18067148 0.0928824
0.0102962265 0.049196735 -0.12839293 0.07896614 0.12485212 -0.12059039 -0.12824993 -0.00016166153
-0.16737904 -0.09998889 -0.0046508294 0.12462302 -0.110641114 0.20606804 -0.04647286 0.16680345
-0.07479635 0.0060319602 -0.07830833 0.07662525 -0.0069132363 -0.07981362 -0.07582138 -0.02735192
-0.09122822 0.066777185 -0.089517914 0.033102956 0.04097748 -0.109886646 0.026838284 -0.017679658
-0.11413758 -0.11099736 0.01649064 -0.17856634 0.028153852 0.11262761 -0.08154127 0.16730314
-0.048041005 -0.08254608 0.007265963 0.011079133 -0.03309202 0.12186555 -0.17768024 0.11526261
-0.0060195774 0.116935804 0.05280723 -0.12771684 -0.06050348 -0.041684624 0.07002485 0.072968654
0.11648589 -0.117098354 -0.053647567 0.11858203 0.0056813983 -0.040296867 0.03563301 0.06257093
-0.032178212 -0.1061596 0.08520163 -0.023927346 -0.018698705 0.07793167 0.05319326 0.15358116
0.06509892 -0.03646531 -0.0077560246 0.04124112 -0.05021165 -0.011303824 -0.031261474 -0.0363202
0.098050274 -0.06318012 0.011639115 0.05311684 0.075110696 -0.010547172 0.08073927 0.051074382
0.082246356 -0.1064841 -0.024099916 -0.034470875 0.039634585 -0.057629075 -0.0034824174 -0.0018174315
0.020174827 -0.06383472 -0.051488716 -0.03345571 -0.08615454 0.07921376 -0.1356781 0.030559354
0.005391277 0.010573137 -0.039236043 -0.040136058 0.039596293 0.06811538 0.10317686 -0.008186809
0.16368705 -0.10284112 0.06561644 -0.065987885 0.04584285 -0.06377125 0.09311534 0.08844881
-0.028638102 0.1060157 0.05905062 0.071826674 0.13129151 0.15154275 0.021872224 0.1180868
0.025058813 0.06633188 0.048884895 -0.018992819 0.1866604 -0.10160909 -0.08381221 0.0012944692
-0.053460993 -0.11401002 -0.15883389 -0.01570164 0.053584784 0.0701754 -0.011485258 0.10218086
-0.02367519 -0.20357324 -0.110643186 -0.096233 -0.08889749 -0.11455028 -0.008419493 0.07267088
-0.02860967 -0.043421283 -0.043201745 0.10758022 0.13528048 -0.03358306 -0.016779225 0.005388896
-0.12987049 0.009276073 0.11743136 -0.08164953 0.18870297 0.017953973 0.081972905 0.033344742
0.082683414 -0.08981017 -0.07155275 -0.057462882 0.070657045 0.10738324 -0.023716176 0.09705057
-0.07416592 0.122289546 0.10290841 -0.035648346 0.05062472 0.13794015 -0.15676993 0.10716366
0.082818426 0.030982537 -0.12557603 -0.06273519 -0.06336384 0.079037756 0.121659644 -0.0029144185
0.07865441 0.098742574 0.07898508 0.07033659 -0.03446586 -0.075430416 -0.015337842 0.1410461
0.050326023 -0.08360214 -0.08126141 -0.057610452 0.0689191 -0.044481557 -0.058679514 0.019723859

weight f4 [128, 256]
00000000: ca88 8f3d 7d7d 4d3e 1922 6c3c 1820 c6bd
00000010: 5859 6b3d 54ec 1fbe 7928 a73d 097f 64bc
00000020: 5319 823c cf1d 32be 10c8 06be 95fa 363e
00000030: f06d 953e 6a61 22be 3b00 173e 1ce6 78bc
00000040: 7d6e 22bd fe71 25be 99e3 fe3d 5da1 debc
00000050: ef64 2ebc ff78 7ebc 8aeb 9dbd ec82 6c3d
00000060: cdd9 c23d 90fe acbd 7f07 3f3e 67d4 d83d
00000070: 8fad f83b 56ab 82bc 1c3c 2abe 9ad0 103e
00000080: fed8 fb3d 27dc 80be b67d 473e ac13 0cbe
00000090: d87c 353d d999 04be 7f84 933c 56d6 e43c
000000a0: 02d7 893d 9e38 f1bd d45d 0a3e 8ac1 13bd
000000b0: 6f6b 7c3c 3873 bfbe 643f 0f3e 166f 753e
000000c0: ba1a 62be 2e99 993d 2e3c 1cbe 55a1 d7bd
000000d0: 0e4e 7d3e b573 5cbd 06cb 9abd a07b 17be
000000e0: 2b90 0a3e daf7 2e3d e5c8 463c de66 3cbd
000000f0: 6e1b 8ebd 3a13 dbbc 5948 9cbc c931 563d
00000100: 4d6b c53d b6cc aabd b0af 293d 69de 85bd
00000110: fc42 643e c750 c1bd 9969 953d 6603 193e
00000120: 07b1 ef3d 18ea 383d 2099 18bd 9de0 bd3d
00000130: 883f 9d3d 9ca2 c83d 307c 76bc e38b be3d
00000140: 6a1e 233e 7322 0cba 303c 823d 64c0 7f3d
00000150: a42d 9fba 4ca4 503b 4dbf 2fbe 9f57 0e3e
00000160: 6c55 c9bd a8f7 28be 571a bcbc 3df1 373e
00000170: dc20 ae3d 0995 82bd 99ae ba3d 30c2 a63d
00000180: 1f06 c1bd 8f82 1ebe e194 fabc 24da 19ba
00000190: 205c 373c e906 63bd cdac 2fbd c346 653d
000001a0: 959c a9bd 10b8 813d 9207 29be 8b39 5e3d
000001b0: 60e5 093e 345d f73d 5b35 5fbc 0e0c afbd
000001c0: 110a 843d bba3 acbd e536 523d ec7d 6e3e
000001d0: ca4d be3d 09be aabd fd3e a0bd 111b fa3d
000001e0: f74d 09be a66a a2bd d999 313e 5d39 5dbd
000001f0: b442 e83d 85fc 1cbd a94b c73c 4a70 96bd
00000200: 50e4 c43d dfbd 063e 2139 3f3e 7bd7 37be
00000210: d9e5 573d c86c 103d 7ed9 43bd 1c2b 58bd
00000220: d2d7 cc3c 3fdc bbbc 375d 1bbc c0c6 223e
00000230: 2654 0e3e 701b 28be 6338 243c a420 84bb
00000240: 7364 84bd d797 10bd e30c 6e3e 8108 1abd
00000250: 3496 25bd ae86 1d3d 180e 203e 4f08 c6bd
00000260: bc1d 63be 88da 233e 134a 4abd 0f5c 853d
00000270: 1612 c43d d922 133e f149 1a3e 049d a5bd
00000280: dda6 bdbc 3408 ebbd ca4d 0c3e 785f 91bd
00000290: f4e2 79be bee7 e13c 20f1 55be 4077 ecbc
000002a0: 269b 21be bfac e6bd 533f ac3d 45ac 22be
000002b0: 3d2f 973c 21fb 333a 9fe6 633e ae2a b0bc
000002c0: 9a4e d1bd b13c 5bbd 1027 0cbe c83f 2b3e
000002d0: 0622 273d 278d 54bd a9e7 e53b 8ea3 c3bc
000002e0: 6092 9b3e 2a3a 863e 4ff5 163e e1f8 b0bd
000002f0: 5bde 69bd 58fc 8e3d 2370 aebe f0d5 0a3e
00000300: 83de 563c 6a67 bf3e 9003 a03c 7389 163e
00000310: 2334 8f3d 3a95 cc3d 821f f13d 9683 0c3e
00000320: 4fa8 2dbc ca1d f2bc 8fcf 9a3e cd74 b23c
00000330: 5169 83be 128e c23d e2e8 203d 42ff 05bc
00000340: b801 343e e2dd 293e 62b0 943c 2fae c9bd
00000350: 781f cc3d ccec b9bc 6289 c6bd f1cd 773d
00000360: d656 4c3d 7e03 ddbc 6598 f93d 65dd a6bd
00000370: 64d9 2abe 394a 813d 0978 e93d bfc0 0f3e
00000380: 4df5 273b 2356 eabd b78e 613d f00d debb
00000390: a917 6dbd de25 5fbe d21b d03d f610 a93c
000003a0: e304 113e 058f a8bd 2ff1 0b3d fb46 a6bd
000003b0: 41ed 1f3e 65db 37be b1c1 8cbd e1ca e83d
000003c0: 3bd9 05be 0b78 6c3e 7e54 fc3d a8d6 a6bd
000003d0: a081 00bd 057f e03d a0d6 2cbe 0e5a 85bd
000003e0: 6fca 893d 3c7d c53d 6f0d 61bd cc1b 383d
000003f0: 64c5 adbd d841 9bba 252b 88bd 7312 013e
0.07008512 0.20067401 0.014412426 -0.0967409 0.05745825 -0.15617496 0.081620164 -0.013946303
0.015881216 -0.17394184 -0.13162255 0.17869027 0.29185438 -0.15857473 0.14746182 -0.015191581
-0.03965615 -0.16156766 0.124457546 -0.027176553 -0.010644182 -0.015531777 -0.07710941 0.057742044
0.095141985 -0.084469914 0.18655203 0.105873875 0.007589049 -0.01595084 -0.16624492 0.14142075
0.12297247 -0.25167963 0.19481549 -0.13679379 0.044308513 -0.12949313 0.018007515 0.027934235
0.067304626 -0.11778377 0.13512355 -0.036073245 0.015406474 -0.37392592 0.13989025 0.23968157
-0.22080508 0.0749992 -0.15257332 -0.105288185 0.24736807 -0.053821284 -0.07558255 -0.14793253
0.13531558 0.04271684 0.012132858 -0.04599654 -0.069388255 -0.026742566 -0.019077467 0.052293573
0.096396066 -0.08339827 0.041427314 -0.06536562 0.22291178 -0.09439235 0.07295532 0.14942703
0.11703687 0.045145124 -0.037255406 0.09271357 0.07678133 0.0979664 -0.015044257 0.09304025
0.15929571 -0.00053457095 0.06359136 0.062439337 -0.0012144339 0.003183621 -0.17162819 0.13900612
-0.09830746 -0.16500723 -0.022961779 0.17963119 0.08502361 -0.063760825 0.09115333 0.08142507
-0.09424996 -0.15479492 -0.03058857 -0.00058689923 0.011191398 -0.055426512 -0.042889405 0.055975687
-0.08281819 0.06333935 -0.16506794 0.054254096 0.13466406 0.12078324 -0.013623561 -0.08547221
0.064472325 -0.084296666 0.051321883 0.23290223 0.09292181 -0.083370276 -0.07824514 0.12212194
-0.13408647 -0.07930498 0.17343844 -0.054009784 0.113408476 -0.03832676 0.02432807 -0.07345636
0.0961386 0.13158368 0.18674137 -0.17953293 0.052709434 0.035259992 -0.04781484 -0.052775487
0.025005255 -0.02293217 -0.009482673 0.1589613 0.13899288 -0.16416717 0.010023209 -0.0040322114
-0.06464472 -0.035301056 0.23247103 -0.037605766 -0.040426448 0.03845852 0.15630376 -0.096695535
-0.22179312 0.16001332 -0.04938705 0.065116994 0.09573762 0.14368762 0.15067269 -0.08086589
-0.023150856 -0.11476174 0.13701549 -0.07098287 -0.24402982 0.027576324 -0.20892763 -0.028865457
-0.1578184 -0.112634175 0.08410516 -0.15886028 0.018455142 0.0006865729 0.22255944 -0.021504726
-0.1022007 -0.053524677 -0.13686776 0.1672355 0.04080393 -0.051892426 0.0070161414 -0.0238817
0.30385113 0.2621625 0.14742015 -0.0864122 -0.05709682 0.069817245 -0.3406993 0.13558173
0.013114574 0.37383586 0.019532949 0.1470087 0.06992366 0.099894 0.11773588 0.13722071
-0.01059921 -0.02955522 0.3023648 0.02178421 -0.25666288 0.09499754 0.039284594 -0.008178534
0.1757878 0.16588548 0.018150512 -0.09847676 0.0996694 -0.022695921 -0.096941724 0.060499135
0.0498875 -0.026979204 0.1218727 -0.081476964 -0.1668449 0.06312985 0.11399848 0.1403837
0.0025628388 -0.114422105 0.055067744 -0.006776564 -0.057883892 -0.21791789 0.10161556 0.02063797
0.1416202 -0.08230404 0.034165557 -0.08119007 0.15617849 -0.17954786 -0.06872881 0.11366821
-0.13071148 0.23092668 0.12320803 -0.08146411 -0.03137362 0.10961727 -0.16878748 -0.06511317
0.06728064 0.09643027 -0.054944452 0.044948384 -0.08484915 -0.0011845184 -0.06648854 0.12604694

bias f4 [128]
00000000: 9e78 7eba 30d6 903d 7c3c e7bb c420 06bd
00000010: c34d 44bd e04f a53d b2f4 2cbe 1a2a 3ebb
00000020: 354d 10bd ba9e 113d b5e6 a4bd 4e9e c4bc
00000030: 9c48 143d 158f 553d 581f bd3d f781 4ebd
00000040: 4bc6 003e dfc0 c03d 001f 94bc 4909 593c
00000050: 8340 f23d 9898 20bd d607 a0bd 783b a53b
00000060: 4721 cfbd 1c1f c33d 9e37 97bd bbc7 04bd
00000070: ccc3 00bc 2d14 b7bc 6af6 0cbb 799a 8cbc
00000080: bc43 023b a7cb 553d ae79 87bc d2e7 d23c
00000090: 9f10 a33c de3d 9f3c 17d0 8abd 13b5 313d
000000a0: 2995 cb3c 3129 1cbc 74ae 783c 2998 b23d
000000b0: 0aaa a8bd 0410 e1bc 4147 ac3d 4ffc 91bd
000000c0: 5189 813d f1d5 ef3d 429f ecbd badc fa3c
000000d0: e69f 073c e267 823c d19d 9dbc 1220 a63c
000000e0: 6ce2 593c 750a 103c 6ff2 a33d ffec 9d3d
000000f0: 4091 02bc cc50 35bd 9284 523d a309 d73d
00000100: ec02 1abd c56d 19be fecb 953d 4bf8 debd
00000110: 773b 7f3d b41d ea3d b35b 33be da17 90bc
00000120: a365 c5bc 76ce 9dba e14c bd3b 7cbc 05bd
00000130: 97c6 0cbb 1acc b0bd 0f72 d1bd 1010 86bd
00000140: df4b c3bd f93a 9dbd 6811 77bd 8def 563d
00000150: 8131 2bbd 0751 df3d cd93 8ebd 9277 b7bc
00000160: c552 943c 6d65 ca3d 1184 e0bc da5c 80bd
00000170: aca1 afbd 28f7 8138 fe73 bb3c f3bb 363c
00000180: eab4 8f3d 48a0 8c3c 5f5b 39bc 7aa9 96bd
00000190: 83a4 4bbd 6eae 8b3d 1942 e03d 5269 ac3c
000001a0: d9c4 173d 8f9b 5abd c50c d33c f3f7 e0bc
000001b0: 5096 223d c213 73bd 6d4a 143d ef1d a9bc
000001c0: 575f 71bd 40ed 00bd d9de 2a3d 6e87 34bd
000001d0: a845 73bd 19b5 8bbd 0141 db3c 0c1b 463d
000001e0: 222a 423c 675a 803c 4d67 9d3d 8417 71bd
000001f0: 79f9 e53d f907 d6bc 5f8c e03d 35aa 983d
-0.00097073044 0.07072103 -0.007056771 -0.03274609 -0.04792572 0.080718756 -0.16890219 -0.0029016794
-0.03522988 0.035551764 -0.080518164 -0.024001267 0.03620206 0.052138407 0.09234494 -0.050416913
0.12575643 0.09411787 -0.018081188 0.013246843 0.11828711 -0.039208025 -0.078139946 0.0050424896
-0.10113769 0.09527418 -0.07383655 -0.03241704 -0.007859182 -0.022348488 -0.002150918 -0.017163502
0.0019876799 0.05219617 -0.016537514 0.025745306 0.019905386 0.01943868 -0.06777971 0.043385576
0.024851399 -0.009531305 0.015178312 0.087204285 -0.082355574 -0.027473457 0.08412028 -0.07128202
0.06325019 0.11710728 -0.115538135 0.030622829 0.008277869 0.015918676 -0.019240292 0.020278964
0.013298612 0.008791556 0.08005225 0.07711219 -0.007969201 -0.044266507 0.05139596 0.10499885
-0.037600443 -0.1498328 0.07314299 -0.10887202 0.06231257 0.11431447 -0.17515449 -0.017589498
-0.024096316 -0.001203968 0.005776987 -0.032650456 -0.0021480673 -0.08632679 -0.10226833 -0.065460324
-0.09535956 -0.07677264 -0.060319334 0.052474547 -0.041795257 0.109041266 -0.069617845 -0.022395883
0.018105874 0.09882627 -0.027406724 -0.0626771 -0.08575758 6.197236e-05 0.022882458 0.011153209
0.070169285 0.017166272 -0.0113132885 -0.07356544 -0.049717437 0.06820379 0.10950107 0.021046314
0.037052963 -0.05337101 0.025762925 -0.027461981 0.03969413 -0.059345014 0.03620379 -0.020644156
-0.058928814 -0.03147626 0.04171643 -0.04407447 -0.0593926 -0.06821651 0.026764395 0.048365638
0.011850866 0.015668107 0.07685719 -0.058860317 0.11229224 -0.026126849 0.10964274 0.074543394

weight f4 [64, 128]
00000000: 4c23 123e 5c12 19bd e95c 663d 2e10 003e
00000010: aa03 54be e250 79be e790 473d f891 213d
00000020: 806a 12be 9d40 223e 512d 693e b1b8 f63d
00000030: 3d30 21be d386 5dbe 9c7c 513e 4214 b2bb
00000040: 80de afbd e9b0 783e 27f9 903e 3679 84be
00000050: 5d5e b63d e860 3b3e edc2 fc3c 6501 0b3e
00000060: df22 813e c009 5ebe 92b4 1f3e 308b 133e
00000070: 3211 57bb acc6 26be 1067 95bd a73e 543d
00000080: b449 453c 45d6 923d 37b7 833e e50b cabd
00000090: cf22 32be 202d 253e fc8e 45be cdc6 fdbd
000000a0: ac9c 2dbe 284e 14be 09fc ccbd 24dd d0bd
000000b0: 2001 2f3e 6a29 313e 9da7 bf3c 495b dbbd
000000c0: 0ab9 3a3c 67f3 303e 358a 323e 2e89 11bc
000000d0: 6a56 213e 238c 63be 16c4 62be 5e12 433d
000000e0: 4b42 7b3e 60e9 403d 3197 12bd 634c 42be
000000f0: c87a aa3e 4dfc 143d aaa8 283e 6641 8fbd
00000100: 1e47 4ebd d860 4e3e 3c93 86bd 52b8 06be
00000110: 0536 153e a88e a4bd 87d4 883e 0d9b e43d
00000120: 4207 1ebd 5cef 813e 1c4e 2d3e fbe7 133e
00000130: 02b9 bc3a 4c3a 87be f87b 90bd 2558 2b3d
00000140: 5649 6bbe 0684 e93d cc61 073e c6f7 dfbd
00000150: 0cad 9b3d e756 afbd 465b 4abe e982 2e3e
00000160: 3603 723b 42bd 94bd b494 8c3d f60a 86bd
00000170: 97a8 633e 52ea a1bd 2900 133e 7329 6bbe
00000180: 8c88 acbd 3d4e b83d e930 1e3e b528 9b3d
00000190: 4886 a8bc 09f1 5abc 76d3 50bd d9ff 23be
000001a0: e6d8 0d3e 412e 2c3e 9374 43be cc3e 34bc
000001b0: fcb3 d23d 1a29 4e3d 3010 50be 9cd8 ba3d
000001c0: 2d59 8d3d bd4f 8a3e 45ca 313e 7a0c 33be
000001d0: 1d0e 5dbe bcc2 943b 8ec3 85bd 0fea 9ebd
000001e0: 4ee9 02be 84c8 a1be a15e b53c 5dd2 0d3e
000001f0: f50e 63be e7e8 d73d 1bf3 73be fc83 95bb
00000200: 094c 1f3d 0670 8e3c 7c3f d83d a7bd 51bd
00000210: fc04 debc 75bb 71bd 0492 8f3d f6b5 0dbd
00000220: a6aa e33d 5a5e a2bc 7174 02be 9a59 833d
00000230: 458d 5d3b 55ef 06bd 0a72 98bc c4eb a93d
00000240: 4e07 b1bc f708 fabd ccf6 2d3d d380 acbd
00000250: d175 a2bd 268b 3a3c fbe3 353d c91c ecbc
00000260: a164 963d a9d4 60bc 2a81 8fbd 1bc3 c33a
00000270: d510 123c 26f8 233c d639 953d ecfa 7c3d
00000280: a317 c63c c03b e3bd 0bdb 9b3d 88b1 953d
00000290: 769d 9b3d 8b10 d43d 7b16 3ebd 00e7 91bd
000002a0: 4328 60bd e6d3 a3bd 134d a53d 78bb 2bbc
000002b0: 93e3 b93c bf53 dd3d ae1a 1c3c ba09 993d
000002c0: 556c 7f3c 4df3 d8bd c79f 0c3d b4f1 babb
000002d0: 4fea b4bd 9249 c6bd 98cf e8bc 8f7a aaba
000002e0: 5f81 aabc dd28 4f3d 64a5 ac3c 4eeb 85bd
000002f0: b594 8e3d 1ebf 67ba 878f 66bd 5b9c 8cbd
00000300: f09d fcbc 8ea2 ae3d 34e5 0fbe 8df8 aebb
00000310: 108d 753d 4307 1d3a 0a61 983d f5e2 49bc
00000320: 3373 fd3d b8f4 a93d 10d0 b23d 1d23 913d
00000330: 0aaf 7ebd 38b9 6a3d 3aa5 8a3c 4b55 7f3c
00000340: 1a02 063d d2a1 ce3c b4c5 923c 3dd8 41bd
00000350: cb32 933d 308a 62bd f592 353c eacc 563d
00000360: 5e6d 66bc 8aed 8c3d 2a65 343c b9a7 dc3c
00000370: 4aab f83b d8a5 59bd a04e 153b 9077 5abd
00000380: cb81 e3bd fd11 17bd dead 163d 9053 463d
00000390: 4a4a 00bd b3d9 8e3d dba7 d03c 36e2 0abe
000003a0: ee2d ce3c 4cbf 8a3d 91b9 85bd 08d0 98bb
000003b0: bab9 afbb 0ae2 afbd 9193 ac3d bdd4 dabd
000003c0: c653 c13d 8ff0 e73d aa33 3abb ca8e 173c
000003d0: d383 c4bd 323b 9cbd f5cd cebd 269d 723d
000003e0: f54b 3cbd 9413 e5bc 37fd e5bc 4996 e63d
000003f0: d7b2 17bc eb76 b73d 24a4 5fbd 246a ba3b
0.14271277 -0.037371024 0.05624095 0.12506172 -0.20704523 -0.2434726 0.048722174 0.039445847
-0.14298439 0.1584496 0.22771193 0.12046946 -0.15741058 -0.21633463 0.20457691 -0.005434544
-0.085873604 0.24286236 0.28315088 -0.25873727 0.08904717 0.18298686 0.030854667 0.1357475
0.25221917 -0.21683407 0.15596226 0.14408565 -0.0032816646 -0.16286725 -0.07295048 0.051817562
0.012041498 0.07169775 0.2572572 -0.0986555 -0.17396091 0.16130495 -0.19292825 -0.12391434
-0.16954297 -0.14482939 -0.100090094 -0.10198429 0.17090273 0.17300954 0.023395354 -0.10710771
0.011396656 0.1728035 0.17435534 -0.008882804 0.1575562 -0.22221427 -0.22145113 0.04762494
0.24537008 0.047097564 -0.03578872 -0.18974452 0.332968 0.036373425 0.1647059 -0.06994896
-0.05036079 0.2015413 -0.065710515 -0.1315625 0.14571388 -0.08035022 0.26724645 0.11162386
-0.03858114 0.2537793 0.16924328 0.14443962 0.0014398398 -0.26411664 -0.07054895 0.041832108
-0.22977194 0.114021346 0.132209 -0.10935931 0.076013654 -0.08561497 -0.1976138 0.17042126
0.0036928183 -0.072626606 0.068643 -0.065450594 0.2223228 -0.07906021 0.1435553 -0.2296503
-0.08424482 0.08999298 0.15448345 0.075761236 -0.020571843 -0.013363131 -0.050982915 -0.16015567
0.13852271 0.1681452 -0.19087438 -0.0110013 0.102882355 0.050332166 -0.20318675 0.09123346
0.069017746 0.2701396 0.17362316 -0.17485228 -0.21587415 0.0045398157 -0.0653144 -0.07759487
-0.12784311 -0.31598294 0.02213985 0.13849778 -0.22173674 0.105424695 -0.23823206 -0.004562853
0.038890872 0.017387401 0.10558984 -0.051206257 -0.027101986 -0.059016664 0.07010272 -0.03459736
0.11116533 -0.019820381 -0.12739731 0.064135745 0.0033806127 -0.03294309 -0.018609066 0.08296922
-0.021609928 -0.12208741 0.042471692 -0.08423009 -0.07932628 0.011385715 0.044406872 -0.02882232
0.07343412 -0.013722577 -0.07007058 0.0014935465 0.008915146 0.010007894 0.07286422 0.061762735
0.024181193 -0.11095381 0.076101385 0.07309252 0.07598393 0.10354718 -0.046408158 -0.07124138
-0.054725897 -0.07999401 0.08071341 -0.010481708 0.022691524 0.10806989 0.009527845 0.07472558
0.015589793 -0.10593281 0.034332063 -0.005705083 -0.08833753 -0.09682001 -0.0284193 -0.0013006496
-0.020813642 0.05057608 0.021074958 -0.065390214 0.06961957 -0.00088404294 -0.056289222 -0.0686576
-0.03083703 0.085270986 -0.14052278 -0.005339688 0.05994898 0.0005990157 0.07440384 -0.012322177
0.12375488 0.082986295 0.08731091 0.070867755 -0.06217865 0.057305545 0.01692449 0.0155843
0.032716848 0.025223646 0.017916538 -0.04732536 0.07187422 -0.055307567 0.011082401 0.052441515
-0.014064161 0.068812445 0.0110104475 0.026935445 0.0075887786 -0.053136677 0.002278246 -0.05333668
-0.111087404 -0.03688239 0.036786906 0.048419535 -0.031320848 0.069751166 0.025470665 -0.13562855
0.025168385 0.06774768 -0.065295346 -0.004663471 -0.0053627165 -0.085880354 0.084265836 -0.10685108
0.09439807 0.1132518 -0.0028412142 0.009250352 -0.09595456 -0.07628478 -0.10097877 0.0592319
-0.045970876 -0.027963437 -0.028074844 0.11259133 -0.009258947 0.08958229 -0.054599896 0.0056889225

bias f4 [64]
00000000: f5f2 c0bb 0e37 f6bd 0552 463c 6a4d c63d
00000010: 9bd5 fd3c c898 0a3e 61ec 083b 4385 42bc
00000020: 09d7 9d3c cbb5 0e3c c6a8 db3c a67e 013d
00000030: 4ee4 8b3d a6ef 52bd 7de0 dc3d 96ef 67bb
00000040: 5e6a 5d3d 7711 ce3d c1dc 313c 25ca 9e3d
00000050: 6243 26bd bde0 273d ed1c 8b3d e931 683d
00000060: 0cab 00bb 35e4 673d c195 b53d cc27 0ebc
00000070: fe62 98bd 671d f3bb ddce 483e e049 96bd
00000080: 6b3f ad3c 2e1f 80bc 8d84 103e fe66 11be
00000090: de07 d7bc 2a21 b73c 2d94 50bd 46c9 32bd
000000a0: 7ef2 95bd ac57 2ebe b890 933c f27c edbc
000000b0: ac1d 973c 2db7 19bc f740 14bd 6291 c4bd
000000c0: dc82 a1bc 6dd9 363d 8646 5a3d ce27 063e
000000d0: 3605 be3d 6f99 833d f6ef 523d fef9 173e
000000e0: aee0 90bd 7dd2 c83d ab35 23be b2cc 0abe
000000f0: 7086 ab3c 079d d7ba e3ae 0d3e f25f 673d
-0.0058883377 -0.120222196 0.012104516 0.09682734 0.030985644 0.13534844 0.0020892846 -0.011872592
0.019267576 0.008710335 0.026813876 0.031614922 0.06830655 -0.051498078 0.10785005 -0.0035390607
0.054056518 0.10061925 0.0108558545 0.077534 -0.040591605 0.04098581 0.067926265 0.056688223
-0.0019633202 0.05661412 0.08866454 -0.0086764805 -0.07440756 -0.0074192765 0.19610162 -0.07338309
0.021148404 -0.015639868 0.14113064 -0.14199445 -0.026248869 0.022354681 -0.05092256 -0.04364898
-0.07321642 -0.17025632 0.018013343 -0.028990243 0.018446766 -0.009382051 -0.036194768 -0.09598042
-0.019715719 0.044640947 0.053289913 0.13101122 0.09278338 0.064257495 0.051498376 0.14841458
-0.07074104 0.098057725 -0.15938441 -0.13554648 0.020938128 -0.0016449996 0.13836245 0.056487985
