TP/save_models_MLP_512_256_Dropout_Relu_Post_Optimisation_DataAugmentation_50epochs/model_34_1767917994.013481_0.459925prct.pt (torch, 729365 bytes, 6 tensors)

weight f4 [512, 64]
00000000: 3f88 c43d 4b83 4dbc 08ce 2ebd c944 e83c
00000010: f07d 94bd 9eea c6ba 702f 80bd 1319 843b
00000020: 67af f23c 0b7e a1bb d354 db3c fc0c ddbc
00000030: 0020 4cbd 8c59 0ebc ed2b 243d e671 25be
00000040: d124 573d 1b7d 71bc db1f 02bc 87ac 04bc
00000050: 5fc4 333d e5cb 5abc 4072 f4bc b552 963d
00000060: 74a2 e5bd f3dd af3c f5b1 173c 2c23 56bc
00000070: 9989 c1bb a144 273d 7f09 0ebd de7d 99bb
00000080: 84f6 fe3c 57cb 323c 1099 19bb e942 95bd
00000090: 73c8 d8bc 2fd6 84ba 153e d83d 4664 8b3c
000000a0: 19bf b33c fbd0 ef3c 4307 9e3c 3365 783a
000000b0: 7310 29bd 9ec2 dfbc cb4d b63c 6298 e9bd
000000c0: 87fd 8a3c c675 c5bc e8a2 8e3b a037 723b
000000d0: e035 253d 7468 debd aba5 3f3e 17cf fbbf
000000e0: 8a67 a43a dd42 f7bc f75d 88ba ca18 813d
000000f0: 61a6 1ebd 4691 c7bc 2c28 dc3d 2be5 b1bc
00000100: 0103 393d 544c 16bd 00f4 38bd cbfd 6d3c
00000110: 4dcf 643d 0b16 b93a 6210 9bbc 4546 8b3c
00000120: 2152 89bd 35c5 653b 54e4 3fbc 1498 b1bc
00000130: 740e 2ebc 8d7e 71bd 83b3 543d 2f43 82bd
00000140: b4d3 d83c 7cfb 87bc 5db7 8f3b 65af 583d
00000150: e262 4ebd 22ec ae3a 46f8 fb3a 9aba 553d
00000160: e2bc 9cbb 7eed 933b 70ab 0039 bb12 d1bc
00000170: 2b47 6ebc 9fc3 60bc aca2 bcbc 4bbe 22bd
00000180: ba45 36bc 737f 03bd c4c1 a5bd d9d7 5a3d
00000190: e678 9dbd 7109 ce3c 04ef 8b3c 612e 273b
000001a0: c05d 1cbd 6a2d 5e3c 0a3a 593d fc6e 8cbc
000001b0: b26c 67bc f0de 51bc 22ea 34bd 5365 28bd
000001c0: ce79 d73d 7966 ef3d 5e60 3c3e d8e2 713c
000001d0: 2558 d23b 0e9f c9bc 8f1f 663d d239 cd39
000001e0: 2865 e43c f3b9 ddbf 0845 b23d 451a 07bc
000001f0: ba61 cb3c 6d95 8a3d ac32 cfbd b8d0 e03c
00000200: 16a3 dcbe ce1f b93d 9118 15bd 274b 883d
00000210: 450b 9dbd 30ed f33c 1912 65bd 4f33 f4bc
00000220: 0c95 9b3d 2e0d 0ebe c633 06bd bca8 1abd
00000230: c0b1 ec39 966d 9bbb 3094 4b3c 3608 443d
00000240: 141a 4fbc db37 6ebd c85d 923f 2613 babd
00000250: a1c2 c23c 82d7 21bd 22b0 5fbd 7b86 5b3c
00000260: 2b5c f2bc 632e 95bb 682f 93bd d91b 43bd
00000270: e3d6 4a3b 2a9c 88bc b7a5 ae3b 062f 23bd
00000280: 975f 963a 0966 473c 648b cf3c b10c 1cbc
00000290: 7e19 3bbd b777 4f3c 060c 9e3b d5c1 3a3b
000002a0: 65bb 1a3d 339f 1e3d b56b 1abc 20cb 03bc
000002b0: 9e01 593d b43d 83bd be28 19bd 828e da3c
000002c0: 50c2 f43c ffed c83c 6bd9 9cbc f538 7fb9
000002d0: da4c 04bd ed49 0a3c 5b55 abbd 4c08 a33b
000002e0: 5ca6 74bc 9803 28bd 67b9 d7bb 77af b5bb
000002f0: 5220 663d 4d28 d23c b7a9 ac3c ad8d b3bb
00000300: 6812 673d 1f99 153d 9571 853c c503 80bd
00000310: 0f18 1f3d 575a 2cbc 08e3 a4bd 9983 913d
00000320: 5c15 dc3c 9ba0 ab3c 7133 2ebc f4a3 833d
00000330: 0694 f7bd 3c39 aa3c d559 903b f163 703c
00000340: 5ba2 dc3c a5ae adbc 2f63 f63b 4531 efbc
00000350: e8b3 07bb 6e04 65bd 9138 dcbd 3390 403d
00000360: 4f22 393d 536f af3b 96d4 f7bc de8d 88bc
00000370: 8eb8 71bd 09a5 7b3d f53e 85bf 7584 09be
00000380: 7ac9 2f3d c0c0 95bb 6eef b6bb 4675 82bd
00000390: 942b 853a d8ea 43bd b7ea 85be 79ab f93c
000003a0: 0929 133c 58d7 69bc 5a39 943c f262 173d
000003b0: dc64 30bd cdb7 473d 0f17 81bd 01ce c1bd
000003c0: 16e6 1b3c bac2 b8bc 24b7 033c d052 89bd
000003d0: 5350 063d 3f48 5b3b 9df8 ce3b 4a23 50bd
000003e0: c6bd 573d 9c0a a2bd d72d 4cba 253c 003d
000003f0: 204b acbc 95b6 6d3c bafc 863d efa9 09be
0.095962994 -0.01254351 -0.042676955 0.028353112 -0.07250583 -0.0015176123 -0.06259048 0.0040313094
0.029624654 -0.0049283556 0.026773846 -0.02698373 -0.049835205 -0.008688342 0.040080953 -0.1615673
0.052525345 -0.0147393 -0.007942165 -0.008097774 0.043888446 -0.013354276 -0.029839635 0.07339994
-0.11212626 0.021468138 0.009258737 -0.013069909 -0.0059062955 0.040836934 -0.034677025 -0.004684194
0.031123407 0.010912738 -0.002343718 -0.07288153 -0.02646277 -0.0010134632 0.10558716 0.017015588
0.021941708 0.029274454 0.019290572 0.0009475529 -0.041275453 -0.02731448 0.022253891 -0.11406018
0.016966594 -0.02410401 0.004352916 0.0036959425 0.040334582 -0.108597666 0.18715541 -1.9672574
0.0012543064 -0.03018325 -0.001040398 0.06303556 -0.03873289 -0.024361264 0.1074985 -0.021715721
0.04516888 -0.036693886 -0.04515457 0.014525841 0.05586176 0.0014120949 -0.01892871 0.01700128
-0.06705118 0.0035060172 -0.0117121525 -0.021678962 -0.010623563 -0.05895858 0.05192901 -0.063604705
0.026468135 -0.01659941 0.0043858723 0.052901644 -0.05038727 0.001334552 0.0019223772 0.05217991
-0.004783259 0.0045143953 0.00012270897 -0.025521627 -0.014543335 -0.013718515 -0.023026787 -0.03973226
-0.011125023 -0.032103967 -0.080935985 0.053428505 -0.07689075 0.025150986 0.017081745 0.0025509822
-0.038175344 0.013560632 0.053033866 -0.017142765 -0.014125036 -0.0128095 -0.0441686 -0.041112255
0.10521279 0.11689467 0.18396136 0.014763556 0.006419199 -0.024611976 0.05618244 0.00039143726
0.027880266 -1.7322372 0.08704573 -0.008246009 0.024826873 0.06766782 -0.10117087 0.027443275
-0.43093175 0.090392694 -0.03640038 0.06654959 -0.07668165 0.029776186 -0.055925462 -0.029809622
0.07596788 -0.13872215 -0.03276422 -0.037758574 0.00045145862 -0.0047432883 0.012425467 0.047859393
-0.012640495 -0.058158737 1.143487 -0.090856835 0.023774447 -0.039512165 -0.054611333 0.013398762
-0.029584965 -0.004552649 -0.071867764 -0.04763398 0.0030950836 -0.016676027 0.0053298133 -0.039839767
0.001147258 0.012170323 0.025335021 -0.00952451 -0.045678608 0.01266282 0.0048232106 0.002849688
0.03777637 0.038726043 -0.009425093 -0.008044034 0.052980058 -0.06408253 -0.03739237 0.026679281
0.029877812 0.024527548 -0.019146642 -0.00024339913 -0.032299854 0.008440477 -0.0836589 0.0049753543
-0.014932241 -0.041019052 -0.006583381 -0.0055445987 0.056183167 0.025653983 0.02107702 -0.0054795356
0.056414038 0.03652298 0.016289512 -0.06250719 0.038841303 -0.010519586 -0.08051115 0.071051784
0.026865654 0.020950606 -0.010632382 0.06427756 -0.1208878 0.020779245 0.00440524 0.014672265
0.026932886 -0.021201441 0.007519148 -0.029198298 -0.0020706598 -0.055912428 -0.10752977 0.04701252
0.045198735 0.005353847 -0.030252736 -0.01666921 -0.059013896 0.061436687 -1.0409838 -0.13429435
0.042916752 -0.0045700967 -0.0055827415 -0.063700244 0.0010160082 -0.047831386 -0.26155636 0.030477272
0.0089819515 -0.014272533 0.018093754 0.036959596 -0.043064937 0.04875927 -0.06303226 -0.0946312
0.009515306 -0.02255379 0.00803927 -0.06705248 0.032791447 0.003345981 0.006316258 -0.050814904
0.052671216 -0.0791218 -0.0007788813 0.03130736 -0.021031916 0.014508863 0.065911725 -0.13443731

bias f4 [512]
00000000: 80bd 69bf 9c51 35bf 916b 0abf dd0f 28bf
00000010: fbb9 47bf 7c3c 28bf fc68 f9be 81aa f8be
00000020: 9873 25bf 5c4e 99bf b675 d6bf 0e5e 71be
00000030: d5ec 95bf 509d 43bf 864e 38be 17f2 e0be
00000040: bedc 75bf 69ea 86bf 9196 99bf 67f1 08bf
00000050: b9af 99be 74dd 38bf ed39 c4bf a82d c3be
00000060: 3b4a 38bf f0bf b6bf d8eb 53bf e331 8abe
00000070: 7b58 42bf 0e2b d9be 6f76 28bf f5f8 09c0
00000080: 165c a2be 2451 54bf ee99 c7be 2d72 28bf
00000090: 6118 21bf faf8 98bf e65a 5fbf 67a4 fabe
000000a0: 0842 27bf a4f8 41bf bba4 75bf b28d 65bf
000000b0: f786 4cbf 3a97 81bf de47 96bf 0926 91be
000000c0: 9773 61bf 5d6f b5be 0f9d b6be 4fa4 b8bf
000000d0: 2b48 5dbf 7f6a cebe 72b0 4cbf 9ca7 4dbf
000000e0: bf11 58bf 4491 d2bf 8b29 04bf 5bac 96bf
000000f0: dad8 8ebe 5f98 8dbf 582e b8bf c6aa efbf
00000100: 6b90 0dbf 2cd1 c3be 40a9 f3bf 4254 4bbf
00000110: 627f 6abf c6d5 48bf 7a42 6ebf 793b 13bf
00000120: a351 3abf c5e2 dcbe 8044 08bf a276 81be
00000130: a850 30bf e411 2ebf ae97 81bf c5b7 a6bf
00000140: 21a6 1ebf 22f8 a8bf 2ce7 74bf 44a8 97bf
00000150: 1590 98bf 9f3d d7bf e086 cdbf a52b 87bf
00000160: d96a 75bf 1a8f 3fbf 449d 26bf 946b 44bf
00000170: b18d 96bf cc3d b0be 8361 6bbf 616e 4abf
00000180: 2480 0bbf 20c5 1cbf a2e0 6abf f43c 10bf
00000190: 5d51 70bf fc0e 8cbf 0bbb 46bf b1a1 bebe
000001a0: 5d93 88bf a49b 00bf ff32 79bd ebd8 88bf
000001b0: b6a0 fabe af04 dbbf ea8b 2abe cbb6 21bf
000001c0: 045e a0bf d814 54bf d3be 97be 1f86 a8bf
000001d0: 3f08 a7bf c72f babf ea4d 5fbe e25f 98bf
000001e0: f806 3fbf a468 95bf c58e 7cbf 6995 97bf
000001f0: 8d7e e1bf 8489 1dbf 8b0d b8bf 5f37 6abf
00000200: dc84 1fbf 3968 93bf 7e44 acbf 07a6 65bf
00000210: b87c 41bf 7bb0 27bf 851c 70bf 3d10 0dbf
00000220: 8238 b4be 31d7 7fbf 0f40 5abe f727 85bf
00000230: a1b1 78bf 88b3 4dbf bb2d 7dbf b251 cdbf
00000240: dc88 41be 9466 b8bf 228f 88bf c3e0 b5be
00000250: 427a febe 09b6 8abf ff9e dfbf 0982 44bf
00000260: c072 53bf d911 89bf f8b9 36bf 8bf2 1bbf
00000270: e135 e1be 6c21 febe cc45 41be 2beb 12bf
00000280: 199b d2be 0364 ecbe 663d cbbf f3a3 8ebf
00000290: b0e0 88bf 038d 88bf 8e7a 1dbf f3db 2fbf
000002a0: db47 cdbf 929f 69be 6817 87bf 0d8c 05bf
000002b0: cd3a 56bf 59e6 87bf 0d6c 92bf 2f1b 55bf
000002c0: 1c41 cbbf f900 8abe 64b0 9cbe aea7 07bf
000002d0: b69d 32bf f770 24bf 78cf 82be be48 fdbe
000002e0: 7086 05bf ab12 e3bf e4fe c1be 040a 81bf
000002f0: 1baf cbbf 7b89 31bf f269 39bf f5bc 4dbf
00000300: c09f 85bf 4695 78bf 15e3 65bf 1bbf 6fbf
00000310: b139 e7be 566d 67bf fd85 78bf c808 0fbf
00000320: 5e80 e5be 8a5e 84bf 20ea 73bf c468 ddbf
00000330: eca6 27bf 4114 81bf 7757 71bf 8811 29bf
00000340: a7d6 1ebf 4cfc 64bf 7673 dabf 6973 06bf
00000350: 03b7 2abf 04ef 1fbf c2dd 5bbf de63 51bf
00000360: c799 52bf e4ab d4be 3e39 01bf a3e6 50bf
00000370: fe94 5ebf 95ba 19bf a64c 12bf fbec 16bf
00000380: 3ebc c0bf c497 8bbf 2bf7 9dbf d9a1 81bf
00000390: 96ad 2cbf 3bfe b6be 0976 c9bf 28c3 f2bf
000003a0: eee3 13bf da21 f6be 5dd9 07bf 45d2 4bbf
000003b0: daf6 fcbe 762b 79bf beb9 00bf 1a40 eabf
000003c0: bdc0 4abf 8245 dcbe bb70 2dbf bcc1 5fbf
000003d0: 68df 37bf e869 dfbe f65b 5ebf fc41 9dbf
000003e0: 6c1e fdbf dae4 5dbf ec41 8ebf 8258 79bf
000003f0: 00bf 47bf d68f e3bf ed17 7abf 023b 91bf
-0.9130478 -0.7082765 -0.54070383 -0.65649205 -0.7801816 -0.6571729 -0.4871291 -0.48567584
-0.6462951 -1.1977038 -1.6754673 -0.23571035 -1.17129 -0.76411915 -0.17998704 -0.439347
-0.9603995 -1.0540286 -1.1999074 -0.5349335 -0.30016878 -0.7221291 -1.5330178 -0.3812077
-0.71988267 -1.4277325 -0.82781744 -0.26991186 -0.7591626 -0.4241566 -0.65805715 -2.1558201
-0.3171088 -0.8293631 -0.38984627 -0.6579922 -0.62927824 -1.1950982 -0.87248075 -0.48953554
-0.6533513 -0.7577002 -0.95954484 -0.89669335 -0.7989344 -1.0124276 -1.1740682 -0.2834933
-0.88067 -0.35436526 -0.356667 -1.4425143 -0.86438245 -0.40315625 -0.79956734 -0.80333877
-0.8440208 -1.6450582 -0.5162589 -1.1771349 -0.2789982 -1.1062125 -1.4389143 -1.8723991
-0.5529849 -0.38245523 -1.9036026 -0.7942544 -0.9160062 -0.7845119 -0.93070185 -0.57512623
-0.7278082 -0.4314176 -0.5322952 -0.25285822 -0.6887307 -0.6799605 -1.0124414 -1.3024832
-0.6197224 -1.3200724 -0.9566524 -1.1848226 -1.191897 -1.681568 -1.6056786 -1.0560194
-0.9586616 -0.7482773 -0.6508372 -0.7672665 -1.1761991 -0.34422147 -0.91945666 -0.79074675
-0.544924 -0.6123829 -0.9174901 -0.5634301 -0.9387415 -1.0942073 -0.77629155 -0.37232736
-1.0669972 -0.5023749 -0.06083965 -1.0691198 -0.48950738 -1.7110804 -0.16654935 -0.63169545
-1.2528691 -0.82844305 -0.29637775 -1.316593 -1.3049392 -1.454583 -0.21807066 -1.1904261
-0.7462001 -1.1672559 -0.9865535 -1.1842471 -1.7616745 -0.6153796 -1.4379133 -0.9149074
-0.623121 -1.1516181 -1.3458402 -0.8970646 -0.7558093 -0.6550366 -0.9379352 -0.551029
-0.35199362 -0.9993773 -0.21313499 -1.0402821 -0.9714604 -0.8035207 -0.98897904 -1.6040556
-0.18899864 -1.4406304 -1.0668681 -0.35523042 -0.4970265 -1.0836803 -1.7470397 -0.7676092
-0.8259697 -1.0708572 -0.71377516 -0.60916966 -0.4398642 -0.49634874 -0.18874282 -0.5739009
-0.41133955 -0.46170053 -1.5878112 -1.1143783 -1.0693569 -1.0668033 -0.6151513 -0.6869499
-1.6037554 -0.22814777 -1.0554018 -0.52166826 -0.8368347 -1.0617172 -1.1439224 -0.83244604
-1.5879245 -0.26953867 -0.30603325 -0.52990234 -0.697719 -0.6423487 -0.2554891 -0.4946956
-0.5215826 -1.7740072 -0.3788978 -1.0081182 -1.5912813 -0.69350404 -0.72427285 -0.8036645
-1.0439377 -0.97102773 -0.89799625 -0.9365098 -0.45161203 -0.9040121 -0.9707945 -0.55872774
-0.448245 -1.0341351 -0.9527912 -1.7297597 -0.6548908 -1.0084306 -0.94274086 -0.66042376
-0.62046283 -0.89447474 -1.7066486 -0.5251985 -0.66685504 -0.62474084 -0.8588525 -0.8179301
-0.82265896 -0.41537392 -0.5047797 -0.81601924 -0.86946094 -0.60050327 -0.57148206 -0.58955353
-1.5057447 -1.090569 -1.2341055 -1.0127517 -0.6745237 -0.35740837 -1.5739146 -1.8965807
-0.5776967 -0.48072702 -0.53066045 -0.7961772 -0.49407083 -0.9733194 -0.5028342 -1.8300812
-0.79200345 -0.4302178 -0.6775014 -0.8740499 -0.71825266 -0.43635488 -0.8685907 -1.2285762
-1.9774909 -0.86677325 -1.1113868 -0.9740068 -0.7802582 -1.777827 -0.9769276 -1.1346133

weight f4 [256, 512]
00000000: 1d3e 873e 731a 3fbd 02fc 643d 5a3b c33e
00000010: c177 6fbd 7991 5abe 1790 a93b da4d 8dbd
00000020: 7a97 5cbd 07d3 1d3d 92d3 8ebe b0dd 033d
00000030: c305 9cbe 916d 0bbc 8778 6cbd 06aa bebd
00000040: bda4 5d3d 5674 e6bd e6d0 2a3d b148 10bd
00000050: 54ca e93c 05aa 1ebe 450a 633d 6350 40bd
00000060: afba 873c 7b0b 52bd 2d00 a93d 7184 82bd
00000070: 8b4e f33c 1da9 0dbb 6f32 b43c ce65 3d3e
00000080: a6da 013e 03b6 64bc a591 00bf 243b 8a3d
00000090: 3810 f33c f4a7 a9bd 570a 4b3e f826 8bbe
000000a0: 35b7 683d 60be 703d 969b e93c 704d 99bd
000000b0: a79b bbbb 77c1 2bbe bda6 1abd 9055 363d
000000c0: b9ee 89bc 34a8 0f3f 5c35 edbd 8666 263e
000000d0: 9d9a 39be beb2 763d d726 afbb d853 2ebb
000000e0: b2f3 60bd a915 47bd 4860 16be 013a 50be
000000f0: d4f9 ab3c c51e 083d 6628 73bf ea18 2f3d
00000100: 44bd 7ebd fe23 ed3c a8ed efbc b0da 20be
00000110: d657 823c 18d3 833d 4b42 56bd f189 0fbd
00000120: 00f4 10bd e5b1 883d 1feb ad3b 9c0b 6fbd
00000130: 7826 85bd ab7c 2a3d fcde c2bd 26d5 d8bc
00000140: 99f2 06bd e76a 2f3c 9259 2fc0 4656 f6bc
00000150: 067d 8d3d 2cf3 adb9 b18e 07be 33a1 6d3d
00000160: ae3e 79bd d126 503d 6e7e 3abd a9e5 043e
00000170: ed80 da3c 6615 fe3c 2a65 a63c f5cf 42c0
00000180: f0c6 21bd 58fc 2f3e 940e a9bc 1e6f 203c
00000190: 4b49 49bc 9ab4 623d 7a04 c8bd ef62 863d
000001a0: 9d36 9a3d c0c4 90bd 42e6 bc3d a59b 6f3c
000001b0: 9869 c0bd f402 a23d eccb 6dbd e81a fc3c
000001c0: 0188 4d3c 82fe 103e 25b2 433c 87cb 60bc
000001d0: 4604 94bd 7e73 63be 1f03 83bd fcc6 86bd
000001e0: acab 3c3b 1501 d4bd 1d96 25be 5422 81bd
000001f0: 2f67 3b3f e36b 3fbc ae63 38bd ec22 bd3c
00000200: 7863 8ebd ac37 96bd b345 7cbe 6017 0abb
00000210: c84f 213d f5c9 0fbf de99 793d bed5 9a3c
00000220: d0ee a63d 6ba3 533c 371c 8a3d 5b25 803c
00000230: 48bb 5c3a adbe 1ebd b94e 5dbd 999d c1bd
00000240: ecf7 3a3e 2207 07bf 4e61 ce3d db9b 8fbc
00000250: 85f0 a0bc 7f68 29bd e158 6a3d 6e9e 113d
00000260: ab95 fabe 91e1 c13d d9df 64bd cf78 05bd
00000270: ea5d cf3b 9c4d 393d 7672 b0bd fda3 af3d
00000280: 828b ac3d 4357 763d 66f1 a2bd c31b d93c
00000290: eeca 0abd 2a89 8dbb 9721 ca3e 01b9 50bd
000002a0: 6aa3 413e ab57 5d3d e80b 1a3d 2195 f73c
000002b0: d547 8e3d 98a0 16bd 07e5 053e 13a1 06c0
000002c0: 5bb6 c53d ddbe 72bc 427b ca3d 3165 29be
000002d0: 8496 293d 62b4 02bc 8023 63bd da5e 0bbd
000002e0: b23e a03d 8ef0 47bd dfb8 323c bc4b 1cbe
000002f0: be5f 153e 9625 293c 85c6 e63d 9537 8f3d
00000300: 54cc d23b aec3 35be 47f9 913c 1a4e d8bd
00000310: 49e7 44bd 1adf 88bd 7827 783d 16c1 8cbd
00000320: 2cd4 b5bd 0f66 e33e 71af efbd 6f23 253d
00000330: 11d5 10bc 6c2e 303d b9a0 ab3c 6caf 7f3c
00000340: 05da b5bf 9411 173c e454 75bd ab95 ae3d
00000350: 4a8e adbc 8b6e 613d f2e5 11be 467f b6bd
00000360: 0ca5 bd3d 1970 adbd 6e1b 0dbd ec3f a03d
00000370: 01f0 2dbd 8855 fd3c 6f66 e13c 3e1a c1bd
00000380: bf97 a0bd 96ae ff3c 7060 fd3d d1c7 84bb
00000390: 7661 7ebd 079a ebbd 35ba 863e 843c 3a3c
000003a0: 363e fa3c b6bb c4bd 0ffa 2b3b 9cba 9fbe
000003b0: 306a 9fbd 8941 913d f896 2dbd aab0 77bc
000003c0: d933 f7bd 1c71 2e3e f4f6 ac3d 2ecc 4bbc
000003d0: 6d73 04bd a408 e53d d0f9 413d 3c3f 923d
000003e0: 5850 a83d 4a76 3abd f1d5 23bb d543 823d
000003f0: 7dc0 bf3d f118 4d3d 93eb 453d 5522 a4bc
0.26414576 -0.046656083 0.055904396 0.3813122 -0.058463816 -0.21344556 0.0051746476 -0.06899615
-0.053855397 0.03853133 -0.2789579 0.03219384 -0.30473146 -0.008510009 -0.05773213 -0.09309773
0.054112185 -0.11252658 0.041703127 -0.035225574 0.02853886 -0.15494545 0.055429716 -0.046951663
0.01656851 -0.05128048 0.08251987 -0.063729174 0.029700538 -0.0021615692 0.021996705 0.18495867
0.12681064 -0.013959411 -0.50222236 0.067495614 0.02967082 -0.08283988 0.19828163 -0.27178168
0.056815345 0.058775306 0.028516572 -0.07485473 -0.0057253423 -0.1677302 -0.03775667 0.044515193
-0.016837465 0.5611603 -0.11582443 0.16250047 -0.18125387 0.060229056 -0.0053452062 -0.0026600268
-0.054919906 -0.04860464 -0.14685166 -0.20334627 0.02099315 0.03323247 -0.9498352 0.04274837
-0.062192217 0.028947826 -0.029288128 -0.15708423 0.015911024 0.06436747 -0.052309316 -0.03504366
-0.035388947 0.06674556 0.0053075696 -0.05836068 -0.06501478 0.0416228 -0.09515187 -0.026468825
-0.032946203 0.01070664 -2.739842 -0.030070435 0.06908612 -0.00033178309 -0.13238026 0.05801506
-0.06085079 0.05081827 -0.04553073 0.12978233 0.026672805 0.031016063 0.02031191 -3.0439427
-0.039496362 0.17186105 -0.020636834 0.009792117 -0.012285541 0.055348016 -0.09766479 0.06561839
0.07529948 -0.07068777 0.09223606 0.014624511 -0.093951404 0.079107195 -0.058055803 0.030774549
0.012544633 0.14159587 0.011944328 -0.0137204 -0.072273776 -0.22212026 -0.0639708 -0.06580922
0.0028788848 -0.10351769 -0.16170545 -0.06305376 0.7320432 -0.011683437 -0.045016937 0.023087941
-0.06952566 -0.07334837 -0.24635963 -0.0021071061 0.039382726 -0.56167537 0.060937755 0.018900748
0.081510186 0.01291738 0.06743663 0.015642812 0.0008420241 -0.03875606 -0.054030154 -0.094538875
0.18258637 -0.5274526 0.10077153 -0.017530372 -0.019645939 -0.04135942 0.057213668 0.03555148
-0.48942313 0.094668515 -0.05587754 -0.032585915 0.006328334 0.04524003 -0.08615582 0.085762
0.084250465 0.060141813 -0.07956199 0.026502496 -0.033884935 -0.0043193297 0.39478752 -0.050957683
0.18909994 0.054038685 0.03760901 0.030222477 0.069472946 -0.036774248 0.13075648 -2.1035812
0.09653922 -0.014816013 0.09886791 -0.16542508 0.04140331 -0.007977577 -0.055453777 -0.034026004
0.07824458 -0.048813395 0.0109083345 -0.15263265 0.14587304 0.010323903 0.11268333 0.06993023
0.006433049 -0.17750427 0.01781906 -0.10561772 -0.048072133 -0.06683178 0.060584515 -0.06872766
-0.08878359 0.44413802 -0.11703385 0.040316995 -0.0088398615 0.04301302 0.020950662 0.015605789
-1.4207159 0.0092205 -0.05989541 0.08524641 -0.021186013 0.055037063 -0.14247873 -0.08910994
0.09259996 -0.084686466 -0.034449987 0.07824692 -0.042465214 0.030924574 0.027514664 -0.094288334
-0.07841443 0.031211179 0.123719096 -0.0040521403 -0.062104665 -0.11503988 0.2631394 0.011366967
0.030547243 -0.096061155 0.0026241576 -0.3119706 -0.077839255 0.07092578 -0.042380303 -0.015117804
-0.12070436 0.17035335 0.0844554 -0.012438817 -0.03233664 0.11183289 0.04735738 0.07140967
0.08218449 -0.045522965 -0.0024999345 0.06360594 0.09362886 0.050072614 0.048320364 -0.020035902

bias f4 [256]
00000000: 655f 993f 53fd 64be f36a 5a3e a872 9f3f
00000010: 7a20 3fc0 5e4b a53d fc8e 9c3d 4ec0 423d
00000020: 0520 a43e 9923 e6be e85c f53b aff0 62be
00000030: 2d77 96bd 9cf5 c03f b0e5 fdbe 8c0e 863a
00000040: c3bf bd3e 9402 ac3e 0ef5 183e e5b1 833e
00000050: a0f6 d4be 81ff c43e a407 99be fc15 d7bd
00000060: dd62 89be 4047 933e e5cc 8bbd a991 ba3f
00000070: 5774 1f39 ce2c 8d3d 8b2b d13c 05fa d1bd
00000080: c85a 77bd a98e 373f 4ec8 d53e 73de febf
00000090: 5779 b8be 8213 093f 681c 873f 2495 173f
000000a0: d3b9 373e 8e99 823f 917c ac3d 8ae9 a9be
000000b0: 91dc a33f 06b1 063f 0504 9a3d b66c e93f
000000c0: 2f19 0a3d e49d 893e cc70 a03e e83e abbe
000000d0: 130a 4f3e 9bf2 db3e bf58 353f 3023 ee3e
000000e0: a1ec 2bc0 3f26 4abf 89ab 99bd 9c41 cb3d
000000f0: 3548 853f 6083 dc3e cf80 f9bc d8fd bebe
00000100: 61d6 2ebf 67b6 b3bd f9fd 873f 6a59 6a3c
00000110: 1739 29c0 5173 543e add8 6ebd 9032 023f
00000120: 655a dd3e fbcb 883e eadc 2cbe 7131 8ebd
00000130: 06c7 2b3f 9d6f 3d3e b152 df3e e3fe 013e
00000140: 60a6 193b a82f 07bf 91af db3e e8b0 8ebe
00000150: 4477 2f3f b0b6 d43e 7edf 82bd b903 9e3d
00000160: 083e 1cbe b706 47c0 9284 843e 2f93 1abf
00000170: 31ae 3dbf 7ba6 bfbe 9518 c13f d204 f73e
00000180: 0674 1cbf 693c a5bd e570 8f3f df6e 213f
00000190: 755b 18c0 080c 343e 7a83 bd3e 46be 9f3e
000001a0: 1fe5 7ab9 c188 9dbe 5b2e 4a3f b2fc 703f
000001b0: cf82 443e 4072 81bd 6e2b dbbe 5d4f 243d
000001c0: 21a0 bb3e df39 04c0 a5fc 1dbe adf7 c43e
000001d0: c591 963e 649d 99bf f631 473f 2a81 753f
000001e0: c369 883e adb5 1f3f 8133 ea3e 2217 a33f
000001f0: 9a72 2b3f b663 8d3f 07c5 39be de8f d23d
00000200: c8b7 323f 7d28 4b3f 39b9 ef3d fffe 903f
00000210: eecc 843e 1c3d 9a3e 3e4d 833f 49d9 793f
00000220: ae29 253f fe3d 4ebe afd2 6cbe 3e2a ed3e
00000230: 0270 90bd 6ce3 473f 1dc3 a6be 3d86 253f
00000240: 84a5 383f b83d c33f 3655 103f 62cd 94be
00000250: 28a7 25bf e8e3 843e 3f43 1abf 9fc3 8c3e
00000260: 5377 39bf fee2 9f3d 65cc aabe 21e1 3f3f
00000270: 97d3 b73e 6cde 18bd 654b 173d e8f8 d93d
00000280: cc13 81be 1866 713f e533 6abe fb1e 5c3f
00000290: 7047 123e c8b8 093f 895a 4e3e ee37 7ebe
000002a0: 8673 4c3f d9dc bfbe c3d4 d53e fa02 57be
000002b0: 6833 38bd 6717 9c3d 4a9e 2f3f 7ddc a1be
000002c0: 0f62 3dbe ce03 f0bd 0869 75be 80f8 6a3d
000002d0: c707 92bd d65a c0be 4b58 3dc0 968c a53f
000002e0: f92f 5fbe dee7 c2bf 49f2 14be 99b5 263e
000002f0: 7e7f c63f 7a56 173f 3efd 093f 8319 2ebd
00000300: 87eb aabe e278 e43e e741 213f d1af fabe
00000310: d2a9 d13d f4cd 913e 9454 113f 0419 3dbe
00000320: f012 883e 2369 1bc0 8ff4 b93d 154e 253e
00000330: ea46 813f 6a7d 8ebe 72bd 6e3d 0665 323d
00000340: 70a2 983f e5c4 08bd dae2 a03f 1a20 283c
00000350: 211a 0d3d 9617 d0be 70fb 953e aecc 213e
00000360: 50f6 bc3e 9c1b ca3e 1b79 e2bd 2983 903e
00000370: 8adf ce3e 08b5 6a3e 96c3 f2bd 347d 37be
00000380: 9d97 22bf 06d0 2fbf ddba 933e 0e89 5c3f
00000390: 538d 303e 42e2 5e3f 1f09 9f3e fa01 d0bf
000003a0: 2b82 913d 0ae1 12bc 4694 cebe e33f bf3f
000003b0: c827 2f3f 2568 f0bd 2bc2 5cbd f581 5c3d
000003c0: 682f 4cbe 8ae9 333f 088a 18bf 59b1 51bd
000003d0: 6895 34bd 4ebd da3e b51d 973f 9096 723e
000003e0: 7b53 323f 51ba a7be dfd5 f73e 7602 8b3e
000003f0: 3b1d 8b3f 04d3 7fbf 1c33 bd3d ae09 123f
1.1982237 -0.2236226 0.2132986 1.2456865 -2.9863572 0.08071016 0.076444596 0.047546677
0.3205568 -0.44949034 0.007487882 -0.22162126 -0.0734695 1.5074954 -0.495893 0.0010227724
0.37060365 0.33595717 0.14937231 0.2572166 -0.4159441 0.38476184 -0.29888642 -0.1050224
-0.2683324 0.28765297 -0.0682619 1.4575702 0.00015206762 0.068933114 0.025533458 -0.102527656
-0.06038931 0.7170206 0.41754383 -1.9911636 -0.36030075 0.5354539 1.0555544 0.59211946
0.1794198 1.0203111 0.08422197 -0.3318599 1.2801687 0.52613866 0.07520298 1.8236301
0.033715423 0.26878273 0.31336057 -0.3344643 0.20218687 0.4295853 0.7083854 0.4651122
-2.6863177 -0.7896461 -0.07503421 0.09924623 1.0412661 0.4306898 -0.030456929 -0.37303042
-0.68295866 -0.08775025 1.0624381 0.014303545 -2.6441095 0.20747115 -0.058312107 0.508584
0.43233028 0.26718125 -0.16881147 -0.06943024 0.6710056 0.18499608 0.43617776 0.12694888
0.0023445114 -0.5280709 0.42907384 -0.27869344 0.6854136 0.4154563 -0.06390284 0.07715554
-0.15258038 -3.1097848 0.25882393 -0.60380834 -0.7409392 -0.37431702 1.5085627 0.48245865
-0.6111454 -0.08068163 1.1206328 0.630598 -2.380582 0.17582715 0.3701437 0.31199855
-0.00023927212 -0.30768397 0.7897698 0.9413558 0.19190525 -0.063206196 -0.42806572 0.04011475
0.36645606 -2.0660322 -0.15428407 0.38470212 0.29408088 -1.2001157 0.7781061 0.95900214
0.2664319 0.6238659 0.4574242 1.2741435 0.66971743 1.1046054 -0.18141566 0.10281347
0.6981168 0.79358655 0.1170525 1.1327819 0.259376 0.30124748 1.0257947 0.97597176
0.64516723 -0.20140836 -0.23127244 0.4632129 -0.07052614 0.78081393 -0.32570735 0.64657956
0.72127557 1.525321 0.5638002 -0.29062945 -0.64708185 0.2595513 -0.6025886 0.27492997
-0.724477 0.07806967 -0.33359066 0.74952894 0.35903618 -0.037321493 0.036937136 0.10643178
-0.25210416 0.9429641 -0.22871359 0.8598477 0.14285064 0.5379758 0.20151724 -0.24826023
0.79863775 -0.3747318 0.41763887 -0.20997229 -0.0449709 0.07621651 0.68600905 -0.31613532
-0.18494438 -0.11719476 -0.23965847 0.057365894 -0.0713039 -0.37569302 -2.958514 1.2933528
-0.21795644 -1.522701 -0.1454555 0.16280212 1.5507658 0.5911633 0.5390204 -0.0425048
-0.33382818 0.44623476 0.62991184 -0.48962262 0.10237469 0.28477442 0.5676968 -0.18466574
0.26576948 -2.428292 0.09079849 0.16143067 1.0099766 -0.27830058 0.058286138 0.043553375
1.1924572 -0.0333909 1.256923 0.01026156 0.034448747 -0.40642995 0.29293394 0.15800735
0.36906672 0.3947419 -0.11058255 0.28225067 0.40404922 0.2292062 -0.11853711 -0.17918855
-0.63512594 -0.68676794 0.28853503 0.8614663 0.17241411 0.8706399 0.31061646 -1.6250603
0.07104906 -0.008964786 -0.403475 1.4941372 0.68420076 -0.11738614 -0.05389611 0.053834874
-0.19939959 0.7027823 -0.5958562 -0.051194523 -0.044087797 0.42722553 1.1805941 0.23690248
0.6965863 -0.32759336 0.48405358 0.27150315 1.0868295 -0.9993136 0.09238264 0.5704602

weight f4 [64, 256]
00000000: 9a2c e23c 401f 88bd 329c 02be 6f8f 253d
00000010: 2bee 7f3d 4569 513d 058d 99bf 6ded 53bc
00000020: ad01 c83c a64d 703d 2e0a ffbc 09d2 323d
00000030: c264 4d3c 354d c83d 1f93 0bbe 07c3 81bf
00000040: bcc8 b13e 94ff c03c 0fcb 9fbf 7b24 123d
00000050: fb31 873d 337f e0bc 7d3f 5b3d ec0e 2f3d
00000060: f2bb 4d3b 1aab 223d 1f8a 053e 4f29 7d3c
00000070: 6a89 8e3d 2c6b ee3c 0aeb 043d 853c 393d
00000080: d937 10bd 696e 993d a165 293d d389 613d
00000090: ee19 233d 59e8 243e bf10 093d 2bd1 c73c
000000a0: df81 88be c153 b5bf 9288 a93d d992 313e
000000b0: 0ed4 f0bb 88be 663d 2e9b a5bd 7069 743e
000000c0: a2ef ec3c ac9b 99bd 17de c1bc 353d 4e3d
000000d0: cbc9 1c3c 51e0 2a3e 5640 95c0 44bf 603e
000000e0: 9963 2b3d f8bb 06bf 5856 883c 13d4 203d
000000f0: 06fd 113d 9b10 c83d c7d5 c43d 808a d03c
00000100: faa8 513c be9b 5d3d 2989 433d fb64 413d
00000110: c8ea 3d3d 3096 73bd 105d 98bd dcff 583d
00000120: e1ad 1cbe f5a6 37bf d91d 8f3d c363 96bc
00000130: af15 ab3d 2aca 093d 4221 7c3b 3093 db3b
00000140: 9e33 223d 57d1 1d3d 3d26 793c e92b ae3d
00000150: e361 4ec0 7a90 0fbf 356d b83c c64e 4bbc
00000160: 3b97 1c3d bb11 0b3d 4a41 a23d ae52 a33c
00000170: 5f51 f53b fd1c 603d eed1 313e 6782 263c
00000180: ba38 a83d d441 d13d fe98 5b3d 5e7d e23c
00000190: d44c 4f3d 53bc e73c 2044 503c 55fd 9ebf
000001a0: 4b31 3b3d ae96 8bbd 4be2 243d 3879 ef3e
000001b0: dd0e b03c 318a 91c0 a7a5 48bf 62f1 9abe
000001c0: 30dd a9bf 627b 863d d5a6 e3bc 9955 353d
000001d0: 3a51 e63c a524 433d 402a f13c 36fd d3bf
000001e0: 64d9 d63c dbf2 073d 1ec2 d93c 634f 49bd
000001f0: 4000 af3b a749 0a3d f498 0c3d 2df4 1a3d
00000200: 83d2 8d3c ac8d d0be 8179 543d 6e8b a23e
00000210: d872 263c 6b7f d63a f107 ac3c 0ef3 3bbf
00000220: 300e 32be 007d 49bb 1b25 10c0 9fdd 023d
00000230: 5f25 023d 7c34 94bd 7957 edbc 8bfd c0bd
00000240: 1d5d d5bf bf81 edbe 2ec0 383d c9ec 213c
00000250: aed5 1b3d 60f5 313d 0a06 143e e39f 91be
00000260: 24fb 023d 127f 883b 55c7 6b3d 5613 923c
00000270: 9675 853c 1afd edbc 49bb 2b3d 07e0 173d
00000280: 7328 88bb 07d2 8fbc ff3c c0bf 4b09 2e3c
00000290: 9c88 9d3d ee64 9abe 04d8 2d3e fa29 233c
000002a0: 6962 803c b172 09bb 12ef 373d ee46 58be
000002b0: d46a f1bb d90b 293d fa9c 003d 5593 5e3d
000002c0: 1414 053d a602 a13c 3024 ad3c 6775 a3bb
000002d0: cc8f 613c a834 a63c f0f2 d43c 4049 04be
000002e0: 6565 043d e280 0d3d 7983 2e3d 34bd 95bf
000002f0: 5a44 f63d 8c47 173d 2d95 bdbc ff63 d1bc
00000300: 3de7 d1bf 86e8 f4bf 3fdc 253d 1163 64bd
00000310: 5447 753d ea0d 1c3d 340a 783d ca22 463d
00000320: 0dec af3c 7f3c 553d 2233 303d 545d c33c
00000330: 5888 05be 6066 19bb 408e 49c0 41b5 273d
00000340: 792e 833d 6f65 d439 e6d7 7cbe 2f0f 1a3e
00000350: a097 083d 4b04 083d 8453 c03c f7d8 c3be
00000360: 4f6e ecbb 8168 85bd 821f 2abd 0cdd 84bd
00000370: bc47 623d 626f febc 7abb 823d d304 563d
00000380: 238d 743d c020 443c 64b6 143d f50d 36bf
00000390: 2027 013d a472 d4bd 5453 f33b 3209 613d
000003a0: 2368 a63d 0c40 0a3d a72d 1f3d c3f2 693d
000003b0: 3e7d f1bc 16ce ec3b e7e3 da3c d05b 413d
000003c0: 92d2 96bc 5d6f 9a3c efbc 6b3d 77c5 493b
000003d0: b4a8 343d fc0e 583c 6529 59be f83f d43c
000003e0: 5cdf d8be 507a 523d dfd1 1b3d 3989 873d
000003f0: a46d 293d 61c5 103e adc5 aa3d c673 40be
0.027609158 -0.066465855 -0.12754896 0.040419992 0.062482994 0.051125783 -1.1996161 -0.012935025
0.024414862 0.0586678 -0.031132784 0.043657336 0.01253623 0.09780351 -0.13630341 -1.0137643
0.3472346 0.02355937 -1.2483844 0.03567932 0.0660133 -0.027404403 0.053527344 0.04273884
0.0031392542 0.039713956 0.1304097 0.015451743 0.069598034 0.029103838 0.032450713 0.04522373
-0.03520951 0.07491762 0.041356687 0.05506308 0.03981965 0.16104259 0.033463236 0.024391731
-0.26661584 -1.4166185 0.08278002 0.17341174 -0.0073494976 0.05633405 -0.08086239 0.23868346
0.02892286 -0.07500395 -0.023665471 0.05035134 0.009569596 0.16687132 -4.6641035 0.21947962
0.04184303 -0.5263057 0.016642734 0.03926475 0.035641693 0.09768792 0.09611087 0.025456667
0.012796635 0.054103605 0.047738228 0.047215443 0.046366483 -0.0594694 -0.07439625 0.05297838
-0.15300705 -0.7173913 0.06988115 -0.018358117 0.08353745 0.033640064 0.0038471972 0.0067008957
0.039600007 0.03852972 0.015206871 0.08504469 -3.2247245 -0.5607983 0.022513011 -0.012408918
0.038230162 0.033952456 0.07922609 0.019936886 0.007486507 0.054715145 0.17365238 0.010162926
0.08213945 0.10217634 0.0536127 0.02764767 0.05061038 0.028288042 0.012711555 -1.2421061
0.045701306 -0.06815849 0.040254872 0.4677217 0.021491462 -4.548119 -0.78377765 -0.30262285
-1.3270626 0.06566502 -0.027789513 0.044271085 0.028114904 0.04764237 0.029439092 -1.6561649
0.026226707 0.03319059 0.02658182 -0.049147975 0.005340606 0.033761647 0.034325555 0.03783052
0.017312294 -0.40733087 0.051873688 0.31747 0.010159217 0.0016364878 0.02099988 -0.7341775
-0.17388225 -0.0030744672 -2.2522647 0.031949636 0.03177392 -0.07236573 -0.028972374 -0.094233595
-1.6669041 -0.4638805 0.04510515 0.009883114 0.038045578 0.0434469 0.14455429 -0.28442296
0.031977788 0.0041655386 0.057563145 0.017831486 0.01629142 -0.029051352 0.041926656 0.037078883
-0.0041552125 -0.017556204 -1.5018615 0.010622333 0.07692072 -0.30155128 0.16976935 0.009958738
0.015671926 -0.0020972902 0.04490573 -0.21120808 -0.0073674712 0.041271064 0.031399705 0.054339726
0.03248985 0.019654583 0.02113542 -0.0049883607 0.013767194 0.02028878 0.025994748 -0.12918568
0.03232326 0.03454674 0.04260585 -1.1698365 0.12024756 0.036933467 -0.023142422 -0.025560377
-1.6398693 -1.913346 0.040493246 -0.05575854 0.059882477 0.038099207 0.060556605 0.04837302
0.021474862 0.052059647 0.043017514 0.023848213 -0.13040292 -0.0023406968 -3.1493073 0.04094434
0.06405348 0.00040511365 -0.24691734 0.15044855 0.033347726 0.03320722 0.023477323 -0.3825147
-0.0072152982 -0.06514073 -0.041533954 -0.06487474 0.055244192 -0.03105897 0.063834146 0.052250694
0.05970491 0.011970699 0.036306754 -0.71115047 0.031531453 -0.103734285 0.007425705 0.05494041
0.08125331 0.033752486 0.038861897 0.05711628 -0.029478665 0.007226716 0.02672 0.0472067
-0.018410955 0.01885193 0.057553228 0.0030787864 0.0441062 0.013187166 -0.21207197 0.025909409
-0.4235791 0.051386178 0.038041946 0.0661797 0.041364327 0.14137794 0.08338485 -0.18794164

bias f4 [64]
00000000: 0c2f c83d eca7 1ebf 174d 093e d36d 343d
00000010: 5f04 0d3e 66fe a83d 274c 14bf 7b64 883e
00000020: a9b6 e9be 1b6b 20bf 57fb 58bc 8e39 fc3e
00000030: 8bba 853d b8fd 4c3e 5636 33bf 1369 c8be
00000040: c122 3cbd c52b aabd ffa8 d53e 49ac fb3e
00000050: 7ed4 fc3e b03b 813e fd5f 393e 8642 acbd
00000060: e5fa 733e 05f9 bcbd 6d8e eb3e 0244 94bd
00000070: 2818 16be cb0d 0a3f a40d f0bc 1702 703d
00000080: 8194 843e 08af 3cbd 2e22 2a3f c086 a7bd
00000090: d5ed e1bd 7cc1 023f 8588 bf3d 1b31 573e
000000a0: 1a8a fdbb 4a98 90be 6d78 bb3e 4995 0d3f
000000b0: 8982 e73e e410 923e b5c1 a2bd 1318 253d
000000c0: 86b2 dbbe a524 02bf 3b19 693d 0853 ab3e
000000d0: b59d b53e f604 7c3c e9d7 21bf d0bb 1fbf
000000e0: fdb0 463e 3b09 89be ce59 4c3d 0cce 313e
000000f0: fe63 1c3e 1f8a 643e 3dea 1abf bab3 4e3e
0.097745985 -0.6197498 0.13408314 0.04405005 0.13771199 0.08251648 -0.579287 0.2663916
-0.4564717 -0.6266343 -0.013243518 0.4926266 0.06529721 0.20018661 -0.70004785 -0.39142665
-0.04593158 -0.083091296 0.41730496 0.4915488 0.4938087 0.2524085 0.18103023 -0.08411126
0.23826177 -0.09227184 0.460071 -0.07239534 -0.14657652 0.53927296 -0.02930338 0.058595743
0.2589455 -0.04606536 0.66458404 -0.081799984 -0.11031691 0.51076484 0.09352211 0.21014826
-0.0077374103 -0.28241187 0.36615315 0.55305916 0.45216778 0.28528512 -0.07947103 0.040306162
-0.4290964 -0.50837165 0.056908827 0.33461785 0.35471883 0.015382042 -0.6322008 -0.62395954
0.19403453 -0.26764855 0.049890332 0.17363757 0.15272519 0.22318314 -0.6051367 0.20185748
