TP/save_models_MLP_512_256_Dropout_Relu_Post_Optimisation_DataAugmentation_50epochs/model_22_1767917031.1091106_0.4510125prct.pt (torch, 729389 bytes, 6 tensors)

weight f4 [512, 64]
0.07056004 -0.02679952 -0.034256723 0.07845086 -0.049087632 -0.009822178 -0.09415048 0.020796606
-0.018395303 -0.011666137 0.0085948175 -0.048638392 -0.00055849703 -0.015125096 0.010830242 -0.057884846
0.03350482 -0.040210444 0.0039369036 -0.02394047 0.06766529 -0.015062475 0.0032121674 0.06992431
-0.090335995 0.0008289913 0.037827417 -0.010258923 -0.007364671 0.028017238 -0.024527837 -0.001582683
0.028607871 0.017309457 -0.03799657 -0.059769742 -0.034106597 0.016416717 0.12837233 0.078783095
0.011620227 0.017689038 0.046411734 -0.021008715 -0.027403668 -0.04004436 0.023956046 -0.10816734
-0.0011036688 -0.017028559 -0.0064939596 0.004788304 0.0051296847 -0.098909 0.1681485 -1.9477684
0.0044513135 -0.06090946 0.045742877 0.029881516 -0.03038003 -0.00935472 0.11749721 -0.003122548
-0.07441623 -0.07840183 -0.054312833 -0.045465074 0.034292944 -0.011081168 0.024705762 -0.011394342
0.0018358662 -0.021465179 -0.0024638863 0.0093634045 -0.02247886 -0.04016606 0.020095287 -0.027547168
0.022614796 -0.0667353 -0.009784408 0.06610826 -0.0265915 -0.053839732 -0.011422512 0.038164802
-0.010624695 0.03344011 -0.0030798244 0.11539003 -0.028749302 -0.105215624 -0.006447031 0.015601628
0.07772129 -0.0041105216 -0.029568817 0.0653526 -0.08610197 -0.051987823 0.07682173 -0.03331274
-0.05038212 -0.031864733 0.09374555 0.040157877 0.09333791 -0.04442106 -0.010994411 -0.05340905
0.044708226 0.10248479 0.16119751 -0.026368199 -0.021514527 -0.02257734 -0.008912526 0.077684514
-0.092782944 -1.3905329 0.10192912 0.05038031 0.030544152 0.048634533 -0.14982651 -0.011768216
-0.4576174 0.11598691 -0.02781527 0.044285487 -0.006254648 0.015436536 -0.0649993 0.008308245
0.011080701 -0.16441023 -0.05736037 -0.023303648 0.028732575 -0.024182742 0.03973629 0.03569437
-0.025819506 -0.039825726 1.1482328 -0.10927853 -0.01590258 -0.022380175 -0.04359464 0.029876826
-0.055221863 -0.023972144 -0.06574238 -0.050275233 -0.0003597264 0.008844128 0.0032387306 0.0020084344
-0.051368386 -0.019114524 -0.0015640545 -0.0057319566 -0.099453956 0.0026388927 0.02864791 0.011783813
0.038196936 0.013277092 0.017653283 -0.003565595 0.0049195066 -0.0676328 -0.009180364 0.0138332825
0.021167269 -0.05548907 -0.016713822 0.012604755 -0.039285675 0.014756559 -0.07530597 0.031278327
0.034321487 0.03010188 0.0009838348 -0.016489414 0.021713747 0.004245105 0.03258564 -0.014091994
0.066711016 0.014034682 -0.026526451 -0.023339974 0.016511966 0.02741609 -0.057355564 0.07398375
0.03221165 -0.030366981 -0.0011814272 0.0352218 -0.09749376 0.026648091 -0.030204866 0.005072269
0.024896596 -0.02777358 -0.012860779 -0.04056772 0.006278243 -0.12665464 -0.1448424 0.031358454
0.012084495 -0.061206184 -0.028369907 -0.013769352 -0.056532387 -0.07573224 -0.7161058 -0.14391623
-0.0036441714 -0.009508496 -0.021017946 -0.034008358 0.034192886 -0.12876798 -0.34974706 -0.034562785
-0.0023922597 -0.0023910713 -0.017299015 0.049400523 -0.050243672 0.06616748 -0.07834018 -0.018605864
0.009428183 -0.081961505 -0.032227892 -0.03689481 0.0037566049 0.014619679 -0.035914186 -0.05326949
0.064192876 -0.06729244 -0.007772647 0.033638738 -0.008261092 -0.01807428 -0.0009338967 -0.05564827
00000000: c881 903d ab8a dbbc c750 0cbd d8aa a03d
00000010: 1d10 49bd 33ed 20bc f8d1 c0bd a55d aa3c
00000020: bfb1 96bc 5323 3fbc 47d1 0c3c 0d39 47bd
00000030: 1a68 12ba 40cf 77bc 5471 313c a918 6dbd
00000040: 5a3c 093d b5b3 24bd 2401 813b ce1e c4bc
00000050: 1994 8a3d 99c8 76bc 3a83 523b 7a34 8f3d
00000060: 1402 b9bd aa50 593a ecf0 1a3d 0b15 28bc
00000070: 5753 f1bb 6884 e53c 9aee c8bc 0772 cfba
00000080: 0e5b ea3c 90cc 8d3c 4ba2 1bbd 1ed1 74bd
00000090: 5cb3 0bbd 5a7c 863c 0974 033e 0859 a13d
000000a0: c462 3e3c 9ae8 903c 3b1a 3e3d 781a acbc
000000b0: a87d e0bc 8e05 24bd 783f c43c d786 ddbd
000000c0: fba8 90ba 7a7f 8bbc 48cb d4bb 35e7 9c3b
000000d0: ea16 a83b cd90 cabd 1f2f 2c3e 7a50 f9bf
000000e0: 53dc 913b 337c 79bd e25c 3b3d 15ca f43c
000000f0: 8adf f8bc 8a44 19bc 61a2 f03d aaa3 4cbb
00000100: 8967 98bd 2391 a0bd 2277 5ebd 9639 3abd
00000110: c276 0c3d ca8d 35bc bd63 ca3c 56af 3abc
00000120: 73a1 f03a bed7 afbc 2779 21bb f768 193c
00000130: 9625 b8bc 2b85 24bd df9e a43c 99aa e1bc
00000140: aa42 b93c 84ac 88bd c84e 20bc c463 873d
00000150: 6bd6 d9bc 0d87 5cbd 7d25 3bbc b252 1c3d
00000160: 3313 2ebc 7ff8 083d e1d6 49bb 9c51 ec3d
00000170: a883 ebbc 4a7b d7bd 9e41 d3bb f99d 7f3c
00000180: 572c 9f3d 8eb1 86bb 4e3a f2bc 95d7 853d
00000190: 3b56 b0bd 2ff1 54bd b654 9d3d f172 08bd
000001a0: 7b5d 4ebd 9884 02bd abfd bf3d 967c 243d
000001b0: f227 bf3d dbf2 35bd e721 34bc 73c3 5abd
000001c0: f91f 373d 8ce3 d13d f610 253e 1f02 d8bc
000001d0: 3c3f b0bc 1df4 b8bc d805 12bc 0f19 9f3d
000001e0: fc04 bebd fbfc b1bf 37c0 d03d 955b 4e3d
000001f0: bb37 fa3c 0135 473d 1f6c 19be 7acf 40bc
00000200: d44c eabe 8c8a ed3d d9dc e3bc b364 353d
00000210: caf3 ccbb 86e9 7c3c 5a1e 85bd 4e1f 083c
00000220: d48b 353c 285b 28be b5f2 6abd 4be7 bebc
00000230: 9460 eb3c e31a c6bc 85c2 223d 4234 123d
00000240: 6e83 d3bc 4d20 23bd 4bf9 923f 6ccd dfbd
00000250: 2146 82bc a156 b7bc 4b90 32bd 3fc0 f43c
00000260: 5230 62bd 3b61 c4bc f1a3 86bd 67ed 4dbd
00000270: a999 bcb9 f6e6 103c e240 543b f09f 033b
00000280: a867 52bd 1096 9cbc f600 cdba 23d3 bbbb
00000290: 84ae cbbd 46f1 2c3b 06af ea3c e510 413c
000002a0: 6474 1c3d 2988 593c 9e9d 903c c2ac 69bb
000002b0: d033 a13b 1183 8abd 3d69 16bc fea4 623c
000002c0: fb66 ad3c 8248 63bd 6deb 88bc 2d84 4e3c
000002d0: 04ea 20bd 7fc5 713c 043a 9abd b41d 003d
000002e0: b094 0c3d 3898 f63c 05f4 803a cf14 87bc
000002f0: 07e1 b13c 861a 8b3b 8578 053d 1be2 66bc
00000300: c99f 883d b9f1 653c 004e d9bc 7933 bfbc
00000310: 1a44 873c b597 e03c abed 6abd cb84 973d
00000320: 5df0 033d 2dc4 f8bc 1eda 9aba bc44 103d
00000330: cfaa c7bd 194d da3c 3270 f7bc 4735 a63b
00000340: f2f3 cb3c 6b85 e3bc 04b6 52bc 562a 26bd
00000350: b8b9 cd3b c1b1 01be 9151 14be b971 003d
00000360: 0cfe 453c 56b3 7abd 0268 e8bc d998 61bc
00000370: 818e 67bd 8119 9bbd b652 37bf c75e 13be
00000380: 0dd3 6ebb 86c9 1bbc d42d acbc 594c 0bbd
00000390: d70d 0c3d c1db 03be 0c12 b3be b591 0dbd
000003a0: 75c7 1cbb 85b3 1cbb aab6 8dbc 3458 4a3d
000003b0: 4fcc 4dbd d182 873d d170 a0bd 536b 98bc
000003c0: aa78 1a3c 6fdb a7bd 6501 04bd 031f 17bd
000003d0: 5f31 763b 6187 6f3c c11a 13bd 1c31 5abd
000003e0: 8e77 833d 9ed0 89bd b0b1 febb c6c8 093d
000003f0: 8859 07bc 8310 94bc bfd0 74ba 71ef 63bd

bias f4 [512]
-0.70252097 -0.24264666 -0.48166433 -0.47044438 -0.76958185 -0.57233906 -0.43735534 -0.4360841
-0.54855955 -1.0793976 -1.483486 -0.20762554 -0.9900174 -0.53324825 -0.12550333 -0.31092334
-0.89170367 -0.97781575 -0.96381724 -0.40211278 -0.15478285 -0.62559587 -1.1634958 -0.29292956
-0.5555641 -1.2307662 -0.53948176 -0.14730677 -0.63285494 -0.41446388 -0.59419405 -1.834532
-0.2983156 -0.71227306 -0.33082843 -0.6151545 -0.27513814 -0.86717993 -0.6269772 -0.4122132
-0.64421904 -0.69812816 -0.9308616 -0.8297349 -0.59500855 -0.8585926 -1.0056486 -0.16995768
-0.5729458 -0.3433342 -0.20874679 -0.922517 -0.85744005 -0.3964099 -0.7316849 -0.8579754
-0.6757062 -1.3012089 -0.4748341 -0.92088807 -0.2426863 -1.0392812 -1.2284926 -1.566675
-0.54271126 -0.32690558 -1.7228014 -0.6581764 -0.8522017 -0.7214341 -0.8235363 -0.5541817
-0.64189017 -0.34903184 -0.4627013 -0.21818526 -0.55865943 -0.5932107 -0.9089772 -1.0169194
-0.5942491 -0.8916348 -0.845614 -1.0194967 -0.9272115 -1.5694332 -0.9184039 -0.8969506
-0.67196447 -0.42927495 -0.62344617 -0.6087644 -1.0306779 -0.26186302 -0.725132 -0.7522286
-0.46101525 -0.5197262 -0.93228227 -0.51997125 -0.7741473 -1.009354 -0.67260087 -0.29283345
-0.96329445 -0.48143786 -0.042960756 -0.9522326 -0.4342013 -1.4074414 -0.096966855 -0.51235104
-1.0747004 -0.7536861 -0.12690188 -1.1858972 -0.9258685 -1.2958032 -0.13298994 -0.9551974
-0.5100496 -0.85801363 -0.75666076 -1.0476081 -1.4245039 -0.4998186 -0.8357848 -0.8833266
-0.56089574 -0.9923643 -1.2794877 -0.88850015 -0.7122304 -0.59883016 -0.8302066 -0.38082668
-0.32736477 -0.72113794 -0.18468924 -0.8823115 -0.7575158 -0.6809346 -0.8380934 -1.3454415
-0.13845548 -1.2906408 -0.81200767 -0.26748255 -0.4022252 -0.9928215 -1.4680816 -0.69883513
-0.63892 -0.8612353 -0.5688689 -0.5155063 -0.34879237 -0.3712735 -0.07076019 -0.4153002
-0.39960977 -0.4450572 -1.4323672 -1.0448129 -0.9294979 -1.0145246 -0.5608089 -0.5128975
-1.445653 -0.13823123 -0.98591816 -0.43707368 -0.6963897 -0.89760935 -1.0046759 -0.7503024
-1.486333 -0.18856238 -0.18098602 -0.44545162 -0.63666385 -0.51498085 -0.20400696 -0.35947165
-0.44755563 -1.5924973 -0.31876922 -0.8094178 -1.4668437 -0.65493006 -0.53425425 -0.6114128
-0.99310845 -0.85006464 -0.73856276 -0.7978524 -0.22312357 -0.70064646 -0.8014308 -0.5661068
-0.3723344 -0.86512977 -0.67238015 -1.4723624 -0.55917233 -0.86841315 -0.7934562 -0.60489196
-0.4245138 -0.7344475 -1.5415688 -0.44260997 -0.65607065 -0.40160593 -0.7755413 -0.73914903
-0.7350065 -0.40206486 -0.4378942 -0.63693184 -0.4215505 -0.47501773 -0.24127117 -0.4075403
-1.1487174 -0.95611393 -0.9538437 -0.9396126 -0.6067611 -0.25963733 -1.2741673 -1.6543262
-0.5491071 -0.4054694 -0.41045856 -0.7465667 -0.24402495 -0.866553 -0.42216504 -1.5449413
-0.7406339 -0.28713694 -0.5429433 -0.7919905 -0.6508491 -0.29609662 -0.7212849 -0.9201371
-1.7647462 -0.71400934 -0.94991344 -0.71383446 -0.6914283 -1.499388 -0.87954193 -0.94821906
00000000: 6ad8 33bf 5e78 78be b59c f6be 16de f0be
00000010: 5103 45bf d084 12bf 0aed dfbe 6a46 dfbe
00000020: 666e 0cbf b329 8abf dfe2 bdbf ca9b 54be
00000030: c871 7dbf f582 08bf f283 00be 5831 9fbe
00000040: b146 64bf 2252 7abf babc 76bf bae1 cdbe
00000050: 657f 1ebe 0d27 20bf 6eed 94bf ddfa 95be
00000060: 7339 0ebf bf89 9dbf 7a1b 0abf 96d7 16be
00000070: c802 22bf 9c34 d4be 1a1d 18bf f2d1 eabf
00000080: d3bc 98be 8757 36bf 5862 a9be c47a 1dbf
00000090: e8de 8cbe 81ff 5dbf 9481 20bf 9c0d d3be
000000a0: 8aeb 24bf 87b8 32bf f24c 6ebf 8269 54bf
000000b0: 7b52 18bf bacc 5bbf 18b9 80bf 6309 2ebe
000000c0: 93ac 12bf 80c9 afbe b8c1 55be 132a 6cbf
000000d0: 3181 5bbf 3df6 cabe b44f 3bbf 47a4 5bbf
000000e0: 15fb 2cbf 038e a6bf 751d f3be 52bf 6bbf
000000f0: c282 78be 2b07 85bf 3f3f 9dbf ce88 c8bf
00000100: 20ef 0abf 2b60 a7be c284 dcbf 407e 28bf
00000110: e429 5abf e8af 38bf 46d3 52bf dade 0dbf
00000120: ea52 24bf 4db4 b2be 2fe7 ecbe f56b 5fbe
00000130: 4e04 0fbf a8dc 17bf bbb2 68bf 6a2a 82bf
00000140: b620 18bf 2e42 64bf 297a 58bf de7e 82bf
00000150: bc5d 6dbf 30e3 c8bf 851c 6bbf 8e9e 65bf
00000160: dd05 2cbf edc9 dbbe 2b9a 1fbf fcd7 1bbf
00000170: 41ed 83bf e912 86be 40a2 39bf 0e92 40bf
00000180: 310a ecbe c70c 05bf 0daa 6ebf d61c 05bf
00000190: 842e 46bf 8332 81bf 922f 2cbf 44ee 95be
000001a0: 779a 76bf 067f f6be 9ef7 2fbd 84c5 73bf
000001b0: a24f debe 0a27 b4bf 8f96 c6bd 7029 03bf
000001c0: c88f 89bf 92f1 40bf 91f2 01be 7bcb 97bf
000001d0: b805 6dbf e1dc a5bf 842e 08be d187 74bf
000001e0: 9c92 02bf c8a6 5bbf 85b4 41bf 0618 86bf
000001f0: 2556 b6bf 39e8 ffbe fef5 55bf b121 62bf
00000200: dd96 0fbf 960b 7ebf 41c6 a3bf bf74 63bf
00000210: bb54 36bf ef4c 19bf 6b88 54bf b7fb c2be
00000220: 5b9c a7be 7f9c 38bf 2d1f 3dbe 2bdf 61bf
00000230: 8eec 41bf bb51 2ebf 4a8d 56bf 6d37 acbf
00000240: 46c7 0dbe b833 a5bf bcdf 4fbf 79f3 88be
00000250: 76f0 cdbe 8d29 7ebf 19ea bbbf dce6 32bf
00000260: 4390 23bf eb79 5cbf 64a1 11bf 39f8 03bf
00000270: ea94 b2be 8f17 bebe b8ea 90bd 3aa2 d4be
00000280: a799 ccbe 8ade e3be cf57 b7bf 6ebc 85bf
00000290: 93f3 6dbf f1db 81bf 2c91 0fbf 404d 03bf
000002a0: 280b b9bf 7d8c 0dbe 2265 7cbf 1fc8 dfbe
000002b0: 9846 32bf bac9 65bf 3899 80bf d113 40bf
000002c0: 2940 bebf 7f16 41be 6654 39be 3c12 e4be
000002d0: 67fc 22bf c9d5 03bf 33e7 50be ab0c b8be
000002e0: 0326 e5be f4d6 cbbf b835 a3be 0136 4fbf
000002f0: 89c1 bbbf 7fa9 27bf e3c4 08bf 8d85 1cbf
00000300: 5b3c 7ebf d69d 59bf 7312 3dbf 0e40 4cbf
00000310: 817a 64be 915d 33bf 922a 4dbf 60ec 10bf
00000320: 9da2 bebe 2579 5dbf 1b21 2cbf 5f76 bcbf
00000330: eb25 0fbf 5350 5ebf f21f 4bbf 33da 1abf
00000340: df59 d9be c004 3cbf 2052 c5bf c69d e2be
00000350: 3ff4 27bf 4b9f cdbe e089 46bf df38 3dbf
00000360: 6329 3cbf 72db cdbe ab33 e0be f70d 23bf
00000370: 78d5 d7be 8635 f3be ca0f 77be 1fa9 d0be
00000380: 2c09 93bf e2c3 74bf 1a2f 74bf 748a 70bf
00000390: b254 1bbf 2fef 84be ea17 a3bf f6c0 d3bf
000003a0: 4892 0cbf af99 cfbe a027 d2be ff1e 3fbf
000003b0: ade1 79be 6bd6 5dbf 0426 d8be a3c0 c5bf
000003c0: 2f9a 3dbf 9d03 93be 55fe 0abf e4bf 4abf
000003d0: 0c9e 26bf fa99 97be 21a6 38bf 1b8e 6bbf
000003e0: 34e3 e1bf 51c9 36bf 872d 73bf dbbd 36bf
000003f0: 7201 31bf f2eb bfbf a929 61bf 7cbe 72bf

weight f4 [256, 512]
0.13715166 -0.017820416 0.028016247 0.3744732 0.012623206 -0.08188215 0.03755147 0.09785892
-0.004769696 -0.20597962 -0.2670269 -0.014269931 -0.50147074 0.009430409 -0.06256284 0.005137481
-0.0291811 0.028377723 0.053851306 0.024829417 0.13894123 -0.16064157 0.037875623 -0.017392557
0.15428734 0.059835427 0.0011060832 -0.007017078 0.05628223 0.0020880501 -0.053731777 0.17960678
0.12531732 -0.041961636 -0.37094906 0.03941264 0.015228617 -0.09155333 0.14370428 -0.1693218
-0.009045561 0.00022961183 -0.047228012 0.3930613 0.011245968 -0.11413033 -0.08453118 0.11608694
-0.019023282 0.61465526 -0.19524781 0.15048091 -0.10203473 0.043576136 0.03826398 -0.02146676
-0.044541724 -0.006176264 -0.0971659 -0.14590482 0.014491792 0.03212688 -0.47468436 0.025343107
0.027304012 -0.01960961 0.03946054 -0.15111008 -0.04095051 0.01866207 -0.089055285 -0.009731996
0.011057809 -0.012118566 -0.023294697 -0.06464864 -0.12385181 0.014227547 -0.06632298 -0.032226726
-0.01471025 0.027685551 -1.9070028 -0.022527136 0.0091057 0.035526708 -0.04271089 0.0055083483
-0.0425983 -0.027008675 -0.012104205 0.12092773 0.055464484 -0.03418561 -0.006082796 -2.533437
-0.06652759 0.1750032 -0.015249574 0.044777453 -0.020946566 0.043959558 -0.084273346 0.05499667
0.06292744 -0.09074063 0.17999901 0.004260944 -0.025835374 0.102405235 -0.1558839 0.020146256
-0.010865452 0.082985565 0.021786954 0.07162819 0.013764275 -0.35994005 -0.08828133 -0.08669949
0.024460206 -0.10331723 -0.10397164 0.0014067861 0.61983716 0.017261147 -0.03414825 -0.0010402069
-0.06702173 0.03734513 -0.31845692 -0.025794184 0.109557204 -0.512023 0.08662865 -0.084445395
0.08110878 0.011660278 0.08854686 -0.011877268 -0.026481481 0.0060919994 -0.009421529 -0.098350585
0.13835004 -0.48316416 0.077792875 0.013429704 -0.025402278 -0.059738506 0.1131411 0.0048647234
-0.3146531 0.10438046 -0.08582524 0.00838071 0.020143071 0.032950252 0.042993393 0.07872393
0.14350204 0.19418862 -0.0056603644 -0.010984908 -0.0791317 0.018422266 0.32676274 0.0346448
-0.1820396 0.118798375 0.017301945 -0.012810251 0.1096689 -0.013965337 0.064183325 -1.7244153
0.06588179 0.015662871 0.08193486 -0.19084917 -0.005111323 -0.014882117 -0.07876117 0.02746834
0.10155046 0.04656837 -0.027482728 -0.05314703 0.029974807 -0.0029103956 0.13643572 0.05085455
-0.05238718 -0.14830446 -0.041181497 -0.112409934 -0.11763331 -0.079443604 0.06478683 -0.05670323
-0.033477988 0.3409953 -0.09403973 0.04459365 -0.007908685 0.053250093 -0.015741758 -0.017487044
-0.74046344 0.03898252 -0.015443637 0.10337147 0.0052006687 0.03735801 -0.11215259 -0.14531383
0.11208163 -0.04877939 -0.053958658 0.06416449 -0.06509509 0.12308025 0.010376521 -0.11223781
-0.032545142 -0.024533277 0.088540085 0.022140604 -0.11728908 -0.10004783 0.17422415 -0.04965127
0.0021044507 -0.03105644 0.04235801 -0.26979357 0.026799558 0.094850495 0.00011418868 -0.016363436
-0.12281853 0.24972023 0.0015766614 0.0100261895 -0.07207358 0.066599555 0.023990665 0.09952506
0.082579695 0.022509543 0.014026535 0.060739275 0.08779407 -0.033413608 0.02583825 -0.022885377
00000000: 7c71 0c3e 1ffc 91bc 5482 e53c f4ba bf3e
00000010: 90d1 4e3c d4b1 a7bd 92cf 193d 426a c83d
00000020: 1c4b 9cbb 52ec 52be c0b7 88be 6ecc 69bc
00000030: 6360 00bf 0182 1a3c f220 80bd 5058 a83b
00000040: 340d efbc 6678 e83c 3093 5c3d 1067 cb3c
00000050: 9c46 0e3e 397f 24be 7823 1b3d d67a 8ebc
00000060: 80fd 1d3e fe15 753d fef9 903a 84ef e5bb
00000070: 3288 663d abd7 083b da15 5cbd d7ea 373e
00000080: 2f53 003e f7df 2bbd 09ed bdbe 266f 213d
00000090: 7381 793c 5080 bbbd 3727 133e b262 2dbe
000000a0: d533 14bc f5c3 7039 2972 41bd 553f c93e
000000b0: 0241 383c 2abd e9bd af1e adbd fdbe ed3d
000000c0: b7d6 9bbc 0c5a 1d3f 0bef 47be ab17 1a3e
000000d0: 96f7 d0bd e47c 323d b1ba 1c3d 0fdb afbc
000000e0: 6271 36bd 4262 cabb eafe c6bd 1368 15be
000000f0: fb6e 6d3c 7a97 033d d409 f3be 599c cf3c
00000100: aaac df3c 55a4 a0bc 60a1 213d 9abc 1abe
00000110: b9bb 27bd 33e1 983c 9e62 b6bd f372 1fbc
00000120: d02b 353c f38c 46bc 85d4 bebc 8266 84bd
00000130: 05a6 fdbd a81a 693c 58d4 87bd 2c00 04bd
00000140: 4303 71bc cfcc e23c ab18 f4bf d48a b8bc
00000150: 1330 153c 7484 113d 9df1 2ebd 607f b43b
00000160: 8e7b 2ebd 4c41 ddbc b750 46bc f5a8 f73d
00000170: ba2e 633d 3606 0cbd 3152 c7bb d523 22c0
00000180: 9e3f 88bd 0a34 333e 59d9 79bc 9068 373d
00000190: 2298 abbc f00e 343d 8197 acbd 3044 613d
000001a0: 1ae0 803d 39d6 b9bd a951 383e 649f 8b3b
000001b0: b5a4 d3bc d6b9 d13d 07a0 1fbe c309 a53c
000001c0: 0205 32bc 56f4 a93d 8e7a b23c cdb1 923d
000001d0: 8e83 613c 104a b8be d8cc b4bd 818f b1bd
000001e0: c560 c83c fc97 d3bd 15ef d4bd e963 b83a
000001f0: a6ad 1e3f 4067 8d3c 09df 0bbd 8d57 88ba
00000200: b042 89bd 35f7 183d c90c a3be 534e d3bc
00000210: 875f e03d f013 03bf 5d6a b13d b5f1 acbd
00000220: 5c1c a63d c00a 3f3c 0e58 b53d df98 42bc
00000230: b1ef d8bc 659f c73b c25c 1abc 086c c9bd
00000240: a2ab 0d3e 4b61 f7be df51 9f3d 4308 5c3c
00000250: 7018 d0bc 5db0 74bd 85b6 e73d 4268 9f3b
00000260: 361a a1be 6cc5 d53d 25c5 afbd 3f4f 093c
00000270: 1503 a53c d8f6 063d d719 303d 033a a13d
00000280: 33f2 123e 62d9 463e 947a b9bb 0bfa 33bc
00000290: cd0f a2bd 4bea 963c 724d a73e b5e7 0d3d
000002a0: 9768 3abe 904c f33d cfbc 8d3c 16e2 51bc
000002b0: 179a e03d dece 64bc 8c72 833d a4b9 dcbf
000002c0: 08ed 863d 6c4f 803c 77cd a73d f76d 43be
000002d0: e37c a7bb 1fd4 73bc 894d a1bd 4905 e13c
000002e0: b0f9 cf3d 7abe 3e3d 7523 e1bc b3b0 59bd
000002f0: ba8d f53c 56bc 3ebb ceb5 0b3e dc4c 503d
00000300: f193 56bd 20dd 17be eead 28bd 2e37 e6bd
00000310: bce9 f0bd 54b3 a2bd f5ae 843d a541 68bd
00000320: 3720 09bd f096 ae3e e797 c0bd d5a7 363d
00000330: 6e93 01bc c51c 5a3d dcf4 80bc fd40 8fbc
00000340: 038f 3dbf 23ac 1f3d 4f07 7dbc 6cb4 d33d
00000350: 5f6a aa3b b604 193d 42b0 e5bd 26cd 14be
00000360: 0e8b e53d e6cc 47bd c103 5dbd ac68 833d
00000370: 9350 85bd 8011 fc3d 4902 2a3c f0dc e5bd
00000380: 0e4e 05bd 03fa c8bc 8154 b53d 3660 b53c
00000390: 4235 f0bd e0e5 ccbd d167 323e 215f 4bbd
000003a0: d3ea 093b 136a febc 987f 2d3d 6222 8abe
000003b0: bf8a db3c fa40 c23d 9578 ef38 9d0c 86bc
000003c0: 4888 fbbd a9b6 7f3e faa7 ce3a e344 243c
000003d0: 509b 93bd 5965 883d 1288 c43c cbd3 cb3d
000003e0: 8b1f a93d ef65 b83c 8dcf 653c bfc9 783d
000003f0: 61cd b33d b5dc 08bd bdaa d33c 1d7a bbbc

bias f4 [256]
1.0899065 -0.20616816 0.30252746 1.1624357 -2.2802117 0.07578045 0.06824159 0.115102634
-0.16887553 -0.38720027 0.049630474 -0.23929669 -0.041784137 1.3985597 -0.42732242 0.054849498
0.3732076 0.14084134 0.15097421 0.05814112 -0.6278941 0.4873591 -0.28856072 -0.121546715
-0.19373612 0.27411512 0.0743847 1.435884 -0.028755268 -0.19026588 -0.046699572 -0.20395182
-0.06038931 0.5503085 0.30917498 -1.320423 -0.22348982 0.4460865 0.9768713 0.36173826
0.1252662 0.93113273 0.34408545 -0.38298744 1.0706607 0.4631405 -0.027168717 1.7159638
-0.43260315 0.19549757 0.33662325 -0.35545677 0.20716077 0.5418951 0.7401706 0.4740742
-1.9254555 -0.7067593 -0.07503421 0.11555327 0.88296986 0.39567894 -0.04708286 -0.49134013
-0.6940398 -0.008435888 0.8001166 -0.01360905 -2.0666065 0.22527334 0.013831696 0.60160065
0.4458384 0.3092254 -0.2828765 -0.06943024 0.73269486 0.21779235 0.555181 0.23244701
-0.1064578 -0.48335713 0.5509216 -0.118882045 0.6696494 0.3656923 -0.0373594 0.11786917
-0.26456073 -2.439133 0.14521748 -0.44605353 -0.644745 -0.3432977 1.3250974 0.5176934
-0.43771538 0.021881146 0.93826354 0.4876331 -1.6974273 0.17164412 0.13852808 0.36855233
0.11141576 -0.2078289 0.8090999 0.8682712 -0.044799764 0.010631962 -0.28213498 -0.002582187
0.3787871 -1.2579626 -0.2633691 0.08606093 0.26916495 -1.5235783 0.75173366 0.8404824
-0.10410487 0.3230629 0.28069085 1.1070464 0.55110216 0.9151231 -0.21155876 0.059657265
0.6804792 0.81023496 0.13553381 1.1472523 0.3263856 0.41454172 0.9463731 1.0091953
0.76966757 -0.29940563 -0.09511672 0.56450903 -0.1729707 0.8367884 -0.3061827 0.6624005
0.5767162 1.1675239 0.45753017 -0.20675851 -0.46097147 0.2799277 -0.5071737 0.18625826
-0.62257767 0.08277956 -0.16124761 0.77299863 0.3853958 -0.037321493 -0.014644004 0.17267004
-0.14908522 0.8758036 -0.17523451 0.69570994 0.13347444 0.65563905 0.1192838 -0.15194349
0.850451 -0.3485687 0.28965825 -0.114250235 -0.0449709 -0.013111096 0.55013245 -0.19102849
-0.12508844 -0.0032274413 -0.18374835 0.087702505 -0.0713039 -0.3443753 -2.2848718 1.1508057
-0.23242371 -0.97691554 -0.061017618 0.16838224 1.5301875 0.47880697 0.44677785 -0.0425048
-0.30718887 0.5421676 0.6560519 -0.43484232 0.1313047 0.27065644 0.5900366 -0.19998999
0.12456344 -1.8055091 -0.07273718 -0.035275955 0.95016444 -0.19028562 0.07345065 0.04111993
1.1101183 -0.0333909 1.2102439 0.024691265 0.008269445 -0.36177012 -0.17559445 0.122396216
0.22461128 0.2615647 -0.052538175 0.31466594 0.41074747 0.3411067 -0.20758945 -0.18631795
-0.11196451 -0.62392163 0.25639588 0.92330986 0.17955433 0.88774246 0.26273182 -1.0584891
0.12694007 -0.29600653 -0.35893124 1.5113328 0.63198566 -0.08578553 -0.05389611 0.11793322
-0.118631825 0.33956432 -0.45487842 0.020606594 0.06375131 0.40431532 1.0368167 0.18399689
0.7100768 -0.32721996 0.3321536 0.3225082 0.9754006 -0.72184974 0.089088574 0.6475392
00000000: 0e82 8b3f bf1d 53be e1e4 9a3e b1ca 943f
00000010: fdee 11c0 c832 9b3d 3fc2 8b3d eeba eb3d
00000020: b5ed 2cbe 1d3f c6be 5349 4b3d 310a 75be
00000030: d825 2bbd 0104 b33f 01ca dabe dea9 603d
00000040: 1115 bf3e b638 103e fc98 1a3e 6225 6e3d
00000050: abbd 20bf 2287 f93e 3bbe 93be 7ced f8bd
00000060: c362 46be d158 8c3e 0157 983d 0ccb b73f
00000070: 2b90 ebbc 0fd5 42be 0d48 3fbd bfd8 50be
00000080: c85a 77bd 05e1 0c3f 2f4c 9e3e 9f03 a9bf
00000090: 84da 64be 7365 e43e 3d14 7a3f c235 b93e
000000a0: c845 003e b75e 6e3f f82b b03e ee16 c4be
000000b0: 690b 893f c020 ed3e ee90 debc b4a4 db3f
000000c0: 297e ddbe 8430 483e e259 ac3e 6efe b5be
000000d0: f421 543e a3b9 0a3f d27b 3d3f dbb9 f23e
000000e0: 5375 f6bf 2dee 34bf 89ab 99bd 31a7 ec3d
000000f0: 500a 623f 6e96 ca3e f5d9 40bd ef90 fbbe
00000100: 98ac 31bf ae36 0abc 71d4 4c3f 7ef8 5ebc
00000110: 4843 04c0 0eae 663e 569e 623c 8002 1a3f
00000120: ee44 e43e cb52 9e3e 30d5 90be 7131 8ebd
00000130: e491 3b3f f504 5f3e 5820 0e3f 9706 6e3e
00000140: 8c06 dabd 967a f7be 3309 0d3f 6e78 f3bd
00000150: 256e 2b3f 053c bb3e 2c06 19bd 6465 f13d
00000160: 8174 87be c11a 1cc0 e4b3 143e 2161 e4be
00000170: 020e 25bf b7c4 afbe cb9c a93f 8e87 043f
00000180: 3b1c e0be 1740 b33c 0a32 703f 0cab f93e
00000190: 4c45 d9bf 7ac3 2f3e 4eda 0d3e e4b2 bc3e
000001a0: f22d e43d 19d1 54be 2c21 4f3f 0547 5e3f
000001b0: f57f 37bd ae31 2e3c ff73 90be e939 29bb
000001c0: 62f0 c13e eb04 a1bf 51d8 86be b640 b03d
000001d0: fdcf 893e 9d04 c3bf 9e71 403f db29 573f
000001e0: ef34 d5bd 8068 a53e b6b6 8f3e b2b3 8d3f
000001f0: 0815 0d3f 8245 6a3f dca2 58be 2d5b 743d
00000200: e333 2e3f 8f6b 4f3f 60c9 0a3e 2ad9 923f
00000210: 031c a73e d03e d43e 8245 723f 502d 813f
00000220: ef08 453f b24b 99be 8ecc c2bd aa83 103f
00000230: 3b1f 31be c437 563f fbc3 9cbe 1493 293f
00000240: aca3 133f 6c71 953f 6541 ea3e 81b8 53be
00000250: 7404 ecbe af52 8f3e 23d6 01bf 7cba 3e3e
00000260: 4061 1fbf 5488 a93d 181e 25be 3de3 453f
00000270: 9952 c53e 6cde 18bd 68ed 6fbc 6ad0 303e
00000280: cca9 18be aa34 603f ad70 33be 0c1a 323f
00000290: 86ad 083e f6d7 273f 114b f43d 1397 1bbe
000002a0: 28b7 593f 9977 b2be 164e 943e 07fc e9bd
000002b0: 6833 38bd eccf 56bc 7bd5 0c3f f99c 43be
000002c0: 2f17 00be 7b83 53bb 8728 3cbe 5f9d b33d
000002d0: c707 92bd f651 b0be 573b 12c0 9a4d 933f
000002e0: 7b00 6ebe 2317 7abf 9ced 79bd 656c 2c3e
000002f0: 2fdd c33f 3026 f53e 11c0 e43e 8319 2ebd
00000300: dc47 9dbe 7fcb 0a3f 04f3 273f a7a3 debe
00000310: bd74 063e 7b93 8a3e a30c 173f 2dca 4cbe
00000320: 1e1b ff3d ec1a e7bf 3bf7 94bd 857d 10bd
00000330: fa3d 733f 3cda 42be 4b6d 963d 5f6d 283d
00000340: 5b18 8e3f e5c4 08bd 46e9 9a3f 5645 ca3c
00000350: 917c 073c ef39 b9be 08cf 33be deaa fa3d
00000360: 8000 663e cfeb 853e 4532 57bd e51b a13e
00000370: 7e4d d23e 8aa5 ae3e 5492 54be 22ca 3ebe
00000380: a64d e5bd 54b9 1fbf 5246 833e 095e 6c3f
00000390: 17dd 373e 1743 633f c984 863e 927c 87bf
000003a0: 94fc 013e 2b8e 97be d6c5 b7be 5a73 c13f
000003b0: d0c9 213f 53b0 afbd 2bc2 5cbd f986 f13d
000003c0: 3ef5 f2bd 60db ad3e d3e5 e8be 29cf a83c
000003d0: 0c90 823d 6b02 cf3e 69b6 843f ae69 3c3e
000003e0: 98c7 353f 6089 a7be 0910 aa3e cb1f a53e
000003f0: dbb3 793f 25cb 38bf 1274 b63d 21c5 253f

weight f4 [64, 256]
0.032108147 -0.11235731 -0.11095618 0.048277643 0.05969131 0.03366902 -0.28383088 -0.012677065
0.02459642 0.057701126 -0.012331108 0.029664677 0.012536258 0.12722959 -0.15873556 -0.99023336
0.18699948 0.007935013 -1.3254663 0.031781223 0.04836761 -0.015140627 0.031535123 0.019917151
0.0426847 0.050612476 0.1265305 0.022111626 0.09440792 0.035964467 0.03226653 0.05616285
-0.03520951 0.060291063 0.022143647 0.018227702 0.020770274 0.122557595 0.033208344 0.030522846
-0.10417999 -1.0235993 0.07145383 0.1493156 0.0043887775 0.08016537 -0.10945258 0.19763318
0.022007862 -0.07242449 -0.002057678 0.038404822 0.005139456 0.14139529 -3.9418683 0.1536263
0.030963397 -0.18489634 0.016642734 0.021948902 0.028974004 -0.030481378 0.09432578 0.019660885
-0.006079409 0.023052365 0.0652137 0.069207035 0.05452511 -0.087464064 -0.038300335 0.040392395
-0.18855904 -0.8330534 0.09917006 -0.018358117 0.1369292 0.040131353 0.020807065 0.018966962
0.008682444 0.04831765 0.010107503 0.09477643 -1.3010577 -0.876342 0.0225131 0.016073424
0.049459904 0.057610948 0.031976808 -0.020778116 -0.014561437 0.05747537 0.12850392 -0.012870016
0.040806115 0.10044443 0.058046624 0.020770239 0.054221362 0.030897006 0.024460763 -1.2121599
0.090375826 -0.029284557 0.03173472 0.32539278 0.020148976 -3.309965 -0.484838 -0.116836295
-1.2960354 0.06317582 -0.15172914 0.04586611 0.03033699 0.066103786 0.035083137 -1.5700558
0.06404772 0.03829201 0.03781 -0.025566211 0.019638669 0.026481776 0.04786648 0.030083079
0.018113941 -0.26589462 0.05528945 0.28664055 0.0019364507 0.014805451 0.029384132 -0.8059571
-0.2044934 -0.010123208 -2.44717 0.07961694 0.027166447 -0.10959295 -0.06546588 -0.08313515
-1.9272099 -0.8540354 0.045751765 -0.00232949 0.0057008406 0.039683573 0.1095559 -0.15209243
0.021776913 -0.0024900697 0.036800522 0.022888241 0.0033206108 -0.029051352 0.046820007 0.03424406
-0.056270484 -0.02605933 -1.4563586 0.012126482 0.01868782 -0.43326235 0.03279375 0.021811994
0.020464294 -0.026439466 0.033908866 -0.09755583 -0.0073674712 0.04511859 0.015108198 0.04515482
0.038573615 0.010391799 0.012044487 0.0040402072 0.013767194 0.00674512 0.04397896 0.038296703
0.022408051 -0.00130968 0.012089916 -0.8340161 0.048120707 0.041785005 -0.029596584 -0.025560377
-1.4219028 -1.93764 0.028677575 -0.12442111 0.04845716 0.06593413 0.036093134 0.026013717
0.023498254 0.030219069 0.045762397 0.042631064 -0.15558515 -0.00050007075 -1.4478673 0.06124347
0.057876576 0.00040511365 -0.24104294 0.13273883 0.030405011 0.045634683 0.041549634 -0.33405778
0.022494707 -0.04800149 -0.041143972 0.016229762 0.07444053 -0.014987355 0.05380456 -0.019141117
0.057686035 0.021080503 0.014967906 -0.77853614 0.007808613 -0.2834477 0.015103299 0.06781931
0.093258366 0.051201362 0.024682948 0.08488918 0.0035400763 0.007227079 0.02672 0.03503029
-0.0050714593 -0.03888445 0.057068013 0.0010201533 0.06698825 0.00050719717 -0.29699668 0.009150439
-0.46121624 0.038990445 0.027402032 0.051643416 0.046148352 0.034334008 0.09676354 -0.1480896
00000000: d583 033d 971b e6bd fe3c e3bd c7be 453d
00000010: e07e 743d 87e8 093d 4852 91be 77b3 4fbc
00000020: 6e7e c93c 0458 6c3d 6a08 4abc 5603 f33c
00000030: e164 4d3c 7948 023e 938b 22be ef7f 7dbf
00000040: cb7c 3f3e db01 023c e1a8 a9bf 072d 023d
00000050: 1d1d 463d 6410 78bc f92a 013d 4b29 a33c
00000060: 27d6 2e3d 074f 4f3d 3691 013e 7123 b53c
00000070: f158 c13d 7a4f 133d e929 043d 040b 663d
00000080: d937 10bd c3f3 763d 9866 b53c 4352 953c
00000090: 6c26 aa3c 7aff fa3d 7905 083d 0c0b fa3c
000000a0: 525c d5bd 4d05 83bf 6356 923d 30e6 183e
000000b0: bccf 8f3b be2d a43d ad28 e0bd 5a60 4a3e
000000c0: d549 b43c 4a53 94bd 1cda 06bb 604e 1d3d
000000d0: e268 a83b edc9 103e 9247 7cc0 3650 1d3e
000000e0: f3a6 fd3c 7755 3dbe 5856 883c 2fce b33c
000000f0: e45a ed3c 15b4 f9bc e02d c13d dd0f a13c
00000100: c735 c7bb 50d8 bc3c c38e 853d 6bbc 8d3d
00000110: b955 5f3d 5c20 b3bd d0e0 1cbd 7f72 253d
00000120: 9f15 41be fd42 55bf ac19 cb3d c363 96bc
00000130: 2b37 0c3e c660 243d 9473 aa3c 9a60 9b3c
00000140: cf40 0e3c bae8 453d f199 253c 251a c23d
00000150: 0f89 a6bf f357 60bf 656d b83c 6aac 833c
00000160: 7896 4a3d 75f9 6b3d 1dfa 023d de36 aabc
00000170: 1893 6ebc 4b6b 6b3d 8896 033e c2dc 52bc
00000180: 5024 273d cfb5 cd3d 4cc2 6d3d 5926 aa3c
00000190: 3817 5e3d b81b fd3c f061 c83c 0e28 9bbf
000001a0: f616 b93d 2be6 efbc 44fc 013d e299 a63e
000001b0: 770f a53c 77d6 53c0 b03c f8be de47 efbd
000001c0: 7de4 a5bf 5362 813d e25e 1bbe 1ade 3b3d
000001d0: 4785 f83c 6c61 873d 56b3 0f3d 97f7 c8bf
000001e0: 732b 833d 15d8 1c3d a9de 1a3d 3b70 d1bc
000001f0: 46e1 a03c 4ff0 d83c a40f 443d ca70 f63c
00000200: b063 943c 5723 88be 3177 623d 8dc2 923e
00000210: 81d0 fd3a 9092 723c feb6 f03c 3453 4ebf
00000220: b866 51be d0db 25bc 6f9e 1cc0 350e a33d
00000230: 2b8c de3c 4572 e0bd fa12 86bd c342 aabd
00000240: d0ae f6bf 10a2 5abf 3466 3b3d 5baa 18bb
00000250: 1ece ba3b 3e8b 223d d85e e03d 1ebe 1bbe
00000260: 7f65 b23c 7030 23bb 25bc 163d 1f80 bb3c
00000270: 9b9e 593b 1afd edbc 56c6 3f3d 8043 0c3d
00000280: e17b 66bd 607a d5bc f569 babf 27ae 463c
00000290: 3317 993c 90d4 ddbe bd52 063d 11af b23c
000002a0: bca4 a73c 9497 d8bc 06e4 0a3d 5acb c7bd
000002b0: d46a f1bb 45ce 383d 6088 773c 43f4 383d
000002c0: 5eff 1d3d 5d42 2a3c 3d56 453c b763 843b
000002d0: cc8f 613c 2b06 dd3b 4823 343d 01dd 1c3d
000002e0: 1791 b73c 92a9 abba c814 463c 1482 55bf
000002f0: 381a 453d c126 2b3d 8974 f2bc ff63 d1bc
00000300: e900 b6bf 9604 f8bf 3ced ea3c 7fd0 febd
00000310: 047b 463d 7908 873d 65d6 133d b81a d53c
00000320: 697f c03c fb8d f73c 5a71 3b3d e99d 2e3d
00000330: b751 1fbe 2e17 03ba b753 b9bf 6fda 7a3d
00000340: fd0f 6d3d 6f65 d439 f6d3 76be b0ec 073e
00000350: ee13 f93c 6feb 3a3d f32f 2a3d 9f09 abbe
00000360: d246 b83c 369d 44bd 9586 28bd 47f4 843c
00000370: 4774 983d 868d 75bc 2c62 5c3d d5cd 9cbc
00000380: 3148 6c3d 05b1 ac3c f33b 753c 254e 47bf
00000390: 65df ff3b 0f20 91be d473 773c dae4 8a3d
000003a0: 3efe be3d 85b8 513d e533 ca3c 61da ad3d
000003b0: a000 683b 22d1 ec3b e7e3 da3c ec7b 0f3d
000003c0: 7c2e a6bb 4d45 1fbd 26c0 693d aab6 853a
000003d0: 2331 893d 6df5 043a f30f 98be b9eb 153c
000003e0: 8924 ecbe 72b4 1f3d 3a7a e03c 0c88 533d
000003f0: 0e06 3d3d d1a1 0c3d f62b c63d cda4 17be

bias f4 [64]
0.038555585 -0.43574595 0.14032175 0.07723243 0.11684472 0.0653863 -0.44664317 0.17442088
-0.38869488 -0.47963822 -0.019365387 0.36720106 0.061408296 0.19560978 -0.57190245 -0.30238384
-0.07315949 -0.05820481 0.3540933 0.46456814 0.43920407 0.22417745 0.04029162 -0.057960063
0.19229348 -0.12721357 0.4493343 -0.06582227 -0.14008883 0.42970994 -0.02654505 0.06198693
0.19478911 -0.07358311 0.58587164 -0.07544365 -0.10431209 0.3823824 0.10398045 0.1372869
0.00083313923 -0.2818539 0.29855543 0.52184546 0.41631287 0.2387577 -0.041318685 -0.010278603
-0.40768972 -0.42578706 -0.019596614 0.18602097 0.2723645 -0.024064265 -0.46084607 -0.45487064
0.116294585 -0.1868049 0.09317868 0.16748227 0.1151627 0.18214242 -0.4885003 0.13815643
00000000: 76ec 1d3d 181a dfbe 81b0 0f3e 092c 9e3d
00000010: 494c ef3d 41e9 853d 6aae e4be 639b 323e
00000020: 0403 c7be 2493 f5be 29a4 9ebc c701 bc3e
00000030: 4487 7b3d ee4d 483e 3368 12bf 0ed2 9abe
00000040: a5d4 95bd 2b68 6ebd b84b b53e e0db ed3e
00000050: 5bdf e03e c68e 653e d308 253d 8867 6dbd
00000060: 95e8 443e 4644 02be 250f e63e d4cd 86bd
00000070: 7273 0fbe f102 dc3e 0175 d9bc 02e6 7d3d
00000080: cc76 473e beb2 96bd affb 153f 3382 9abd
00000090: 94a1 d5bd a0c7 c33e b4f3 d43d f094 0c3e
000000a0: 0767 5a3a 284f 90be 42dc 983e aa97 053f
000000b0: f626 d53e e67c 743e c83d 29bd 9667 28bc
000000c0: b5bc d0be c300 dabe 1489 a0bc 487c 3e3e
000000d0: 5c73 8b3e 6c22 c5bc 04f4 ebbe cee4 e8be
000000e0: db2b ee3d c949 3fbe 77d4 be3d 7980 2b3e
000000f0: 6cda eb3d 8b83 3a3e b61c fabe e178 0d3e
