TP/save_models_MLP/model_3.pt (torch, 136405 bytes, 6 tensors)

weight f4 [128, 64]
0	0xbdd13bc3	-0.10216477
1	0xbd2343b1	-0.039859477
2	0x3dd0cb67	0.10195046
3	0x3e0fbc61	0.14036705
4	0x3e2ca0ed	0.16858263
5	0x3bfc05a2	0.007691101
6	0xbb7cfdda	-0.0038603456
7	0xbce96c65	-0.02849407
8	0xbd613213	-0.054979395
9	0xbeccd3d1	-0.40005353
10	0x3c2b7d28	0.010466851
11	0x3cc88e5e	0.024481948
12	0x3e3670d1	0.17816474
13	0x3cc7721e	0.024346408
14	0xbde7e603	-0.11323168
15	0xbe4851d0	-0.19562459
16	0x3e06658a	0.13124672
17	0xbe12ae7e	-0.14324376
18	0x3e527399	0.2055191
19	0x3dac8dcb	0.08425482
20	0xbd8a9d4f	-0.067682855
21	0xbe72f2d2	-0.23725441
22	0x3ba594b7	0.0050531286
23	0x3d508620	0.05090916
24	0x3b9d90cc	0.004808521
25	0x3e479356	0.19489798
26	0xbe2e1cd9	-0.17003192
27	0x3e2f4354	0.17115527
28	0xbe0b720a	-0.13617721
29	0xbd021cad	-0.03176563
30	0xbe1f0765	-0.15530165
31	0x3d052a8a	0.03251127
32	0x3e3c4269	0.18384708
33	0x3e506559	0.20351161
34	0xbd46a80c	-0.048500106
35	0x3e25a372	0.1617563
36	0xbd5a1c85	-0.053249855
37	0xbddb582b	-0.10710176
38	0x3d869223	0.06570842
39	0xbd93918d	-0.07205496
40	0x3de6e86e	0.11274801
41	0x3d9ec0c5	0.077516116
42	0xbdcb9a65	-0.09941558
43	0x3e32806f	0.17431806
44	0xbd880afc	-0.0664272
45	0x3de338c9	0.11094815
46	0x3df72cc7	0.120690875
47	0x3cc488db	0.023991039
48	0x3e11159e	0.14168403
49	0xbe43f1e5	-0.19135244
50	0xbd363d8a	-0.044492282
51	0x3d77d361	0.06050432
52	0xbe4196f7	-0.18905245
53	0xbd830cf0	-0.06398952
54	0x3e9cc8f7	0.30622074
55	0x3e31a1dd	0.17346902
56	0xbe8207c7	-0.2539656
57	0xbdef0e76	-0.1167268
58	0xbdd7a1d0	-0.1052891
59	0xbdf50143	-0.11963131
60	0xbd986ffe	-0.07443236
61	0x3cac5f86	0.021041643
62	0xbdf2fae7	-0.11864262
63	0x3b5eb9a4	0.0033985162
64	0xbe49a774	-0.19692785
65	0xbd51a7c9	-0.051185403
66	0xbdcf61af	-0.101260535
67	0xbd96569f	-0.073407404
68	0xbcd04bef	-0.025426833
69	0xbc42a4aa	-0.011880079
70	0xbda204e3	-0.07911088
71	0x3c36cb24	0.011156831
72	0xbd9eb96e	-0.07750212
73	0x3ea90a43	0.33015642
74	0x3e0d8f8d	0.13824292
75	0x3d0c5e1f	0.03426945
76	0x3c9f51df	0.019448219
77	0x3dde5bf0	0.108573794
78	0xbcd27f5e	-0.025695499
79	0x3de493f2	0.11161031
80	0x3d3de665	0.0463623
81	0x3e085c30	0.13316417
82	0xbdde5c0c	-0.108574
83	0xbd68833b	-0.056765776
84	0x3df7a3a9	0.120917626
85	0x3e084e57	0.13311134
86	0x3e2106d5	0.15725262
87	0xbb6e7f10	-0.0036391653
88	0xbca7cf9a	-0.020484734
89	0x3c6e757a	0.014554376
90	0xbe823859	-0.25433615
91	0xbe15b54e	-0.14619943
92	0x3e49cbde	0.19706675
93	0xbdde2cba	-0.10848375
94	0x3d4aab3a	0.0494797
95	0xbc8d29b8	-0.017231807
96	0xbb0bb6d6	-0.0021318696
97	0xbb0ae16b	-0.0021191488
98	0xbd9499af	-0.07255875
99	0xbdf50bbe	-0.1196513
100	0xbda03de6	-0.07824306
101	0xbd1ac4ec	-0.037785456
102	0x3dbe6e3d	0.0929837
103	0x3d131924	0.035912648
104	0xbdeee4f3	-0.11664762
105	0xbd84d8d7	-0.064866714
106	0x3dec77ae	0.115462646
107	0x3d88a8de	0.06672834
108	0x3e1bfb65	0.15232618
109	0xbe072dfe	-0.13201138
110	0x3cc35687	0.02384497
111	0xbd7b8965	-0.061410327
112	0xbda6b218	-0.081394374
113	0x3c17cf62	0.0092657525
114	0xbe0400c6	-0.1289092
115	0xbdeffce6	-0.117181584
116	0xbdf5b51e	-0.11997436
117	0xbe50c774	-0.20388585
118	0xbdea8407	-0.114509635
119	0x3d84cedd	0.064847685
120	0x3d326430	0.043552577
121	0xbddc660b	-0.10761651
122	0xbd90aa3d	-0.070637204
123	0xbcbe81c6	-0.02325524
124	0x3c454d80	0.012042403
125	0xbe3bcccf	-0.18339847
126	0xbd4ae0d0	-0.049530804
127	0xbd1f69dc	-0.038919315
128	0xbe3ceaf2	-0.18449
129	0xbdf81dff	-0.12115096
130	0xbd8aff0d	-0.06786928
131	0xbd172033	-0.036895942
132	0x3e0f514a	0.13995853
133	0x3d9c1149	0.076204844
134	0xbdc1781b	-0.094467364
135	0xbd8b8839	-0.06813092
136	0x3c781a7a	0.015143031
137	0xbdb2b2bb	-0.087254964
138	0x3d67dae6	0.056605242
139	0x3da6b4b0	0.08139932
140	0xbc9ed09d	-0.019386584
141	0x3c8e51f2	0.017373059
142	0xbce9b961	-0.028530778
143	0xbe2e6d86	-0.17033967
144	0x3d059e05	0.032621402
145	0x3e2f8e62	0.17144158
146	0xbdf34db2	-0.118800536
147	0xbdfc380a	-0.12315376
148	0x3dce1645	0.10062841
149	0x3b7a09b9	0.0038152768
150	0xbd05ed22	-0.03269685
151	0xbd304d9c	-0.043042764
152	0xbd595feb	-0.05306999
153	0xbe268096	-0.16259989
154	0x3e093c21	0.13401844
155	0x3e82a2b7	0.25514767
156	0x3d51f4b1	0.051258747
157	0xbdcbc0de	-0.09948896
158	0xbe402f99	-0.18768157
159	0xbdadfb78	-0.084952295
160	0x3b010be6	0.001969093
161	0xbe56e23d	-0.2098474
162	0x3dd4496c	0.103655666
163	0x3d842784	0.064528495
164	0xbe39cf75	-0.18145545
165	0xbe310126	-0.17285594
166	0xbdd5ed6f	-0.104456775
167	0xbe3914c1	-0.18074323
168	0x3d5a4735	0.053290565
169	0xbd9f1fac	-0.07769713
170	0x3c48bebe	0.012252508
171	0x3d7b8c7d	0.061413277
172	0xbe124f9d	-0.14288183
173	0xbc6358dd	-0.013876167
174	0x3c322701	0.010873557
175	0xbe011c1a	-0.12608376
176	0xbdea8909	-0.11451919
177	0xbed9e054	-0.4255396
178	0xbc651d7d	-0.013984081
179	0x3bf0f8d6	0.0073538823
180	0x3e51ca3f	0.20487307
181	0xbd95ed02	-0.07320596
182	0x3cc5ebef	0.024160353
183	0xbe77fbc0	-0.24217129
184	0xbd462156	-0.048371635
185	0xbe4fcc5b	-0.20292799
186	0xbd72afe2	-0.059249766
187	0xbdd07f69	-0.101805516
188	0x3dc218c7	0.09477382
189	0x3dcf2ca0	0.101159334
190	0xbdb06255	-0.08612505
191	0xbe3391b3	-0.17536049
192	0xbe443d04	-0.191639
193	0x3dddf1fd	0.10837171
194	0xbdeec2ae	-0.11658226
195	0x3c60f7a1	0.013730914
196	0xbdc22417	-0.0947954
197	0x3d4acdd8	0.049512714
198	0xbde5ab86	-0.11214356
199	0x3ca680d2	0.020325098
200	0xbd3d1e28	-0.046171337
201	0x3e756f9a	0.23968354
202	0x3d8115c9	0.06302983
203	0xbcb65316	-0.022256415
204	0x3d96e1c9	0.07367284
205	0xbd33ce58	-0.043897957
206	0x3deac949	0.11464173
207	0x3e15d23e	0.14630982
208	0x3d004354	0.03131421
209	0x3dbd3931	0.09239424
210	0xbe958980	-0.29206467
211	0xbe0d0bf5	-0.13774092
212	0x3dc9e979	0.098589845
213	0x3e2363be	0.15956017
214	0x3d260e4a	0.04054097
215	0x3dd9c858	0.10633916
216	0xbca58cda	-0.020208765
217	0xbdbab54d	-0.09116612
218	0x3e569475	0.2095507
219	0xbe4a69d2	-0.1976693
220	0xbe0dd95f	-0.13852452
221	0x3d43cef3	0.047804784
222	0x3e2e5592	0.1702483
223	0x3e176499	0.14784469
224	0xbe5bfe67	-0.21483766
225	0xbd660d8e	-0.05616527
226	0x3e19d56a	0.15022817
227	0xbe4078b4	-0.18796045
228	0x3e2dbefe	0.16967389
229	0x3d0ec0b3	0.03485174
230	0xbd4ab06c	-0.049484655
231	0x3d8bb79b	0.06822129
232	0xbe689c98	-0.22715986
233	0xbe2af5f4	-0.16695386
234	0x3d537d89	0.05163339
235	0xbdbba4b8	-0.09162277
236	0xbd703461	-0.058643702
237	0x3de55226	0.11197309
238	0x3d022466	0.031772994
239	0x3d092a05	0.03348734
240	0xbe0ad2f7	-0.13557039
241	0xbed1e93f	-0.40998265
242	0xbe3fb8bc	-0.18722814
243	0xbcc25312	-0.023721252
244	0xbe28c939	-0.1648301
245	0x3d7bbe11	0.06146056
246	0xbe16fdfb	-0.14745323
247	0x3d698a9c	0.057016954
248	0x3e1bd769	0.15218891
249	0x3d17627b	0.036959153
250	0x3c24259a	0.010018731
251	0x3d0a725b	0.033800464
252	0xbd6ff988	-0.05858758
253	0x3d56f80e	0.052482657
254	0x3d6beba6	0.05759778
255	0xbd40130a	-0.046893157

bias f4 [128]
0	0x3d324d5d	0.04353081
1	0x3cd85601	0.026408197
2	0xbdb41802	-0.087936416
3	0xbde27c9e	-0.11058925
4	0x3e1a1e61	0.15050651
5	0xbd9b909b	-0.07595941
6	0x3e2cfb40	0.1689272
7	0xbd1d318d	-0.038377333
8	0x3e0b4c29	0.13603272
9	0x3db7745f	0.08957743
10	0x3dca4687	0.09876733
11	0x3e093a04	0.13401037
12	0xbcb84162	-0.022492114
13	0xbd437a08	-0.0477238
14	0xbd1bbd16	-0.038022123
15	0x3cfed7d2	0.03110877
16	0x3c4d8018	0.012542747
17	0x3dd6e4ab	0.10492834
18	0x3de552a6	0.111974046
19	0x3d86826d	0.065678455
20	0x3d20f494	0.039295748
21	0x3e847a7e	0.25874704
22	0x3d52e391	0.051486555
23	0xbb863c5b	-0.0040965504
24	0x3dcb19eb	0.09917053
25	0xbdefd6f2	-0.117109194
26	0xbd789e03	-0.060697567
27	0xbc4a19d0	-0.012335256
28	0xbde80aa6	-0.11330156
29	0xbdbcd674	-0.09220591
30	0x3cca6b32	0.024709318
31	0x3d66e414	0.056369856
32	0xbdef62a2	-0.116887346
33	0x3d0a6433	0.033786964
34	0x3cabba36	0.020962816
35	0xbd38cd69	-0.04511777
36	0x3d21d178	0.039506406
37	0x3db3cde1	0.08779503
38	0xbe3f98db	-0.18710653
39	0xbdcecec6	-0.10098033
40	0xbdb5f475	-0.08884517
41	0xbcc42ffc	-0.023948662
42	0xbc45af60	-0.012065738
43	0xbd206a46	-0.03916385
44	0xbe49ce9d	-0.19707723
45	0xbd9024ec	-0.07038292
46	0x3e0f8760	0.14016485
47	0x3e08b87a	0.13351622
48	0xbd17c703	-0.037055027
49	0x3de341dd	0.11096547
50	0x3d106cbb	0.035259943
51	0x3e053499	0.13008346
52	0xbda174df	-0.078836195
53	0xbdb79554	-0.08964029
54	0xbc410e71	-0.011783228
55	0xbc6ab798	-0.014325999
56	0xbd451f75	-0.048125703
57	0x3bb1a883	0.0054216995
58	0x3dac34f4	0.084085375
59	0xbd4b7835	-0.049675185
60	0x3ca388bd	0.019962663
61	0x3d58766d	0.052847315
62	0x3d9cdd9b	0.076594554
63	0xbd89a605	-0.06721119
64	0x3d8e5654	0.069500595
65	0x3d96ddea	0.073665455
66	0x3e437ba8	0.1909014
67	0xbd70bae9	-0.058772
68	0xbd4bc474	-0.0497479
69	0xbe0c97fc	-0.13729852
70	0xbd52b88d	-0.051445533
71	0xbd90ab9a	-0.070639804
72	0xbe0954dc	-0.13411278
73	0x3e173021	0.14764453
74	0xbdd0473f	-0.10169839
75	0x3d533870	0.051567495
76	0xbd4ece0a	-0.050489463
77	0x3d5925fd	0.053014744
78	0x3bb5e8b4	0.005551422
79	0x3dd5c597	0.10438078
80	0xbd0e263e	-0.03470444
81	0x3d99bd9b	0.075068675
82	0xbdd0d29f	-0.10196423
83	0xbdacfae0	-0.08446288
84	0xbd913330	-0.07089841
85	0xbe5b12c1	-0.21393873
86	0x3d0d0455	0.03442796
87	0xbd288883	-0.041145813
88	0x3d631d9a	0.055448152
89	0x3dc78c5e	0.0974357
90	0x3dcdd2ae	0.100499496
91	0x3988c25f	0.0002608476
92	0xbcf3da15	-0.029767076
93	0x3d0520a0	0.032501817
94	0x3dee2273	0.116276644
95	0xbcf3364c	-0.029688977
96	0xbcbeb74d	-0.023280764
97	0x3cc8a291	0.02449158
98	0x3ce74ec3	0.028235799
99	0x3e114db8	0.14189804
100	0xbdad2a6f	-0.08455359
101	0xbdc9671b	-0.09834119
102	0xbd2437fc	-0.040092453
103	0x3ddf8464	0.109139234
104	0x3d7d409c	0.061829194
105	0x3e861e7f	0.26195142
106	0x3e036415	0.12831147
107	0xbdbb03aa	-0.09131558
108	0x3dee6784	0.11640838
109	0x3e059bf7	0.13047777
110	0x3db5d9f0	0.08879459
111	0x3e2a5da9	0.16637291
112	0x3e14e983	0.14542203
113	0xbcf6e53d	-0.030138606
114	0x3c8af657	0.016963167
115	0xbe29b63d	-0.16573425
116	0x3d32a976	0.04361864
117	0x3d395409	0.045246158
118	0x3db309b1	0.08742083
119	0xbd00862f	-0.031377967
120	0xbd6da866	-0.058021925
121	0x3c021032	0.007938432
122	0xbd710a7d	-0.058847893
123	0x3e232991	0.15933825
124	0x3c993a9e	0.018704709
125	0x3d6eb2a2	0.058275826
126	0xbd79f69b	-0.061026197
127	0xbdb3ca0b	-0.08778771

weight f4 [128, 128]
0	0x3c78e47a	0.015191192
1	0xbd224653	-0.039617848
2	0xbb52b4d9	-0.003215125
3	0x3c6eaa67	0.014566994
4	0xbe0743fd	-0.13209529
5	0x3db74fb2	0.089507475
6	0xbdb3fa9a	-0.08788033
7	0x3e12fdbd	0.14354606
8	0x3da1d710	0.07902348
9	0x3dcce9d4	0.10005537
10	0xbcb945ad	-0.022616232
11	0xbd899293	-0.0671741
12	0xbde78022	-0.11303736
13	0x3ce60c20	0.028081954
14	0xbd24edab	-0.04026572
15	0x3da22302	0.079168335
16	0xbdb7f273	-0.089817904
17	0x3dfe30d1	0.12411655
18	0x3d6a5c58	0.057216972
19	0x3e1cfa1f	0.15329789
20	0xbc4a2d01	-0.012339831
21	0x3e3a1df4	0.18175489
22	0x3e151fec	0.14562958
23	0xbe378f85	-0.17925842
24	0xbdd20fcc	-0.10256919
25	0x3db92f96	0.090422794
26	0x3ea13813	0.31488094
27	0x3dd2ba65	0.10289458
28	0x3e830a6e	0.25593895
29	0xbe284d0b	-0.1643564
30	0x3d1bd90a	0.03804878
31	0xbe4eeab3	-0.20206718
32	0xbcf174a0	-0.029474556
33	0x3dc2497c	0.09486672
34	0xbe2c0a0c	-0.16800708
35	0xbe2819fd	-0.16416164
36	0xbdc742f2	-0.09729566
37	0xbe8130a7	-0.2523243
38	0x3caaebe9	0.020864444
39	0x3e213f5e	0.15746829
40	0x3dcd2b45	0.10018019
41	0xbccc575d	-0.024944002
42	0xbd4dbbf1	-0.050228063
43	0xbe0d0b79	-0.13773908
44	0x3d65ca7c	0.056101307
45	0xbe67e9ab	-0.22647731
46	0x3cacfc6b	0.021116456
47	0x3db6fa80	0.08934498
48	0x3dcb7566	0.09934501
49	0x3cb557c4	0.022136576
50	0xbe211976	-0.15732369
51	0x3e232641	0.15932561
52	0x3e31aaa5	0.17350252
53	0x3da0dfe6	0.07855205
54	0x3d9026f2	0.07038678
55	0xbe8b7673	-0.27238807
56	0x3c7a0026	0.015258824
57	0xbdd5e642	-0.10444309
58	0xbe586400	-0.21131897
59	0xbe74e756	-0.23916373
60	0xbe313764	-0.17306286
61	0x3e2d9ee1	0.16955139
62	0x3db14703	0.086561225
63	0x3e95c075	0.29248396
64	0x3dbfa30a	0.09357269
65	0xbe124e15	-0.14287598
66	0x3db1ecc3	0.08687737
67	0xbe6dd764	-0.23226696
68	0xbe067420	-0.13130236
69	0xbe26c826	-0.16287288
70	0xbe099738	-0.13436592
71	0xbd5f701e	-0.054550283
72	0xbd046514	-0.032322958
73	0x3ce7903e	0.028267022
74	0x388372d4	6.267955e-05
75	0xbc21ae54	-0.009868223
76	0x3e1136a2	0.14180997
77	0x3e279a6e	0.16367504
78	0xbdd26aa1	-0.10274244
79	0x3d528b0b	0.051402133
80	0x3d56b453	0.052418064
81	0xbdc6c93a	-0.0970635
82	0x3e5cfd6d	0.2158105
83	0xbded31eb	-0.11581787
84	0x3e1214e8	0.14265788
85	0x3dd24af0	0.102681994
86	0x3c83ef33	0.01610527
87	0xbd27a550	-0.04092914
88	0x3e4f918c	0.20270365
89	0xbe3b7723	-0.18307166
90	0xbda26b6f	-0.079306476
91	0x3ca2f176	0.019890528
92	0x3d926d29	0.07149727
93	0xbe284960	-0.1643424
94	0x3d29e0cc	0.04147415
95	0x3d83907a	0.06424041
96	0xbd3b49c3	-0.04572464
97	0x3e584875	0.2112139
98	0x3b23ca00	0.0024992228
99	0x3dce8382	0.10083677
100	0x3da4b292	0.08041872
101	0xbd403488	-0.046925098
102	0x3b924a79	0.0044644442
103	0xbdb96c6e	-0.090538844
104	0x3e0ac04a	0.13549915
105	0xbe24d0e8	-0.16095316
106	0xbe0daaec	-0.13834733
107	0xbdf4e75e	-0.11958192
108	0x3d7ced4f	0.061749753
109	0xbdc919bb	-0.09819361
110	0xbd0bb056	-0.034103714
111	0xbdefa679	-0.11701674
112	0x3e1a4b62	0.15067819
113	0x3d12c695	0.035833914
114	0x3df701c5	0.120608844
115	0x3d061926	0.032738827
116	0xbe309d72	-0.1724756
117	0xbd4ab969	-0.049493227
118	0x3d6f0190	0.0583511
119	0x3c8c4c2f	0.01712617
120	0x3e26cf6d	0.16290064
121	0xbd89865a	-0.06715079
122	0xbcc4d67b	-0.024028054
123	0x3d0c1dc0	0.03420806
124	0x3e231988	0.15927708
125	0x3dbf56d4	0.09342733
126	0x3dbf5e15	0.093441166
127	0x3ded0d78	0.115748346
128	0x3dd2c8a6	0.10292177
129	0x3d8fdfe1	0.070251234
130	0xbd986851	-0.07441772
131	0x3deef8b0	0.11668527
132	0xbe652bd8	-0.22380006
133	0xbdcdea97	-0.1005451
134	0xbc973690	-0.018458635
135	0x3c0ea524	0.008706365
136	0x3d9f37c4	0.07774308
137	0xbdd04450	-0.101692796
138	0x3b6fd1ab	0.0036593478
139	0x3b9a51d1	0.0047094603
140	0xbc96cb5c	-0.018407516
141	0xbe7016de	-0.23446223
142	0xbe3ddc23	-0.18541007
143	0x3c33793e	0.010954199
144	0x3e45b6e9	0.19308056
145	0xbd61b5a9	-0.055104885
146	0xbca4b107	-0.020103944
147	0x3e31faea	0.17380872
148	0xbd8e7828	-0.06956512
149	0xbdaf93de	-0.08573125
150	0xbdb194b9	-0.08670945
151	0xbe404f16	-0.18780169
152	0x3b326758	0.0027222242
153	0xbe3bb3de	-0.18330333
154	0xbe236997	-0.15958248
155	0xbd9e3edf	-0.077268355
156	0xbddc337b	-0.107520066
157	0x3db94c26	0.09047727
158	0x3d3136f7	0.04326531
159	0x3daf94a1	0.085732706
160	0xbe0feb35	-0.14054568
161	0x3c10ae24	0.008830581
162	0xbe4e54be	-0.20149514
163	0xbe624537	-0.22096716
164	0xbd04e85b	-0.032448154
165	0xbe4aa5d5	-0.19789822
166	0x3e11ef85	0.14251526
167	0x3d7a4946	0.061105035
168	0xbe44a7bd	-0.19204612
169	0x3d98803c	0.07446334
170	0xbe3c136f	-0.18366788
171	0xbd9a02eb	-0.07520088
172	0xbcf635a2	-0.030054871
173	0x3dbafac8	0.09129864
174	0xbbede5ce	-0.007260061
175	0xbc3abeb8	-0.01139801
176	0xbe1f47cc	-0.15554732
177	0x3e35de9f	0.17760704
178	0xbe280ae8	-0.1641041
179	0xbe1fdb42	-0.15610984
180	0x3df4cf54	0.11953607
181	0xbd7029d0	-0.058633626
182	0xbd858873	-0.06520166
183	0x3de0229e	0.10944103
184	0xbd09ae16	-0.033613287
185	0x3d5dfd85	0.054196853
186	0xbdab9a6a	-0.083790615
187	0x3e5ad327	0.2136961
188	0xbd999f0c	-0.07501039
189	0x3d6c691a	0.05771742
190	0xbe671497	-0.22566448
191	0x3e4ee3f6	0.20204148
192	0xbe207f51	-0.15673567
193	0xbbc63916	-0.0060492856
194	0xbd0d7b1b	-0.03454123
195	0xbb8f705d	-0.0043774084
196	0xbc3df7b0	-0.011594698
197	0x3cac0a33	0.021000957
198	0xbe812d97	-0.25230095
199	0x3cd58cce	0.026068117
200	0xbe206098	-0.15661848
201	0xbad1902c	-0.0015988401
202	0xbe156bc1	-0.14591886
203	0x3e82c1c8	0.25538468
204	0xbd2d690b	-0.042336505
205	0xbe07bcb9	-0.13255586
206	0xbdcb3919	-0.09923
207	0x3e66c0e8	0.22534525
208	0x3d05fa54	0.032709435
209	0xbcc60d5a	-0.024176288
210	0x3b01932a	0.0019771555
211	0xbe5b0ffb	-0.21392815
212	0x3d282221	0.041048173
213	0xbe7ca41d	-0.24671979
214	0xbe471067	-0.19439851
215	0x3e59a06c	0.21252602
216	0xbe0d8f89	-0.13824286
217	0x3a485564	0.0007642119
218	0xbccbd983	-0.024883991
219	0xbd9cdacd	-0.076589204
220	0xbc146148	-0.009056397
221	0x3d5951a6	0.05305638
222	0xbb28883e	-0.0025715972
223	0x3dcf224c	0.101139635
224	0xbd24a344	-0.040194765
225	0x3e04338d	0.1291029
226	0xbe007346	-0.12543973
227	0xbd111a5d	-0.035425533
228	0xbe0028c6	-0.12515554
229	0xbd9015aa	-0.07035382
230	0xbd4ad36e	-0.04951804
231	0x3df7792d	0.12083659
232	0x3d09bfdd	0.03363024
233	0xbd8ac8e8	-0.06776601
234	0xbceaed1e	-0.02867752
235	0xbe27f364	-0.1640144
236	0xba35d588	-0.00069364207
237	0x3dcb29ba	0.09920068
238	0xbde40e2c	-0.111355156
239	0xbdd16687	-0.10224634
240	0xbc8ea841	-0.017414214
241	0x3e98e1a6	0.29859656
242	0x3c820aff	0.015874384
243	0x3d889ece	0.066709146
244	0x3ea76967	0.32697603
245	0x3d231deb	0.039823454
246	0xbb2235c7	-0.0024751292
247	0xbe78947f	-0.24275397
248	0x3b372b1c	0.002794928
249	0xbc8546ce	-0.016269114
250	0x3cde9e24	0.027175017
251	0x3e35f2b3	0.17768364
252	0xbe38ff77	-0.18066202
253	0xbe1861dc	-0.1488108
254	0xbc8ce621	-0.017199578
255	0xbe2f369b	-0.17110674

bias f4 [128]
0	0x3d7c5773	0.061606836
1	0x3d85f8d3	0.065416
2	0x3ccf942b	0.025339207
3	0x3c287df9	0.0102839405
4	0x3df283fb	0.118415795
5	0xbd13ebea	-0.036113657
6	0xbd67f753	-0.05663235
7	0x3da87ae5	0.08226565
8	0x3d9c569c	0.07633707
9	0xbd98b094	-0.074555546
10	0xbe0f9591	-0.14021899
11	0x3c0370a0	0.008022457
12	0xbe1fbb6b	-0.15598838
13	0xbcce9848	-0.025219098
14	0x3dd7c516	0.10535638
15	0xbdcc8428	-0.09986144
16	0x3dd24fff	0.10269164
17	0x3d0224bf	0.031773325
18	0xbd422dfe	-0.047407143
19	0xbbf1b3e7	-0.0073761824
20	0xbd7a353c	-0.061085925
21	0xbc1acf65	-0.009448861
22	0x3c975165	0.01847143
23	0xbe069cd8	-0.13145769
24	0x3d99972d	0.074995376
25	0x3dba1b5d	0.090872504
26	0xbd4642a4	-0.048403397
27	0xbd4fcbb0	-0.05073136
28	0x3dfbc5f0	0.12293613
29	0xbd0b5b16	-0.034022413
30	0x3d114206	0.035463355
31	0x3d94d162	0.07266499
32	0xbda7af23	-0.081877016
33	0x3e1f74d7	0.15571915
34	0x3cf74108	0.030182377
35	0xbcdc8b1b	-0.0269218
36	0xbe10cbef	-0.14140294
37	0x3e2ffa7e	0.17185399
38	0xbcbca97b	-0.023030033
39	0xbd10679d	-0.035255063
40	0x3ca6ba35	0.020352462
41	0xbc75a4e7	-0.014992929
42	0xbc9edb94	-0.019391812
43	0x3c9291ea	0.017891843
44	0x3d9ebd5a	0.0775096
45	0x3e1e93a0	0.15486002
46	0xbe009163	-0.1255546
47	0x3d8376a5	0.06419114
48	0xbd64d5d7	-0.055867996
49	0xbdc33f16	-0.09533517
50	0x3d70864b	0.05872182
51	0x3c9bf773	0.019038891
52	0xbc969536	-0.018381696
53	0xbd9ae7bf	-0.07563733
54	0xbe1561ec	-0.14588135
55	0x3df18f4f	0.11794912
56	0xbd6170f5	-0.055039365
57	0x3c4afa37	0.012388757
58	0x3d5e53a4	0.054278985
59	0x3ddb0900	0.10695076
60	0x3df5cb0b	0.12001618
61	0x3d7ecfc1	0.06220985
62	0xbdbc0b56	-0.0918185
63	0xbd175f90	-0.03695637
64	0xbbd361c6	-0.0064508645
65	0x3d40870c	0.04700379
66	0xbe140677	-0.14455591
67	0xbc90a79a	-0.017658044
68	0xbd9001cc	-0.07031593
69	0xbd1af6a7	-0.037832882
70	0x3d972d82	0.07381727
71	0xbd7977b9	-0.060905192
72	0x3cc1fae1	0.023679199
73	0x3db6a899	0.08918876
74	0xbdb53ecf	-0.088498704
75	0x3d74a474	0.059727147
76	0xbd3a8e3d	-0.045545805
77	0x3b76c11f	0.003765173
78	0xbce2d3b7	-0.027688844
79	0xbdea42b1	-0.114385016
80	0xbd0626b8	-0.03275177
81	0xbc91dd4d	-0.01780572
82	0xba914e01	-0.0011085869
83	0x3d9896fd	0.07450674
84	0xbe0d000e	-0.13769552
85	0x3def3e2f	0.116817825
86	0xbda5c1f5	-0.08093635
87	0xbb88fa44	-0.0041802246
88	0x3d84eb1a	0.064901546
89	0xbd12c5ad	-0.03583305
90	0x3df7a721	0.12092424
91	0x3be587fc	0.007004736
92	0xbdf9e855	-0.12202517
93	0xbdb10280	-0.08643055
94	0xbe0ae903	-0.1356545
95	0x3d34d09a	0.04414425
96	0x3dec9b4a	0.115530565
97	0x3dbfacc8	0.09359127
98	0xbd0a4a01	-0.033761982
99	0x3e2e50cb	0.17023008
100	0xbdc162f7	-0.09442704
101	0xbe1957fb	-0.14974968
102	0xbd7a26d5	-0.06107219
103	0x3aff609d	0.0019483749
104	0xbdc6dde8	-0.09710294
105	0x3d846e11	0.06466306
106	0xbd58b293	-0.052904677
107	0x3de46192	0.111514226
108	0xbd8d1235	-0.06888238
109	0xbd61f983	-0.055169594
110	0x3d8627da	0.0655057
111	0x3c5bd4c2	0.013417425
112	0xbceaa532	-0.028643224
113	0xbdf0e676	-0.11762707
114	0xbe0511fb	-0.1299514
115	0x3e2b488c	0.16726893
116	0xbd66b5f8	-0.056325883
117	0xbd7b0b30	-0.061289966
118	0x3db55e6b	0.088558994
119	0x3d439201	0.047746662
120	0x3db05cd5	0.08611456
121	0x3dd25867	0.10270768
122	0xbc069673	-0.008214581
123	0x3e13e354	0.14442188
124	0x3cfe87c0	0.03107059
125	0x3dd97964	0.106188565
126	0x3d41445c	0.047184333
127	0xbe39001e	-0.18066451

weight f4 [64, 128]
0	0x3dd68294	0.104741246
1	0xbdbc917a	-0.09207435
2	0x3dbf0c6f	0.093285434
3	0xbce2fa34	-0.027707197
4	0xbe3be5a4	-0.1834932
5	0xbe087d18	-0.1332897
6	0x3df17c52	0.1179129
7	0xbe8c014f	-0.27344748
8	0x3bdbdab3	0.0067094206
9	0x3dea056c	0.114268154
10	0xbddbd0da	-0.10733195
11	0xbd518c78	-0.051159352
12	0x3e07a14a	0.1324512
13	0xbd6316a7	-0.055441525
14	0xbe4991af	-0.1968448
15	0xbd542d64	-0.0518011
16	0xbe31427f	-0.17310522
17	0x3d7e989e	0.062157266
18	0xbc26dca4	-0.010184441
19	0x3e4648d1	0.19363715
20	0x3b941cfa	0.004520056
21	0x3db076a0	0.08616376
22	0x3b9f1c7e	0.0048556915
23	0xbe8d4efd	-0.27599326
24	0x3d560701	0.052252773
25	0xbc38ac98	-0.011271618
26	0x3e26b68e	0.16280577
27	0x3c0bd048	0.008533545
28	0xbe3c3fbb	-0.18383686
29	0x3cfc1cd0	0.030775458
30	0x3e0c775e	0.1371741
31	0x3e465e70	0.19371963
32	0xbd8fa831	-0.07014502
33	0x3df321e8	0.118717015
34	0x3cc0c6c2	0.023532275
35	0xbe247adf	-0.16062497
36	0x3e8af7d2	0.27142197
37	0xbe01b4dd	-0.1266665
38	0xbcfc4f03	-0.030799394
39	0xbe04f811	-0.12985255
40	0xbe48f94c	-0.19626349
41	0xbdacc0e1	-0.08435226
42	0x3e600704	0.21877676
43	0x3dbe7384	0.092993766
44	0xbdae131f	-0.08499741
45	0xbdff7314	-0.12473121
46	0x3e20686c	0.15664834
47	0xbc128a4d	-0.008944106
48	0x3deaf30d	0.114721395
49	0x3d9b696a	0.075884655
50	0xbe05e1e8	-0.13074458
51	0x3da820b2	0.08209361
52	0x3e097c4c	0.13426322
53	0x3e1eb0c2	0.15497115
54	0x3d9ea10b	0.0774556
55	0xbe68ddce	-0.22740862
56	0x3e3e14ca	0.18562618
57	0xbe151a70	-0.14560866
58	0xbe33f21d	-0.17572828
59	0x3d6d0f30	0.057875812
60	0xbc41b625	-0.011823212
61	0x3d7b99d3	0.061425995
62	0xbc375743	-0.011190238
63	0x3e0314ea	0.12800947
64	0xbeae22ee	-0.34011024
65	0x3e5c494b	0.21512334
66	0xbcc5c49c	-0.024141602
67	0x3cdae9c7	0.026722802
68	0x3da7d5da	0.08195086
69	0x3d997539	0.074930616
70	0x3da4933a	0.08035894
71	0xbd20da9e	-0.03927099
72	0xbd45ab89	-0.04825929
73	0xbe56ed1e	-0.2098889
74	0x3cbb7197	0.022881312
75	0x3dfd1326	0.12357168
76	0x3e44a35f	0.19202946
77	0x3c6fe216	0.014641305
78	0x3e156ce9	0.14592327
79	0x3e0a4423	0.13502555
80	0xbd947d55	-0.07250468
81	0x3e61b82c	0.22042912
82	0x3ca08fed	0.01959988
83	0x3e1ae9ef	0.15128301
84	0xbe892d33	-0.26792297
85	0x3e269568	0.16267931
86	0x3da16ec8	0.07882458
87	0xbd83b67a	-0.06431289
88	0x3e0b932e	0.13630363
89	0x3dd35853	0.10319581
90	0xbd5a7c19	-0.053341005
91	0xbe73a941	-0.23795034
92	0xbe055b6b	-0.13023154
93	0xbdcd7097	-0.100312404
94	0x3e259d6c	0.16173333
95	0x3b1c43eb	0.0023844193
96	0x3e0c9cae	0.13731644
97	0xbd49d376	-0.04927393
98	0xbd005696	-0.031332575
99	0xbdc44ac0	-0.0958457
100	0x3c742e5d	0.014903632
101	0x3e3d9541	0.18513967
102	0x3e32a539	0.1744584
103	0xbd87cc09	-0.066307135
104	0x3e8cac0c	0.2747501
105	0xbda1e04a	-0.07904108
106	0x3e33d0c7	0.17560111
107	0x3e8b1a88	0.2716868
108	0x3df07a97	0.11742132
109	0xbd841160	-0.064486265
110	0xbb3a3f03	-0.0028418906
111	0xbe2d19f2	-0.16904429
112	0x3af669a6	0.0018799796
113	0xbe2b2149	-0.16711916
114	0x3e2099ab	0.1568362
115	0xbd9af3e9	-0.075660534
116	0x3a8903b4	0.0010453374
117	0x3dfc8d5d	0.123316504
118	0x3e50ee89	0.20403494
119	0x3c96e286	0.018418562
120	0xbe1c4943	-0.15262322
121	0xbd959bff	-0.073051445
122	0x3dc0769f	0.09397625
123	0xbe66384a	-0.2248241
124	0x3d35aa69	0.04435197
125	0x3d353b22	0.044245847
126	0xbda1ac8e	-0.0789424
127	0xbd622dd9	-0.055219505
128	0xbd3b6e7e	-0.04575967
129	0x3d252433	0.040317725
130	0x3d8f1755	0.06986872
131	0xbd47227b	-0.048616868
132	0xbd49bc25	-0.049251694
133	0x3d9e7f8a	0.0773917
134	0xbc99415f	-0.01870793
135	0xbd9c692a	-0.07637246
136	0xbdf9965c	-0.12186882
137	0x3d3a0d0b	0.045422595
138	0x3ce98bc6	0.028509032
139	0xbde3220d	-0.11090479
140	0xbc441ab1	-0.011969254
141	0xbd9edb3d	-0.0775666
142	0x3d2450a9	0.040115986
143	0xbcd754ae	-0.026285496
144	0xbe0e2aa3	-0.13883452
145	0x3b10a4c7	0.0022070871
146	0xbc9b5f92	-0.01896647
147	0xbc388b07	-0.011263615
148	0xbc2541be	-0.010086475
149	0xbd596252	-0.05307228
150	0xbc41d2ec	-0.011830073
151	0x3d6d1b07	0.057887103
152	0xbaa82fb1	-0.0012831596
153	0x3d86c1a6	0.06579904
154	0x3d26e151	0.040742222
155	0xbcfd3c04	-0.030912407
156	0xbdacbeca	-0.084348276
157	0x3c89ef34	0.016837694
158	0xbdc2d6a0	-0.09513593
159	0x3bdb84ce	0.006699181
160	0x3d1b0279	0.037844155
161	0x3bf2013a	0.0073854
162	0x3d28cdda	0.04121194
163	0xbdb9e536	-0.09076922
164	0x3d88ce86	0.06680016
165	0x3cbfd2f9	0.02341603
166	0x3d3143e8	0.04327765
167	0x3bb39247	0.005480084
168	0x3d1635ca	0.03667239
169	0x3d21e96d	0.039529253
170	0x3ca91480	0.020639658
171	0x3dc2ba6a	0.09508212
172	0xbcd6f2ff	-0.026238916
173	0xbdbfed4c	-0.09371433
174	0x3d4cca82	0.049997814
175	0x3daceb2f	0.08443295
176	0x3d3c4607	0.04596522
177	0x3da5a51c	0.08088133
178	0xbd689ef0	-0.0567922
179	0x3db63a75	0.088978685
180	0x3d1529e4	0.036416903
181	0x3da9cf00	0.08291435
182	0x3dce0a37	0.10060542
183	0xbe14602e	-0.14489815
184	0x3aac3024	0.0013136906
185	0xbd54a6fa	-0.051917054
186	0xbcee7d65	-0.029112527
187	0x3c2503bc	0.010071691
188	0xbd87ba87	-0.06627374
189	0xbe1761b1	-0.1478336
190	0x3d92a5ba	0.07160516
191	0x3c620d04	0.0137970485
192	0x3d2822fa	0.04104898
193	0x3d77b91a	0.06047926
194	0x3c5ffa6e	0.013670547
195	0xbd434de1	-0.047681693
196	0x3bf18333	0.0073703765
197	0x3c747e46	0.014922684
198	0x3cd78a18	0.026310965
199	0x3dd8b10e	0.105806455
200	0xbde24c1b	-0.11049672
201	0xbe15ebd5	-0.14640744
202	0x3dd56ae1	0.10420776
203	0xbd843722	-0.06455828
204	0xbd8958b5	-0.06706373
205	0xbaef5478	-0.0018259427
206	0x3cce7f59	0.025207208
207	0x3c6567e1	0.014001817
208	0x3ac5ab93	0.001508104
209	0x3c1871a2	0.009304436
210	0xbd2806a9	-0.041021977
211	0xbdec1ab5	-0.115285315
212	0x3c965953	0.01835314
213	0xbd8dd0ec	-0.06924614
214	0xbd7d688b	-0.061867278
215	0x3d811f9e	0.063048586
216	0xbd35d429	-0.044391785
217	0x3d1dc6a0	0.0385195
218	0xbe1556b9	-0.14583863
219	0xbd1abb55	-0.03777631
220	0xbcd024a4	-0.025408097
221	0xbd38d6f1	-0.04512686
222	0x3ddc5ade	0.10759519
223	0x3d720fec	0.059097216
224	0xbce8c9f3	-0.02841661
225	0xbd1b670e	-0.037940077
226	0x3d34b247	0.04411533
227	0xbe13f451	-0.14448668
228	0x3d86442e	0.06555973
229	0xbcacd78e	-0.021098878
230	0x3d44eb2b	0.048075836
231	0xbc97e3e2	-0.01854128
232	0x3d0db541	0.034596685
233	0x3db6dbdb	0.08928653
234	0x3d2e1502	0.042500503
235	0x3ca456d3	0.020060932
236	0x3d9a9d0a	0.07549484
237	0xbd10f9f1	-0.035394613
238	0x3b43cbb8	0.0029876065
239	0xbd16529c	-0.036699876
240	0xbd640430	-0.055668056
241	0x3d1fdaa0	0.039026856
242	0xbd20ce51	-0.03925926
243	0xbd8865d1	-0.06660045
244	0x3db44d73	0.08803835
245	0x3d5e4b3a	0.05427096
246	0xbd7fdb72	-0.06246514
247	0x3ccfc1ef	0.02536103
248	0xbde8af6b	-0.11361583
249	0x3c95ba5a	0.018277336
250	0x3cafc7bf	0.021457551
251	0xbaa478cb	-0.0012548206
252	0x3cd38f2f	0.025825111
253	0xbd327cc4	-0.043576017
254	0x3d21660e	0.039403968
255	0x3cd9d063	0.026588624

bias f4 [64]
0	0x3d2d201e	0.042266957
1	0xbb67778c	-0.0035319058
2	0xbd499295	-0.049212057
3	0xbd88acf7	-0.066736154
4	0xbd8e76ec	-0.06956276
5	0xbd8bddf0	-0.068294406
6	0xbd121427	-0.03566375
7	0xbe3b78fd	-0.18307872
8	0xbda589a3	-0.08082893
9	0x3ce95567	0.028483106
10	0x3d58d77c	0.052939877
11	0xbda0462a	-0.07825883
12	0x3d0e543a	0.034748293
13	0xbe119b87	-0.14219485
14	0x3d0364e1	0.032078627
15	0x3cfb9669	0.03071137
16	0xbcab8303	-0.020936495
17	0x3b7b4a64	0.00383439
18	0x3dcccea4	0.10000351
19	0xbd072b52	-0.033000298
20	0x3dc89799	0.0979454
21	0x3ddb5545	0.10709623
22	0xbd72fd68	-0.0593237
23	0x3d0546ac	0.0325381
24	0x3cf11a2f	0.02943143
25	0x3d1b683c	0.037941203
26	0x3d3c3598	0.04594955
27	0xbd9ac4ac	-0.075570434
28	0xbd7014f8	-0.058613747
29	0x3da6a5df	0.08137106
30	0x3d46e228	0.048555523
31	0xbd942009	-0.07232673
32	0x3d84b264	0.06479338
33	0xbcf0f76b	-0.029414853
34	0x3d2a451e	0.04156982
35	0xbdf0171c	-0.11723158
36	0xbcc65e42	-0.024214868
37	0x3d9ea1ba	0.07745691
38	0x3d01aff9	0.03166196
39	0xbd9fdf75	-0.07806293
40	0x3d5de547	0.054173734
41	0xbdd04b6c	-0.101706356
42	0x3d32fed6	0.04370006
43	0x3c2ffb50	0.01074107
44	0x3dc379d1	0.09544719
45	0x3de30245	0.11084417
46	0x3cf930d7	0.030418796
47	0xbdfae45f	-0.122505896
48	0x3dac8af0	0.08424938
49	0xbd02a2e4	-0.031893626
50	0x3d75751b	0.059926134
51	0x3cb2a60b	0.021807691
52	0xbc3c8abf	-0.011507689
53	0x3d815000	0.06314087
54	0xbc9e8205	-0.019349108
55	0xbd297b76	-0.041377507
56	0xbc8ee363	-0.01744241
57	0x3bb592b7	0.0055411714
58	0x3d97bb3f	0.07408761
59	0xbe09dabf	-0.13462351
60	0x3d0de503	0.03464223
61	0x3d23e48b	0.040012877
62	0xbe13192b	-0.1436507
63	0xbe0b403a	-0.13598719
