TP/save_models_MLP_256_128_Dropout_Gridsearch_Relu/model_4.pt (torch, 235413 bytes, 6 tensors)

weight f4 [256, 64]
00000000: 5153 263f 945c c33d 592b 563e 481d 41bf
00000010: 0901 f83d 3b0a 8c3e 56cf a6bd 1ef5 68bf
00000020: 9a7a 47be 5f42 61be a211 1b3f cffe 56be
00000030: ed78 5e3e 3393 053e 1ceb 923e 09cf 4fbf
00000040: a34b 013e df46 8cbf 6e46 b93d 1842 6a3e
00000050: 8724 0dbe 4dde a6be 34ef 26be f8e0 bcbe
00000060: a049 48be 7bd6 013f 547e 89be ce15 87be
00000070: 7d62 9d3d 3186 e73d 7b53 353e 45f0 5fbe
00000080: dbda 46bd 02f8 473f d678 303e 178a 6dbe
00000090: 54a6 3fbc b38e 73bd 1da6 803d e9b6 1bbf
000000a0: b50d 433e c0f2 e7be d247 5fbe 6b72 68bd
000000b0: 1d37 2abe a644 0c3c b101 39be 95c0 74be
000000c0: 7716 4dbe d3d9 923d f328 683e 6d72 e53d
000000d0: f7c3 94be 7f31 113e 446c 11bf 2b4e 353e
000000e0: 5a0a 363e f6bc 53be b436 aabe 48b4 1abe
000000f0: 2de3 963e efc9 01bd 44c4 a2bd 1375 703e
00000100: 5b6e fabe 0f16 39bf f154 ddbc 6f43 5abd
00000110: 5db3 cdbd f224 0cbe aad4 24bf 2415 16bf
00000120: bda3 423e b73b b8bd 0a05 d0be 5582 bdbe
00000130: ea7f 89be 9129 89bd 8db5 b5bc c7e0 79bd
00000140: 0a54 0bbe e361 99bd b024 b9bb 1fc1 aabe
00000150: b141 11bf 3f32 27bd c600 a9bc cd45 363e
00000160: fbb0 a63e bf9a 01bd 95cc ddbe 02ba 9cbe
00000170: 2a84 c4bd 5e0c 133e dc2f 5d3c 0b6e b83d
00000180: ed3b 67be eae0 bd3e 525b 003f 012a 0e3e
00000190: 1653 d4bd bf5e 23bc 0c38 5b3e e602 2e3d
000001a0: 16b1 8fbe 1546 9f3d 3a85 f43d fff3 c73e
000001b0: 714b 043e 4287 4d3e d689 243e 065b 80be
000001c0: d45c ebbc 8380 33bf f937 d5bd 61ff 37bd
000001d0: 178a b93e 55ce 923e 705e aebe 8103 dc3d
000001e0: 641c 043d f915 e6be 13d9 273e bc5e 79be
000001f0: 8e07 d1be 8260 42be 1c1c 583d 86b5 6bbf
00000200: 14e5 50bd 6927 e6bd 2e18 29be 7d69 1e3e
00000210: c028 38bd 35d4 c5bd beb1 b5be 1adc 1fbc
00000220: 3bba 8bbe c945 1b3f bc4f 6b3e 3cf1 6e3e
00000230: 399c a03e 2319 b2be 2c24 003e 11ae 1fbe
00000240: 36c4 c2be 6f4a 93bd 85e1 403e 9a00 c0be
00000250: cb36 3d3e fcdb 1dbe d830 553f 4639 b13e
00000260: e92a 093e f313 f1be 19f0 843d bde3 553e
00000270: 9353 073e 72a9 063f 07ba dc3e 01b9 39bf
00000280: b03d 9ebe 0353 3b3e 9e24 a63e 6660 09bd
00000290: 15fa 16be c754 fc3c cc86 1d3d 1ad1 34be
000002a0: ff4d 053e 2c40 2ebe f2a5 4f3e 787e 5bbe
000002b0: 1e6a 6abe 5be0 8dbe e720 98be 1e00 0ebe
000002c0: 94ce bdbd 73cd 6c3f 4ac1 8b3e fe20 3b3c
000002d0: 7a61 ecbe 04dd 7ebe 5b63 a8bf 2d37 dabd
000002e0: 6959 4d3f 8863 52be 9333 ac3e 79ea 743d
000002f0: 95db dabe a33f 1dbe 044b 37be 3dcd 123e
00000300: 4c07 01be 5a10 2a3e 5990 593e 96f3 863d
00000310: a806 223e 8691 3bbe 83a4 a63a df56 44bf
00000320: cc83 b23e d825 8abd 4f3c 743e fd1c 28be
00000330: dcf1 ff3e f352 f5bd 7c26 5bbe 1fee ab3e
00000340: 0b31 94bc cc33 31bd c041 cfbe ad9b 133f
00000350: 9039 d6be 32fb de3e fed8 743e 9e83 56bd
00000360: 8b97 d63d b907 5bbe 168a 94be 7e44 98bd
00000370: afce 2a3e a481 8abe 12ae 853e 9fe2 0f3e
00000380: aeff 3f3e 0c5e 25be 136f debe 2962 aebe
00000390: b374 fbbd 591c 213e c497 5e3d c7fc be3e
000003a0: ca82 0cbe ad90 7dbe 85a2 3dbe 4c4c ec3d
000003b0: 54ca dabd 65bd adbe 1354 373d 27b1 babe
000003c0: ea6a c8be 40fa 0d3d 884a 1dbc 4181 64be
000003d0: a33b 743d 0010 9f3d 3355 1ebf 93c7 c6be
000003e0: 93ff 71bf fa9a b53b 81b0 44be d56a 6ebd
000003f0: 02ef 8bbc 9ee6 533b a168 0fbd 36eb 7cbe
0.6497088 0.09539142 0.20914973 -0.75435305 0.121095724 0.27351555 -0.08145015 -0.9099902
-0.19480363 -0.21997975 0.6057378 -0.2099564 0.21725817 0.13044433 0.28695 -0.81175286
0.1262651 -1.0959128 0.090466365 0.22876775 -0.13783465 -0.32591477 -0.16302186 -0.36890388
-0.19559336 0.50717896 -0.26854193 -0.26383823 0.07684801 0.11304892 0.17707627 -0.21869
-0.04854856 0.78112805 0.17233595 -0.23197208 -0.011697371 -0.05946226 0.062816836 -0.60825974
0.19048198 -0.4530239 -0.21804741 -0.056749742 -0.16622587 0.008561289 -0.18067051 -0.23901589
-0.20028101 0.07170453 0.22671871 0.112034656 -0.2905576 0.14179038 -0.56805825 0.177056
0.17777386 -0.20677552 -0.3324486 -0.15107834 0.29470196 -0.03168672 -0.07947591 0.2348216
-0.4891232 -0.72299284 -0.027018042 -0.053286966 -0.100439765 -0.13685969 -0.64387 -0.5862601
0.19007774 -0.08995765 -0.40628844 -0.37013498 -0.26855403 -0.06697381 -0.022181297 -0.06100538
-0.13606277 -0.074893735 -0.0056501254 -0.33350465 -0.5674086 -0.040819403 -0.020630252 0.17800064
0.325569 -0.031641718 -0.43320146 -0.30610663 -0.09595521 0.14360186 0.01350018 0.09005364
-0.22581454 0.37085658 0.50139344 0.1388321 -0.1036741 -0.00997132 0.21408099 0.042483233
-0.28064793 0.07777039 0.119394735 0.39053342 0.12919404 0.20071128 0.16068205 -0.25069445
-0.028730787 -0.7011797 -0.104110666 -0.044921283 0.36238167 0.28673044 -0.34056425 0.10742856
0.032253638 -0.4493864 0.16391401 -0.24352545 -0.40826076 -0.18982127 0.052761182 -0.9207386
-0.050999716 -0.11237986 -0.1651313 0.15469928 -0.044960737 -0.09659616 -0.3548717 -0.009757066
-0.2729052 0.6065336 0.22979635 0.23334211 0.31369188 -0.34784803 0.12513798 -0.15593745
-0.38040322 -0.071919315 0.18836029 -0.3750046 0.18477933 -0.15415949 0.83277655 0.3461401
0.13395275 -0.47085533 0.064911075 0.20887657 0.13215475 0.52602303 0.43110678 -0.7254792
-0.3090644 0.18293385 0.32449812 -0.0335392 -0.14743836 0.030802144 0.03845863 -0.17657891
0.13018034 -0.17016667 0.20278147 -0.21434963 -0.22892043 -0.27710232 -0.29712602 -0.13867232
-0.09267917 0.9250099 0.27295905 0.01142144 -0.4616812 -0.24888998 -1.3155321 -0.10655055
0.80214554 -0.2054578 0.33633098 0.059793923 -0.42745653 -0.15356307 -0.1789971 0.14336105
-0.1260044 0.166078 0.2124647 0.06589429 0.15822852 -0.18317232 0.0012713823 -0.76695055
0.34866178 -0.06745499 0.23851131 -0.16417308 0.49989212 -0.11978712 -0.214014 0.3358011
-0.018089792 -0.043262288 -0.4047985 0.5765942 -0.41840792 0.43551022 0.23910901 -0.052371614
0.10478123 -0.21389665 -0.290116 -0.07434939 0.16680406 -0.27052033 0.26109368 0.14051293
0.18749878 -0.16149157 -0.43444118 -0.34059265 -0.12278118 0.1573347 0.054343954 0.3730223
-0.13721767 -0.2476222 -0.18519028 0.1153799 -0.10683122 -0.3393356 0.044757914 -0.36463282
-0.3914407 0.034662485 -0.009600289 -0.22314931 0.059627187 0.07766724 -0.61848754 -0.38824138
-0.945306 0.0055421563 -0.19207956 -0.05820735 -0.017081741 0.0032333503 -0.03501189 -0.24699101

bias f4 [256]
00000000: 1d10 8dbf d7e6 80bf 2a20 aebf 6aa8 76bf
00000010: 85d0 e5be 7a54 11c0 3875 6cbf 16e6 b6bf
00000020: a477 a4bf 68bf 95bf 8875 43bf 0b4f c8bf
00000030: b3db aebf 517f d0bf 424d a9bf 04b4 f0bf
00000040: 5b2a 8ebf 18e2 44bf 46f1 aabf eff1 9dbf
00000050: 2f4d b5bf 1d89 9fbf b332 bbbf d7dc 9bbf
00000060: 0740 85bf b641 c8bf bb68 f4bf dfc4 7bbf
00000070: 1825 ccbf e893 e1bf 733a 19c0 2b22 55bf
00000080: b707 57bf 7c97 8fbf 670c 4abf e16d c7bf
00000090: 06d2 7ebf 7234 d0bf 8a3f 2ebf 147c 06c0
000000a0: d054 53bf 4acc 7bbf d408 52bf 0336 94bf
000000b0: c481 5cbf 1409 abbf 0dbf 98bf c0fc 91bf
000000c0: 9232 bbbf 8200 9bbf bec9 bfbf fd52 08c0
000000d0: 9e84 99bf 3ed7 0abf 3937 c3bf cd4b 49bf
000000e0: ea6a abbf 5095 4abf aa89 b5bf 3ee3 d6bf
000000f0: cbe4 41bf 8e84 e0bf 6f70 c1bf c7c8 88bf
00000100: 90ab f9bf 5b9c 50bf 88ed aebf efb8 22bf
00000110: e5d3 9ebf 0e99 a6bf ee2d 0bc0 2430 63bf
00000120: 77e7 55bf eca0 79bf b2ed abbf 72c5 44bf
00000130: 1a6e 93bf 6664 9dbf 5665 87bf 4684 bebf
00000140: 09bf b8bf 32b0 73bf 14da aabf 5423 9ebf
00000150: d6a0 a1bf fdac 90bf e602 e5bf 1ba2 21c0
00000160: 702c c4bf 440a 2fbf db23 75bf 4d41 95bf
00000170: 4b17 70bf 6573 94bf 1315 aabf 5c7a a9bf
00000180: 8710 a0bf 63b8 bdbf 1192 80bf 4b7e b0bf
00000190: c6e4 7fbf 07c0 cdbf ff73 d5bf 135a e4bf
000001a0: fb10 bebf 62f7 89bf 4f0f debf b4af d6bf
000001b0: 9278 61bf 4630 b1bf 5cc0 9ebf 571d b0bf
000001c0: c1b0 e7bf 238d 00c0 b1db 85bf b7d5 a2bf
000001d0: 0a3f 47bf 3d11 e4bf 06dd adbf abaf b1bf
000001e0: 8c29 9bbf 2ab1 bcbf f18e a0bf 6ef6 64bf
000001f0: 9db9 13c0 fb61 84bf 4e57 a8bf 243a 51bf
00000200: 41c0 a4bf f3ff 0ac0 81d5 a7bf 9a96 b1bf
00000210: 4005 97bf ec65 05c0 d60b 9abf 1b28 a9bf
00000220: 2d5a babf e5cf 4ebf 46dd 89bf f62d adbf
00000230: 43c9 fdbe 89bc a4bf a40f 14bf ef14 fdbe
00000240: ae9c e7bf 1a3b 24bf 14a9 d7bf 97fe e1bf
00000250: 0064 b0bf d363 39bf 4f06 8cbf ac99 f3bf
00000260: c5e4 d3bf 352f a2bf e81b 6ebf 9f34 a1bf
00000270: 60ec 25bf 9e34 d0bf e3b2 45bf 3a1a abbf
00000280: 4363 9bbf f9e1 bbbf da70 b3bf dde6 2ebf
00000290: a0c9 72bf a591 68bf 6b51 48bf fccb 21c0
000002a0: be37 c8bf 2a9c 0bc0 f139 e1bf d50e bebf
000002b0: 9958 96bf 6640 c9bf 77b2 e1bf abd7 96bf
000002c0: 93bd c6bf 2b0b f7bf a6f6 13c0 90af 7fbf
000002d0: c20f 76bf 00a4 bebf 63d2 76bf f490 04c0
000002e0: e9ae c0bf 2802 1dc0 d2fb c2bf 0332 8cbf
000002f0: 051e bcbf f4f8 8fbf b0e2 59bf ac4b aabf
00000300: 8f0e c1bf 7403 8dbf bcf9 a7bf 8ac7 6abf
00000310: 1891 98bf 022b 9dbf ce10 91bf 555d c0bf
00000320: 3204 a1bf f10b b4bf f5ff 63bf 014c a4bf
00000330: 4416 5cbf 295a a9bf 1bd3 c5bf 70eb 34bf
00000340: d858 71bf 7741 76bf cd2f 7bbf 27f6 7ebf
00000350: 6da0 e0bf 404b d7bf 6b60 94bf 4463 1dc0
00000360: b50b e8bf 3e48 adbf 7f01 e8bf c51e cfbf
00000370: c10f dbbf ab0e c3bf 37f5 95bf 3f33 b7bf
00000380: 84fb e4bf 73c5 dabf eac5 a1bf 3074 a5bf
00000390: adc8 cdbf 3dca d2bf d31a 63bf 6f73 a1bf
000003a0: 28c4 84bf b514 24bf 2cad a4bf 6ee7 8bbf
000003b0: a7f4 afbf 2aec 94bf 445d a0bf a513 60bf
000003c0: e8e0 b4bf 4d28 0ac0 cecd a1bf 6a2d dabf
000003d0: 59d1 a4bf 07cb e5bf 4d34 72bf 3984 9bbf
000003e0: 5264 b4bf b436 62bf c50d 8fbf ce93 a8bf
000003f0: af49 c3bf f84a 03c0 2a54 b5bf 3318 2bc0
-1.1020542 -1.0070447 -1.3603566 -0.9635073 -0.4488565 -2.270781 -0.9236636 -1.4288967
-1.2849011 -1.1699038 -0.76351213 -1.5649122 -1.3660797 -1.6288854 -1.3226702 -1.8804936
-1.1106676 -0.7690749 -1.3354881 -1.2339457 -1.416418 -1.2463719 -1.4624847 -1.217677
-1.0410165 -1.5645053 -1.9094461 -0.98347276 -1.594882 -1.7623262 -2.3941925 -0.8325526
-0.83996147 -1.1218104 -0.78925174 -1.5580407 -0.9953922 -1.6266005 -0.680657 -2.1013231
-0.8255129 -0.98358595 -0.8204472 -1.1578983 -0.86135507 -1.3362145 -1.1933304 -1.1405258
-1.4624808 -1.210953 -1.4983442 -2.1300652 -1.1993597 -0.54234684 -1.5251228 -0.7863129
-1.3392003 -0.7913408 -1.4182637 -1.6788099 -0.75739735 -1.7540452 -1.5112437 -1.0686272
-1.9505482 -0.8148858 -1.3666239 -0.63563436 -1.2408415 -1.3015459 -2.1746783 -0.8874533
-0.8355631 -0.9751117 -1.3431914 -0.7686378 -1.1517975 -1.2296264 -1.05778 -1.4884117
-1.4433299 -0.9519073 -1.3347802 -1.2354531 -1.2627208 -1.1302792 -1.789151 -2.5255191
-1.5326061 -0.6837504 -0.95757836 -1.1660553 -0.9378554 -1.1597716 -1.3287681 -1.3240466
-1.2505044 -1.4821895 -1.0044576 -1.3788542 -0.99958456 -1.6074227 -1.6676024 -1.7839988
-1.4848932 -1.077862 -1.7348422 -1.677237 -0.880746 -1.3842857 -1.2402453 -1.3758954
-1.8100816 -2.0086143 -1.045767 -1.272147 -0.77830565 -1.7817761 -1.3583076 -1.3881735
-1.2122054 -1.4741566 -1.2543622 -0.8943852 -2.308204 -1.0342401 -1.3151643 -0.8172934
-1.2871171 -2.171872 -1.3112031 -1.3874085 -1.1798477 -2.0843458 -1.2034862 -1.3215364
-1.455877 -0.8078597 -1.0770652 -1.3529651 -0.49567613 -1.2870036 -0.57836366 -0.49430034
-1.809469 -0.6415268 -1.6848474 -1.765582 -1.3780518 -0.72417945 -1.0939425 -1.9031272
-1.655419 -1.2670656 -0.9301133 -1.2594184 -0.64813805 -1.6266057 -0.77226084 -1.3367379
-1.2139667 -1.4678336 -1.4018815 -0.6832102 -0.94838905 -0.90847236 -0.78249234 -2.5280752
-1.5642011 -2.1814065 -1.7595807 -1.4848276 -1.1745788 -1.5722778 -1.7632588 -1.1784567
-1.5526603 -1.9300283 -2.3119292 -0.9987726 -0.96117795 -1.4893799 -0.96414775 -2.0713472
-1.5053378 -2.4532566 -1.52331 -1.0952762 -1.4696661 -1.124785 -0.8511152 -1.3304343
-1.5082568 -1.1016679 -1.3123088 -0.9171072 -1.1919279 -1.227875 -1.1333253 -1.5028483
-1.2579405 -1.4066144 -0.89062434 -1.2835695 -0.85971475 -1.323064 -1.5455049 -0.7067175
-0.9427619 -0.9619364 -0.98119813 -0.9959435 -1.7548958 -1.681984 -1.1591924 -2.4591837
-1.8128573 -1.3537672 -1.8125457 -1.6181265 -1.7114183 -1.5238851 -1.1715459 -1.4312514
-1.7889256 -1.7091507 -1.2638524 -1.2926083 -1.6076866 -1.6467968 -0.88712806 -1.2613353
-1.0372362 -0.64094096 -1.2865348 -1.0930002 -1.3746537 -1.1634572 -1.2528462 -0.87529975
-1.4131136 -2.1587098 -1.2640932 -1.7045109 -1.2876388 -1.7952584 -0.94611055 -1.2149726
-1.4093115 -0.8836472 -1.1176077 -1.3170106 -1.5256861 -2.0514507 -1.416631 -2.673352

weight f4 [128, 256]
00000000: 9770 cabe b329 3abf 55a9 f3be aaf2 36be
00000010: f749 e0be 2cf3 94be 0cb5 f63e de37 d9bc
00000020: 3afb 20bf 5e97 b9bd 12ef 27bf 2468 c3bd
00000030: b03c bf3e 4817 8b3e 6dd3 bbbe 72e3 07bf
00000040: 0f90 2cbf 3170 773e 9e0b 1bbf 6b13 c43d
00000050: b98c 0a3d 95b3 87be e992 d4be cc9a 96be
00000060: fe43 5dbf 84c9 56bd 5684 66bf f119 5dbe
00000070: 8200 b7be 678a c6be 7e0d 333e a623 dabf
00000080: 9ecb 0cbf 85ef 673d fa13 1dbf 6f66 93be
00000090: 8447 38be 71ea fcbe c3d8 80be 6279 59bf
000000a0: 2aef 32bf 762c 243d df75 83bf 3bcd a63d
000000b0: d400 0bbf e8a5 d5bd 3318 b0be 8b5f 24bf
000000c0: 73fa 353e f0dd d9be 6e56 b5be e1e1 843e
000000d0: 9c9c 313e 1855 ffbe 5954 7bbe 2459 88bd
000000e0: 6c84 ee3c 56c8 82bf 46a9 5abe 9f2c f4be
000000f0: f067 70be c91c f4be 91c6 6a3e 3f83 093f
00000100: 066f 18bf 8bae 0ebf 38a2 1c3f db6d aeba
00000110: 1721 1bbf 894f 0cbd f9ee a0be 7345 86bf
00000120: 7400 23bf a7b9 04bf 3fd4 45bf 84ae b3be
00000130: f623 6cbe 0a74 42bf 142f 9dbe bd59 c63e
00000140: 25e0 a6be dc62 58be 0de6 e1be 4a35 acbe
00000150: 07bb d6be 34a2 bfbe 997b 7cbe eac7 febe
00000160: 1888 b53c 1dd7 6a3d 8b75 47bf ab0b 26bf
00000170: a1e0 833f 85a5 13bf 1ed2 4e3f f22d 62bf
00000180: 1b0a bebe 62a6 f0be 5425 55be 0ce0 75be
00000190: e06d 30bf f60e 87bf 2a28 8ebe e0e2 a2be
000001a0: ebc3 1cbf 3291 66be d420 36bf 410b 7a3d
000001b0: a154 1c3e 0558 6bbe 8931 733e eee0 82be
000001c0: 5e00 f6be 0934 59be 7a07 c2be b8b6 943d
000001d0: 7021 d03e e10d 9d3e e7e6 07be d56b 14bf
000001e0: 2823 573e 79d7 b5be 1a28 3bbf 7d76 b53e
000001f0: 1b47 c7be a263 f3be 705f 4fbe f678 b8be
00000200: 1984 1ebe ccf4 e0be 301e 593e 0e36 66bc
00000210: 6ccd dbbe a2aa dbbe 4f57 dfbe f852 c5be
00000220: f4b2 debb eed7 16be 7b8d 65bf 16b3 8bbe
00000230: ecc1 30be f336 06bf 6b8a 01bf f673 663e
00000240: be2d 8cbd 8d44 9fbb 3e47 00be c6de 1d3e
00000250: 894e dabe e11c a2be dd12 febe 7051 34bf
00000260: 3d7a 013f 1671 083d cd38 22bf 858d 92bf
00000270: acb2 4fbf b55c 4f3e 4c2b 1dbf c12f 88bf
00000280: 6169 01bf a9fc 6dbf 75cd 333f dbba 16bf
00000290: 9f09 3cbf 2c63 27be c879 1abf bfeb acbe
000002a0: 3500 86bf 82b4 84be 4702 29bf 79f9 04bf
000002b0: 46b6 8abf dcac 49bd 62cb dfbe 0dda 41bf
000002c0: 912f 0937 efb8 30bf d763 65bf 5d0d fb3e
000002d0: 663d 07bf 6d66 45be 3e8a fabe 1c98 24bf
000002e0: dbb4 29be e184 b3be 3c14 90be 0e5f 13be
000002f0: 7256 76bd 7bf2 ccbe fb51 adbe 763e 2c3e
00000300: 0a73 3d3e dfc6 84bf 8282 9cbe b626 26bf
00000310: 6f63 62be 3802 fdbe f6b7 3bbe 86e1 4bbf
00000320: 9800 3cbf abb2 58be a91f 15bf 507b a7be
00000330: 26e2 45bf 06df 99be 40cb e4be 72cc 79bb
00000340: 19c4 27bf 979c 16bf ebf4 c5be 6db2 2dbf
00000350: 8e16 03bf 3a68 a7be 970e f0be d857 debe
00000360: 234c c63b 8775 1ebf 2752 23bf 6a4e 58be
00000370: 45c9 90bd 4019 32bf a59a 8bbe dedf 0cbb
00000380: 0772 fabe 4ae9 4dbf b0b0 4fbe 8eae 08be
00000390: 3973 f1bd bf86 28bf 80f3 0d3e e0cf afbe
000003a0: eadc cdbe 0402 d3be ff85 03bf 6957 8cbe
000003b0: acea 8fbf d5c8 d3bd fc38 7abe 3d89 233f
000003c0: b500 c1be d430 42bf 5389 0bbf 8ade 55be
000003d0: b1db a5be eb0e 97be 5917 7bbf db0d 45bf
000003e0: 3845 adbe e5a7 88be a35f 963e 7570 b8bd
000003f0: 9782 b8bd c6a9 5a3d c059 50bf a3be a1be
-0.39539024 -0.7271988 -0.47590128 -0.17866006 -0.4380643 -0.29091775 0.48185003 -0.026515897
-0.6288334 -0.09062074 -0.6559917 -0.095413476 0.37350988 0.271662 -0.36684743 -0.5308143
-0.67407316 0.24163891 -0.605646 0.09574016 0.03382561 -0.26504198 -0.41518334 -0.29414976
-0.8643187 -0.052438274 -0.9004568 -0.21591927 -0.35742575 -0.38777468 0.17485616 -1.7042129
-0.54998195 0.056624908 -0.61358607 -0.28789088 -0.17996031 -0.49397615 -0.25165376 -0.8495084
-0.69896185 0.040081464 -1.0270346 0.08144613 -0.5429814 -0.10432035 -0.34393463 -0.64208287
0.1777132 -0.42552137 -0.35417503 0.25953582 0.17344898 -0.4986961 -0.24543895 -0.06657627
0.029115878 -1.0217388 -0.21353635 -0.47690293 -0.23477149 -0.4767821 0.2292731 0.5371589
-0.5954441 -0.5573508 0.61185026 -0.0013307886 -0.60597366 -0.034255538 -0.31432322 -1.0489944
-0.63672566 -0.51845783 -0.77276987 -0.35094082 -0.23060593 -0.7595831 -0.3069998 0.3874034
-0.32592884 -0.21131462 -0.44120827 -0.33634406 -0.41939566 -0.3742844 -0.24656524 -0.49761897
0.022159621 0.057334054 -0.7791373 -0.64861554 1.0302926 -0.5767444 0.80789363 -0.88351357
-0.37117085 -0.4700194 -0.20815021 -0.24011248 -0.68917656 -1.0551441 -0.27765018 -0.31813717
-0.6123645 -0.22516325 -0.7114384 0.06104589 0.15266658 -0.22982796 0.23749365 -0.25562233
-0.48047155 -0.21211256 -0.3789633 0.07261413 0.4065051 0.3067465 -0.13271676 -0.5797704
0.21009505 -0.35515955 -0.73108065 0.35441962 -0.38921437 -0.4753695 -0.2025125 -0.36029786
-0.15480079 -0.43936765 0.21202922 -0.014050974 -0.42930162 -0.4290362 -0.436213 -0.38539863
-0.006796235 -0.14730808 -0.8966901 -0.2728507 -0.17261475 -0.52427596 -0.50601834 0.22505173
-0.06844662 -0.004860467 -0.12527177 0.15417013 -0.42638043 -0.31662658 -0.49623767 -0.70436764
0.50577146 0.033310972 -0.6336792 -1.1449438 -0.81132007 0.20250209 -0.6139419 -1.0639573
-0.5055142 -0.92963654 0.7023538 -0.5887887 -0.7345218 -0.16346425 -0.60342073 -0.3377361
-1.0468813 -0.25918967 -0.660191 -0.51943165 -1.0836875 -0.049237117 -0.43709856 -0.75723344
8.176911e-06 -0.69032186 -0.8960547 0.49033633 -0.5282806 -0.19277354 -0.48933595 -0.642946
-0.16572897 -0.35062316 -0.28140438 -0.14391729 -0.060141034 -0.40028748 -0.3385161 0.16820702
0.18500915 -1.0373191 -0.3056832 -0.6490282 -0.22108243 -0.49415755 -0.18331894 -0.79640996
-0.73438406 -0.21161906 -0.58251435 -0.32711267 -0.772982 -0.30052966 -0.44686317 -0.0038116244
-0.65533596 -0.5883269 -0.3866342 -0.6785038 -0.5120629 -0.32696706 -0.4688613 -0.43426394
0.0060515567 -0.6189808 -0.6379723 -0.21123663 -0.07069639 -0.6956978 -0.27266422 -0.002149574
-0.4891512 -0.80434096 -0.20282245 -0.13347837 -0.11789555 -0.65830606 0.13862419 -0.34338284
-0.40207607 -0.41212475 -0.51376337 -0.2741044 -1.1243491 -0.1034104 -0.244358 0.63881284
-0.37695852 -0.75855756 -0.54506415 -0.20885673 -0.32394174 -0.2950357 -0.980825 -0.76974267
-0.33841872 -0.26690593 0.2936984 -0.090058245 -0.09009283 0.053384565 -0.8138695 -0.31590757

bias f4 [128]
00000000: a12f 8dbe 4829 523e d8be 56bf 02a5 8ebf
00000010: 936a 8f3e 48dd e03e 89bb 3ebf 52b5 d1be
00000020: 91e3 66bf 1fbd 7d3f 9ccc 8b3b a538 0f3f
00000030: 0d08 87bd 10d5 3c3e 132e 4fbe a230 2a40
00000040: 7e7c 9ebe 455c fcbe 045e 803d af5e 93be
00000050: d38f 78bf 91dc 88bf b7d3 af3e 427c 77bd
00000060: 5b2d 5c3f 9506 5ebf 10db 2e3f 772e 02bf
00000070: 5200 7f3f f196 a13e 492b 073f a6f7 b13e
00000080: 509d 0cbf b6a3 883e 47d6 093f a647 163f
00000090: 894b 0dbf 4e71 123f 9c41 7d3c ad2c 223f
000000a0: 9e55 033f 2ceb 02be 72a8 8fbe aaf6 013f
000000b0: a76b b1be 50f9 06be 354e 6b3f 411d 85bf
000000c0: f9cf 2ebf 1a81 603f d519 29bf 59ff 383f
000000d0: 417f d73e 4bfe 3a3f c1ec 7c3e cc50 3b3e
000000e0: 90f8 5d3f 49ec 823f d40c 41bf 2a86 023d
000000f0: b12b 8bbf b6b6 0ac0 4cb9 01bf 0097 db3b
00000100: e34e 703f 1480 6d3f 4a84 d43f 021f 513f
00000110: f637 f93f ae90 243f 7549 1f3d c5ed 2cbf
00000120: 0145 9abe 2761 b7be 26c7 dcbe 1dad 1e40
00000130: cb23 b33f a85d 36bf 2aa8 8e3f db57 41bf
00000140: 0726 67be 2c7d 0cbf cfdb f53b 3840 dabf
00000150: a16b b13e 184f 743f ed14 d6bf 875b fe3f
00000160: 644e 843e c99e 87bf a97b 51bf a754 58bf
00000170: b9e8 a9bf ef07 5fbf 11ad 2dbf f238 e53d
00000180: 55f9 65bf 9cc6 633f 7865 44bf 3316 df3d
00000190: 39c2 403f 907d 51be 607e 16be 544a 193e
000001a0: 14bc ba3e 6e8b 00bf 4fe7 1640 4d81 8a3f
000001b0: 18a8 bdbf 2a90 ab3c 8edb 073f 2b5b 5abe
000001c0: 549a adbb af95 073f 28d9 1abf 583c 8f3f
000001d0: 9f36 353f 66f6 12bf 425c ef3d 8e19 c0be
000001e0: d62d 2ebf 45a2 913e beac 463f e2d7 b9be
000001f0: 7427 1b3f 8da9 913e 8411 5abd 986a 6cbf
-0.275754 0.2052356 -0.83884954 -1.1144106 0.28010997 0.43918824 -0.74504906 -0.4095865
-0.9019099 0.991167 0.0042663347 0.5594581 -0.065933324 0.18440652 -0.2023242 2.6592183
-0.30954355 -0.49289146 0.06267932 -0.28783175 -0.9709446 -1.0692312 0.34341213 -0.060421236
0.86006707 -0.86728793 0.6830301 -0.5085215 0.99609864 0.31560472 0.5280042 0.34759253
-0.5492754 0.26687402 0.53842586 0.58703077 -0.5519338 0.5720414 0.015457537 0.6334942
0.51302516 -0.12785023 -0.280582 0.50767004 -0.34652445 -0.13181043 0.9191621 -1.0399553
-0.6828609 0.87696993 -0.6605504 0.7226463 0.42089275 0.7304427 0.2469969 0.1829254
0.867074 1.0228359 -0.754102 0.03186623 -1.0872709 -2.1674018 -0.50673366 0.00670135
0.9387037 0.92773557 1.6602871 0.8168794 1.9470203 0.64283264 0.038888413 -0.6755031
-0.3013077 -0.3581631 -0.43120688 2.479316 1.3995298 -0.7123666 1.114507 -0.7552468
-0.225731 -0.548785 0.00750301 -1.7050848 0.34652427 0.9543319 -1.6725136 1.9871682
0.25841057 -1.0595332 -0.81829315 -0.8450417 -1.3274146 -0.8712148 -0.67842203 0.11192502
-0.89833575 0.8897493 -0.7671733 0.10892906 0.7529636 -0.20458055 -0.14696646 0.1496976
0.36471617 -0.5021275 2.357868 1.082071 -1.4816923 0.020942766 0.5306939 -0.2132384
-0.0052979384 0.52962774 -0.60487604 1.119029 0.7078647 -0.57407224 0.11687519 -0.37519497
-0.6803869 0.28444114 0.77607334 -0.36297518 0.60607076 0.2844967 -0.05323936 -0.9235015

weight f4 [64, 128]
00000000: bc0c 88be 3f8f 97be eb6b 6fbe cea2 acbf
00000010: 7ca7 94be eba9 36bf 644e 9abd e755 84bc
00000020: 8478 b63d c542 19be b0b6 7dbe 69f1 293c
00000030: 8613 383d 2237 0ebf 2327 40be e2f1 c0bf
00000040: 80a2 c13d 993a a63d 61cc 7cbe 4545 d4bc
00000050: bea5 c6bb f7e9 8c3d 6e22 41bf c896 3abe
00000060: 2a42 c4be c09b 363e 9212 bfbe 45f5 03bf
00000070: 3ec7 38bf 9d5a 00bf 9499 e6be 6927 0dbf
00000080: c13e 00be 7823 c3be 0710 e1be 8162 603d
00000090: 945c 933d 0737 c2bd ad74 9cbe 40a8 a8be
000000a0: c003 1dbf ef73 edbd 3551 c5bd ba2a 0fbe
000000b0: 9f33 20bf 41c1 bb3d d334 84bf 9b43 d53d
000000c0: 4918 aa3d 3b2f 30bf ae51 1f3e 3ff2 bcbd
000000d0: 60cd 48bf dda5 81be cc29 d2be 4e83 6fbf
000000e0: e6f4 09bf 1057 3bbe f920 60be ce21 66bf
000000f0: 0e7f 0ebd 3ea5 693d 9618 db3d 4a28 a4bd
00000100: 093c bebe e199 3ebf f3f6 a7bd 6718 223d
00000110: feb9 94bf 3baa 8fbe e40d c9bd 59e9 18bf
00000120: fa2a aabe 26d0 643b 581d f7bd b5a5 97bf
00000130: 42a5 1bbf 2a3f 08be e92f 7abe 47dc 56be
00000140: 6bfa 11be 6805 21be 6de8 2b3d c059 e33d
00000150: a961 6fbe 2c67 cfbe 1ad7 b63d 109a 30bf
00000160: 9353 afbd b5fb 20be 0c92 61be 3fc6 9a3d
00000170: 333b fa3d 5195 d53d 6c97 66be fc54 813e
00000180: a5b4 83be 94a9 2dbe 35e8 be3d 17b1 20be
00000190: c0d1 6bbe 8d9f 913d 1601 8cbd 1064 e1bd
000001a0: 4b96 85be 09f0 66bd 9b31 a8bf a7b1 11bf
000001b0: c2ec 7a3e 9956 b1be d989 f4be e6c5 acbc
000001c0: 0315 a83d 85fd 61be 8bc5 b9be ceac c4be
000001d0: 96e7 a3bc 9ac9 a6be 8236 2abf 0e6b 20bd
000001e0: 0c63 a43d 871b 4dbe 2c06 a9be 184d 87bc
000001f0: 3466 10bf 2cef e4be cdf8 053c 14fe 01bf
00000200: 4206 24bf 9e37 76be 86dd 90be 7e51 78bd
00000210: 27f1 1a3d 171d 76be abb1 35be f1ab d53d
00000220: a281 0f3d 5d7a c33c df23 14be 8d3f fc3d
00000230: 8c2d 82bd 378d 38be 477e 543b 1616 6abf
00000240: add1 8c3c 75ab a8bd 7e90 d1be b438 98be
00000250: 7e30 d63d 6b49 49bd 83d2 f8be 6874 563d
00000260: eb47 62be 80ef 1f3e e758 e438 1e08 ccbe
00000270: 1b29 ba3c cd57 443e 65eb f8be a0be d4be
00000280: fd49 9e3d bf7b 123d 5089 b7be 30e8 45be
00000290: 23c0 e83d d820 2abe 1a74 ad3d ef15 65bf
000002a0: d905 4bbe 5a7f 17be b7d9 c6bc 208c 0e3d
000002b0: 97e5 0abf 4ae1 b93d 5e50 d3be efd1 673c
000002c0: 5dce 1d3d 9dbd 1cbf 08e2 163b c5ce 4cbd
000002d0: 0d1c e4be f711 6dbe 02f5 d8be 98e9 ffbe
000002e0: 67a3 a6be 98f1 2abe 301b 2f3e 98ff 91bf
000002f0: 5560 14bf d238 d73c 92b8 173b 7e2b 423e
00000300: 6811 85be 854f 40bf 35af 5bbf bc94 b3bd
00000310: ce05 6fbf 19a9 8ebe b4e0 05be 29dd 69be
00000320: 0747 8dbe 1ac5 0b3e c490 333e 6517 20bd
00000330: a17a afbd b893 453e 4d6d 88be 29ed 38bf
00000340: b52a b0be 73c6 bebe 1259 9d3d a9e4 993d
00000350: 75b9 c23c a995 713d e0cd cf3d fffc 2fbf
00000360: 7876 d3bd 5c92 aabe f52c 513c c63f edbc
00000370: c835 bc3d 3759 113d b9af cdbe 02a6 c83e
00000380: 8318 90be 9d7b 68be cc28 303d 833e 30be
00000390: 74ba 41bf b4d5 fe3d 40cc 11bc a406 ad3d
000003a0: e465 5fbe ce1a bcbd 16b7 46bf 552d 81be
000003b0: 60ee 683e 4647 8abe b11e 05bf e7b8 613d
000003c0: d566 3dbd 029d 16be 929e 9dbe f74b 0cbe
000003d0: 05cd 17be 056b 5fbe 1599 02be 4072 1f3e
000003e0: d481 89bc 031f 92be 4e65 0dbf 7ff1 4a3b
000003f0: b7de 86be 548d 9abd 14f9 8dbc 5fa3 92be
-0.26572216 -0.29601476 -0.23381011 -1.3487184 -0.2903403 -0.71353024 -0.07534483 -0.016154243
0.08909705 -0.14966877 -0.24776721 0.010372498 0.044940494 -0.55552876 -0.1876493 -1.5073817
0.094548225 0.08116645 -0.2468734 -0.025911937 -0.0060622385 0.06880563 -0.7544316 -0.18221581
-0.3833173 0.17832851 -0.37318856 -0.51546127 -0.7217902 -0.50138265 -0.45039046 -0.5513826
-0.12523939 -0.38112998 -0.4395754 0.05478144 0.07195392 -0.09483152 -0.30557767 -0.32940865
-0.6133385 -0.11594378 -0.0963463 -0.13981143 -0.6257877 0.0916772 -1.0328621 0.10413285
0.08305413 -0.6882207 0.15558502 -0.09225892 -0.7843838 -0.25321856 -0.41047513 -0.9355973
-0.5388931 -0.1829493 -0.21887578 -0.8989533 -0.034789138 0.057042353 0.10698049 -0.08015497
-0.37155178 -0.7445355 -0.08201399 0.039574053 -1.161926 -0.28059563 -0.098171026 -0.5973106
-0.33235914 0.0034914105 -0.12066144 -1.1847445 -0.6079904 -0.13305345 -0.24432339 -0.20982467
-0.14255683 -0.15724719 0.041969705 0.11101103 -0.23377098 -0.405084 0.08927746 -0.6898508
-0.085608624 -0.15721019 -0.22028369 0.07557344 0.122183226 0.104288705 -0.225187 0.2526015
-0.25723758 -0.1695922 0.09321634 -0.15692554 -0.23029232 0.0711051 -0.068361446 -0.110054135
-0.26091227 -0.05638126 -1.3140138 -0.569117 0.24504378 -0.3463638 -0.4776142 -0.02109046
0.08207133 -0.22069366 -0.36283526 -0.3841309 -0.02000789 -0.32575685 -0.6648942 -0.039164595
0.08026704 -0.20030032 -0.3301252 -0.016516253 -0.5640595 -0.44713724 0.0081769945 -0.5077832
-0.6407205 -0.24044654 -0.2829401 -0.060624592 0.037827637 -0.24034534 -0.17743556 0.10433186
0.035035737 0.023862058 -0.14466809 0.12316809 -0.063563436 -0.18022619 0.00324239 -0.9143995
0.017189825 -0.08235828 -0.4093055 -0.2973076 0.10458468 -0.049142282 -0.48598108 0.052357107
-0.22097747 0.15618706 0.000108884466 -0.39849943 0.022724679 0.19174118 -0.48617092 -0.41551685
0.07728956 0.035762545 -0.3584695 -0.19326854 0.11364772 -0.16614091 0.0846941 -0.89486593
-0.1982645 -0.14794675 -0.024273736 0.034801602 -0.54256576 0.090761736 -0.41272253 0.014149173
0.03852688 -0.61226827 0.0023022909 -0.05000188 -0.4455265 -0.23151384 -0.42374426 -0.49982905
-0.3254654 -0.16693723 0.17100215 -1.1406126 -0.5795949 0.026272211 0.0023150784 0.18961903
-0.25989842 -0.7512134 -0.8581422 -0.08768603 -0.9336823 -0.27863386 -0.13073999 -0.22838272
-0.27593252 0.13649407 0.17535692 -0.03908481 -0.085683115 0.19294631 -0.2664589 -0.7223688
-0.34407583 -0.3726078 0.076830044 0.075143166 0.023770073 0.058980618 0.101466894 -0.68745416
-0.103253305 -0.33314788 0.012767066 -0.028961074 0.091899455 0.035485473 -0.40173128 0.39189154
-0.281437 -0.22703405 0.043007657 -0.17211346 -0.7567513 0.124431044 -0.008898795 0.08448532
-0.21816212 -0.091848 -0.77623117 -0.25229898 0.22747183 -0.27007502 -0.51999956 0.055107977
-0.046240646 -0.14708331 -0.30785042 -0.13700853 -0.14824302 -0.21818168 -0.12753709 0.15570927
-0.01678554 -0.28539285 -0.55232704 0.0030966697 -0.26341793 -0.075464875 -0.017330684 -0.28640267

bias f4 [64]
00000000: 2ace 4ebf dd6c 92bd ecd0 063f 7450 113f
00000010: 5624 413f f61c d23e ce14 b6bd c7dd 4bbf
00000020: 527a 45be 5564 1f3e 4ac0 8f3e b891 793e
00000030: d151 b73e 3325 b63e 4103 233e f0d7 1ebe
00000040: d85b b73e 6206 ac3e 35d0 0cbf 5a61 32bf
00000050: 7f33 4abf d825 54be c30c c03e 2c7e b63e
00000060: 3492 213f 5994 8a3e ae85 55bf db6b 36c0
00000070: 90bd 31c0 5286 5abf 3779 993e 0972 1d3f
00000080: 50e2 123f 1de9 a83e c5e3 14bf aaf6 30c0
00000090: 7853 3dc0 99cf 2abf b5a7 723e 8c92 ff3e
000000a0: 4a97 e63e 9f7e b93e 3f6f 6bbe a028 75bf
000000b0: ecce 45bf 5462 34bf 84df e43e 47c4 9a3e
000000c0: 91b5 aabc 9e6f 2c3e f4b4 953e 91d6 5b3e
000000d0: 9439 793e 05a0 9a3e e53e a53c 532f 483d
000000e0: ea65 3bbf 756b 13be 345a f03e 7f4b f63e
000000f0: 972b e13e e5d1 c73e bf18 c4bd 3305 4abf
-0.8078333 -0.0714967 0.5266254 0.56763387 0.7544607 0.4103772 -0.08890687 -0.7963528
-0.19284943 0.15565617 0.28076392 0.24371994 0.35804608 0.35575256 0.1591921 -0.15512061
0.3581226 0.3359862 -0.550052 -0.69679797 -0.78984827 -0.20717561 0.37509736 0.35643137
0.63113713 0.27066305 -0.83407104 -2.850333 -2.777195 -0.85361207 0.29975292 0.6150213
0.57376575 0.3299035 -0.5816005 -2.7650552 -2.9582195 -0.6672302 0.23696788 0.49916494
0.450373 0.36229417 -0.22991656 -0.95765114 -0.7726886 -0.70462537 0.4470178 0.30227873
-0.02083853 0.16839454 0.2923962 0.2146857 0.2433837 0.3020021 0.020171592 0.048873257
-0.73202384 -0.1439646 0.4694382 0.48104474 0.4397857 0.39027324 -0.095750324 -0.78914183
