TP/save_models_MLP_256_128_Dropout_Gridsearch_Relu/model_19.pt (torch, 235745 bytes, 6 tensors)

weight f4 [256, 64]
00000000: 2fac 82be 5ae0 a2bd 1bfa 493e f092 37be
00000010: 6bca 41bb b774 ad3d 0d50 42bd 75ee 32bc
00000020: 6011 023e cb24 3140 69d4 c1bd da8f b6bd
00000030: 539c 5abd 8338 1b3d c843 6abd 672a 8dbc
00000040: f3cb 55be e994 123e e6da 023f 7e9c 203e
00000050: c1ca 50be 2900 a3bd 0f9a f439 3afc 00bd
00000060: e8ef 85bd 4da1 a8bd c974 a3be c411 213e
00000070: b175 953d 555f 0e3e 22d2 f73d ddfb ff3d
00000080: bf64 88be 220d 223e 3d16 03b9 07d1 0cbe
00000090: 4efc 0f3e df85 793d 2a07 ebbc 8d94 d2bc
000000a0: 0a18 463e 1b3b 85bd 79fa 2dbb 9186 00be
000000b0: 8718 a13d bb90 77be eb89 213c 8f0b 043e
000000c0: d88e 953c ad86 88be 2740 a0bd af81 a4bc
000000d0: 6824 c0bd 5836 0ebe 29c3 353d dd04 fdbd
000000e0: ea1d 3c3e 88d5 0f3d 78ad b43d 6476 533d
000000f0: 9c2d f6bd 2b7e 61bb 1e70 243e b86e 8ebe
00000100: 769f 93bf b1b3 98be 2fba 80be d4cd c4bd
00000110: e45d 4a3d c75a 9a3d f297 0ebe a697 68bf
00000120: fed6 c3bc 2219 04bf 2d8a e8bc 2810 273e
00000130: 4309 ecbe 4eab d53d 1c8e 4cbe bf24 e03e
00000140: 9b01 553e 7f49 16b6 c0b2 54bc 7a57 c43d
00000150: dd3e 113e 0d17 fe3e 7ca8 4abe 35de 9abe
00000160: 1a9c 9a3c cdd5 bfbc bd85 313e fc63 f63e
00000170: 5810 febe 3bfa af3b 926e 333e 3b03 babe
00000180: 924a 4cbe 0c4a 183e de1f 89be 375b 473d
00000190: d3e9 903e 9918 0fbe dcbf 7a3b fe5b 99bd
000001a0: d856 bbbe 3fc4 073e 0b1d e73d e8ee a83c
000001b0: e8c0 a4be f1bf 573e 143c 553e 0403 633e
000001c0: 92ff 9cbe dd48 b0bf f182 ec3d ecf3 c1bb
000001d0: 2a9b 053a d196 e63c c46f 4dbe 458d e93c
000001e0: d95e bfbe ade1 dcbd f8b4 1e3e 30aa ecbd
000001f0: 423a 96be ae4e 803d 8ebf ff3d 419e 96be
00000200: 6ff7 453f edc7 1440 2dac d63e 1aae da3d
00000210: dfbf 883c f95a 9bbe 49e3 883e dc63 2ebe
00000220: ab45 afbe ee57 9a3e c813 b1be 9541 733e
00000230: 52ad 863d 1e57 e2bc 594d 8abd ef10 983d
00000240: 1ca2 20be cadd dabd 09f5 103d 871e 8f3c
00000250: b7fd 44bd bfe0 d2bc cf0f 3c3d 09d1 e8bd
00000260: c1be 3f3e b080 eebc 91fe 4abd e8bd debd
00000270: 3696 143d b694 f8bc e8a8 333d 2e66 1d3d
00000280: 7628 bf3e 8410 87be 248e 88bd bd1a 803c
00000290: e425 d4bc 7463 553d b370 d3bd a5d8 f33d
000002a0: 9d78 8ebe 9c49 aa3d 434d 5f3c a49b 01be
000002b0: 7f11 bdbd b4f0 e43d a167 91bd b41f b3bc
000002c0: 69a1 193e 0819 52be dc83 8bbd cb45 583c
000002d0: 0e43 b63d 7c47 0f3e d7e0 173b 406c 5e3e
000002e0: 0928 78be bccf 70bd 1870 93be 3827 52be
000002f0: bcf0 b93e 6059 b1bc 9823 15be 6463 99bd
00000300: 08f0 293a a67d 80be a806 84be a37e 703d
00000310: bb0a 26be 5229 313d 6b36 aa3e fbf5 953c
00000320: 8f1d 42bd a789 18ba af65 e73d 6194 f2bd
00000330: 2f4e 023d ed64 afbd 055c 4cbf e9a0 eb3e
00000340: d55f 2abe 24ae 02bc 5530 803d c78a d9bd
00000350: 7916 ba3d 5cf3 3fbd 2cd2 f5bc 07d2 c53c
00000360: 19b8 3c3c e46f 3abe f3f9 99bd 904e 25bd
00000370: fe25 043e db12 963d 4d33 8fbe 35b7 6dbe
00000380: e8d3 23bc f19c c23d d229 acbc 8170 2bbe
00000390: d058 c7bd 50f2 0bbe 7da6 34be 647b 8a3c
000003a0: 39ed 05be 6b2c 843e 8ca9 713e 3d6c cdbd
000003b0: 68a4 24be 245b fabd 0ac4 ac3d 06f6 5f3e
000003c0: a6e6 de3c e260 ffbd 2e7d d5be 094a d33f
000003d0: 57f4 b43d dedc 4dbd a247 f6be bedb f03d
000003e0: 7565 4ebf c114 453d cfae 1cbf f5be dfbe
000003f0: 45a8 5b3f cc1c 233f e0e1 20be ccc3 99be
-0.2552199 -0.07952948 0.19724314 -0.17927146 -0.0029570113 0.08469527 -0.047439624 -0.01092111
0.1270194 2.7678707 -0.09464342 -0.08914156 -0.05337174 0.03789569 -0.057193547 -0.017232133
-0.20878582 0.14314617 0.5111526 0.15684697 -0.20389844 -0.07959015 0.0004665409 -0.031490542
-0.06539899 -0.08233891 -0.31925038 0.15729433 0.072978385 0.13903554 0.121006265 0.12499211
-0.26639363 0.15825322 -0.00012501418 -0.13751613 0.1406109 0.060918685 -0.02868994 -0.0257056
0.19345108 -0.06505414 -0.0026546998 -0.12551333 0.07866006 -0.24176304 0.009859542 0.12895034
0.01825659 -0.2666525 -0.07824736 -0.02008137 -0.09381944 -0.13887918 0.044375572 -0.12354443
0.18370786 0.03511575 0.08822149 0.051626578 -0.12020418 -0.0034407477 0.16058394 -0.27818847
-1.1533039 -0.29824594 -0.25142047 -0.09609571 0.049405947 0.07536846 -0.1392515 -0.908564
-0.023906227 -0.5160085 -0.0283862 0.16314757 -0.46100816 0.104330644 -0.19976085 0.43778035
0.20801394 -2.2394522e-06 -0.01298207 0.09586997 0.14184137 0.4962696 -0.19790834 -0.30247656
0.018873263 -0.023417378 0.17336173 0.48123157 -0.49621844 0.005370406 0.17522648 -0.3633059
-0.19950321 0.14871997 -0.26782125 0.048670974 0.28303394 -0.13974227 0.003826133 -0.07488249
-0.36589694 0.13258456 0.112848364 0.020621732 -0.32178426 0.21069314 0.20823699 0.22169119
-0.30663735 -1.3772236 0.115484126 -0.0059189703 0.00050966686 0.028148087 -0.20062166 0.028509745
-0.3737705 -0.10785232 0.15498722 -0.11555898 -0.29341322 0.06265007 0.12487708 -0.29417613
0.7733068 2.3247025 0.41928235 0.106777385 0.016693054 -0.30342844 0.26735905 -0.17030281
-0.3423284 0.3014521 -0.34585404 0.23755486 0.06576027 -0.027629431 -0.06753034 0.07425105
-0.1568684 -0.10686834 0.035389934 0.017470611 -0.048093524 -0.025741933 0.045913514 -0.11367995
0.1872511 -0.029114097 -0.04955918 -0.108760655 0.036276065 -0.030344348 0.043862253 0.038427524
0.37335557 -0.26379788 -0.06667736 0.01563775 -0.025896974 0.0520968 -0.1032423 0.11906556
-0.27826396 0.08314821 0.0136292605 -0.12657028 -0.09231853 0.11178723 -0.07099844 -0.021865703
0.1500298 -0.20517361 -0.068122596 0.013200234 0.088995084 0.13992113 0.0023174786 0.21720982
-0.24234022 -0.05879186 -0.28796458 -0.20522773 0.36316478 -0.021649063 -0.14564359 -0.074896604
0.0006482606 -0.25095862 -0.25786328 0.05871452 -0.16215031 0.043252297 0.33244643 0.01830577
-0.04739147 -0.00058188516 0.112986915 -0.11844707 0.031812843 -0.08564172 -0.7982791 0.46021202
-0.1663812 -0.007976089 0.062592186 -0.10622173 0.090863176 -0.046862945 -0.030007444 0.024148
0.011518502 -0.18206745 -0.07518377 -0.040358126 0.12905118 0.07327815 -0.27968827 -0.23214419
-0.009999253 0.095025904 -0.021016035 -0.16742136 -0.097337365 -0.13666654 -0.17641635 0.01690454
-0.13078775 0.25815138 0.23599833 -0.100304104 -0.16078341 -0.12224415 0.08435829 0.21871194
0.027209591 -0.12469651 -0.41697067 1.6506969 0.088356666 -0.050259463 -0.48101526 0.117606625
-0.8062356 0.048115496 -0.61204237 -0.43700376 0.85803634 0.63715816 -0.15711164 -0.30032194

bias f4 [256]
00000000: eb84 5fbf 18c1 75bf b94c dbbf 091f d1bf
00000010: ea4e 8cbf 8239 ffbe 1c0a 92bf a1bb ccbf
00000020: 16ea d7bf b1f9 b3bf 5523 5cbf 1667 95bf
00000030: a2d2 57c0 00ef 1ec0 76e4 f7bf 00ae a2bf
00000040: c931 9dbf dc26 d3bf 288f 97bf 23bd 16c0
00000050: 1fc5 90bf 591b dfbe fadf f3bf 77d1 3bc0
00000060: 861b 6fbf 06ef 8cbf efdf 46bf 2e82 c6bf
00000070: 3605 a8bf 66b5 24c0 e761 b3bf 5c25 91bf
00000080: 7102 2abf b94f 81bf 6006 05bf a81a 38bf
00000090: a5b1 a6bf 5dc6 9fbf 079a 7bbf 3626 89bf
000000a0: 9435 54bf 3afe e0bf a449 c0bf 430a 8abf
000000b0: cd0d b0bf 72b7 dfbf 8b5c 6dbf e298 83bf
000000c0: ba18 40bf 3bc4 2ac0 6941 a1bf a7cc bebf
000000d0: e6db 1bbf 0cee 94bf e942 1ec0 5c60 8ebf
000000e0: 7912 ddbf 6018 b8bf 7239 03c0 91e9 84bf
000000f0: 3b45 fbbf 1ee1 c3bf aba8 a8bf 563e 08bf
00000100: f229 e2bf ed20 76bf 73a1 35c0 7bb4 83bf
00000110: 8a48 98bf c8a8 b0bf e49c f4bf 374e 05bf
00000120: 7310 babf 76e2 29c0 e028 abbf 38ff bebf
00000130: 3919 38bf 357f 9ebf bc72 babf 7a1b b6bf
00000140: b21d 66bf 9026 53bf a4b6 3ebf 8a95 43c0
00000150: 03d2 ebbe 209e 8cbf 6eb3 80bf 269e 79bf
00000160: a91a 10bf 1601 48c0 aa8d c5bf 184a 75bf
00000170: 11ed 94bf bee2 b4bf 78ec cebf 2264 fbbf
00000180: b6ac acbf be52 a1bf dc2e 95bf 99d1 0ac0
00000190: e7f9 96bf 8d85 8bbf 5d3c 8ebf 1abd 75bf
000001a0: 2621 95bf 941a 44c0 f830 98bf 41a8 97bf
000001b0: ef51 72bf dcc1 25bf a2f0 c1bf 4bf0 52bf
000001c0: 96f6 a2bf 6523 83bf 6d48 adbf 671f 66bf
000001d0: 7102 86bf b7c6 adbf 36fb aabf 3b81 5cbf
000001e0: 6048 bfbf 3cb5 a2bf df45 12c0 a22a 72bf
000001f0: de5d 59bf 442e 1bbf 97e8 c9bf 58ea 77bf
00000200: c05b 9bbf 9802 bcbf 6fac 34bf 77b3 dcbf
00000210: d9bd b0bf 614d 5fbf 59d7 91bf 2041 a9bf
00000220: d282 b0bf ceab 74bf 3aff adbf 1bf6 a3bf
00000230: 358c 46c0 c2ac 9abf 9cdd 98bf e54f 6ebf
00000240: c83a 49c0 b279 54c0 2a3b e9bf cf42 aabf
00000250: c2bd 94bf a747 1ac0 6435 dfbf 8fa8 21bf
00000260: 52fb 4ebf 0d07 98bf dd94 b4bf 760e 85bf
00000270: d4fc e7bf d1b5 95bf 34c1 0bc0 a872 4fbf
00000280: 5e4f 1bc0 5edd 74bf db32 41c0 5114 9cbf
00000290: 3d6a 83bf 8923 2fbf 915e a3bf 068c aabf
000002a0: b55c 55bf 03be 5ebf efcd e3bf 65da 7bbf
000002b0: ac83 29c0 84f2 13c0 ecb0 99bf 2ea7 aebf
000002c0: 1ef0 c5bf c978 37bf e399 abbf 60ce 7abf
000002d0: e653 84bf 7ed4 8bbf 1b97 7dbf 0739 9bbf
000002e0: b384 9fbf 3899 9ebf 25f1 31bf 8b42 98bf
000002f0: 03b3 f8bf 1970 95bf c21a a0bf 9698 5ebf
00000300: 3e11 9dbf 84b3 a7bf 7cc3 70bf b1fd 25c0
00000310: c73a 98bf d6f7 f5be 0c89 aebf 5483 70bf
00000320: 8679 debf 6d43 90bf baa8 8cbf 1d35 91bf
00000330: 33cb 25c0 3aea 53bf 93de 43c0 6145 bebf
00000340: da1b 7cbf c17f b6bf 85c8 aebf a4c8 49bf
00000350: d9d8 b7bf 321e 0dc0 46e6 82bf 1813 73bf
00000360: 0382 babf 8557 a3bf 505d 98bf 27a9 28c0
00000370: e86f afbf 8de2 58bf 009e 8bbf 4b23 c6bf
00000380: b7d0 bfbf 3dcf 01c0 bf3a 47bf 9b49 86bf
00000390: 849b e3bf 2fbc 87bf 9785 90bf e96a 57bf
000003a0: 4bb9 7bbf 41f0 b7bf 62d5 2dc0 2578 a5bf
000003b0: 59ff 66bf fecd bdbf ff02 8dbf 5255 cabf
000003c0: 26a2 9abf 9403 abbf 185f b4bf f1c8 54bf
000003d0: 215b 48bf 2dc9 4fbf 60d6 c9bf 888c 3dc0
000003e0: 59b8 c7bf d61b 85bf aabe 2abf ef68 acbf
000003f0: 9a9a 77bf ac60 65bf 72c5 14c0 652f 83bf
-0.8731219 -0.9599776 -1.7132789 -1.6337596 -1.0961583 -0.49848562 -1.1409335 -1.599476
-1.6868312 -1.4060575 -0.8599141 -1.1672084 -3.372231 -2.4833374 -1.9366596 -1.270935
-1.2280818 -1.6496234 -1.1840563 -2.355294 -1.1310157 -0.43575552 -1.9052727 -2.9346597
-0.9340137 -1.1010444 -0.77685446 -1.5508478 -1.312659 -2.5735717 -1.4014252 -1.1339526
-0.66409975 -1.0102454 -0.5196285 -0.71915674 -1.3022963 -1.2482411 -0.982819 -1.0714786
-0.82894254 -1.7577584 -1.5022473 -1.0784382 -1.3754212 -1.7477858 -0.92719334 -1.0281031
-0.7503773 -2.668227 -1.2598087 -1.4906205 -0.60882413 -1.1635146 -2.4728339 -1.1123157
-1.7271262 -1.4382439 -2.0503812 -1.0383779 -1.9630502 -1.5303075 -1.3176473 -0.5322012
-1.7669051 -0.9614399 -2.837979 -1.0289453 -1.1897137 -1.3801508 -1.9110379 -0.5207247
-1.453627 -2.654447 -1.3371849 -1.4921637 -0.71913487 -1.238257 -1.4566264 -1.4227135
-0.8988906 -0.82480717 -0.7449744 -3.0560021 -0.46058664 -1.0985756 -1.0054758 -0.9750694
-0.5629068 -3.1250663 -1.5433857 -0.95816183 -1.1634847 -1.4131696 -1.6165915 -1.9639933
-1.3490207 -1.2603376 -1.1654925 -2.1690428 -1.1795014 -1.0900131 -1.1112171 -0.9599167
-1.1650741 -3.0641222 -1.1889944 -1.1848222 -0.9465627 -0.6474893 -1.515156 -0.8239791
-1.2731502 -1.0245177 -1.3537728 -0.89891666 -1.0469495 -1.3576268 -1.3357913 -0.8613469
-1.4943962 -1.2711558 -2.2855146 -0.945963 -0.84908855 -0.6061747 -1.5774106 -0.96841955
-1.2137375 -1.4688292 -0.7057561 -1.7242268 -1.3807937 -0.87227446 -1.1393844 -1.3223
-1.3789923 -0.95574653 -1.3593514 -1.280948 -3.1023076 -1.2083972 -1.194263 -0.9309066
-3.1442127 -3.3199277 -1.822118 -1.3301638 -1.162041 -2.4106233 -1.7438169 -0.63147825
-0.80852234 -1.1877152 -1.410793 -1.0395038 -1.8124032 -1.1696111 -2.1836672 -0.81034327
-2.4267192 -0.9565028 -3.018729 -1.21937 -1.0266796 -0.684136 -1.2763234 -1.3323982
-0.83344585 -0.87008685 -1.7797221 -0.9838012 -2.6486616 -2.311677 -1.2007117 -1.3644769
-1.5463903 -0.7166868 -1.3406337 -0.97971153 -1.0338104 -1.0924222 -0.99058694 -1.2126778
-1.2462372 -1.2390509 -0.6950858 -1.1895307 -1.942963 -1.1674834 -1.2508166 -0.8695158
-1.2270887 -1.3101659 -0.94048285 -2.593609 -1.1892937 -0.48040646 -1.3635573 -0.9395039
-1.7380836 -1.1270577 -1.0988991 -1.1344334 -2.5905273 -0.82779276 -3.0604599 -1.4864923
-0.9848 -1.4257737 -1.3654944 -0.7882178 -1.4363052 -2.204968 -1.0226524 -0.9495101
-1.4570926 -1.2761084 -1.1903477 -2.6353242 -1.3706026 -0.8472069 -1.0907593 -1.547952
-1.498557 -2.0282738 -0.77824014 -1.0491213 -1.7781835 -1.0604304 -1.1290768 -0.84147507
-0.9832961 -1.4370195 -2.7161489 -1.292729 -0.9023338 -1.4828489 -1.1016539 -1.5807288
-1.2080734 -1.3360467 -1.409152 -0.8311911 -0.7826405 -0.81166345 -1.5768547 -2.9617023
-1.5603133 -1.039912 -0.6669718 -1.3469523 -0.9672028 -0.89600635 -2.324551 -1.0248839

weight f4 [128, 256]
00000000: db14 8fbc 18eb 6a3e 1d98 5f3d b219 4ebe
00000010: b048 51bd ce62 553e 8260 a3be d36a 9e3e
00000020: b22e 5fbd 66af 62bd a0a9 873d 03ce f6bd
00000030: 88e3 96bc c6e3 b93d 8ed5 7fbd fd3c 203f
00000040: 4838 d53c 099b 593d 88bd 2cbe cb10 a7bd
00000050: 82b9 e3bd e179 d7bd d096 d63b cc87 bebc
00000060: 5084 9a3c 6eb4 833c 0851 c6bd c493 2c3e
00000070: cc3b 1abd c024 edbb 04bc ff3c bdef 04bd
00000080: 9288 b33c 463c cabc 70df 923d ab06 e73a
00000090: ecd3 ac3d d00b 613c dd97 50bd 94f7 423b
000000a0: 5c1c a03e 6caf fd3c 6ffc 1abe 6cb3 df3b
000000b0: ea81 373e bd64 593b 07cf ceba 643b 38bd
000000c0: aee0 743c be05 3e3e 3b53 1ebe 2126 97bc
000000d0: 28b2 4ebe 5680 dd3d 1acd d73d e59a b33e
000000e0: a349 393f c800 4cbd 2133 dd3c a49e 3ebe
000000f0: 323a 85bd 469e ecbd 76db 24bd 0828 ddbd
00000100: ed7e 61b9 2265 9d3d 7996 cabd 5f9e 15bd
00000110: b6fb e0bc 3096 23be 2a1c a4bd df77 06be
00000120: a131 b7bc 542b 7fbd a134 a13c 0a9d e63e
00000130: 84a2 7b3a 51ea 9abc 8d1e 213d f0fe 233e
00000140: 1e43 84bd 3816 e7bc 8807 013d 6549 e7bd
00000150: 938a 253f f3db f3be e38c 4dbd f0ce 78bc
00000160: 6a67 153d 6677 dabd 795d 3dbe ec83 bfbd
00000170: 56cd 8bbd 6310 b6bd 6e68 f83d 8b93 933b
00000180: a88d 7a3c 35b5 ddbd 67b4 a7bc 6c70 c0bd
00000190: 710c cebd c0ba 47bd 1a62 36bd 1158 3b3e
000001a0: 952b 1cbe a917 17be a6e2 a13d 6e11 14ba
000001b0: e6ad a5ba c6a9 9f3d 806d a7bd 1532 20be
000001c0: 54bc f63c f439 ff3e 7d14 efbb 176c af3d
000001d0: 1d8c 5c3e 9d2d af3d 75fc ec3d 494a 343e
000001e0: 06a0 4a3e 7520 5d3c 7825 d23b f6f6 34bc
000001f0: 2c3f 04be 4f88 5fbd 918a c5bd 1451 bebd
00000200: 7968 04be bf25 813d 8858 353d 740d f63b
00000210: eeef 383e b02d 94bc 2907 ae3d 91b7 46be
00000220: 787f 61be a517 dab9 4175 18be 6520 253e
00000230: 54e0 ae3b e54b 8a3d b272 c13c 8b80 c63c
00000240: 9a83 5b3c 5115 a1b9 d8b0 f9bd f01f 97bd
00000250: 95c4 a73c adbe 073e 1421 8d3d 46ab e4bd
00000260: 759c fbbd b9e9 153d fd83 08bd 2831 d7bb
00000270: 3824 5abd 7df5 3c3b e0c1 7aba caca 073e
00000280: 20e9 123e 3a5b 903d 30f6 e43d d8e5 c83b
00000290: 9ae9 683e 8132 913e b084 223e eed7 c9bd
000002a0: f1ae a23d 6ee3 5bbd 6680 e0bb b04b b33e
000002b0: 538f 9cbd 6bb6 f9bd 1e94 9f3e 1777 293d
000002c0: c5cd 293d fb2c 1e3d d035 eabc 9d70 8b3d
000002d0: 2c03 e6bd 1a24 ff39 c74c 4fbd 07cd eebd
000002e0: 4b7c 753e 1cc3 043d 1d1b afbd 7ea7 94bd
000002f0: 57ce bd3c 65af 30be 0eaf 343d de4a b4bb
00000300: fc27 4fbd 6070 07be 24f7 28bd ecfe 633f
00000310: 509e bbbd 2757 03bd 9a3d 92bd 08bf 6e3d
00000320: 9a8e 90bd 13fe 89bd 5ad9 0fbd 8c64 4f3b
00000330: c19a 47bd 6267 243e e173 023e 2003 f93c
00000340: cce9 0dbe b9a2 2d3d f266 a93d b047 ee3d
00000350: 9eea 53bc a625 03bc db0b 10be 5f85 a8bb
00000360: 51b3 9ebe f62f 653e 0278 19be 7fbe 6dbd
00000370: 477a 0ebe 6b84 8d3d 5c81 9cbc 5029 493d
00000380: 0eaf 01be d201 913d 0c52 54bd 0f58 54bd
00000390: 22f7 a73d 38cd 13be 1188 68bc 3492 f7bd
000003a0: 6aa8 20be 125e 8abe ce04 3a3c 565c 653d
000003b0: 9cde 62be 78c0 833d f7de 073e 6c4e 3c3d
000003c0: 8a92 dbbd 5163 92bc be3a 0bbe 9ada 44bd
000003d0: 4fd6 59bd 8f46 8fbd df0f 50be 55f9 513d
000003e0: 5e58 21be 9e12 ac3c cf9a aa3e 1760 963e
000003f0: 15b0 913d 8067 153f 17dd cf3c 135e 383d
-0.017466 0.22941244 0.054588426 -0.2012699 -0.05109471 0.20838472 -0.31909567 0.30940875
-0.05448789 -0.055343054 0.0662415 -0.12051012 -0.018419042 0.090766475 -0.06245952 0.6259306
0.026027814 0.05312637 -0.16869175 -0.081575 -0.11119367 -0.105212934 0.00654874 -0.023258112
0.01886192 0.016077247 -0.09683424 0.16853243 -0.037654683 -0.007237047 0.031217583 -0.032455195
0.021915708 -0.024686944 0.071715236 0.0017625889 0.084388584 0.0137357265 -0.050926078 0.002974962
0.31271636 0.030967437 -0.15135358 0.0068268087 0.17920652 0.0033171617 -0.0015778252 -0.044978514
0.014946146 0.18556878 -0.15461437 -0.018450798 -0.20185149 0.10815494 0.10537167 0.35079113
0.72377986 -0.049805433 0.02700192 -0.18615204 -0.065052405 -0.11553626 -0.040248357 -0.10798651
-0.00021504956 0.07685305 -0.09891982 -0.036527988 -0.027463775 -0.1597526 -0.08013184 -0.13131665
-0.022362532 -0.06229718 0.019678416 0.45041686 0.0009599107 -0.018910559 0.039335776 0.1601522
-0.06458114 -0.028208837 0.031501323 -0.11293296 0.6466457 -0.47628745 -0.05018319 -0.0151860565
0.036475576 -0.10667305 -0.18492688 -0.09351334 -0.06826274 -0.08889844 0.121292934 0.0045036725
0.015292563 -0.10825578 -0.020471765 -0.09396443 -0.10060967 -0.048762083 -0.04452715 0.18295313
-0.15251 -0.1475512 0.07904558 -0.0005648349 -0.0012640327 0.077960536 -0.08175182 -0.15644105
0.030119099 0.49848902 -0.0072961436 0.085655384 0.21537824 0.08553622 0.1157159 0.17606463
0.19787607 0.013496508 0.006413158 -0.011045208 -0.12914723 -0.054573353 -0.0964557 -0.09292808
-0.12930478 0.063060276 0.044273883 0.007508928 0.18060276 -0.018088192 0.084974594 -0.19405963
-0.22021282 -0.00041597817 -0.14888479 0.16125639 0.0053368006 0.06752757 0.023614261 0.024231216
0.0133980755 -0.00030724195 -0.121919334 -0.073791385 0.02047948 0.13256331 0.06891075 -0.1116548
-0.12285701 0.03659985 -0.033329 -0.006567139 -0.053257197 0.0028832846 -0.0009565633 0.13260952
0.14346743 0.0704865 0.11179769 0.006130915 0.22745362 0.28358844 0.15870929 -0.098556384
0.07943524 -0.05368369 -0.006851244 0.35018682 -0.076445244 -0.121929966 0.31167692 0.04137334
0.041456003 0.038617115 -0.028590113 0.06808589 -0.11231074 0.00048664288 -0.05061033 -0.116601996
0.23973195 0.032412633 -0.08550093 -0.07258509 0.02316968 -0.17254408 0.044112258 -0.005502089
-0.05057524 -0.13226461 -0.041251317 0.89060855 -0.09161055 -0.032065537 -0.07140656 0.05828765
-0.07058449 -0.06737914 -0.035119392 0.0031645624 -0.04873157 0.16055062 0.12739517 0.030396998
-0.13858718 0.042391513 0.082715884 0.11634767 -0.012934355 -0.008004582 -0.14067023 -0.005142852
-0.30996183 0.22381577 -0.14987186 -0.058043 -0.13913833 0.06910022 -0.019104652 0.049111664
-0.12664434 0.07080425 -0.05183606 -0.05184179 0.08201434 -0.14433753 -0.014192597 -0.12088433
-0.15689245 -0.27024895 0.011353685 0.05599626 -0.22155231 0.06433195 0.13268648 0.045973226
-0.107213095 -0.017869623 -0.13596627 -0.048060037 -0.053182896 -0.0699588 -0.20318554 0.051263172
-0.15756366 0.021004971 0.33321235 0.29370186 0.07113663 0.58361053 0.025373979 0.04501159

bias f4 [128]
00000000: 1103 2abf 8237 ac3e 396e e43e 6e7a b0bf
00000010: c9f4 cb3f cbe6 f13e c790 493f c08e 393e
00000020: acfe ebbd 8cdc 253f 0953 273f 52e4 37be
00000030: c918 613d a61e c73f 8c6c cfbe 1793 3b3e
00000040: 03c7 293f 4f60 41bf 9160 e13d 3fb0 bb3e
00000050: ca26 533d f7e1 ee3e b4c4 4e3f 1f8a b43c
00000060: cd4b c13f 8b5f 22bf a5eb 1d3f 7949 603f
00000070: d597 a83f dae0 dd3e d1aa c43e 23f5 ea3d
00000080: 632e 5e3f 0b0a ab3e 2d5e 1abe 5d44 6c3e
00000090: f721 8c3e 953e 973e a4a2 873f 5ec4 943d
000000a0: 1ae3 d4be a356 423e 67bb 09be b83e 4a3f
000000b0: b25c debe 1d95 053f 0c12 90bd 3d10 14bf
000000c0: db48 5b3f 2dc3 8a3e 1f74 f73d 6bc0 0b3f
000000d0: 24dc 8d3e 7c64 17bf 6095 e7be ff50 11bf
000000e0: 8e81 b33f 6727 d83e 0d8a 2d3f a3a5 e63e
000000f0: a950 353f 79cf 9bbf 64bd 553f 3743 d83d
00000100: ed69 a23e 1e73 55be 870e 6a3f d86a 96be
00000110: 6564 5f3e e27e 71bf 914b 3cbe 3a1e 2e3f
00000120: fb78 b6bf 6cee efbd a06e dc3f 54d4 0c3f
00000130: 9ed5 5e3f 03b9 f2bd 0a91 ae3e c3aa 883f
00000140: 0502 b13e 9889 d03f 4b24 8c3f 9a93 913f
00000150: 0968 1e3f 19fa c03f 04b8 f73f c2be 1bbe
00000160: 7576 dd3f 2768 0a3f 5c59 3fbf 48d4 f73e
00000170: e6db 523f 1488 a33e 7c52 0d3f 2063 383f
00000180: 1ca5 8d3e 75b1 01bf 325a 6b3e 1171 8b3f
00000190: c8cf d53e 72ed f53e cd6c 213f cde0 66bf
000001a0: 52dd c63e 84ee 853f a3f9 4abf 271d fe3e
000001b0: dca7 443f cbe8 3b3f 9cb7 12bf c32d 303f
000001c0: 848f 52bf 0fe6 b13d 2d11 073f 24b4 dabf
000001d0: 09b2 40be e65c 35be 59cf a53e 3535 fbbd
000001e0: de58 283e 29c8 1a3f 2489 24bf 3fa6 803e
000001f0: 67c7 3dbf bfb5 673f 79ef 503f 7e06 c63e
-0.6641093 0.336361 0.44615343 -1.3787363 1.5934078 0.47246394 0.7873654 0.18120861
-0.11523184 0.6478965 0.65361077 -0.17958191 0.054955278 1.5556228 -0.40512502 0.18317829
0.6631929 -0.7553758 0.11004747 0.36657903 0.051550664 0.46656772 0.80768895 0.022038518
1.5101258 -0.63427037 0.6168769 0.8761211 1.3171335 0.4333561 0.38411573 0.11472537
0.8678953 0.334061 -0.15074988 0.23072954 0.27369663 0.29539934 1.0596509 0.072640166
-0.41579515 0.18978362 -0.13450395 0.7900195 -0.43430096 0.52180654 -0.07034692 -0.5783728
0.85658044 0.27102032 0.12082695 0.5459048 0.27707016 -0.591377 -0.45231152 -0.56764215
1.4023912 0.42217562 0.67788774 0.45048246 0.708262 -1.2172691 0.8349211 0.10559695
0.3172144 -0.20844695 0.91428417 -0.2937839 0.21815641 -0.9433423 -0.18388201 0.6801487
-1.425567 -0.11715397 1.722126 0.55011487 0.87044704 -0.118516944 0.3409503 1.0677112
0.34571853 1.629199 1.0948576 1.137317 0.61877495 1.5076324 1.9353032 -0.15209487
1.7301775 0.54065174 -0.74745727 0.48404145 0.8236679 0.31939757 0.55203986 0.7202625
0.2766503 -0.506614 0.22983626 1.089388 0.41760087 0.4803272 0.6305664 -0.9018677
0.3884073 1.0463414 -0.79287165 0.49631616 0.76818633 0.7340209 -0.57311416 0.68819827
-0.8225024 0.08686458 0.52760583 -1.7086225 -0.18817915 -0.17711219 0.32384756 -0.12266008
0.1644015 0.6046167 -0.6427176 0.25126836 -0.7413239 0.905117 0.81615406 0.38676828

weight f4 [64, 128]
00000000: c78f 913d 0632 b6be 8ef6 3fbf b09e 2b3e
00000010: 8394 eebf 99ea f9be 3551 42bf 57d3 e0be
00000020: 295b a03d 8eb6 d1bd fd1e 8ebd 3859 38bf
00000030: 2250 4e3c ef6e 9abf b44d d4bd ab0f 06bf
00000040: 1097 543d 9eed b83d 03b3 eebe 81ef c3bf
00000050: 9a43 84bd 1d55 a5bf 1725 f1be 8d38 24bf
00000060: 17fa 4cbf c08b aabe de25 10bf 8860 9bbd
00000070: 0070 d0be 5e1a 20be 161f 34bf 000b e63c
00000080: cffe 0abf 60bd 72bf e872 c4bb 0210 36c0
00000090: 5cf3 263e c993 a3be aecb d6bf 1d33 103d
000000a0: fb86 2b3d 966e 72bf d518 33bd 52d2 acbf
000000b0: eb0a 00bf 36f4 7cbe 1bb6 6a3d d428 a4be
000000c0: cdac 3cbf 6686 8b3d 804f fdbd 1829 73bf
000000d0: 3dec 3abf d8ff 813d af78 87bd c371 11be
000000e0: 64bc 0b3e aa50 013c f707 62bf 3be2 bfbf
000000f0: e43b 6a3d ff3b d9bd ee73 59be d4d3 f4be
00000100: 2a5a b7be e803 c8bd 480a 13bf 7fa8 8d3e
00000110: a0e2 3cbe d684 a6be cc8b d9be fd7b 913d
00000120: 4ed6 19bd de4f 23bd 2caf 21c0 33aa cbbe
00000130: 3e55 9dbf 8b5a 0bbe 93ae 4fbf d8d1 cebe
00000140: e298 ddbe b9a4 98bf dec8 37bf 7a69 8cbd
00000150: 3545 75be c556 57c0 11d2 8cbe 8a09 bfbe
00000160: 8a26 d6be fb70 42bf 8648 76be cb9f abbb
00000170: 632b 7cbf ae35 a6be 4b60 ea3c b08b 32bf
00000180: a251 9bbc 3844 15bf c809 0f3e e7f9 87bf
00000190: 4fad 5dbf e73e 94bd 1794 c3be 22c9 a53d
000001a0: 19ff a4be fd7c 4cbf fc1b 493d 768f 023b
000001b0: 9711 21be decf 96bf 3b9e 9fbe 87d0 70be
000001c0: 33c2 89be c75e a93c b8e8 afbe 9c97 873d
000001d0: af84 c13c 0e89 3a3a 98ae 96be 4d42 71be
000001e0: 4731 973d 8437 8d3d 49fc f0ba 63ac 58bf
000001f0: 68aa 973d 5485 7ebe be86 4bbf 9aad 74bd
00000200: a815 3e3d d38b b2be de9c da3d 878f 493d
00000210: 2584 57bf 8154 11bf a482 963e 60f2 f0bd
00000220: b65a 593d a3b3 363b 21a8 0e3d 8bca 27bf
00000230: da04 f93c 4744 1ebf 3994 d9bd 11cb d63d
00000240: d36e 7dba 4e6b 813d a198 47bf 4213 903d
00000250: 8692 85bd b1c4 47be 488a 23be 6dd2 16bf
00000260: 21de 87bf 45da 4f3c 0640 f5bd 28a9 3fbf
00000270: d8c9 3ebd a4d5 2dbf f479 d8bd dfda 353d
00000280: 864a 93be 7423 31bf 93b6 043b a911 25bd
00000290: 3266 bc3d 0c59 0b3d ddd8 bebf b461 f2bd
000002a0: 66bd 773d 0c74 073e 190e 133c 9216 9dbd
000002b0: be37 103e 75aa 96bd 5351 603d 109d 1339
000002c0: 5ce7 78be e50e 903d 13ca 3539 7f5a 23bd
000002d0: 6b96 c8bf 7c3e 713d 1aa0 8fbe 41b6 30be
000002e0: 0b4e 273d 1b6c a43e 52fb 09be 6c3a 38bf
000002f0: c85d 453d 0a4a bbbd 5965 dd3d 2cb4 5ebe
00000300: 1116 06c0 2fbb bc3d 17f3 72bf 46e6 ca3d
00000310: a6a6 f03d d551 a0be 4a33 28be 8a69 ef3d
00000320: 9385 c63d fe17 d2bc 7207 3abf 5901 4bbe
00000330: 5ff3 96bf 528d bebd 4d92 4dbe 5565 2ac0
00000340: fc0a dcbd 0b97 02be a585 dfbf 9665 97bd
00000350: 7165 90bd 4eb5 cdbf 4846 2d3e 3842 123e
00000360: b263 bebe 691d 22bf 128c 62be 85a8 2abd
00000370: 7fe8 883e bbbd 26bf 96c8 a8bf cdec 27bf
00000380: 8db3 20bf ca07 4f3e dede 3dbd c93b 8dbf
00000390: 1b34 81bf b88f d7bc a61a 59bf 69f1 483d
000003a0: 11cb a6be 5953 10bf 1843 ed3c 9fff 16ba
000003b0: 9fd3 10bc 1cc4 b7be 10be 06be 9d1e b23d
000003c0: 15a4 d9bb 83c4 ac3d 18b4 5bbf c647 ce3d
000003d0: 64a8 62be ee55 863d 784a ed3d bcbd 4ebf
000003e0: 3ca9 be3d 79ec 20bf 5bc0 acbc 08d3 b9bf
000003f0: d6dc ad3d 8c29 26bf 4067 66be d945 87bd
0.071075015 -0.3558504 -0.7498559 0.16759753 -1.8639072 -0.48811796 -0.7590516 -0.4391124
0.078298874 -0.10239898 -0.06939504 -0.72011137 0.012592347 -1.2065104 -0.10366383 -0.5236766
0.051901877 0.09029697 -0.4662095 -1.5307466 -0.064582065 -1.29166 -0.4709861 -0.6414879
-0.80069107 -0.33309746 -0.5630778 -0.07586771 -0.4071045 -0.15635058 -0.70359933 0.028081417
-0.5429506 -0.94820213 -0.005995143 -2.844727 0.16303772 -0.3194869 -1.6780908 0.035204995
0.041876774 -0.9469999 -0.043724854 -1.3501685 -0.5001666 -0.24702534 0.057302576 -0.320624
-0.73701173 0.06812744 -0.12368679 -0.9498458 -0.7301672 0.063476264 -0.066148154 -0.14203553
0.13646084 0.007892767 -0.88293403 -1.4990915 0.057186022 -0.106071465 -0.2123563 -0.47817862
-0.35810977 -0.0976637 -0.5743756 0.27667615 -0.18445826 -0.3252322 -0.4248947 0.07103727
-0.037557893 -0.03987109 -2.5263166 -0.3977829 -1.2291639 -0.13608758 -0.81125754 -0.40394473
-0.43280703 -1.1925269 -0.71790874 -0.068560556 -0.23952182 -3.364671 -0.27504018 -0.37311965
-0.41826278 -0.75953645 -0.24051103 -0.0052375547 -0.985037 -0.3246283 0.02861037 -0.69744396
-0.018959824 -0.5830722 0.13968575 -1.0623139 -0.8659257 -0.0723856 -0.3819892 0.08095004
-0.32225874 -0.79878217 0.049098954 0.0019921935 -0.15729366 -1.1782186 -0.31175408 -0.23517047
-0.26905975 0.020675076 -0.34357238 0.06620714 0.023622839 0.00071157597 -0.2943008 -0.23560448
0.07382446 0.068953544 -0.0018385734 -0.8463804 0.07405549 -0.24855548 -0.79502475 -0.05973587
0.04640737 -0.34872302 0.10674451 0.049209144 -0.8418601 -0.5676957 0.29396546 -0.11764979
0.053065024 0.0027878068 0.03482831 -0.6554343 0.030397821 -0.6182293 -0.10623974 0.104879506
-0.0009667698 0.06319295 -0.7796727 0.07034923 -0.06522088 -0.19508626 -0.15970719 -0.58914834
-1.0614663 0.012686317 -0.11975102 -0.74867487 -0.046579212 -0.67904115 -0.10570136 0.044398185
-0.28767794 -0.6919472 0.0020250424 -0.040300045 0.0919918 0.03402047 -1.4909931 -0.11835042
0.06048336 0.13227862 0.008975529 -0.076703206 0.14083764 -0.07356731 0.054765057 0.00014077523
-0.24307007 0.07034091 0.00017336784 -0.039881226 -1.5670904 0.05889748 -0.28051835 -0.17257024
0.040845912 0.32113728 -0.13474777 -0.71964145 0.04818514 -0.09144981 0.10810346 -0.21748418
-2.0950968 0.0921539 -0.94902176 0.099072024 0.11750536 -0.31312433 -0.16425815 0.11690052
0.09693446 -0.025646206 -0.7266761 -0.19824733 -1.1793021 -0.093042985 -0.2007534 -2.6624348
-0.107442826 -0.12752931 -1.746266 -0.07392423 -0.070505984 -1.6070955 0.16921341 0.14283073
-0.37185436 -0.63326126 -0.22123745 -0.04166462 0.2673988 -0.65133256 -1.3186214 -0.65595704
-0.6277397 0.20217815 -0.04635512 -1.103387 -1.0094026 -0.026313648 -0.8480629 0.04905835
-0.32576802 -0.5637718 0.028962657 -0.00057601364 -0.008839517 -0.35891807 -0.1315844 0.08697245
-0.0066418746 0.08435919 -0.85821676 0.100722834 -0.22134548 0.065593585 0.115864694 -0.8075826
0.09309623 -0.6286083 -0.021087816 -1.4517527 0.08489387 -0.64907146 -0.22500324 -0.06605119

bias f4 [64]
00000000: 6d5f 20bd 5f19 ecbd e338 bc3e 8d3d 043f
00000010: 9f9a e43e 3041 903e c632 0ebe 775f 87bc
00000020: 17fc 243d 1c8f 49bd 78ef 073e 9613 b93e
00000030: 0b09 aa3e 3296 803e 6e2b 293d 7b61 08be
00000040: 8a1d c13e 8af1 a1bd 287b 63bf 909c 28bf
00000050: 137b 8dbf 5f99 cbbe 7f4b 5e3e cd7c a23e
00000060: cc04 0a3f baa1 4e3d 42b2 44bf 634e bcbf
00000070: 585c c9bf be6c 57bf 304e 293d b6bd 0a3f
00000080: a86c 0d3f af45 f33d e99b f6be 73e8 cfbf
00000090: 2a32 c5bf f53e a8be 054d a03d c4aa 1e3f
000000a0: 40a3 be3e 63a7 223e 2f57 3dbe 63a4 23bf
000000b0: 9549 0abf f017 72bf 4adf e9bd 2e0f b93e
000000c0: 2314 19be 6053 ccbc 99b2 253e 3167 b53e
000000d0: 0dd0 e43c 3436 bfbd 3928 303b 8661 633e
000000e0: 7c61 f8be ca0c 52be 7af6 023f 881e fa3e
000000f0: 941e 143f cd06 d63e c61d 87bd 52cb d4bd
-0.039153505 -0.11528277 0.3676215 0.5165642 0.44649217 0.28174734 -0.13886556 -0.016525013
0.040279474 -0.049208745 0.13274944 0.36147755 0.33210024 0.2511459 0.041301183 -0.13318436
0.3771785 -0.07907398 -0.88859797 -0.65863895 -1.1053184 -0.3976545 0.21708487 0.3173584
0.5391357 0.050447203 -0.768345 -1.4711422 -1.5731306 -0.841503 0.04133433 0.54195726
0.5524392 0.118785255 -0.48165825 -1.6242813 -1.5405934 -0.32860532 0.0782719 0.6197932
0.37233925 0.15884165 -0.18490289 -0.6392271 -0.5401853 -0.94567776 -0.11419542 0.36144394
-0.14949088 -0.0249421 0.16181411 0.3543029 0.027931238 -0.0933651 0.0026879443 0.22205171
-0.48511875 -0.20512691 0.51157343 0.48851418 0.5785916 0.41802064 -0.06597476 -0.10390343
