TP/save_models_MLP_256_128_Dropout_Gridsearch_Relu/model_17.pt (torch, 235745 bytes, 6 tensors)

weight f4 [256, 64]
-0.29780927 -0.033163093 0.12888616 -0.17207156 0.017597169 -0.028945528 -0.05700842 -0.09744123
0.084671095 2.6924644 0.14722528 0.05513901 -0.062272817 -0.074191004 0.020266404 -0.05413939
-0.1381983 0.18711263 0.49193373 0.13323691 -0.09332275 -0.076837026 -0.024898244 -0.02453039
0.112314135 -0.044244442 -0.44055405 0.16753945 0.060607385 0.039642155 -0.0021019287 0.01755163
-0.25878382 0.10927183 0.12049348 -0.07466493 0.10817161 -0.13477649 -0.11265531 -0.28360152
0.07677599 0.03885049 -0.018341856 -0.15299302 0.096327804 -0.057712592 0.058139455 0.047309168
0.106066406 -0.086312585 -0.000858714 -0.002778846 0.06840015 -0.02217522 0.10238475 -0.03916741
0.09530976 -0.09562744 0.008206477 -0.06541089 -0.08381666 -0.013831335 -0.025161833 -0.13813126
-1.1338679 0.06890632 -0.12716246 -0.078958265 0.23156108 -0.04269101 -0.0031316308 -0.9300237
-0.16855536 -0.38197103 0.050208155 0.079873584 -0.45458895 0.04855243 -0.09270517 0.31839302
0.0706724 -0.05061329 0.092964 0.036666483 0.14643045 0.48099786 -0.045510743 -0.2309754
-0.13058816 -0.06230139 0.1897122 0.3562468 -0.5375391 0.052646063 0.016321471 -0.28640717
-0.11866626 0.12850566 -0.19810906 0.019779881 0.3689865 0.036956895 -0.023107078 -0.033834755
-0.13109869 0.20110205 -0.06508995 -0.06927504 -0.26023287 0.26958594 0.30453357 0.084407225
-0.041251928 -1.3234285 -0.11168202 0.031125698 0.050072554 -0.08188596 -0.2926073 -0.08596845
-0.18340227 -0.13121589 0.040470183 0.14678545 -0.2648358 0.06123394 0.31826815 -0.1427662
0.8037034 2.16357 0.4133257 0.13067898 0.108103104 -0.33453897 0.25333294 -0.03497486
-0.36668703 0.3392435 -0.3056852 0.18635422 -0.04085962 -0.18552454 -0.19334972 0.14813107
-0.22544174 0.18286365 -0.033995006 -0.03237721 -0.1499106 0.000877726 0.031402096 -0.02248277
0.20622483 -0.1564892 -0.014046913 -0.18201394 -0.018777339 0.04399104 0.07135822 -0.07032741
0.5155577 -0.10357998 -0.032487296 0.0075864065 0.04775865 0.003380691 0.058667477 0.115910314
-0.28624263 0.19999175 0.14228569 -0.12344362 -0.101627626 0.096615195 -0.021218738 -0.18356512
0.12218882 -0.2812826 0.1322642 -0.031523995 0.06035628 0.043184154 0.083721414 0.22916852
-0.39832032 -0.0028542012 -0.21170661 -0.25013167 0.33735877 -0.10988052 -0.26214436 -0.06514044
0.22722743 -0.034743764 -0.12923634 0.050920986 -0.030527614 -0.14375402 0.15686843 0.043243922
-0.020452397 0.09324937 0.008519908 -0.1610619 0.11511104 0.057767205 -0.9865059 0.29910204
-0.13284254 0.02615321 0.063535444 -0.135489 0.057316896 0.0034127086 -0.022502443 -0.06296011
0.095375165 -0.007981299 0.09092489 -0.0031688889 0.12843052 -0.00048606962 -0.046094425 -0.1343504
-0.1224917 0.1625083 0.07888355 -0.17785485 -0.12639983 -0.21192878 -0.015946157 0.0027534843
-0.124657586 0.049634844 0.14631325 -0.12109802 -0.12993026 -0.07094682 0.11519035 0.14236669
0.032658365 -0.087819874 -0.51443404 1.705048 0.066972315 -0.041608743 -0.6332243 0.016144184
-0.8031582 -0.039357472 -0.5227127 -0.42422944 0.71294904 0.47272924 -0.05522173 -0.41625568
00000000: 757a 98be 06d6 07bd bcfa 033e 8733 30be
00000010: f027 903c 2c1f edbc a981 69bd 458f c7bd
00000020: 0a68 ad3d 5651 2c40 39c2 163e 71d9 613d
00000030: c811 7fbd 74f1 97bd bb05 a63c 44c1 5dbd
00000040: db83 0dbe 749a 3f3e bdde fb3e 426f 083e
00000050: ff1f bfbd bb5c 9dbd 67f7 cbbc f5f3 c8bc
00000060: f404 e63d a939 35bd 4d90 e1be 768f 2b3e
00000070: 733f 783d d05f 223d 83c0 09bb 70c8 8f3c
00000080: 507f 84be e9c9 df3d 49c5 f63d ede9 98bd
00000090: 1489 dd3d d902 0abe d4b7 e6bd 3834 91be
000000a0: bb3c 9d3d b121 1f3d a941 96bc 34aa 1cbe
000000b0: 8347 c53d 0a64 6cbd a323 6e3d 42c7 413d
000000c0: 5839 d93d a7c4 b0bd 521b 61ba 4d1d 36bb
000000d0: 6115 8c3d cfa8 b5bc 19af d13d 026e 20bd
000000e0: c331 c33d 52d8 c3bd 7674 063c 25f6 85bd
000000f0: 12a8 abbd d39c 62bc 3020 cebc 4872 0dbe
00000100: 9522 91bf c21e 8d3d e036 02be dfb4 a1bd
00000110: 591e 6d3e c5dc 2ebd 0c3c 4dbb 0916 6ebf
00000120: c799 2cbe b591 c3be 11a7 4d3d c394 a33d
00000130: e2bf e8be eade 463d 35dc bdbd 6904 a33e
00000140: b1bc 903d e24f 4fbd e963 be3d 982f 163d
00000150: ddf1 153e 5a45 f63e 7969 3abd d184 6cbe
00000160: e7b8 05be be2f 7fbd ea43 423e fb65 b63e
00000170: 2a9c 09bf 66a3 573d 9bb4 853c f6a3 92be
00000180: 4c07 f3bd fd96 033e 1add 4abe 6b09 a23c
00000190: cceb bc3e 1d60 173d 0e4b bdbc 5096 0abd
000001a0: bc3e 06be b2ed 4d3e e14d 85bd 12e0 8dbd
000001b0: 3e3d 85be 2b07 8a3e d3eb 9b3e b2dd ac3d
000001c0: c8f7 28bd 1b66 a9bf 8bb9 e4bd 52fb fe3c
000001d0: e118 4d3d d4b3 a7bd a0d0 95be 3a10 b0bd
000001e0: cecd 3bbe 755d 06be 10c4 253d ed4e 163e
000001f0: 8f98 87be 71d0 7a3d 0bf4 a23e 4d31 12be
00000200: 82bf 4d3f ee77 0a40 6d9f d33e b6d0 053e
00000210: 2965 dd3d b148 abbe dbb4 813e cc41 0fbd
00000220: 67be bbbe 53b1 ad3e c582 9cbe a4d3 3e3e
00000230: 6b5c 27bd 25fa 3dbe 78fd 45be acaf 173e
00000240: 33da 66be 9c40 3b3e 593e 0bbd f79d 04bd
00000250: 2a82 19be 3217 663a 7c9f 003d c92d b8bc
00000260: 9a2c 533e b43e 20be 0625 66bc dd61 3abe
00000270: efd2 99bc f32f 343d 4224 923d d107 90bd
00000280: 97fb 033f be21 d4bd 6611 05bd 6497 f83b
00000290: 939e 433d 958e 5d3b 4f4d 703d 6362 ed3d
000002a0: 658e 92be a3ca 4c3e 57b3 113e 02d0 fcbd
000002b0: 2522 d0bd 30de c53d ebd2 adbc 7ff8 3bbe
000002c0: 223e fa3d 4604 90be 4470 073e 4e1f 01bd
000002d0: 2638 773d dee1 303d 2276 ab3d 27ab 6a3e
000002e0: a4f0 cbbe 8d0d 3bbb 9ec9 58be 4211 80be
000002f0: 4aba ac3e 0a09 e1bd c937 86be 5a68 85bd
00000300: 4fae 683e 7a4f 0ebd 8856 04be 8692 503d
00000310: 0c15 fabc 4134 13be 1ea2 203e 8a20 313d
00000320: c98b a7bc 87f9 be3d 1697 0b3c 69ed 24be
00000330: 56bf eb3d 4e9d 6c3d a78b 7cbf e723 993e
00000340: e007 08be 423f d63c df1e 823d a1bd 0abe
00000350: 1fc5 6a3d c0a7 5f3b 0b57 b8bc 3bf1 80bd
00000360: 0e54 c33d ffc3 02bc d436 ba3d 22ad 4fbb
00000370: 4a83 033e 29d7 feb9 82cd 3cbd 2793 09be
00000380: eedc fabd 9368 263e b38d a13d 951f 36be
00000390: f56e 01be dc03 59be 84a1 82bc cd73 343b
000003a0: 7a4c ffbd e84d 4b3d 24d3 153e 3d02 f8bd
000003b0: 700c 05be 914c 91bd ebe8 eb3d 93c8 113e
000003c0: c7c4 053d e8da b3bd f3b1 03bf 033f da3f
000003d0: c828 893d ee6d 2abd fd1a 22bf cf40 843c
000003e0: c79b 4dbf 4d35 21bd 80d0 05bf 9a34 d9be
000003f0: d483 363f 9109 f23e 2e30 62bd 771f d5be

bias f4 [256]
-0.86632735 -0.9380805 -1.4939283 -1.4642226 -1.0044426 -0.3776062 -1.0625556 -1.5779706
-1.5805717 -1.4250512 -0.817723 -1.0542595 -3.1865814 -2.3210428 -1.8378625 -1.2121366
-1.3182721 -1.4391218 -1.0842026 -2.249288 -1.0709023 -0.37436613 -1.771551 -2.8064747
-0.83019626 -1.0268393 -0.7343497 -1.4289565 -1.2826473 -2.3747573 -1.3332787 -1.0927147
-0.6663905 -0.9118781 -0.55387086 -0.73070437 -1.2999436 -1.2266217 -0.9499738 -1.0190555
-0.69205755 -1.6308057 -1.3551408 -1.1067973 -1.2675327 -1.5214579 -0.8941528 -0.8401104
-0.71701044 -2.4853277 -1.193619 -1.3811587 -0.73001087 -1.017289 -2.3660758 -1.0903997
-1.5768647 -1.3680582 -1.924718 -1.0045146 -1.7282904 -1.3720368 -1.1355056 -0.46616215
-1.694412 -0.95312417 -2.6813843 -0.97938895 -1.1978596 -1.30071 -1.7810296 -0.5218495
-1.3698821 -2.453601 -1.2676116 -1.3586187 -0.6130715 -1.2396783 -1.4329101 -1.33441
-0.803077 -0.7396314 -0.7600792 -2.9348044 -0.39679584 -1.0894728 -0.9850796 -0.91186905
-0.58841497 -2.9264493 -1.3634928 -0.87402815 -1.018316 -1.2889258 -1.58697 -1.9359727
-1.2305772 -1.1051166 -1.1294442 -2.0707955 -1.1708745 -0.99436104 -1.0226283 -0.9136469
-1.1242114 -2.9003005 -1.1366267 -1.043105 -0.95162815 -0.6568897 -1.3975899 -0.7498186
-1.2487123 -0.9812108 -1.271799 -0.94866514 -1.0127687 -1.3412935 -1.1639429 -0.8994357
-1.512137 -1.244547 -2.2537296 -0.9750372 -0.8143348 -0.63906366 -1.4689387 -0.95121735
-1.14109 -1.419403 -0.803813 -1.6568799 -1.3223021 -0.92481655 -1.087779 -1.3236166
-1.3603678 -0.82705665 -1.3681 -1.1794688 -2.8822708 -1.0405188 -1.1250004 -0.8549595
-3.0600038 -3.168933 -1.7293688 -1.2602888 -1.055602 -2.255682 -1.66848 -0.5763462
-0.7951533 -1.152015 -1.2679665 -0.9988856 -1.7774588 -1.14117 -2.03274 -0.8402067
-2.2814963 -0.8241343 -2.8641362 -1.1711935 -0.9891335 -0.5612187 -1.2041932 -1.3710011
-0.78734326 -0.81654096 -1.6016893 -0.9479551 -2.4579554 -2.0820408 -1.0342172 -1.281643
-1.4488039 -0.73162746 -1.1753368 -1.0002714 -0.9883866 -1.0042663 -1.0297747 -1.1549039
-1.1687912 -1.231292 -0.7744159 -1.1755363 -1.8217971 -1.0526464 -1.211947 -0.9092128
-1.147545 -1.3100556 -0.90747774 -2.4435575 -1.1605233 -0.5009421 -1.3386893 -1.0472587
-1.5882491 -1.0614098 -1.055177 -0.96103215 -2.4460309 -0.82945615 -2.8921075 -1.4135809
-0.90101916 -1.2928897 -1.2828358 -0.8846283 -1.4106078 -2.0784683 -1.0347896 -0.89529806
-1.3892003 -1.2711458 -1.064475 -2.5654635 -1.3394387 -0.86338824 -1.0187271 -1.3961505
-1.385931 -1.9399304 -0.71281296 -0.9558747 -1.7178465 -0.8787395 -1.0289469 -0.8359871
-0.9350066 -1.4054266 -2.6005857 -1.2162722 -0.8529592 -1.4093502 -1.1692734 -1.5503771
-1.2637249 -1.2266208 -1.4290919 -0.8797879 -0.74240977 -0.6607162 -1.5751952 -2.7756386
-1.4976661 -0.90309834 -0.65745324 -1.2519242 -0.93128175 -0.7884283 -2.2043278 -0.9517589
00000000: a1c7 5dbf 0b26 70bf 0b39 bfbf a56b bbbf
00000010: 9391 80bf 9a55 c1be d201 88bf f1fa c9bf
00000020: 2c50 cabf 1468 b6bf 4b56 51bf faf1 86bf
00000030: f3f0 4bc0 f78b 14c0 143f ebbf 4b27 9bbf
00000040: 24bd a8bf 2535 b8bf 27c7 8abf 56f4 0fc0
00000050: 5413 89bf ebac bfbe 2fc2 e2bf 489d 33c0
00000060: be87 54bf 786f 83bf 58fe 3bbf 0ce8 b6bf
00000070: c92d a4bf 06fc 17c0 e0a8 aabf 13de 8bbf
00000080: 9198 2abf d870 69bf 7bca 0dbf 710f 3bbf
00000090: 8d64 a6bf f101 9dbf 7c31 73bf 6970 82bf
000000a0: af2a 31bf 3ebe d0bf 4175 adbf 89ab 8dbf
000000b0: 833e a2bf 22bf c2bf 33e7 64bf 7a11 57bf
000000c0: ff8d 37bf 9c0f 1fc0 82c8 98bf cfc9 b0bf
000000d0: fee1 3abf 8736 82bf c96d 17c0 3892 8bbf
000000e0: b4d6 c9bf 881c afbf 295d f6bf ef93 80bf
000000f0: 9f38 ddbf e79e afbf 3f58 91bf ceac eebe
00000100: 7ee2 d8bf f2ff 73bf cd9b 2bc0 3cb9 7abf
00000110: 7753 99bf aa7d a6bf c7f8 e3bf ee97 05bf
00000120: 4c58 afbf cc07 1dc0 1941 a2bf 38e7 adbf
00000130: 41f2 1cbf c7ad 9ebf 9969 b7bf f2cd aabf
00000140: 7496 4dbf 7c58 3dbf 8d94 42bf d6d3 3bc0
00000150: d328 cbbe d873 8bbf 2d2e 7cbf 4070 69bf
00000160: 5da2 16bf f24a 3bc0 ef86 aebf 4fc0 5fbf
00000170: 2e58 82bf 85fb a4bf d521 cbbf f4cd f7bf
00000180: 8e83 9dbf 7674 8dbf a191 90bf ea87 04c0
00000190: 37df 95bf 728e 7ebf 7ce5 82bf c3e4 69bf
000001a0: 29e6 8fbf 869e 39c0 fc7c 91bf 7784 85bf
000001b0: e79d 73bf ec29 28bf 3ae4 b2bf 1df4 3fbf
000001c0: ced5 9fbf a230 7bbf 4fca a2bf b8db 72bf
000001d0: 68a2 81bf 81af abbf 15fc 94bf 6b41 66bf
000001e0: b58d c1bf 514d 9fbf 1b3d 10c0 0a9c 79bf
000001f0: 3f78 50bf ad99 23bf 2f06 bcbf fb82 73bf
00000200: 3d0f 92bf ffae b5bf b0c6 4dbf a414 d4bf
00000210: 3241 a9bf c7c0 6cbf 583c 8bbf 456c a9bf
00000220: 8820 aebf fcb9 53bf e71d afbf d5f8 96bf
00000230: 2077 38c0 b82f 85bf 0300 90bf a0de 5abf
00000240: 1ad7 43c0 cccf 4ac0 f55b ddbf 2551 a1bf
00000250: f71d 87bf 185d 10c0 c190 d5bf 6d8b 13bf
00000260: 2b8f 4bbf 3a75 93bf ba4c a2bf f7b6 7fbf
00000270: c583 e3bf dc11 92bf 6a18 02c0 c917 57bf
00000280: 0904 12c0 77fa 52bf 024e 37c0 abe9 95bf
00000290: da37 7dbf 07ac 0fbf 0123 9abf f77c afbf
000002a0: 548f 49bf d408 51bf 2804 cdbf 2fad 72bf
000002b0: 244f 1dc0 2840 05c0 3b61 84bf e10c a4bf
000002c0: 6872 b9bf f04b 3bbf 7071 96bf e508 80bf
000002d0: e706 7dbf cc8b 80bf a8cf 83bf e4d3 93bf
000002e0: f39a 95bf fa9a 9dbf 1f40 46bf f977 96bf
000002f0: a630 e9bf 1ebd 86bf 1421 9bbf 2cc2 68bf
00000300: c1e2 92bf e7af a7bf 7650 68bf 3f63 1cc0
00000310: 078c 94bf be3d 00bf 2c5a abbf 930c 86bf
00000320: bf4b cbbf 47dc 87bf 0a10 87bf 3406 76bf
00000330: c58b 1cc0 3d57 54bf 4a18 39c0 38f0 b4bf
00000340: 31a9 66bf 697d a5bf f733 a4bf 0077 62bf
00000350: cc8e b4bf a005 05c0 fc73 84bf 4132 65bf
00000360: 51d1 b1bf e8b4 a2bf b840 88bf 8e30 24c0
00000370: ba72 abbf 0307 5dbf a665 82bf 0fb5 b2bf
00000380: 3066 b1bf a44f f8bf e97a 36bf 34b4 74bf
00000390: 65e2 dbbf 12f5 60bf 88b4 83bf 4003 56bf
000003a0: 985c 6fbf 05e5 b3bf ff6f 26c0 cfae 9bbf
000003b0: 895b 5abf 9665 b4bf c0aa 95bf c272 c6bf
000003c0: bdc1 a1bf e901 9dbf 7cec b6bf c839 61bf
000003d0: 910e 3ebf b224 29bf ff9f c9bf 10a4 31c0
000003e0: 86b3 bfbf 7431 67bf db4e 28bf 0d3f a0bf
000003f0: 7b68 6ebf 70d6 49bf b513 0dc0 79a6 73bf

weight f4 [128, 256]
0.0006125546 0.23771656 0.0040531605 -0.13077112 -0.17667553 0.051523786 -0.16203153 0.20414539
0.010739548 0.14376262 -0.021952478 0.015744697 0.033844903 0.056106444 -0.11043004 0.7647131
0.044129547 0.038862005 -0.13074878 -0.11019943 -0.17267562 0.07992137 -0.0951216 0.11316495
-0.047842875 -0.112181835 -0.14908883 0.119655386 0.15171397 -0.09348165 0.02924153 -0.073908925
-0.09080414 0.11046051 -0.032534264 0.035830207 0.08369358 0.0075288834 -0.0062035294 0.017489105
0.2755188 -0.118265904 -0.26247558 -0.044225503 0.175035 -0.05903111 0.18128967 -0.008550404
0.04122522 0.108050324 -0.15452233 -0.06445822 -0.06561204 0.08394044 0.047116227 0.362692
0.6411462 -0.055750564 0.011228094 -0.08737378 -0.012206037 -0.15746242 -0.16584882 -0.108952984
0.07033946 -0.029692693 -0.11101948 -0.02824976 -0.022358127 -0.1355534 -0.08823436 -0.09520801
0.034445196 -0.08850498 0.05432579 0.35853866 0.014423959 -0.19903493 -0.040311877 0.12150035
-0.023114117 -0.0052092597 0.012336137 0.042772382 0.5190576 -0.5930407 -0.036544498 -0.043652706
-0.09538749 -0.029250197 -0.21054672 -0.0826576 0.015894575 0.22690272 0.12221359 -0.07754206
0.21037956 -0.026400162 -0.089428075 0.0067825005 -0.08242027 0.02599443 0.09093896 0.09815214
-0.21418619 -0.026963294 -0.0982368 -0.031008827 -0.0004412461 0.039731298 -0.005289818 -0.13542657
-0.035193466 0.45011017 -0.0154142 0.03823674 0.17540047 0.19516344 0.0465686 0.026845576
0.3794394 -0.11380394 -0.03224002 -0.016739244 -0.028543217 0.010527569 -0.21828172 -0.0939078
-0.013325185 0.018967794 -0.028358884 0.06576683 -0.005623639 -0.052144937 0.1786667 -0.10564595
-0.353852 -0.1050355 -0.15002565 0.0515789 -0.028873082 0.031387284 -0.032882474 0.07307867
-0.0717431 0.0012427904 0.010732012 -0.059034172 -0.17343561 -0.07927911 0.04050424 0.056171324
-0.050794948 0.09488573 0.001998418 0.020296698 -0.14536159 0.0676674 -0.12410406 -0.057108603
0.07725961 0.051221 0.1146401 0.04956512 0.109551385 0.33849806 0.07952014 0.0458982
0.12580027 -0.024715347 -0.10938242 0.48655042 0.0028302374 -0.021965772 0.25179976 0.012560158
0.15550642 -0.05106477 0.08826299 0.03207293 -0.12720871 0.08295298 -0.0056478963 -0.10547137
0.18632951 0.029443562 -0.16670446 -0.04662423 0.03318472 -0.07382063 0.044831127 0.0085148
0.059481066 -0.23251957 -0.08989221 0.937042 -0.06093776 -0.13866812 -0.22378203 -0.09082421
0.10562689 -0.07907281 -0.07094812 0.106913485 -0.063919455 0.25883505 0.16648726 0.06947773
-0.1395969 -0.062001217 0.038011126 0.081112206 0.0015852532 -0.04591436 -0.14005359 0.010967142
0.017708702 0.33539957 -0.06276881 -0.04392277 -0.015774012 -0.10015772 -0.040954705 0.064744815
-0.053099003 -0.020418584 0.01933908 -0.029754687 0.14843349 0.051582243 0.03485261 -0.12450739
0.040360138 -0.091363646 -0.09184786 -0.12368322 -0.1477552 -0.14583257 0.05847862 0.11525155
-0.19915123 -0.09491617 -0.07336062 0.035586264 -0.0009924734 0.0068629375 -0.16671486 0.020039866
-0.20484029 -0.02856047 0.34736285 0.33860633 0.10898835 0.7265246 -0.06691132 -0.04241241
00000000: d893 203a f86b 733e 60d0 843b dde8 05be
00000010: 6eea 34be 9b0a 533d 98eb 25be 7d0b 513e
00000020: eef4 2f3c 8236 133e afd5 b3bc 06fb 803c
00000030: f4a0 0a3d dfcf 653d 2529 e2bd 3dc4 433f
00000040: 2fc1 343d c42d 1f3d 02e3 05be 3db0 e1bd
00000050: e1d1 30be d1ad a33d 1dcf c2bd 06c3 e73d
00000060: e4f6 43bd 97bf e5bd beaa 18be e20d f53d
00000070: e85a 1b3e 4f73 bfbd ef8b ef3c 905d 97bd
00000080: 85f7 b9bd 1f39 e23d a642 05bd b2c2 123d
00000090: 8a67 ab3d dab4 f63b fa46 cbbb 5045 8f3c
000000a0: cd10 8d3e 6535 f2bd 3363 86be cd25 35bd
000000b0: 603c 333e 9bca 71bd 00a4 393e fe16 0cbc
000000c0: c7db 283d 7d49 dd3d 1a3b 1ebe ac02 84bd
000000d0: 9b5f 86bd f7e8 ab3d f2fc 403d c4b2 b93e
000000e0: 2822 243f b45a 64bd 0af6 373c 06f1 b2bd
000000f0: d4fb 47bc d43d 21be 46d4 29be be22 dfbd
00000100: 230e 903d 173e f3bc 2e5e e3bd 0a6c e7bc
00000110: 6428 b7bc 83ce 0abe 37b4 b4bd 6bfc c2bd
00000120: 6816 0d3d 1942 b5bd b884 5e3d 6192 b73e
00000130: 7852 6c3c d0cf 4bbe 111e 25bd 2dd5 f83d
00000140: d159 bdbc 70b2 aabb 821d 4a3c 1832 2f3d
00000150: f5e0 043f 84d1 17bf afaf 15bd 2ecd 32bd
00000160: 845a c3bd 1c9e efbc 8f99 57be 6348 a9bd
00000170: 5735 823c 3059 683e 1e4b fa3d 5fce 9ebd
00000180: bd6d 573e 2745 d8bc 1126 b7bd bd3f de3b
00000190: f5cb a8bd 45f2 d43c 353e ba3d fd03 c93d
000001a0: a053 5bbe 20e2 dcbc 6030 c9bd 3906 febc
000001b0: 0d57 e7b9 49bd 223d 3656 adbb 43ad 0abe
000001c0: 0627 10bd d774 e63e d78b 7cbc 219e 1c3d
000001d0: 2e9c 333e edd8 473e b7be 3e3d 41eb db3c
000001e0: e245 c23e 0a12 e9bd 1c0e 04bd bd20 89bc
000001f0: 77d3 e9bc d37b 2c3c 3e85 5fbe bc52 c0bd
00000200: e051 5abc 5962 9b3c e450 e8bc c3b0 863d
00000210: 8146 b8bb ee95 55bd 67f4 363e e75c d8bd
00000220: 172c b5be da1c d7bd 53a0 19be 6644 533d
00000230: 3e87 ecbc f48f 003d c6af 06bd 45aa 953d
00000240: 0cee 92bd 20e5 a23a 52d5 2f3c d1cd 71bd
00000250: 1b99 31be 165d a2bd c6e7 253d e713 663d
00000260: 5d0e 50bd 7353 c23d e4f7 023b 4345 a63c
00000270: abd9 14be 3595 8a3d 452a febd b6ea 69bd
00000280: 493a 9e3d 1ccd 513d 6ec8 ea3d cc04 4b3d
00000290: 7a5c e03d 9e4f ad3e 75db a23d c0ff 3b3d
000002a0: c9d1 003e d777 cabc e403 e0bd 231d f93e
000002b0: 817b 393b 90f1 b3bc e6eb 803e 1fc9 4d3c
000002c0: 133d 1f3e 4b29 51bd 3ac3 b43d e85e 033d
000002d0: 0043 02be 41e3 a93d fd11 b9bb 6001 d8bd
000002e0: 2acd 3e3e a033 f13c 93b4 2abe 0cf9 3ebd
000002f0: b3ec 073d 452f 97bd d8a0 373d a981 0b3c
00000300: 6ba2 733d 9c19 6ebe 6819 b8bd fce1 6f3f
00000310: df99 79bd 04ff 0dbe 1e27 65be 0b02 babd
00000320: e952 d83d edf0 a1bd 3f4d 91bd 75f5 da3d
00000330: 34e8 82bd 0786 843e a37b 2a3e 574a 8e3d
00000340: 7df2 0ebe fdf4 7dbd 8eb1 1b3d 281e a63d
00000350: 45c8 cf3a b210 3cbd 356a 0fbe 87af 333c
00000360: d711 913c 7eb9 ab3e ef8c 80bd 5de8 33bd
00000370: 8038 81bc 7e1f cdbd 1fc0 27bd ee98 843d
00000380: 577e 59bd e044 a7bc fe6c 9e3c 1ac0 f3bc
00000390: f3fe 173e e747 533d 9cc1 0e3d bbfd febd
000003a0: ac50 253d dd1c bbbd bb1a bcbd a14d fdbd
000003b0: 244d 17be 2255 15be 4787 6f3d 0109 ec3d
000003c0: 4dee 4bbe 6963 c2bd 183e 96bd e7c2 113d
000003d0: e215 82ba 7ee2 e03b 4db7 2abe a52a a43c
000003e0: a7c1 51be a6f7 e9bc 8bd9 b13e cf5d ad3e
000003f0: 4935 df3d 84fd 393f cd08 89bd a3b8 2dbd

bias f4 [128]
-0.5698893 0.27707088 0.46307012 -1.3536656 1.6147896 0.48676938 0.7618828 0.19347711
-0.22480333 0.58918184 0.5560416 -0.34523746 0.0582746 1.5264508 -0.24649416 0.13160317
0.6966504 -0.82033175 0.15751967 0.31820247 0.095379554 0.43112975 0.8610406 0.070922524
1.5507641 -0.69982624 0.64296144 0.8774863 1.1482222 0.5113144 0.35889286 0.045123283
0.870902 0.17332809 -0.15074988 0.28141412 0.27225327 0.26474652 1.0139803 0.059368428
-0.41255465 0.2583948 -0.13450395 0.68725955 -0.32354683 0.49061543 -0.14540927 -0.5883253
0.97618526 0.25198388 0.11083804 0.43020985 0.23062858 -0.5698591 -0.45231152 -0.71402615
1.3985195 0.54481953 0.7026731 0.52030814 0.60829973 -1.20769 0.8110543 0.07378925
0.3695104 -0.20844695 1.0303785 -0.38258523 0.26800683 -0.83431405 -0.22289933 0.6251064
-1.3819056 -0.12357845 1.7836313 0.5711446 0.8752962 0.00050295517 0.4289289 1.109997
0.42336193 1.5339293 1.0984536 1.0371346 0.69020444 1.4642495 1.7907417 -0.16499081
1.7419555 0.62961185 -0.74745727 0.45842516 0.82866377 0.41330698 0.56059474 0.76712674
0.19811551 -0.39355913 0.21598943 1.0533077 0.32355154 0.4258416 0.55866504 -0.93321335
0.37320098 0.9786161 -0.82277703 0.45339665 0.7062302 0.8019578 -0.57311416 0.70717686
-0.7167509 0.11886584 0.5128644 -1.6809838 -0.06966387 -0.3273947 0.39187184 -0.13416542
0.13362293 0.7244132 -0.48404735 0.19435649 -0.7278269 0.8627485 0.8768063 0.50547314
00000000: 44e4 11bf 3cdc 8d3e 8717 ed3e ea44 adbf
00000010: 6db1 ce3f d639 f93e c00a 433f dd1e 463e
00000020: d832 66be 9fd4 163f be58 0e3f f7c2 b0be
00000030: 59b1 6e3d bd62 c33f f768 7cbe fbc2 063e
00000040: ae57 323f 4301 52bf d64c 213e 6feb a23e
00000050: 5b56 c33d 0abd dc3e 286d 5c3f d43f 913d
00000060: 707f c63f d027 33bf 1f99 243f f1a2 603f
00000070: f2f8 923f 80e5 023f cec0 b73e 31d3 383d
00000080: 6ff3 5e3f eb7c 313e 2d5e 1abe 8315 903e
00000090: c864 8b3e db8c 873e 1bca 813f 4f2c 733d
000000a0: 5d3a d3be 534c 843e 67bb 09be 3ef0 2f3f
000000b0: eea7 a5be f231 fb3e 2be6 14be 7d9c 16bf
000000c0: 47e7 793f 0804 813e 0eff e23d 7744 dc3e
000000d0: e629 6c3e 49e2 11bf 6095 e7be 6bca 36bf
000000e0: b002 b33f 4b79 0b3f 62e2 333f ea32 053f
000000f0: 88b9 1b3f 9695 9abf 41a1 4f3f d11e 973d
00000100: 7830 bd3e 1e73 55be 71e3 833f 36e2 c3be
00000110: 3138 893e 9b95 55bf b93f 64be f906 203f
00000120: 48e2 b0bf b316 fdbd 084e e43f 8836 123f
00000130: 6913 603f c0d8 033a 929c db3e 6214 8e3f
00000140: e5c2 d83e cc57 c43f 219a 8c3f d4c0 843f
00000150: 3db1 303f 876c bb3f 0637 e53f 5af3 28be
00000160: 66f8 de3f 3e2e 213f 5c59 3fbf b4b6 ea3e
00000170: 4f23 543f f99c d33e 2383 0f3f 6b62 443f
00000180: cbde 4a3e 9580 c9be 552c 5d3e c9d2 863f
00000190: 8ca8 a53e e907 da3e ac04 0f3f 12e7 6ebf
000001a0: 3314 bf3e 9686 7a3f 84a1 52bf 9b23 e83e
000001b0: 81cb 343f 1b4d 4d3f 9cb7 12bf 8b09 353f
000001c0: fd7c 37bf ef6f f33d 154b 033f 7a2a d7bf
000001d0: eeab 8ebd 47a0 a7be 6da3 c83e a962 09be
000001e0: 73d4 083e 2573 393f 0ed5 f7be 6305 473e
000001f0: dd52 3abf 16dd 5c3f 6176 603f b066 013f

weight f4 [64, 128]
0.11137124 -0.38425353 -0.78392273 0.19276367 -1.8467278 -0.28222114 -0.57435924 -0.52868766
0.115653835 -0.1306969 -0.012361875 -0.47315845 0.043332096 -0.87172705 -0.10115758 -0.5253527
0.03479477 -0.011955442 -0.4076975 -1.1740034 0.031460572 -1.0816379 -0.6376723 -0.52975506
-0.9687548 -0.41350615 -0.43709412 -0.07321875 -0.535892 -0.15740621 -0.6871309 0.024966221
-0.48912394 -0.87731934 -0.005995143 -2.2100224 0.15057655 -0.43450004 -1.5419232 0.0711757
0.055517506 -0.9180702 -0.043724854 -1.1289134 -0.37002346 -0.24073942 0.031326804 -0.35932794
-0.5481822 0.09062396 -0.08934498 -0.9866625 -0.58230615 0.0670549 -0.066148154 -0.121768676
0.10983386 -0.12403785 -0.7459485 -1.2608359 0.07249628 -0.067051336 -0.259107 -0.4896407
-0.19487365 -0.0976637 -0.5173928 0.22404838 -0.15524459 -0.3222941 -0.4221422 0.064014904
0.00017045943 0.040833246 -2.5738733 -0.45223743 -1.2079024 -0.057794638 -0.71032065 -0.41252443
-0.40237588 -1.1624 -0.6610589 -0.027820267 -0.22785416 -2.8107522 -0.12530766 -0.41394883
-0.3931287 -0.86247325 -0.24051103 -0.057627868 -1.1190636 -0.25500968 0.058852393 -0.561952
-0.018371036 -0.60676587 0.10891371 -0.6453254 -0.6709805 -0.016711287 -0.30574673 0.06924607
-0.14142244 -0.6615847 0.059449915 0.006271736 -0.09337462 -1.1537528 -0.31175408 -0.2450711
-0.06285604 0.00597111 -0.20366845 0.09287143 0.023652803 0.016290924 -0.29672635 -0.27093735
0.042287663 0.07865743 -0.0018385734 -0.80619884 0.05599777 -0.34711847 -0.74387354 0.0016225325
0.02312779 -0.18837768 0.058733515 0.065204665 -0.85563505 -0.41971445 0.392828 -0.12315881
0.09525033 -0.25495294 0.10263729 -0.31466353 0.035171885 -0.8566981 -0.025880145 0.08002198
0.06812299 0.045561634 -0.8574832 0.1378359 -0.06645562 -0.33099774 -0.23276144 -0.33023614
-1.1401598 0.026329707 -0.23040569 -0.5352531 0.022354413 -0.59151226 -0.069013126 0.043159794
-0.21520485 -0.75648814 0.0020250424 -0.36347517 0.0701297 -0.06085449 -1.4669464 -0.20791817
0.066462636 0.078311056 0.008975529 0.08469989 0.15732211 -0.109262094 0.08475573 -0.014299463
-0.2394368 0.03792232 0.0074885385 -0.20012727 -1.5656308 0.06789989 -0.28051835 -0.123193175
0.05810057 0.37586996 0.10419887 -0.8329762 0.052912787 -0.05481478 0.010091973 -0.25172776
-1.6774001 0.0921539 -1.0470251 0.16433448 0.06896295 -0.31036678 -0.13600898 0.12096772
0.103217885 0.025209486 -0.8144961 -0.16531615 -1.5934687 -0.11039942 -0.3235724 -2.4341638
-0.09642282 -0.044968504 -1.6034057 -0.0029284358 -0.15436998 -1.35463 0.08930523 0.17932865
-0.27103364 -0.4399856 -0.22123744 -0.05741254 0.13079102 -0.6073639 -0.9132454 -0.5184478
-0.4744651 0.19104673 -0.005631364 -1.1631788 -1.0256994 -0.01273116 -0.6761457 0.059119932
-0.12343192 -0.42031974 0.062037803 0.04571285 -0.017721992 -0.35519692 -0.1315844 0.058291994
0.18745612 0.060940776 -0.5436309 0.09095201 -0.12042121 0.05301193 0.08049421 -0.5866472
0.07395886 -0.40174428 -0.021082755 -0.96967804 0.08444778 -0.47453117 -0.43041778 -0.08119491
00000000: 9b16 e43d e1bc c4be 29af 48bf d763 453e
00000010: 9461 ecbf 4a7f 90be 3509 13bf 1358 07bf
00000020: ebdb ec3d 68d5 05be 7689 4abc d341 f2be
00000030: ff7c 313d 8129 5fbf b52b cfbd 847d 06bf
00000040: f684 0e3d c2e0 43bc babd d0be be45 96bf
00000050: cddc 003d 1c73 8abf 7e3e 23bf 079e 07bf
00000060: 5100 78bf 14b7 d3be cdca dfbe b6f3 95bd
00000070: 3830 09bf 182f 21be d0e7 2fbf f685 cc3c
00000080: 746e fabe 0098 60bf e872 c4bb 0271 0dc0
00000090: bd30 1a3e ca76 debe bd5d c5bf 91c4 913d
000000a0: 5366 633d a606 6bbf d518 33bd 3c80 90bf
000000b0: b773 bdbe 6584 76be 8950 003d d5f9 b7be
000000c0: ab55 0cbf 0e99 b93d 80fa b6bd ea95 7cbf
000000d0: 0412 15bf 1454 893d af78 87bd db61 f9bd
000000e0: 93f0 e03d 8e07 febd 7bf6 3ebf 1263 a1bf
000000f0: ee78 943d 3652 89bd aca9 84be 30b2 fabe
00000100: f58c 47be e803 c8bd db73 04bf f06c 653e
00000110: 70f8 1ebe bb03 a5be 0623 d8be 3f1a 833d
00000120: 5bbd 3239 c340 273d 57ba 24c0 aa8b e7be
00000130: 8c9c 9abf 12ba 6cbd 93d7 35bf 6736 d3be
00000140: 3604 cebe 86c9 94bf 283b 29bf 54e7 e3bc
00000150: 9a52 69be 5de3 33c0 a750 00be 1af1 d3be
00000160: 2a48 c9be 0ccb 5cbf 8648 76be 330b 6cbd
00000170: 7a3d 8fbf a190 82be 350f 713d 16dc 0fbf
00000180: db7e 96bc 0255 1bbf 270e df3d 0c34 25bf
00000190: 61c5 2bbf 1ce6 88bc d68a 9cbe e2d0 8d3d
000001a0: 0bd1 10be 9d5d 29bf c181 733d 2383 cd3b
000001b0: 313b bfbd 2cae 93bf 3b9e 9fbe ebf3 7abe
000001c0: abba 80bd 4da9 c33b 768e 50be 6033 be3d
000001d0: 86c3 c13c 8b74 853c 84ec 97be 4db8 8abe
000001e0: d435 2d3d 2617 a13d 49fc f0ba 0c63 4ebf
000001f0: eb5d 653d 83b9 b1be 7f6e 3ebf 28ab d43a
00000200: 7e76 bd3c 14e6 40be 8e92 703d 068a 853d
00000210: e60a 5bbf d0e4 d6be c020 c93e b03a fcbd
00000220: 9b12 c33d 3189 82be 8033 d23d 941b a1be
00000230: 6510 103d 9150 5bbf 9902 d4bc 90e2 a33d
00000240: 1184 8b3d d69e 3a3d 0584 5bbf db24 0d3e
00000250: e219 88bd 8978 a9be 0459 6ebe b614 a9be
00000260: c2f0 91bf 66b1 d73c 78ef 6bbe 5906 09bf
00000270: 9a20 b73c 596d 17bf c156 8dbd 53c8 303d
00000280: a95e 5cbe 35a9 41bf 93b6 043b 6b19 babe
00000290: 29a0 8f3d 8f42 79bd e6c4 bbbf 80e8 54be
000002a0: 901d 883d 8c61 a03d 190e 133c 2377 ad3d
000002b0: 0c19 213e cec4 dfbd 6a94 ad3d 4b48 6abc
000002c0: ec2e 75be 6f54 1b3d 6a62 f53b 2aee 4cbe
000002d0: 9766 c8bf 190f 8b3d 1aa0 8fbe b44c fcbd
000002e0: ddfa 6d3d 0772 c03e 3866 d53d ee3d 55bf
000002f0: 14bb 583d 7685 60bd cd58 253c 76e2 80be
00000300: 0cb5 d6bf 2fbb bc3d eb04 86bf 4c47 283e
00000310: 723c 8d3d 65e8 9ebe f045 0bbe edbd f73d
00000320: e663 d33d 2084 ce3c d182 50bf a348 29be
00000330: c8f6 cbbf 1719 e2bd 48ab a5be 57c9 1bc0
00000340: 5479 c5bd e530 38bd 663c cdbf 00eb 3fbb
00000350: 2a13 1ebe 8464 adbf a9e5 b63d eea1 373e
00000360: ecc4 8abe cb45 e1be 118c 62be 6929 6bbd
00000370: 15ee 053e 337c 1bbf 73ca 69bf ffb8 04bf
00000380: 17ed f2be c1a1 433e 4e87 b8bb 0be3 94bf
00000390: 1e4a 83bf 5b96 50bc e217 2dbf be27 723d
000003a0: e0c9 fcbd 2634 d7be 5a1b 7e3d 663d 3b3d
000003b0: b62d 91bc 5fdc b5be 10be 06be 96c3 6e3d
000003c0: 7ff4 3f3e 099d 793d 652b 0bbf 0c45 ba3d
000003d0: 659f f6bd 0a23 593d 26da a43d 832e 16bf
000003e0: be77 973d 6db1 cdbe beb5 acbc d23c 78bf
000003f0: f5f2 ac3d c0f5 f2be b85f dcbe 8449 a6bd

bias f4 [64]
-0.12163912 -0.13837919 0.351935 0.5034104 0.514694 0.26980814 -0.17908737 -0.044173516
0.025577452 -0.038607575 0.14796089 0.3109717 0.29134214 0.22964449 0.067326106 -0.19017486
0.37565234 -0.13307926 -0.8584175 -0.55955315 -1.0435803 -0.36202714 0.19004148 0.32232997
0.5193749 -0.024894996 -0.7058952 -1.2622292 -1.3645048 -0.8305699 0.12124714 0.59403163
0.50288844 0.11220294 -0.54558134 -1.4144163 -1.3304611 -0.31516573 0.07456895 0.60215044
0.35966268 0.23165274 -0.2477969 -0.56464463 -0.46170038 -0.90340203 -0.09875825 0.3692885
-0.1445418 -0.034404986 0.24447925 0.35882336 0.11368027 -0.07559778 -0.10904455 0.1505666
-0.47633952 -0.13856755 0.45645812 0.5297697 0.51445454 0.38062814 -0.09025459 -0.091680445
00000000: ee1d f9bd 46b3 0dbe d330 b43e 81df 003f
00000010: fcc2 033f 4b24 8a3e ae62 37be 4aef 34bd
00000020: ce87 d13c fa22 1ebd 0f83 173e af37 9f3e
00000030: cc2a 953e ed27 6b3e 45e2 893d 33bd 42be
00000040: 8155 c03e ee45 08be 40c1 5bbf e03e 0fbf
00000050: 0a94 85bf 9f5b b9be 3c9a 423e 6f08 a53e
00000060: c1f5 043f 97f0 cbbc 8cb5 34bf ba90 a1bf
00000070: 18a8 aebf 3ba0 54bf 6c50 f83d 7512 183f
00000080: 4cbd 003f a8ca e53d 38ab 0bbf 980b b5bf
00000090: 8d4c aabf 675d a1be 9bb7 983d 8826 1a3f
000000a0: b525 b83e 6036 6d3e 78be 7dbe 8d8c 10bf
000000b0: fe63 ecbe 5b45 67bf c441 cabd 6213 bd3e
000000c0: c402 14be 3eec 0cbd c558 7a3e b2b7 b73e
000000d0: 34d1 e83d 02d3 9abd c052 dfbd 212e 1a3e
000000e0: c6e2 f3be a7e4 0dbe e1b4 e93e fd9e 073f
000000f0: 4bb3 033f b1e1 c23e 66d7 b8bd f5c2 bbbd
