TP/save_models_MLP_256_128_Dropout_Gridsearch_Relu/model_10.pt (torch, 235745 bytes, 6 tensors)

weight f4 [256, 64]
000000 99 64 47 be 87 ac 03 3c 60 69 49 3d ad 00 b9 bd
       -0.19471969 0.008036739 0.04917276 -0.09033332
000010 2f f5 77 bd 95 9e 23 3e 1d 20 88 bc 06 e8 63 3c
       -0.06053656 0.15978463 -0.016616875 0.013910299
000020 f4 de 52 3e d6 97 2e 40 20 b6 f5 3d 0f ad 5b bd
       0.20592862 2.7280173 0.11997628 -0.05363184
000030 9c fa 12 bc d6 02 88 bd 07 eb 7f 3d 72 78 d3 bc
       -0.008970883 -0.06641166 0.06248 -0.025814269
000040 e9 92 86 be 73 df 7b 3e 7a 88 a0 3e 4b d8 8b 3d
       -0.2628396 0.24596958 0.31354123 0.06828364
000050 0e 20 5e bd 49 56 13 be cc 95 a1 3d 53 97 09 be
       -0.05422979 -0.14388384 0.078898996 -0.13436632
000060 7b 81 e9 3d 5a 2d 59 3d 85 90 80 be a8 6e 2d 3e
       0.114016496 0.053021766 -0.2511026 0.16936743
000070 b9 d0 9b bc 2e d1 07 3d f3 7d 6f 3e 3f 05 ea 3d
       -0.019020425 0.033158474 0.2338789 0.11426782
000080 11 3e 8b be 03 01 f0 bc d5 ea 6f 3d 22 36 bc bd
       -0.2719579 -0.029297357 0.058573563 -0.091900125
000090 1d 49 e1 3d fa 4c ed 3a dc 8b 1b bd 96 cc ef bd
       0.110002734 0.0018104606 -0.037975177 -0.117089435
0000a0 95 61 e4 3d b8 f8 4f 3c 61 5a 7f bd 2c d8 66 be
       0.11151425 0.0126935765 -0.06234205 -0.225434
0000b0 81 8e eb bc bb 9f b6 bc 34 3a 0a be e5 a7 8b 3d
       -0.028754475 -0.022292962 -0.13498765 0.06819133
0000c0 e2 88 07 3e f0 94 d1 bd fd f4 c1 3d ee d4 4e bc
       0.1323581 -0.10233486 0.09470556 -0.012624009
0000d0 ca e9 01 bd f0 05 98 3d 28 4c 64 bc 95 34 0b be
       -0.0317171 0.074230075 -0.013934173 -0.13594277
0000e0 db 54 de 3d c9 d5 67 3b 8a 1e e1 bb 97 69 85 3d
       0.10856029 0.0035375229 -0.0068700956 0.0651428
0000f0 51 cf 7e bc e2 6c c9 bc 4f 91 9f bd c7 20 44 be
       -0.015552358 -0.024588052 -0.07791387 -0.19153129
000100 f1 b3 67 bf cc 94 38 3e 49 6d db 3d 82 6d 4c 3d
       -0.90508944 0.18025512 0.10714204 0.049909122
000110 be 34 7a 3e af 61 a4 bd b0 76 d7 bd a8 f8 e9 be
       0.24434182 -0.08026444 -0.10520685 -0.45697522
000120 8f 25 aa bd 5e d0 a2 be 6c 45 64 3d fb 38 80 3e
       -0.08307945 -0.31799597 0.05573027 0.25043473
000130 7b 40 78 be d1 2f b1 3e a1 6d 8b bc 76 47 38 3c
       -0.24243347 0.34606794 -0.017020049 0.011247506
000140 2f dc 3a 3d df 63 34 3d 3a 03 86 3d 0d e0 db bc
       0.04562014 0.044040557 0.06543584 -0.026840234
000150 d8 48 d1 bd 3a 7c c8 3e 57 46 9d be 78 b7 4d be
       -0.10218972 0.39157277 -0.30717728 -0.20089519
000160 03 92 cf 3d bb 4a 97 bd 95 ca ca 3d 9b b7 6f 3e
       0.101352714 -0.073873006 0.09901921 0.23409884
000170 15 0f e0 be c3 18 a2 3d 47 9c cc bc 8c 2e 0f 3e
       -0.43761507 0.07914879 -0.024976863 0.139826
000180 73 5d 02 3e f5 bf 3d 3e 58 14 63 be 96 ca 50 bb
       0.1273096 0.18530257 -0.2217573 -0.0031859032
000190 f2 0c 80 3e 58 96 a1 bd 8a 39 12 3c fc dd 99 3d
       0.25009876 -0.07890004 0.008924851 0.07513043
0001a0 db 54 51 be f9 c7 d6 bc 20 b4 36 3d 6c 66 ed bd
       -0.20442526 -0.026218401 0.044605374 -0.11591801
0001b0 6e 0d 89 be 0f 69 1f 3e f2 af 47 3d aa 50 f6 bd
       -0.2676806 0.1556742 0.04875178 -0.12027104
0001c0 94 71 0e be ea f7 5d bf d2 e7 9b bd a4 3d 0b be
       -0.13910514 -0.8670641 -0.076125756 -0.13597733
0001d0 5e e2 59 3d 50 44 b8 bd c6 27 98 be 2e 62 48 bd
       0.053194396 -0.089974046 -0.29717845 -0.048921756
0001e0 fb 9d 5a bf 9e 20 bb bc 37 4b 31 bd f2 aa 8e bd
       -0.8539731 -0.022842702 -0.04328462 -0.06966199
0001f0 3c 99 41 be 88 8c f8 bd b5 ad d1 bd df d8 c3 be
       -0.1890611 -0.12136179 -0.1023821 -0.38251397
000200 33 bd c7 3e bb a1 dc 3f 43 09 bd 3e 30 4f 83 3c
       0.39011535 1.7236856 0.3692113 0.01602897
000210 99 4e 95 bc d1 0d b1 be 42 67 21 3f 00 8f be 3e
       -0.018225955 -0.34580854 0.63048184 0.37218475
000220 82 8d 06 bf e2 d8 ea 3d 3d 3b e1 be cd 59 b5 bd
       -0.52559674 0.11467148 -0.43990508 -0.08855019
000230 8c 40 57 be 69 c7 27 be d9 41 bb be 77 f7 39 3e
       -0.21020716 -0.16384663 -0.36573675 0.18160807
000240 ce e7 21 bf 59 58 ac 3e 27 0d 29 be 93 8a b2 3d
       -0.6324433 0.33661154 -0.16508923 0.08717837
000250 2d e9 ad bd 1a b3 20 3d 46 e1 56 3c ed 0a c4 bd
       -0.084917404 0.039233305 0.013115233 -0.095723964
000260 a3 7d 60 3e fa 33 f6 3c 18 15 b5 bd 78 4c 11 bd
       0.21922927 0.030054081 -0.08841914 -0.035473317
000270 36 02 a7 3c f4 b3 56 3c 90 17 69 bb 09 dc a7 bd
       0.020386796 0.013104428 -0.0035567023 -0.08196265
000280 35 a4 35 3f ad b8 69 be 98 a4 11 bd a5 04 90 3b
       0.70953685 -0.22824354 -0.03555736 0.004395085
000290 44 29 16 be c3 b4 10 ba 4a e5 84 3d d5 bf d8 3d
       -0.14664179 -0.00055200997 0.06489046 0.10583464
0002a0 55 bc 4c be 02 01 ad 3d 2f c5 92 3d d3 76 3d be
       -0.19993718 0.08447458 0.07166516 -0.18502359
0002b0 89 18 02 be 6d e3 02 bc e7 b1 e9 bc 35 66 1d be
       -0.12704672 -0.007988793 -0.028527213 -0.1537102
0002c0 39 98 4f 3d 1a d9 2f be 01 30 85 3d a7 75 54 bb
       0.05068228 -0.17172661 0.06503297 -0.003241876
0002d0 30 06 ee 3d 4e 13 72 3d 8a 91 25 3e e0 e7 2f 3e
       0.11622274 0.05910044 0.161688 0.17178297
0002e0 e2 bd 7a be ae ec 6e 3e 96 3d 3a be 96 3b 45 be
       -0.24486497 0.23332474 -0.18187556 -0.19261011
0002f0 0d c2 6b 3c a2 8b d3 bb 8f be 4c be cc 7b 4c be
       0.014389527 -0.0064558545 -0.19994567 -0.199691
000300 51 4e 0b 3f e0 49 85 be 1e 63 15 3e 88 3c db 3d
       0.54416376 -0.26032925 0.14588591 0.10704905
000310 96 63 88 3c c3 d3 47 bd fb 9e 2a be 4b 12 57 bd
       0.016649049 -0.048785936 -0.16662209 -0.05250768
000320 eb 28 57 be 50 f9 81 3c a8 89 c3 bd 4e 97 81 be
       -0.21011703 0.015865952 -0.0954774 -0.2531075
000330 92 7e 06 bd 4d 72 41 3c d3 45 2b bf 6b 0a 81 3d
       -0.03283555 0.011807037 -0.6690342 0.06300815
000340 07 d4 6b 3c 6a 76 28 bd 1b 9d 94 3d 99 db ff bd
       0.014393813 -0.041128553 0.07256528 -0.12493057
000350 2a 89 1d bd 95 c9 65 bd 93 ce 7b 3d 32 1f a1 be
       -0.038460888 -0.056100447 0.0614763 -0.31469113
000360 21 ab 5b 3e 48 88 9c bd 7b 42 33 bc 5a bd 5f bc
       0.21451999 -0.07643181 -0.010941143 -0.013655985
000370 db 24 3c 3d 8e 4c 0c bd 4f 2e ae bb 4d ab 12 bd
       0.045933586 -0.034252696 -0.005315579 -0.035807896
000380 c4 4a bc bd 32 57 ff 3d 12 e4 83 bd 5e 9c d4 bd
       -0.09193948 0.12467803 -0.06439985 -0.10381387
000390 e2 66 a8 3d 80 aa 20 be c2 88 06 be ad e6 01 3e
       0.08222748 -0.1569004 -0.13138106 0.12685652
0003a0 31 5b 47 bd 9e 28 f5 3d a3 f3 d0 3d 7f fb 39 be
       -0.04867095 0.11970638 0.1020272 -0.18162344
0003b0 5b 0a ea bd 2c 48 b6 bd 88 d5 d6 3d fc b7 b3 3d
       -0.114277564 -0.089004844 0.104899466 0.087753266
0003c0 f0 af 69 3e 60 54 2d be f1 bf f6 be 75 bd b4 3f
       0.22821021 -0.16926718 -0.48193315 1.4120318
0003d0 65 50 c7 3d e3 8d fc bb 8a a2 14 bf 25 21 28 3d
       0.09732131 -0.007707344 -0.58060515 0.041047234
0003e0 a8 a5 41 bf 3b 97 8e 3e 9b a5 3d bf a4 11 4a bd
       -0.75643396 0.27849755 -0.7408082 -0.04933323
0003f0 b0 0e fb 3e ea e3 0c 3f 37 dc 81 be 69 42 f1 be
       0.49034643 0.5503527 -0.25363323 -0.4712098

bias f4 [256]
000000 bd a6 34 bf 22 63 1a bf 4c 65 82 bf 36 00 8d bf
       -0.7056692 -0.60307515 -1.0187163 -1.1015689
000010 da e6 41 bf 3d 50 b7 be 68 84 5f bf 73 31 94 bf
       -0.75742877 -0.35803404 -0.8731141 -1.1577591
000020 42 0c 9a bf c3 2f 8f bf 62 c6 46 bf f0 0f 3f bf
       -1.2034991 -1.1186451 -0.7764646 -0.74633694
000030 00 77 1e c0 ff c8 e6 bf 0e 22 ba bf cb a6 86 bf
       -2.4760132 -1.8030089 -1.4541643 -1.0519651
000040 44 4d 8e bf 67 32 91 bf c3 3d 39 bf 96 dc eb bf
       -1.111733 -1.1343507 -0.72359866 -1.8426692
000050 03 93 62 bf f1 12 9a be d9 73 b8 bf b7 63 10 c0
       -0.8850557 -0.30092576 -1.4410354 -2.256086
000060 b4 4c 1e bf 53 be 13 bf 59 9b 03 bf 25 19 8d bf
       -0.6183579 -0.57712287 -0.51408917 -1.1023299
000070 48 c5 65 bf 6b 0e f3 bf 51 e0 7d bf 8e 1b 66 bf
       -0.8975415 -1.8988775 -0.99170405 -0.89885795
000080 0f 7d 21 bf d0 2d 2b bf f7 2b ca be c2 d4 3f bf
       -0.6308145 -0.6686678 -0.39486668 -0.7493402
000090 af c7 78 bf 21 f1 73 bf ed 3f 4b bf 1b d5 66 bf
       -0.97179693 -0.9528981 -0.7939442 -0.90168923
0000a0 96 b1 da be 83 89 a6 bf 63 ea 84 bf 21 01 3a bf
       -0.42713612 -1.3010715 -1.0384029 -0.7265797
0000b0 c2 67 69 bf 6f 34 9f bf 33 56 11 bf 75 51 3e bf
       -0.91173947 -1.2437876 -0.56772155 -0.74343044
0000c0 51 9f da be 05 12 01 c0 00 b9 55 bf 68 92 3a bf
       -0.42699674 -2.0167248 -0.8348541 -0.7287965
0000d0 fa f0 dc be 32 04 7e bf 1a d7 e3 bf 08 ce 72 bf
       -0.431526 -0.9922515 -1.7800019 -0.9484563
0000e0 99 4d a4 bf dc e8 8d bf 76 de bc bf c0 32 38 bf
       -1.2836181 -1.1086688 -1.475539 -0.7195244
0000f0 d0 2b 98 bf 19 36 81 bf a6 2e 81 bf 33 cc 9f be
       -1.188837 -1.0094634 -1.0092361 -0.3121048
000100 d4 6f e1 bf a5 8f 32 bf c2 99 08 c0 04 16 40 bf
       -1.7612252 -0.69750434 -2.1343846 -0.75033593
000110 c7 f0 7f bf 15 5d 81 bf a1 db b3 bf da a7 f4 be
       -0.9997677 -1.0106531 -1.40514 -0.4778431
000120 41 c0 81 bf 64 b0 d8 bf 45 a6 8d bf 44 5e 82 bf
       -1.0136796 -1.692883 -1.1066366 -1.0185018
000130 0f 7a 27 bf 9e d4 55 bf dd 7c 9d bf 55 c8 8a bf
       -0.6542062 -0.83527553 -1.230373 -1.0842386
000140 e4 46 ef be ea 64 15 bf d8 00 10 bf 8e 8a 16 c0
       -0.46733773 -0.5835711 -0.5625129 -2.3522067
000150 7a 4e 90 be 22 90 7a bf 28 22 26 bf bf ed 47 bf
       -0.28184873 -0.9787618 -0.6489587 -0.78097147
000160 ee 5f d8 be 75 84 09 c0 ea 07 73 bf 68 08 45 bf
       -0.4226069 -2.1487095 -0.9493395 -0.7696595
000170 27 53 5b bf c5 46 83 bf 07 ac 9c bf b0 f2 b8 bf
       -0.85673755 -1.0255972 -1.2239999 -1.4449062
000180 85 10 85 bf ce 2f 4a bf 3d 7f 6d bf 48 44 c3 bf
       -1.0395666 -0.78979194 -0.92772275 -1.5255213
000190 14 19 8c bf 96 73 6b bf 8b 85 4c bf ef 72 3c bf
       -1.0945153 -0.91973245 -0.7989127 -0.73612875
0001a0 3e 76 77 bf b2 c9 13 c0 80 d0 89 bf 18 4f 6a bf
       -0.966648 -2.3091855 -1.0766754 -0.9152694
0001b0 51 20 54 bf 6a 91 10 bf b5 00 8f bf b3 01 1c bf
       -0.8286181 -0.56471884 -1.1172091 -0.6094009
0001c0 71 9d 7d bf 74 8c 57 bf 82 e2 86 bf 4d 48 51 bf
       -0.9906836 -0.8419869 -1.0537875 -0.8175095
0001d0 ad 7c 5f bf ed d1 83 bf eb 1d 2f bf 3e 62 48 bf
       -0.87299615 -1.0298439 -0.68405026 -0.78274906
0001e0 c9 5a 9e bf d1 6d 8e bf 1e 7b e2 bf 6e a6 49 bf
       -1.2371455 -1.1127263 -1.7693822 -0.78769577
0001f0 bb 66 e2 be 1c 12 a5 be 96 2e 8b bf da 8e 4d bf
       -0.44219002 -0.3224038 -1.0873592 -0.802961
000200 78 6f 4f bf 3e 28 94 bf a1 c8 1c bf 1a 1c 98 bf
       -0.8102946 -1.1574781 -0.61243635 -1.1883576
000210 0e 82 8b bf 0a 00 3c bf 33 1c 50 bf 7d 61 75 bf
       -1.0899065 -0.7343756 -0.8129303 -0.9585188
000220 c1 af 77 bf af a9 14 bf 2b 4b 90 bf 5e cf 5c bf
       -0.96752554 -0.58071417 -1.127294 -0.8625392
000230 2e c5 14 c0 6e 50 5c bf a0 6a 68 bf 83 48 01 bf
       -2.324535 -0.86060226 -0.90787697 -0.5050127
000240 20 50 11 c0 99 69 1b c0 63 36 ac bf 87 6b 72 bf
       -2.2705154 -2.4283202 -1.3454098 -0.94695324
000250 f9 e1 6e bf 86 a8 eb bf ed c2 8f bf 1c 3c f2 be
       -0.93313557 -1.8410804 -1.1231362 -0.47311485
000260 87 82 b8 be 3a 3a 70 bf 5f 7e 91 bf 02 2e 2f bf
       -0.36037084 -0.93838847 -1.136669 -0.6842958
000270 8d 66 ae bf 55 e6 64 bf 75 c3 d5 bf 1b 55 13 bf
       -1.3625046 -0.8941396 -1.6700274 -0.57551736
000280 4c 98 e2 bf 4c d1 47 bf 1e ec 04 c0 c5 55 49 bf
       -1.7702727 -0.78053737 -2.0769114 -0.786465
000290 e6 35 39 bf 51 b9 0c bf 7d e1 6e bf 39 f5 7d bf
       -0.7234787 -0.5497027 -0.9331282 -0.99202305
0002a0 d6 b8 21 bf e2 a2 2b bf ee 66 af bf 3b 21 1d bf
       -0.6317266 -0.67045414 -1.3703287 -0.6137883
0002b0 47 21 00 c0 4a 14 9c bf ee db 45 bf a0 11 7f bf
       -2.002031 -1.2193692 -0.7728871 -0.9963627
0002c0 f6 3c 97 bf 3f 8d f2 be 79 6b 78 bf 6b 63 34 bf
       -1.1815479 -0.47373387 -0.9703899 -0.704642
0002d0 9e da 56 bf cf 81 56 bf dc ba 44 bf 13 53 5d bf
       -0.83927333 -0.8379182 -0.76847625 -0.86454886
0002e0 58 d0 5a bf 6a ac 57 bf 3a fa 29 bf ac 8c 2f bf
       -0.8547416 -0.8424746 -0.6639744 -0.68574023
0002f0 cf a2 aa bf 02 4b 47 bf dc 0a 37 bf 3c 80 3b bf
       -1.3330935 -0.7784883 -0.71500945 -0.73242545
000300 8d a2 70 bf cd 0d 75 bf fe 49 0b bf a9 37 fb bf
       -0.9399803 -0.95724183 -0.5440978 -1.9626361
000310 30 95 54 bf 19 c6 db be 3d c0 87 bf 85 77 3f bf
       -0.8304014 -0.42924574 -1.0605541 -0.7479175
000320 7b 04 98 bf 4b 5f 1a bf 61 fc 43 bf 27 d6 0f bf
       -1.1876367 -0.60301656 -0.76556975 -0.56186146
000330 e8 8f ef bf c0 9d 2f bf 4c 9d 16 c0 8f 5a 88 bf
       -1.8715792 -0.6860008 -2.3533506 -1.0652636
000340 1c c0 43 bf 9a e3 90 bf 7b bf 84 bf a5 fd 26 bf
       -0.7646501 -1.1319458 -1.0370935 -0.6523078
000350 05 16 91 bf b8 2a d3 bf 36 23 66 bf 05 17 2f bf
       -1.1334845 -1.6497412 -0.8989748 -0.683945
000360 23 1f 87 bf e1 4b 5c bf 1a d2 7e bf 16 70 04 c0
       -1.0556377 -0.8605328 -0.9953934 -2.0693412
000370 c2 06 87 bf f9 07 11 bf 6a e9 44 bf 64 08 89 bf
       -1.0548937 -0.5665279 -0.7691866 -1.0705686
000380 c9 ff 7f bf 3a e9 b6 bf 3a b6 1f bf 79 50 5a bf
       -0.9999967 -1.4289925 -0.6238743 -0.8527904
000390 3a 71 8d bf ae 26 1a bf b8 35 84 bf 5f 8b 3a bf
       -1.1050179 -0.6021527 -1.0328894 -0.72868913
0003a0 55 f4 3b bf 20 6b 83 bf 9f d1 ef bf 54 e8 53 bf
       -0.73419696 -1.0267067 -1.8735846 -0.8277638
0003b0 af 4d 35 bf a5 46 91 bf ae 70 6d bf b8 1a 9d bf
       -0.7082166 -1.1349684 -0.9275006 -1.2273779
0003c0 f3 77 84 bf d9 c4 8c bf 6c b7 93 bf 77 14 3f bf
       -1.0349106 -1.0997573 -1.1540351 -0.746406
0003d0 6a c5 3b bf 47 58 bc be 8c 5e 95 bf c3 4e 09 c0
       -0.73348105 -0.367861 -1.1669478 -2.1454322
0003e0 42 2c 89 bf 4c 10 3c bf 56 9f 3b bf 80 85 61 bf
       -1.0716631 -0.7346237 -0.7329 -0.8809433
0003f0 d2 39 1b bf 3f 6f 19 bf fd c6 d6 bf e0 c8 59 bf
       -0.606351 -0.59935373 -1.6779476 -0.85072136

weight f4 [128, 256]
000000 13 ae 78 bd 20 f2 42 3e 79 4d 47 bc 81 fb 59 be
       -0.060712885 0.19037676 -0.012164467 -0.21287347
000010 e3 8b fb 3d 86 1c e8 3d b8 6b 8f bd 5d 88 2d 3e
       0.12282541 0.113335654 -0.070029676 0.1694655
000020 4d 74 19 3d cd 45 65 bd 9a 75 12 bd 2b 65 b3 bd
       0.03746443 -0.05597477 -0.035756685 -0.08759531
000030 94 f4 2b bd 03 1c 9d 3d c8 3f 4d bd d8 b3 0b 3f
       -0.041981295 0.076713584 -0.050109655 0.54571295
000040 3e 1c 2d bd ae 5f 5b be 68 28 1e be d8 c2 e2 bc
       -0.042263262 -0.21423218 -0.15445101 -0.0276808
000050 df 66 8a be 66 59 14 3d df bd 51 bd 99 52 a6 3d
       -0.2703161 0.03621807 -0.051206466 0.08121223
000060 77 43 b7 bd db c9 19 bc 8b 72 e4 bd 6a 25 bf 3e
       -0.08948415 -0.009386505 -0.1115466 0.37333232
000070 e1 67 83 3d 87 2b 1a bd 99 d0 67 3d 15 ad 07 be
       0.06416298 -0.037639167 0.05659542 -0.1324962
000080 77 8a 6b 3c 8d d0 06 3e aa 9a 58 3e e7 59 2a 3e
       0.014376274 0.13165493 0.2115275 0.16635858
000090 16 0c ef bc 34 a1 9f bd c4 6e 8f bc 30 dd da 3d
       -0.029180568 -0.07794419 -0.017508872 0.106867194
0000a0 7e 10 55 3e fe 99 8b bc b0 3f 8c bd 51 64 e4 bd
       0.20807073 -0.017041203 -0.06848085 -0.11151946
0000b0 1b 1e af 3d 86 14 e7 bc f4 4c af 3c 50 95 aa 3d
       0.08550664 -0.028208029 0.021398999 0.0832926
0000c0 cf 9a e5 3d be 73 e7 bd 2a 09 0b be f7 5a dd bc
       0.11211168 -0.11301373 -0.13577715 -0.027020914
0000d0 05 b6 06 be ad 60 83 bb c7 87 08 3d 14 02 e2 3e
       -0.13155372 -0.0040093274 0.033332612 0.4414221
0000e0 69 79 62 3f ad 76 cd bc 6b ea a5 bd 5f 8f 99 bb
       0.8846651 -0.025081003 -0.08101352 -0.0046862806
0000f0 63 76 27 be e7 ab ae bc 45 39 fa 3c 3a 00 07 be
       -0.16353755 -0.021322204 0.030544886 -0.1318368
000100 eb ed 97 bd 95 24 8d be 99 ce 08 be d1 0b 1f be
       -0.07418426 -0.27566972 -0.13360061 -0.15531851
000110 3f 8e c5 3c 5f f1 2c be 12 6b c8 3c cf cd 86 be
       0.02411568 -0.16888951 0.024465118 -0.26328894
000120 a2 d6 07 be 8a 71 21 3d a2 37 2b 3e 97 87 00 3f
       -0.1326547 0.03941492 0.16720441 0.50206894
000130 76 50 8b 3c 21 59 eb bd d8 e9 a5 3d 27 1a 83 3e
       0.01700614 -0.11491609 0.08101243 0.2560589
000140 a2 b0 cf 3d de e5 69 bc 0a 51 ee bd 4a e4 f1 bc
       0.10141112 -0.014275996 -0.11636551 -0.029527802
000150 64 a1 e7 3e 29 ff 1f bf 36 10 a1 bd 88 91 57 bd
       0.4524032 -0.6249872 -0.0786442 -0.052629024
000160 4f 3b 8b bc af f4 c0 bd e6 8f 75 be 91 7b bb bd
       -0.016996054 -0.0942167 -0.23980674 -0.09154428
000170 85 1e e9 bd 25 c4 35 3e 02 9e a6 bc 16 44 1e be
       -0.11382774 0.17750604 -0.020339016 -0.1545566
000180 68 00 97 3c f4 68 07 3c 91 a2 47 be ca 58 84 bb
       0.01843281 0.008264769 -0.19495608 -0.004038905
000190 53 dd 10 3d c1 d9 b1 bc 72 7b a6 bd cc 17 c2 3c
       0.03536732 -0.021710278 -0.08129014 0.023692988
0001a0 4b de 0b be fa 1e 90 3c 0a 4d 67 bd d2 85 28 3c
       -0.13659017 0.017592896 -0.056469955 0.0102858115
0001b0 cc 55 5d 3d a9 e3 d0 bc 9d 8e f3 3d 27 11 55 be
       0.0540369 -0.025499182 0.11892436 -0.20807324
0001c0 d2 0c a9 3c 44 17 b3 3e 17 aa ec bc d3 c5 1d 3d
       0.020635996 0.34978688 -0.028889699 0.038518738
0001d0 79 a5 38 bc e6 48 8e bd 9c 69 13 bd 67 ec 7f 3e
       -0.0112699205 -0.06947498 -0.03598939 0.24992524
0001e0 6c d5 d1 3e 04 3f 03 be 5b 68 45 bb d5 07 04 3d
       0.4098314 -0.12817007 -0.0030122015 0.03223403
0001f0 66 b4 c2 3d 1a f7 74 3d d3 52 0c be db e6 dd 3d
       0.095070645 0.059805967 -0.1370347 0.10835048
000200 ee 2c 8d be c4 86 3f bd c7 b4 8e 3d 8e e4 b8 ba
       -0.2757334 -0.046759382 0.06968074 -0.00141062
000210 03 c3 56 3e ec 6b 9a bd f7 19 d6 3d 24 d6 d1 be
       0.20972829 -0.07540116 0.10454171 -0.4098369
000220 c5 58 d7 ba 17 41 8e be 25 07 87 bd fa 26 87 3d
       -0.0016429654 -0.27784035 -0.065931596 0.06599231
000230 46 51 5b bd 71 2d 5d 3e 8d 82 28 3d 72 45 1a 3e
       -0.053544305 0.21599366 0.041140128 0.15065554
000240 60 d5 a2 bd 8d 28 b7 3d 15 51 52 be cf 3a 5b 3d
       -0.07950854 0.08943281 -0.20538743 0.05352288
000250 7b bd 43 be db 0d 2e 3d 41 ea 5b bd 4b f3 e0 bb
       -0.1911525 0.042493682 -0.0536902 -0.0068649403
000260 a4 6d 11 3e 11 7b a0 be 6e 9d 18 3c 13 ba 74 bd
       0.14201981 -0.31343892 0.009314878 -0.059747767
000270 3e f6 0d bd 5c 3e fb 3c 8f b2 b6 bd 2d ed e2 bc
       -0.034658663 0.030669384 -0.08920776 -0.027700985
000280 45 74 08 bc 93 9b 84 3e 27 e6 d7 3d 83 04 cd bc
       -0.008328502 0.25899944 0.10541945 -0.025026565
000290 75 db 68 3e f8 35 85 3e b1 d6 6d 3d 65 b9 0f bd
       0.22739966 0.26017737 0.058066074 -0.035088915
0002a0 14 1c 6f 3e 3c 81 88 bd 37 b4 1e bd 32 90 80 3e
       0.23350555 -0.066652745 -0.038746085 0.25110012
0002b0 03 4f c2 bd e6 97 36 be 23 02 ae 3e 13 77 6a be
       -0.094877265 -0.17831382 0.33986005 -0.22896986
0002c0 42 04 3b 3e eb 3e 9a be 1c 6e 0a bd ee ba 51 3e
       0.18263343 -0.30126128 -0.033796415 0.20481464
0002d0 3c 4f 10 bd 3d 04 a7 3d a9 51 83 3d 29 4d ba 3d
       -0.035231814 0.08155105 0.0641206 0.090967484
0002e0 7f b5 22 3e 66 4b 99 3d 09 ec 91 be 46 85 01 be
       0.15889548 0.07485084 -0.28500393 -0.12648496
0002f0 1a 2b 0b be ce ad 27 be 20 00 ba 3d 2d 25 41 3e
       -0.1359066 -0.16374895 0.09082055 0.18861838
000300 0d 6a 86 3d 51 5a 15 3d 86 d5 ac 3d 54 74 0c 3f
       0.06563196 0.036463086 0.08439164 0.54865
000310 cf 0c b5 bd a4 0d 52 be d1 25 b5 be 2d e5 97 3c
       -0.08840334 -0.20513016 -0.35380414 0.018541897
000320 4c 3d 47 bd 50 b0 8c 3d 62 91 20 3d 1c ca 9a bd
       -0.04864244 0.068695664 0.039201148 -0.075580806
000330 97 29 0d bd bc c7 b8 3e c1 da 68 3e 46 55 2e be
       -0.03446349 0.36089885 0.22739698 -0.17024717
000340 dc 2f 08 be 58 bc 9e bd f0 36 8e bc c7 fd 5e bd
       -0.13299507 -0.077507675 -0.01736018 -0.05444124
000350 3e ec 86 3b 4e 46 a6 3d aa 5d 70 bd 5f a2 c1 bd
       0.0041175177 0.08118878 -0.058683075 -0.09454798
000360 dc 7b 11 bd 82 6e 8a 3e 10 73 88 bc 91 af 85 bd
       -0.035518512 0.27037436 -0.016656429 -0.06527627
000370 2c 7b 33 be ea ef db 3d ff ed 08 be 38 35 4b 3d
       -0.17527455 0.10739119 -0.13372038 0.0496113
000380 0d 18 c3 bd 38 6d 92 3d c2 b7 86 bd 0e 46 41 bd
       -0.09526072 0.07149738 -0.06578018 -0.04718595
000390 03 5a cb 3d fa ea 9d bd 97 c9 01 3d d1 99 91 bd
       0.09929278 -0.07710834 0.03168639 -0.07109416
0003a0 ab 7c 30 be 31 ac 17 be 7e f4 79 bc 17 f3 df 3b
       -0.17235057 -0.1481178 -0.015256045 0.0068343985
0003b0 2a 33 cb bd 29 c9 02 be 32 8b 12 3e d6 60 13 3e
       -0.09921868 -0.12772049 0.14310911 0.14392409
0003c0 b9 6b 65 bd e7 bd d7 bd d9 ea 27 be 8e 03 75 bd
       -0.056010935 -0.10534268 -0.16398181 -0.059817843
0003d0 b2 1b 72 3e d9 6e 4f bd 6a b0 3b be b0 3d 44 bd
       0.23643377 -0.050642822 -0.18329015 -0.047910392
0003e0 2a b1 a6 bd fc 14 e7 bd 5e df f9 3e 8b 35 cb bc
       -0.0813926 -0.11283299 0.48803228 -0.024805805
0003f0 b9 fe 04 3e 6f f7 f8 3e e5 54 7b 3d 1b eb 44 3e
       0.12987794 0.48626277 0.06136026 0.1923031

bias f4 [128]
000000 a7 21 dc be d2 75 76 3e b4 ab fb 3e b6 07 8e bf
       -0.42994425 0.24068382 0.49154437 -1.1096103
000010 59 93 c6 3f 52 e3 cb 3e 55 fa 58 3f 97 2c ad 3e
       1.5513717 0.3982187 0.84756976 0.33823082
000020 89 52 ad be e5 5e d8 3e ad 29 7a 3e 04 d3 1d bf
       -0.33852032 0.422599 0.2442996 -0.6165011
000030 9a cf a0 bd d4 23 c8 3f a6 45 c3 bd 25 2d 8f 3d
       -0.07852097 1.5635934 -0.09534769 0.069910325
000040 1e 46 0c 3f 5a 1e 60 bf 9a c2 8d 3e 31 ad 12 3e
       0.5479449 -0.8754631 0.27687532 0.1432388
000050 dd b6 ad 3e 96 34 e9 3e 11 01 5d 3f 6f 46 92 3e
       0.33928576 0.45547932 0.8632975 0.28569362
000060 4a 07 b1 3f 4f f2 5f bf 8b 66 29 3f 10 f5 8a 3f
       1.383035 -0.8747911 0.66172093 1.0856037
000070 56 5b 52 3f 12 49 11 3f f0 9e 9e 3e fe 3f 5c 3e
       0.8217062 0.5675212 0.30980635 0.21508786
000080 c3 03 5a 3f ad 7f 53 3c 2d 5e 1a be f1 8e f1 3e
       0.8516199 0.012908858 -0.15074988 0.47179368
000090 e9 15 f8 3e 7e 27 80 3e 99 74 95 3f f3 02 1c be
       0.48454216 0.2503013 1.1676208 -0.152355
0000a0 31 19 f3 be 2a 34 a6 3e 67 bb 09 be fb 0d 4e 3f
       -0.47480157 0.32461673 -0.13450395 0.8049008
0000b0 19 f2 84 bc 24 65 06 3f 60 d8 cc be 48 2a e9 be
       -0.016228722 0.5249808 -0.4000883 -0.4554007
0000c0 2b 88 79 3f 83 64 1a 3e b3 b3 66 3d 50 0b 04 3f
       0.974734 0.15077405 0.05632372 0.5157976
0000d0 bc 62 38 3e ac 3d d3 be d2 53 8a be bb 92 1f bf
       0.18006414 -0.4125799 -0.27017075 -0.6233327
0000e0 b4 66 a8 3f 8b fc ca 3e cd 3f 27 3f 33 06 da 3e
       1.3156343 0.396458 0.6533173 0.42582855
0000f0 d7 25 5b 3e 4c b8 52 bf 7b d3 31 3f b1 ad ee 3d
       0.21401154 -0.82312465 0.6946332 0.11654223
000100 7f bf f2 3c 1e 73 55 be 7e d4 93 3f 51 d8 13 bf
       0.029632328 -0.20844695 1.1549222 -0.5775195
000110 34 53 02 bd 2d e9 15 bf ab 7a 09 bf 47 fa f3 3e
       -0.03181763 -0.58558923 -0.537028 0.47651884
000120 4b 02 85 bf 59 c3 22 be b2 ce e7 3f 38 09 17 3f
       -1.0391325 -0.15894832 1.8109953 0.5899844
000130 75 d4 79 3f 40 b8 c4 bd ee 34 c4 3e 70 f9 a2 3f
       0.9758981 -0.096054554 0.38321632 1.2732372
000140 a7 8c 01 3f e6 99 c2 3f 25 45 83 3f 1a 40 2a 3f
       0.50605243 1.5203216 1.0255476 0.6650406
000150 b4 95 59 3f b2 65 bf 3f a2 c3 df 3f 93 d3 2a be
       0.84994054 1.495291 1.7481577 -0.16682272
000160 31 f7 db 3f a5 be 0e 3f d6 c6 25 bf cf 28 f2 3e
       1.7184812 0.5575965 -0.64756525 0.4729676
000170 33 4b 68 3f d3 eb da 3e 65 c1 2b 3f a0 bd 13 3f
       0.90739745 0.42758045 0.6709197 0.5771122
000180 ef 1c 38 3e 53 c5 fe be 6d b1 d4 3d 81 01 9b 3f
       0.17979787 -0.4975992 0.10385404 1.2109834
000190 6e cd 1b 3f 54 9b ac 3e e7 7d 17 3f c8 2d 5e bf
       0.60860336 0.33712256 0.59176487 -0.86788607
0001a0 77 b9 df 3e 39 34 66 3f 9d 74 5f bf 74 32 b5 bd
       0.43696186 0.89923435 -0.8728731 -0.08847514
0001b0 52 e9 33 3f c5 ca 37 3f 13 8f bc be b2 ec d8 3e
       0.70277894 0.71793777 -0.36827907 0.42368084
0001c0 51 74 fc be 0c 37 f6 3c de 28 15 3f 8e ad d1 bf
       -0.49307492 0.030055545 0.58265483 -1.638109
0001d0 ee ab 8e bd 58 31 c2 be ab 0e cd 3e 3d ac 92 bd
       -0.06966387 -0.3792827 0.40050253 -0.07161758
0001e0 ff 34 8b 3d a5 a0 43 3f ef 8e ef be 64 67 b4 3e
       0.067972176 0.76417 -0.46788737 0.3523513
0001f0 fc 9d 52 bf 2f e1 5b 3f be d5 60 3f ae 95 c4 3e
       -0.82272315 0.8589048 0.87826145 0.38395447

weight f4 [64, 128]
000000 76 63 b3 3d cc 22 cd be e5 7c 53 bf 2d 66 13 3e
       0.08759205 -0.4006561 -0.8261245 0.14394446
000010 91 79 a6 bf 3d 0e ae be a1 97 a5 be 9b 01 09 bf
       -1.3005849 -0.33995238 -0.32342246 -0.53518075
000020 bf d7 a5 3d e2 29 88 3d 85 2e 96 3d 97 6c c6 bc
       0.08097791 0.066486135 0.07333092 -0.024221702
000030 e4 6b 62 3d 2a f0 c7 be a0 2b cf bd 95 39 32 bf
       0.055278674 -0.39050418 -0.10115743 -0.69619113
000040 35 6c 5a 3d 62 5b 21 3d b1 57 16 bf 60 0c 12 bf
       0.05332585 0.03939379 -0.58727556 -0.5705013
000050 ac b8 e3 bb 50 b7 2e bf af d3 2c bf 42 bc f9 bd
       -0.006949505 -0.6824846 -0.67510504 -0.121941105
000060 30 38 6c bf 3b 5b b2 be 26 b8 bf be f5 80 75 bd
       -0.92273235 -0.34835228 -0.37445182 -0.059937436
000070 13 e8 13 bf 0c 81 0c be 36 06 61 bf 7b 26 73 3d
       -0.5777599 -0.13721102 -0.879001 0.05936287
000080 13 91 1d be 34 83 3c bf e8 72 c4 bb 83 f1 64 bf
       -0.15387373 -0.736377 -0.005995143 -0.8943102
000090 72 b6 bc 3d 9d bc 94 be da 2c 5a bf 8a 59 3c 3d
       0.09214486 -0.2905015 -0.8522469 0.04598383
0000a0 27 06 aa 3d 26 e2 ee be d5 18 33 bd 45 b0 1e bf
       0.08301955 -0.46656913 -0.043724854 -0.61987716
0000b0 87 b4 99 be eb 13 6a be 62 0c 98 3d 8d 40 a7 be
       -0.30020544 -0.2285916 0.07424237 -0.32666436
0000c0 43 2a 2e be 67 2f 93 3d 59 95 17 bd 92 ac 18 bf
       -0.17008309 0.07186776 -0.037007663 -0.5963832
0000d0 8e 1f f1 be 04 6a a5 3d af 78 87 bd 13 de 9f bd
       -0.47094387 0.080768615 -0.066148154 -0.07806029
0000e0 5e 90 59 bd 7f fa 51 bc 0f f2 26 bf 89 11 21 bf
       -0.053116195 -0.012816071 -0.652131 -0.6291738
0000f0 6c ca ba 3d 69 64 80 bd 97 94 97 be 05 1d bf be
       0.0912064 -0.06269152 -0.29605553 -0.37326828
000100 d1 50 c6 bd e8 03 c8 bd 8f 9d af be ec 3b bd 3d
       -0.09683383 -0.0976637 -0.34299895 0.09239945
000110 7b c2 1e be 92 5d d0 3c 22 ea b8 be 81 8e d4 3d
       -0.15503876 0.025435243 -0.3611613 0.10378743
000120 65 ee 17 3e b8 16 eb 3c 23 06 03 c0 8e 2c 84 be
       0.14837034 0.028697357 -2.0472496 -0.25815243
000130 65 80 24 bf 43 d1 61 bb fd 11 39 bf 19 0b 6b be
       -0.64258415 -0.0034457005 -0.7229307 -0.22953452
000140 e8 47 5d 3d 49 03 45 bf 40 a3 43 bf 68 3b 82 3d
       0.054023653 -0.7695814 -0.76420975 0.06358987
000150 ce b4 3c be 1b a8 c6 bf 9f cc 07 bf 87 d5 bd bd
       -0.18428347 -1.5520052 -0.530466 -0.09269243
000160 e9 ae 00 bf 89 9a 28 bf 4c ce 73 be a0 da b9 be
       -0.5026689 -0.658608 -0.23809165 -0.3629961
000170 c0 8f ca be 1e 12 e5 bd 97 a8 c2 3d 47 ce 2d bf
       -0.39562798 -0.11185096 0.09504812 -0.6789288
000180 f3 10 ef 3d 62 04 00 bf 6f 7b e4 3d 5c 67 7c be
       0.11673155 -0.5000669 0.111563556 -0.24648803
000190 ab 16 fc be de 1a b4 bc 5e db 7b be 76 37 91 3d
       -0.49236044 -0.021985468 -0.245954 0.070906565
0001a0 c2 45 b2 bd d1 52 48 bf f0 a2 97 3d 7d 23 3c 3d
       -0.087047115 -0.7825137 0.07404125 0.04593228
0001b0 86 41 8b bd 07 ef 69 bf 3b 9e 9f be c2 5a 03 bf
       -0.06799607 -0.9138035 -0.31175408 -0.5131036
0001c0 62 db 18 bd d8 96 de bd 40 65 88 bd f1 aa 10 3e
       -0.037318595 -0.10868615 -0.06659937 0.14127709
0001d0 86 c3 c1 3c fa 38 2b 3d 12 3f b2 be 1e 16 c5 be
       0.023652803 0.041802384 -0.34813744 -0.38493437
0001e0 1d bf b4 3d 6f fa 12 3e 47 12 ee ba 51 6b 24 bf
       0.088255145 0.14353345 -0.0018163406 -0.6422625
0001f0 f0 42 a2 3d 46 0c bd be a5 8e 52 bf 94 50 ac bc
       0.079229236 -0.36923426 -0.8224891 -0.021034516
000200 3d e0 4d 3d a6 41 26 bd 64 df 7c 3d 44 cc 77 3d
       0.05026268 -0.04058995 0.06173648 0.060497537
000210 dc d4 79 bf e8 09 1a bf 70 18 85 3e 51 14 89 bc
       -0.9759042 -0.60171366 0.25995207 -0.01673332
000220 9c 03 a5 3d 11 61 56 bd 23 eb ad 3d e1 99 8e 3e
       0.08057329 -0.052338663 0.084921144 0.27851775
000230 f0 fd 71 3d ac 8c a6 bf ea 47 ab bc 09 70 0e 3e
       0.059080064 -1.301168 -0.020908315 0.13909926
000240 a6 6f 5f 3d ec 8d 1e 3d b4 88 08 bf d7 aa ea bd
       0.054549836 0.038709566 -0.5333359 -0.11458366
000250 45 d3 23 3d 0a 4d 96 bd ac 85 77 be da d5 9d bd
       0.039996404 -0.07338913 -0.24172086 -0.077068046
000260 82 e1 64 bf 35 1d cd 3d 87 3f fe bd ba 6d 3a be
       -0.894066 0.100153364 -0.12414461 -0.1820592
000270 55 3b cf 3b 06 14 67 be 1c 8d 09 be 9c bd 9b 3d
       0.0063242116 -0.22566232 -0.13432735 0.076045245
000280 fa 2c a5 be ea 80 c1 be 93 b6 04 3b 15 89 10 bf
       -0.32260877 -0.37793666 0.0020250424 -0.5645917
000290 7f 7f c2 3d f7 3c b4 3c 23 ac 61 bf 3b 0f 43 be
       0.09496974 0.022001727 -0.88153285 -0.19048779
0002a0 7f c1 ab 3d 3d ca 28 bc 19 0e 13 3c 26 10 c1 bd
       0.08386516 -0.010302124 0.008975529 -0.09426908
0002b0 c9 8d e2 3d 9e 55 96 bd d5 de 04 3d d5 15 80 3d
       0.110621996 -0.07340549 0.03243907 0.06254164
0002c0 30 d0 9c bd 9b d6 61 3d a6 66 bd 3b e2 0c 76 3d
       -0.07656896 0.055136304 0.005780059 0.06007088
0002d0 d3 20 02 bf 35 20 51 3d 1a a0 8f be ca f8 4a 3d
       -0.50831336 0.051056106 -0.28051835 0.04955367
0002e0 3b e7 88 bb f0 05 97 3e 67 9f 3d 3e c4 89 4e bf
       -0.0041779554 0.29496717 0.18517838 -0.80678964
0002f0 4e 4b 02 3d 70 0d a0 bd cf 1f ec bd 6b 83 a2 be
       0.031810097 -0.07815063 -0.115295045 -0.3174089
000300 f2 ed c8 be 2f bb bc 3d f4 32 c3 be d4 e5 9e 3d
       -0.39244038 0.0921539 -0.38124812 0.0775868
000310 05 0b 01 3e ae f9 96 bc f4 5d 86 be 09 e4 2e 3e
       0.1260186 -0.018429603 -0.26243556 0.17079176
000320 7a c8 ef 3d 5f ac 0d bc 8e 84 5b bf 24 84 43 be
       0.1170816 -0.0086470535 -0.8574914 -0.19093376
000330 90 7b 12 bf b8 48 62 bd 57 32 91 be 6a 7c 54 bf
       -0.5721979 -0.05524513 -0.2835872 -0.8300234
000340 79 da 1f be b9 ac 1c 3e e6 d0 42 bf 3a 55 94 bd
       -0.15610684 0.15300263 -0.76100004 -0.07242818
000350 14 04 57 bb c2 35 63 bf 52 a8 43 3e f8 5f c8 3d
       -0.0032808827 -0.887539 0.19107178 0.097839296
000360 77 00 1c be 11 27 95 be 63 1a 0b be 72 5e ea bd
       -0.15234552 -0.29131368 -0.13584284 -0.11443795
000370 40 de 4f 3d 94 b9 1d bf 92 b2 95 be 3b f2 6f be
       0.050749063 -0.61611295 -0.292378 -0.23432247
000380 30 15 34 be 59 69 6a 3e 7b 00 28 bd e5 b1 83 bf
       -0.17586207 0.2289175 -0.041016083 -1.0288664
000390 5b 53 6e bf fa 5e d4 3c 5a 39 17 be 0c 0d aa 3d
       -0.9309594 0.025924195 -0.14767972 0.0830327
0003a0 07 56 e1 3d b5 88 9b bd 5b 3f 13 3d a8 59 77 3d
       0.110027365 -0.07594434 0.035949092 0.060388237
0003b0 68 80 12 3e a8 0c 95 be 10 be 06 be 80 41 9a 3d
       0.14306796 -0.29111218 -0.1315844 0.075320244
0003c0 27 55 4e 3d 38 16 1e 3d 00 e5 06 be 6c a1 c8 3d
       0.050374176 0.03859541 -0.13173294 0.09796414
0003d0 65 9f f6 bd 58 44 ac 3d d8 eb 3e 3d 8b 24 04 bf
       -0.12042121 0.08411473 0.046611637 -0.5161826
0003e0 c9 b4 a2 3d 38 82 c3 be 77 ac 96 bc 76 b0 15 bf
       0.07944638 -0.38185287 -0.018392785 -0.58472383
0003f0 6e 9f 90 3d 4a 8c 8f bd 32 6d 8c be ed 13 24 be
       0.07061659 -0.0700918 -0.2742706 -0.16023226

bias f4 [64]
000000 b6 a6 90 be 41 72 63 be da 09 97 3e 9b f5 e2 3e
       -0.2825219 -0.22211553 0.29499704 0.44328007
000010 61 61 c0 3e 78 84 ce 3d 02 d4 8f be 56 e3 ab be
       0.37574294 0.1008386 -0.28091437 -0.3357188
000020 13 a1 3b bd 8a ea 28 bd 50 52 61 3e 83 87 41 3e
       -0.04580791 -0.0412393 0.22004056 0.1889935
000030 71 bf 38 3e 25 c7 82 3e e2 d5 c6 bc f5 34 c1 be
       0.18041779 0.2554256 -0.02427191 -0.37735716
000040 76 29 bb 3e 62 f6 90 bb bf 65 2a bf b5 8c a6 be
       0.3655507 -0.0044239024 -0.665615 -0.32529226
000050 b4 69 3c bf b2 84 a2 be 8e 7c 30 3e 77 c8 c1 3e
       -0.7359879 -0.31741863 0.17235014 0.37848255
000060 54 96 ef 3e a1 70 83 bd 50 87 fd be 79 ce 2e bf
       0.4679438 -0.06417967 -0.49517298 -0.682838
000070 65 4c 4a bf fe 2c f0 be fc e7 34 3e fc 20 09 3f
       -0.7902282 -0.46909326 0.1766662 0.53565955
000080 39 d2 d3 3e ac 2c 69 3e ad a1 e7 be fd 69 54 bf
       0.41371325 0.22770947 -0.45240536 -0.82974225
000090 59 27 40 bf 1e 79 53 be 88 ac 99 3d ff 56 06 3f
       -0.7506004 -0.20651671 0.07503611 0.52476496
0000a0 d0 e4 82 3e 9b 56 8b 3e 74 67 22 be c0 e5 c4 be
       0.25565195 0.27214512 -0.15859777 -0.38456535
0000b0 bb 10 97 bd 40 95 32 bf 7f b4 3e bd f4 07 a0 3e
       -0.07376238 -0.6975899 -0.046558853 0.31256068
0000c0 53 61 79 be 58 24 48 bd c2 d6 46 3e a1 a4 aa 3e
       -0.24353532 -0.048862785 0.19417861 0.33328727
0000d0 bd 80 c6 3d 71 fa 55 3e 94 c3 fd bd 6c fa 19 3c
       0.09692524 0.20896317 -0.12390819 0.009398084
0000e0 3a 6c cd be 71 da 4a be d3 b5 cf 3e 5f b2 fc 3e
       -0.40121633 -0.19809891 0.40568408 0.49354836
0000f0 b4 e7 bb 3e e3 de cb 3e 55 90 4a be 5c ba b4 be
       0.36700213 0.39818487 -0.19781621 -0.3529843
