TP/save_models_MLP_512_256_Dropout_Relu_Post_Optimisation_DataAugmentation_20epochs_Generation_Data/model_18_1768008678.818471_0.43140833333333334prct.pt (torch, 729561 bytes, 6 tensors)

weight f4 [512, 64]
-0.022885442 -0.029933153 0.019999022 -0.006981368 -0.01495665 0.027519276 0.0004541029 -0.01762852
-0.0065020616 -0.0122802025 -0.0022762732 0.0025229156 -0.013410565 -0.0044358457 0.006307107 -0.0046701236
-0.02375634 -0.001251863 0.012941332 0.030229807 0.01997404 0.008386391 -0.0005389484 0.0038289393
0.051108863 -0.02984794 0.013137524 0.0009935045 0.0066701914 -0.022102576 -0.009568009 0.00875514
0.028462002 0.049691707 -0.029354738 -0.01971029 -0.0043604434 -0.051981427 -0.046410963 0.04103033
0.008057812 -0.0068702204 0.04266442 0.00072876277 0.0024361548 0.033338796 0.016258435 0.004240808
0.00073979783 -0.04636985 0.037549872 -0.091018684 1.2348696 -0.04012138 -0.07330906 0.0021855365
0.021608632 0.14866556 0.0585669 0.11390933 0.007578639 -0.2475195 0.20085053 -0.04650885
0.03772976 -0.015430616 0.028704457 -0.051588725 0.02621629 -0.05707201 0.11685546 -0.26085913
-0.058573958 0.119419254 -0.08101107 0.055941965 -0.04317667 0.0027111773 -0.1132882 0.041265473
0.077615246 -0.03598789 -0.0044169375 0.06906159 -0.059385575 0.15873265 -0.05421974 0.08158938
-0.0017678358 -0.024069285 0.024051463 -0.07154951 0.16327348 -0.21700253 0.13144529 0.07828906
-0.029659353 -0.02961735 -0.088970914 0.038776483 -0.09997947 0.22590569 0.089355126 0.028980305
-0.023555163 -0.019480428 -0.18880883 -0.24737968 -0.08110751 -0.05456359 -0.15582667 0.05046221
0.09549579 -0.036336422 -0.09144769 -0.055153385 -0.025597943 0.14374423 0.0010873763 -0.12860128
-0.1446446 0.020083107 -0.02909609 -0.11576593 0.12645191 -0.050022572 -0.095866695 0.13782385
0.87191105 -0.18564665 0.059310656 -0.048376307 0.037393205 -0.024105268 0.016641423 0.021406114
-0.09122704 -0.37513044 0.028941546 0.02138312 -0.024503997 0.037730277 -0.027828839 -0.043952044
-0.034838494 0.005678427 0.96086115 0.12659079 -0.041480742 -0.026817998 -0.017053759 0.013790346
0.02329896 -0.07023114 0.022089463 0.060943987 0.012105246 0.050208747 0.028202789 -0.023364224
-0.021637363 -0.02315709 -0.072086126 0.018134536 0.019394193 0.002457088 -0.03077351 0.032713957
0.0023931293 0.029084563 -0.03018661 0.028351087 0.013211509 -0.026311152 0.021000097 0.0053485595
0.055532478 -0.007857351 0.0043839947 -0.015197563 0.022529528 0.0014447471 0.00021002766 -0.03909133
0.0217386 0.004120961 0.019084066 0.00044320076 0.022818761 0.009102706 0.025354026 -0.033166617
0.14851815 -0.12092401 0.021946976 0.057452697 -0.0031776964 0.008096917 0.02039903 0.021515364
-0.02274475 -0.06927451 0.07763194 -0.039060086 -0.03908792 -0.020592662 -0.011506894 -0.036447242
-0.098729126 1.2587678 0.030424789 -0.041042764 -0.0064566485 -0.02225993 -0.017975343 0.010190206
0.02761227 -0.1200693 0.05936158 -0.0071241288 0.012661664 0.032646608 0.0101024555 -0.012701935
0.034893893 -0.005650614 0.03373933 0.012112829 0.013196995 -0.028429259 -0.02124801 0.0070543424
-0.0034030906 0.0050500925 -0.03464117 0.029554872 -0.009160222 -0.0034446283 -0.0016621497 -0.015012217
0.04424059 -0.0063086436 -0.06373423 0.040005937 -0.0020342688 -0.013211327 -0.035392415 0.021500617
0.10770261 0.008234422 0.052450508 -0.008145428 -0.009563446 0.037379015 -0.021456674 0.034528635
00000000: 407a bbbc 5f36 f5bc fdd4 a33c f6c3 e4bb
00000010: bd0c 75bc 1b70 e13c a914 ee39 b069 90bc
00000020: 3f0f d5bb e732 49bc 872d 15bb 8057 253b
00000030: fdb7 5bbc 925a 91bb d9ab ce3b d607 99bb
00000040: a89c c2bc 8d15 a4ba e107 543c 80a4 f73c
00000050: 99a0 a33c 1367 093c 3748 0dba f1ee 7a3b
00000060: 8757 513d ab83 f4bc c53e 573c 7b38 823a
00000070: 9f91 da3b 7610 b5bc 23c3 1cbc b871 0f3c
00000080: 2529 e93c 8889 4b3d 5979 f0bc 7977 a1bc
00000090: 0de2 8ebb 7aea 54bd 6c19 3ebd 6b0f 283d
000000a0: ea04 043c 961f e1bb e3c0 2e3d 710a 3f3a
000000b0: e5a7 1f3b 438e 083d 6930 853c 7af6 8a3b
000000c0: feee 413a 50ee 3dbd e5cd 193d 0168 babd
000000d0: 3510 9e3f 5156 24bd 0f23 96bd 383b 0f3b
000000e0: 9604 b13c c93b 183e d9e3 6f3d 4b49 e93d
000000f0: 3b56 f83b c075 7dbe c3ab 4d3e 1080 3ebd
00000100: 858a 1a3d b2d0 7cbc 9c25 eb3c b34e 53bd
00000110: 8cc3 d63c 57c4 69bd ea51 ef3d 548f 85be
00000120: 3feb 6fbd 1592 f43d 22e9 a5bd 6723 653d
00000130: 05da 30bd 02ae 313b a503 e8bd fc05 293d
00000140: bef4 9e3d 0a68 13bd f5bb 90bb 2a70 8d3d
00000150: 4a3e 73bd d08a 223e 8515 5ebd 5518 a73d
00000160: bab6 e7ba f32c c5bc 9307 c53c 8d88 92bd
00000170: 2a31 273e e935 5ebe 9899 063e 0456 a03d
00000180: 2cf8 f2bc 16a0 f2bc 6236 b6bd 17d4 1e3d
00000190: 09c2 ccbd d253 673e d2ff b63d 1b68 ed3c
000001a0: c2f6 c0bc 6b95 9fbc 1a57 41be 1951 7dbe
000001b0: b21b a6bd 127e 5fbd 0791 1fbe 76b1 4e3d
000001c0: 4c93 c33d 80d5 14bd ed48 bbbd 84e8 61bd
000001d0: c7b2 d1bc b031 133e 4b86 8e3a 0eb0 03be
000001e0: b71d 14be 5485 a43c ec5a eebc b016 edbd
000001f0: 9c7c 013e 78e4 4cbd c255 c4bd b221 0d3e
00000200: 9035 5f3f 281a 3ebe bbef 723d 3c26 46bd
00000210: 9e29 193d 6978 c5bc 9853 883c e05b af3c
00000220: 3ed5 babd 1911 c0be d216 ed3c a72b af3c
00000230: 9bbc c8bc 108b 1a3d 4ef9 e3bc 0f07 34bd
00000240: cfb2 0ebd 1912 ba3b fffa 753f 04a1 013e
00000250: b6e7 29bd 6bb1 dbbc 53b4 8bbc e7f0 613c
00000260: 76dd be3c 58d5 8fbd f6f4 b43c 67a0 793d
00000270: 1555 463c b0a7 4d3d 8909 e73c 5466 bfbc
00000280: d740 b1bc f0b3 bdbc e4a1 93bd e18e 943c
00000290: 92e0 9e3c 1907 213b ba18 fcbc 12ff 053d
000002a0: 0cd6 1c3b c042 ee3c e949 f7bc 8a40 e83c
000002b0: 1675 583c 7c8a d7bc 6508 ac3c f842 af3b
000002c0: 0676 633d 1ebc 00bc 9da7 8f3b 33ff 78bc
000002d0: d88f b83c ab5d bd3a df3a 5c39 3b1e 20bd
000002e0: 2615 b23c 2009 873b 3056 9c3c 665d e839
000002f0: 69ee ba3c 8423 153c 3fb3 cf3c b8d9 07bd
00000300: 2415 183e 02a7 f7bd 25ca b33c 8553 6b3d
00000310: e640 50bb eea8 043c de1b a73c fd40 b03c
00000320: 3353 babc cbdf 8dbd 7ffd 9e3d 78fd 1fbd
00000330: a81a 20bd f1b1 a8bc 6987 3cbc b449 15bd
00000340: 7f32 cabd 4e1f a13f 683d f93c 751c 28bd
00000350: 4b92 d3bb 755a b6bc 0741 93bc d2f4 263c
00000360: 2133 e23c e5e6 f5bd 2125 733d 8671 e9bb
00000370: de72 4f3c 73b8 053d c584 253c c71b 50bc
00000380: e6ec 0e3d c928 b9bb 4032 0a3d e374 463c
00000390: 3538 583c 7ae4 e8bc 4f10 aebc 1d28 e73b
000003a0: 6306 5fbb 3f7b a53b e6e3 0dbd 0f1d f23c
000003b0: c114 16bc 46bf 61bb 7ddc d9ba cdf5 75bc
000003c0: 9f35 353d bdb8 cebb 1887 82bd 44dd 233d
000003d0: 5e51 05bb 5274 58bc a3f7 10bd 1022 b03c
000003e0: 3093 dc3d abe9 063c 58d6 563d 6774 05bc
000003f0: 00b0 1cbc bd1a 193d e8c5 afbc e66d 0d3d

bias f4 [512]
-0.5266659 -0.4832816 -0.57871133 -0.5658255 -0.8288113 -0.35715443 -0.43870336 -1.0262756
-0.5533128 -1.2247047 -1.4634451 -0.72321147 -0.14414869 -0.78565085 -0.7303819 -0.8147433
-0.31904417 -1.63204 -1.0662816 -0.37172037 -0.33099285 -0.84779316 -0.91687655 -0.3576706
-0.46069372 -0.83004105 -0.24166067 -0.27890787 -0.3060006 -0.5336491 -1.2021935 -0.59726834
-1.9890909 0.04376081 -0.4191916 -0.38990188 -0.29245967 -0.4874951 -0.6467947 -1.0035652
-0.14512509 -0.6437093 -0.5143769 -0.08363335 -0.4526811 -0.3196968 -1.3040437 -0.3569841
-0.795104 -0.8437531 -0.16553123 -0.7314464 -0.5995894 -0.24193142 -0.5931647 -0.6575549
-0.6814863 -0.44204357 -0.50131875 -1.0551523 -1.4665427 -0.7120088 -0.49377087 -0.35218558
-0.81364125 -0.3716814 -0.65503067 -0.8868418 -0.9176509 -0.43905526 -0.2793423 -0.31195378
-0.18468873 -1.0560458 -0.66270113 -0.20177558 -0.94086677 -0.27363804 -0.6098392 -0.38563097
-1.5341989 -0.80257976 -0.35917372 -0.12677391 -0.20212398 -0.033332974 -0.9141265 -0.13262607
-0.954541 -0.8401781 -1.0167238 -0.7598874 -1.0419664 -0.743752 -0.4690214 -0.37775686
-0.17756598 -0.6297351 -0.14940207 -0.6229238 -0.26999366 -1.6763083 -0.5402421 -0.4289447
-1.0577972 -0.9360314 -0.40059668 -0.7035134 -0.9795645 -1.2210996 -1.0943264 -0.61750275
-0.5947264 -0.67787987 -0.25268376 -0.45515633 -0.7372518 -0.3216263 -0.49674332 -1.5563626
-0.19257845 -0.40761295 -0.74079984 -1.1892757 -0.6352153 -0.6931269 -1.4598162 -0.6328638
-0.3166428 -1.033836 -0.13620847 -1.7905501 -0.31770566 -0.56373894 -0.6873095 -0.4059084
-0.22351184 -0.5007901 -0.61614394 -0.5818678 -0.75813705 -1.6941941 -1.3721892 -0.05643283
-0.7863661 -0.77122784 -0.29595616 -0.52667344 -0.25779876 -0.3972407 -0.9014594 -0.5899257
-0.7762316 -0.9563668 -0.2188553 -0.32350156 -0.7137867 -0.44312266 -0.81503224 -0.23380823
-0.5145912 -0.34176818 -0.52871174 -0.7666806 -0.258228 -0.3345235 -1.0825698 -0.32551092
-2.1743448 -0.8849754 -1.625039 -0.76358193 -0.697496 -0.43146124 -0.50859016 -0.78487736
-0.8056213 -0.13499933 -0.7844456 -1.1413758 -0.5302966 -0.2753754 -0.40471515 -1.1702951
-1.0107875 -0.4453874 -0.45783278 -0.10684586 -0.33132723 -0.46012455 -1.0287843 -0.81809473
-0.83910674 -1.7039872 -0.5497458 -1.1402397 -0.9048664 -0.82698333 -0.8436869 -1.2995507
-0.7656632 -1.369539 -1.1412743 -0.39079982 -0.84642786 -0.54127854 -0.3144137 -0.30848855
-0.35104328 -0.12837844 -0.45313498 -0.5410928 -0.4701487 -1.5346794 -0.5452031 -1.1156882
-0.8521107 -1.0404638 -0.17310306 -0.6570398 -0.34459943 -1.0443087 -1.0488169 -0.17930092
-0.8311531 -0.5004332 -1.2516383 -0.18571576 -0.35626134 -0.57431436 -0.67265373 -0.5187818
-1.4370768 -0.42108858 -0.9275889 -0.14540237 -0.50227547 -0.7065862 -0.2340932 -0.3290333
-0.6739941 -0.17709076 -0.74461544 -0.88008267 -0.8832467 -0.10367012 -0.4694949 -0.19748957
-0.9179364 -0.41910535 -1.0966114 -0.33187276 -0.45580396 -0.23257889 -0.6609522 -0.4485262
00000000: 94d3 06bf b070 f7be 6d26 14bf f1d9 10bf
00000010: fa2c 54bf f2dc b6be ba9d e0be 005d 83bf
00000020: e8a5 0dbf 20c3 9cbf 2b52 bbbf 6324 39bf
00000030: b79b 13be 6a20 49bf 4ffa 3abf 0493 50bf
00000040: c259 a3be b0e6 d0bf ea7b 88bf 2252 bebe
00000050: e577 a9be f908 59bf 6cb8 6abf 9a20 b7be
00000060: 0ce0 ebbe 927d 54bf e575 77be 03cd 8ebe
00000070: 1cac 9cbe 3a9d 08bf 7ae1 99bf 94e6 18bf
00000080: 889a febf 893e 333d 48a0 d6be 38a1 c7be
00000090: 46bd 95be f598 f9be 5694 25bf d374 80bf
000000a0: ac9b 14be 22ca 24bf 34ae 03bf f647 abbd
000000b0: d1c5 e7be 4daf a3be e7ea a6bf 9fc6 b6be
000000c0: f08b 4bbf 3400 58bf 0581 29be 1240 3bbf
000000d0: b17e 19bf dfbc 77be a4d9 17bf 8555 28bf
000000e0: e375 2ebf 8953 e2be 6d56 00bf 3b0f 87bf
000000f0: acb7 bbbf 3546 36bf 89cf fcbe ab51 b4be
00000100: cb4a 50bf 064d bebe 17b0 27bf 1008 63bf
00000110: 2beb 6abf dacb e0be f405 8fbe 68b8 9fbe
00000120: 0b1f 3dbe 822c 87bf c8a6 29bf 429e 4ebe
00000130: a5dc 70bf 491a 8cbe 6c1e 1cbf 6c71 c5be
00000140: a160 c4bf de75 4dbf 9ee5 b7be 05d1 01be
00000150: 97f9 4ebe 2888 08bd 3204 6abf 21cf 07be
00000160: cd5c 74bf e915 57bf 0124 82bf fb87 42bf
00000170: 285f 85bf 8866 3ebf 9323 f0be 5969 c1be
00000180: dbd3 35be 5236 21bf dbfc 18be ef77 1fbf
00000190: 9c3c 8abe 4591 d6bf 4e4d 0abf a49e dbbe
000001a0: e665 87bf c19f 6fbf 021b cdbe 7419 34bf
000001b0: bdc4 7abf fe4c 9cbf e312 8cbf a914 1ebf
000001c0: fd3f 18bf 8989 2dbf c45f 81be 400a e9be
000001d0: 89bc 3cbf 34ac a4be 2455 febe e436 c7bf
000001e0: 4933 45be a5b2 d0be 0fa5 3dbf 303a 98bf
000001f0: 789d 22bf c470 31bf 42db babf 5d03 22bf
00000200: 011f a2be bd54 84bf 3c7a 0bbe bf30 e5bf
00000210: 51aa a2be 3251 10bf 84f3 2fbf 3ad3 cfbe
00000220: 4ae0 64be c833 00bf 9cbb 1dbf 4af5 14bf
00000230: 4515 42bf 5adb d8bf e5a3 afbf 1c26 67bd
00000240: 4a4f 49bf 306f 45bf 9187 97be 12d4 06bf
00000250: 33fe 83be 2263 cbbe 0bc6 66bf 5f05 17bf
00000260: 1db7 46bf 74d4 74bf 9b1b 60be ffa1 a5be
00000270: baba 36bf f9e0 e2be f4a5 50bf 6d6b 6fbe
00000280: 40bc 03bf 3dfc aebe a759 07bf 2e45 44bf
00000290: 7636 84be aa46 abbe a691 8abf 5ea9 a6be
000002a0: 7728 0bc0 bf8d 62bf 4701 d0bf 1b7a 43bf
000002b0: 198f 32bf 7de8 dcbe f732 02bf b9ed 48bf
000002c0: 333d 4ebf 443d 0abe 6dd1 48bf 9a18 92bf
000002d0: 85c1 07bf 01fe 8cbe d336 cfbe 3bcc 95bf
000002e0: 7c61 81bf d109 e4be 0f69 eabe 01d2 dabd
000002f0: b9a3 a9be 7295 ebbe 34af 83bf a86e 51bf
00000300: b3cf 56bf 411c dabf 24bc 0cbf 60f3 91bf
00000310: 53a5 67bf 2eb5 53bf ddfb 57bf ad57 a6bf
00000320: 8102 44bf 0e4d afbf 4715 92bf ea16 c8be
00000330: 7faf 58bf 3b91 0abf d5fa a0be 36f2 9dbe
00000340: f2bb b3be a375 03be 4f01 e8be 0f85 0abf
00000350: 55b7 f0be 6070 c4bf 6e92 0bbf dfce 8ebf
00000360: ed23 5abf eb2d 85bf ee41 31be c333 28bf
00000370: 566f b0be e8ab 85bf a23f 86bf a99a 37be
00000380: 73c6 54bf 641c 00bf af35 a0bf 462c 3ebe
00000390: e367 b6be 4406 13bf 0933 2cbf e2ce 04bf
000003a0: 22f2 b7bf ec98 d7be 7776 6dbf 5ce4 14be
000003b0: 2095 00bf d5e2 34bf 21b6 6fbe 0d77 a8be
000003c0: e18a 2cbf 4857 35be 1e9f 3ebf 194d 61bf
000003d0: 751c 62bf 0051 d4bd a361 f0be b53a 4abe
000003e0: e1fd 6abf fa94 d6be c35d 8cbf 3aeb a9be
000003f0: 235f e9be 2929 6ebe 2a34 29bf 3aa5 e5be

weight f4 [256, 512]
0.014435821 0.021874305 0.054493383 0.072580695 0.06804387 -0.02004772 -0.07217454 -0.018744603
0.23964174 1.1127031 0.038355857 -0.0065957992 -0.052470285 0.010227253 0.04771068 0.084834136
0.002808943 4.321136 -0.11473142 0.122715026 -0.07895098 0.052863013 -0.041950036 -0.019016989
0.12153434 -0.06705957 -0.049044296 -0.035129942 0.011111634 0.3561676 -0.026959399 -0.4323649
0.013759024 0.0037022324 0.043106716 -0.0027124516 -0.024989763 -0.13472682 0.004405004 -0.01923274
-0.014770968 -0.014357329 0.067290455 -0.055840775 0.047098663 0.02774273 0.069185294 0.07099286
-0.026049668 0.045730315 -0.010402233 0.032876134 0.0336524 0.011552777 -0.04717591 -0.08607164
0.045530975 -0.016306274 0.0128883105 0.018927542 0.01781891 0.058628354 -0.012139305 0.08076751
1.6024575 -0.08555059 0.023544531 -0.020386262 -0.012245259 0.06944918 -0.05530089 0.04550157
-0.2280442 -0.054537233 0.101457685 -0.04759351 0.023955839 -0.012694874 0.05522745 0.10792885
-0.07332169 -0.024951702 0.18101588 -0.038185395 0.03241354 0.058912396 -0.009153152 0.062349416
-0.094232984 0.033179857 -0.291844 0.046323523 0.09063992 -0.051803913 0.034332663 0.121188946
-0.018813182 0.0010633699 -0.029738344 -0.0037242016 -0.32666636 0.005065891 -0.4284773 -0.031551022
0.013290845 -0.061749537 -0.017175725 0.33002785 0.013378808 -0.056778893 -0.023059068 -0.39489102
-0.044254154 0.057372462 0.027921284 -0.0017837994 -0.07938637 -0.013365275 -0.18887682 -0.022683404
0.09090441 -0.030843271 0.043205295 0.071891926 -0.037465475 0.11747985 0.029781776 -0.046952907
-0.028276492 -0.011583266 -0.027031083 -0.008211096 0.09326666 0.14565048 -0.21159987 0.027218772
0.046624016 0.015615165 0.069181316 -0.0010080711 -0.058455516 -0.0072310646 0.02235869 0.10648213
-0.058704056 0.0068726786 0.01632872 -0.0068914974 -0.013975786 -0.08227613 -0.028632825 0.017602181
-0.015226884 -0.010995785 -0.023224391 0.059599333 -0.04743445 0.050459832 0.016486842 -0.06772086
0.044576503 -0.040145338 -0.010409141 0.028546846 0.046559285 -0.5709025 -0.041883927 0.03910677
0.00731294 -0.012223958 0.030843413 0.0022070548 -0.010878832 0.10366699 -0.006187108 0.10326461
0.091097325 0.0013569342 -0.026310649 0.012928449 0.0050826194 -0.038728736 0.030613024 -0.06049678
0.012771231 0.06789129 0.06696604 0.050926004 -0.0034227006 -0.05588459 -0.018640196 0.09254675
-0.009148979 0.07016543 0.02174716 -0.0029361497 0.041227818 -0.5969185 0.01675452 -0.055996217
0.06319642 0.0065193735 0.03946898 0.062250484 -0.0034474726 0.112993605 -0.05449468 0.07617915
-0.20711623 0.022924075 -0.10121276 0.052490883 -0.049051784 -0.014307264 0.00785598 -0.04937081
0.047373135 -0.017210841 0.09979466 -0.0691559 0.118465714 0.0517892 0.042348687 -0.0057349904
0.007146941 -0.046800934 -0.048793297 -0.061408583 0.055639464 -0.057524685 -0.10859938 0.020521013
0.031109337 0.030371454 0.108300835 -0.042036224 0.16832967 -0.015726384 -0.028651549 -0.036379542
0.060013708 -0.0038511215 -0.09850894 -0.10394467 -0.008966 -0.027156988 -0.4909686 -0.004924952
-0.70559734 -0.004337812 -0.03184529 -0.0667752 0.027227448 0.049614985 0.09491584 -0.07452896
00000000: 3984 6c3c be31 b33c 7434 5f3d 30a5 943d
00000010: 965a 8b3d 1e3b a4bc 3fd0 93bd 488e 99bc
00000020: a564 753e 0e6d 8e3f 081b 1d3d 9321 d8bb
00000030: 15eb 56bd 3590 273c 466c 433d 85bd ad3d
00000040: 3e16 383b bf46 8a40 4ff8 eabd 0452 fb3d
00000050: 0db1 a1bd e386 583d cdd3 2bbd 84c9 9bbc
00000060: ffe6 f83d 8756 89bd ace2 48bd 6ae4 0fbd
00000070: 920d 363c 9a5b b63e f5d9 dcbc ef5e ddbe
00000080: 886d 613c 27a1 723b ab90 303d 63c3 31bb
00000090: 55b7 ccbc d4f5 09be da57 903b fb8d 9dbc
000000a0: ee01 72bc 013b 6bbc 94cf 893d 4cb9 64bd
000000b0: 87ea 403d b944 e33c 05b1 8d3d b464 913d
000000c0: 1d66 d5bc b64f 3b3d 216e 2abc 20a9 063d
000000d0: 19d7 093d dc47 3d3c 873b 41bd 5446 b0bd
000000e0: b07e 3a3d bc94 85bc 7e29 533c ef0d 9b3c
000000f0: f6f8 913c 4924 703d efe3 46bc 7069 a53d
00000100: 541d cd3f 2635 afbd 76e0 c03c 1701 a7bc
00000110: 57a0 48bc 5f3b 8e3d 3083 62bd db5f 3a3d
00000120: 6b84 69be 6f62 5fbd 0cc9 cf3d 6af1 42bd
00000130: 093f c43c 29fe 4fbc 2e36 623d cd09 dd3d
00000140: af29 96bd 8367 ccbc 3a5c 393e 4a68 1cbd
00000150: 0fc4 043d 204e 713d 1af7 15bc 1a62 7f3d
00000160: 39fd c0bd 9ae7 073d 946c 95be bcbd 3d3d
00000170: 6ca1 b93d 5730 54bd 68a0 0c3d e931 f83d
00000180: 1a1e 9abc c660 8b3a d49d f3bc bc11 74bb
00000190: d040 a7be c6ff a53b 6061 dbbe a53b 01bd
000001a0: d8c1 593c 15ed 7cbd 1bb4 8cbc 69f9 a83e
000001b0: ca32 5b3c fc90 68bd 5fe6 bcbc 282f cabe
000001c0: d843 35bd 63ff 6a3d 2dbb e43c 60ce e9ba
000001d0: 5295 a2bd 07fa 5abc ed68 41be 8cd2 b9bc
000001e0: 172c ba3d 07ab fcbc 09f8 303d 133c 933d
000001f0: 6675 19bd 4799 f03d e9f8 f33c b151 40bd
00000200: 1aa4 e7bc bdc7 3dbc 4a70 ddbc d587 06bc
00000210: 9702 bf3d 6625 153e a3ad 58be e7f9 de3c
00000220: d3f8 3e3d c0d6 7f3c efae 8d3d 4121 84ba
00000230: 0d6f 6fbd 91f2 ecbb 9229 b73c 4e13 da3d
00000240: aa73 70bd 3534 e13b cfc3 853c 12d2 e1bb
00000250: b2fa 64bc 6380 a8bd 638f eabc 7332 903c
00000260: 2e7a 79bc aa27 34bc 1441 bebc 6e1e 743d
00000270: a04a 42bd f8ae 4e3d 6a0f 873c 3cb1 8abd
00000280: da95 363d 706f 24bd 1a8b 2abc 13db e93c
00000290: f3b4 3e3d ab26 12bf 7b8e 2bbd 6c2e 203d
000002a0: 63a1 ef3b ff46 48bc 53ab fc3c 3ca4 103b
000002b0: 213d 32bc 5c4f d43d 39bd cabb 657c d33d
000002c0: 3c91 ba3d 28db b13a 6e89 d7bc d8d1 533c
000002d0: 1a8c a63b 06a2 1ebd 2ac8 fa3c 79cb 77bd
000002e0: 6d3e 513c 970a 8b3d 7e25 893d c997 503d
000002f0: 634f 60bb 3de7 64bd 53b3 98bc 2789 bd3d
00000300: 99e5 15bc e5b2 8f3d 1a27 b23c 6b6c 40bb
00000310: 80de 283d a7cf 18bf c640 893c 4a5c 65bd
00000320: 206d 813d 78a0 d53b 3aaa 213d 5dfa 7e3d
00000330: feee 61bb 3169 e73d d035 5fbd d003 9c3d
00000340: 4716 54be 45cb bb3c a348 cfbd ae00 573d
00000350: 86ea 48bd 0469 6abc 5eb6 003c 0c39 4abd
00000360: 550a 423d c0fd 8cbc 2561 cc3d 9ca1 8dbd
00000370: 279e f23d ea20 543d d175 2d3d 96ec bbbb
00000380: e330 ea3b 56b2 3fbd 7bdb 47bd 9187 7bbd
00000390: 35e6 633d 019f 6bbd 5a69 debd af1b a83c
000003a0: 02d9 fe3c 8ecd f83c d4cc dd3d 2d2e 2cbd
000003b0: 9d5e 2c3e 9ed4 80bc a7b6 eabc b702 15bd
000003c0: efd0 753d 1963 7cbb 0ebf c9bd f1e0 d4bd
000003d0: 21e6 12bc 5578 debc 3d60 fbbe 7e61 a1bb
000003e0: 07a2 34bf 3424 8ebb 3570 02bd 70c1 88bd
000003f0: 190c df3c 1539 4b3d 3c63 c23d a4a2 98bd

bias f4 [256]
-0.1512851 0.25129738 0.4448732 0.47063193 0.51430625 0.4645813 -0.22373791 0.34862843
-0.19269395 0.38605323 1.5698383 0.6552619 1.0903938 -0.36296844 0.6058418 0.15048562
0.52135676 -1.081634 0.57580316 -1.1305925 0.20148022 0.61019903 -1.5181186 -0.007933072
-0.06329933 -2.2909358 -0.17312717 0.39622864 0.093831025 -0.09725522 0.21076293 0.48889044
0.23555227 -1.0349046 0.30531475 0.24013413 -0.8058654 -0.45039123 1.238371 -0.46737534
0.2228579 -0.559924 0.12631012 0.81224394 0.3122692 -0.2645403 -0.7372086 0.51145446
0.32690752 1.7419049 0.8411747 0.47859395 0.2961192 0.46646345 0.16741665 -0.025743553
0.44783813 -0.8867722 0.62806904 0.21127887 1.1646112 0.26893607 -0.062529095 1.2739952
0.40708497 -0.9535412 0.8072628 -0.102992065 0.33900955 0.49234378 0.29327646 0.33290264
0.42713618 -0.14058551 0.17947552 1.3328121 0.33661857 0.24982637 0.28587598 0.27096108
-0.09159094 0.31867173 0.4967522 0.49515048 -0.06738086 0.2904064 0.22958063 -0.12924233
-0.06873511 0.26299855 0.032201484 -0.9586954 0.48548824 -0.03266102 -0.0599698 0.29021466
0.40956438 -3.1827323 1.4892479 1.3237742 -0.052472003 1.4562567 1.6735709 0.34605268
-0.41864762 -0.035620227 -0.6875025 0.35966027 0.14804672 0.45590797 0.13219948 0.8059842
0.4977157 0.72115475 0.24123366 -0.06075626 -2.7476583 1.4342037 0.2882897 0.048275236
0.69760686 0.05809338 0.53840333 -0.7373179 -1.487069 0.26550883 1.7760803 -0.20446324
-0.25743678 0.36042812 1.6784588 0.5618782 -0.7035324 -0.026751434 1.7597764 0.7239374
-0.056850556 0.37819484 -0.6868342 0.5187069 0.3549122 0.68493736 0.9318164 0.3347385
0.46162075 0.52086025 0.18590249 -0.36354953 0.3698164 0.68517494 0.28552583 -0.17208849
-1.452042 0.76997805 0.30061302 0.5364667 1.565039 0.41719612 0.059032388 0.16992167
0.4584072 0.28151911 0.33992457 -0.42610663 1.4154826 0.05409516 0.13007534 -0.5840322
0.4320263 0.37600955 -0.2642298 -0.56269634 0.5814905 0.41363233 1.6132003 -0.06707749
-1.3175825 0.3918367 0.67127013 0.21394725 -0.039566882 -0.7593009 0.561186 0.019553484
0.44810718 0.27008006 -0.7900746 0.1438897 -0.37426332 0.4971162 -0.070907846 0.3592394
1.007826 0.156369 -0.7213886 0.123529404 -0.7097523 0.089843296 0.67092115 1.1785165
1.596208 0.34399268 -2.0454798 0.595109 -0.61555535 -1.2774501 0.35592896 0.03913513
0.6074596 0.17868185 -0.5831453 -0.7881558 0.09710301 0.67383325 0.34073484 -0.19409879
-0.07906544 0.035322163 0.9700558 0.02466321 0.342767 2.10579 0.4526808 0.2514187
0.46238518 -0.09046482 0.5936904 0.11276363 0.36528435 0.9218562 -0.22826779 0.5144811
0.29846036 -0.12179746 0.54598004 -1.0690107 0.3866602 0.99879354 0.3855755 0.11895475
0.17861317 0.13111307 0.5688935 0.23253343 -0.09957748 0.7802696 0.14310156 0.41366157
0.615624 0.019252397 -0.2533851 0.20774563 -0.04906994 0.40044647 -1.0249755 -1.9835205
00000000: 7bea 1abe 0daa 803e 6cc6 e33e abf6 f03e
00000010: 93a9 033f 9add ed3e 8d1b 65be 6d7f b23e
00000020: 9051 45be c5a8 c53e 76f0 c83f 3ebf 273f
00000030: 0692 8b3f 00d7 b9be 7318 1b3f e718 1a3e
00000040: a377 053f fc72 8abf d667 133f 41b7 90bf
00000050: d550 4e3e 0136 1c3f b651 c2bf b7f9 01bc
00000060: 14a3 81bd b19e 12c0 4048 31be 7bde ca3e
00000070: 7b2a c03d bf2d c7bd 3dd2 573e d94f fa3e
00000080: 9d34 713e c177 84bf 3752 9c3e b9e5 753e
00000090: 324d 4ebf ae99 e6be f182 9e3f d24b efbe
000000a0: dd34 643e 2e57 0fbf 7157 013e 38ef 4f3f
000000b0: c0e1 9f3e d471 87be b4b9 3cbf aeee 023f
000000c0: 6c60 a73e bdf6 de3f 3a57 573f 440a f53e
000000d0: f09c 973e 4cd4 ee3e 456f 2b3e 25e4 d2bc
000000e0: 0a4b e53e 8103 63bf 22c9 203f 7d59 583e
000000f0: fb11 953f fdb1 893e 410f 80bd 4612 a33f
00000100: 716d d03e 471b 74bf c6a8 4e3f 81ed d2bd
00000110: a992 ad3e 7c14 fc3e 5528 963e 3772 aa3e
00000120: 98b1 da3e a6f5 0fbe 6ec8 373e 9699 aa3f
00000130: 4559 ac3e 7cd2 7f3e 565e 923e 69bb 8a3e
00000140: 0894 bbbd f128 a33e 4e56 fe3e 5d84 fd3e
00000150: fafe 89bd 26b0 943e 2f17 6b3e 1a58 04be
00000160: fec4 8cbd bfa7 863e b4e5 033d 106d 75bf
00000170: ea91 f83e 90c7 05bd e5a2 75bd 0497 943e
00000180: 6cb2 d13e e3b1 4bc0 ad9f be3f 6f71 a93f
00000190: e2ec 56bd 9f66 ba3f 9237 d63f d12d b13e
000001a0: fb58 d6be 84e6 11bd 2a00 30bf 6425 b83e
000001b0: 8f99 173e c56c e93e 4d5f 073e fb54 4e3f
000001c0: 98d4 fe3e 999d 383f f505 773e 8edb 78bd
000001d0: a2d9 2fc0 fd93 b73f b59a 933e 41bc 453d
000001e0: 5d96 323f 53f3 6d3d cdd4 093f dec0 3cbf
000001f0: 4758 bebf c6f0 873e 9956 e33f d05e 51be
00000200: c1ce 83be 098a b83e bdd7 d63f 40d7 0f3f
00000210: b31a 34bf d325 dbbc 5a40 e13f f653 393f
00000220: 21dc 68bd c1a2 c13e 5ed4 2fbf fac9 043f
00000230: 0db7 b53e 0e58 2f3f 858b 6e3f d862 ab3e
00000240: 8e59 ec3e 1957 053f 395d 3e3e 2a23 babe
00000250: 9358 bd3e a067 2f3f 7130 923e f737 30be
00000260: 83dc b9bf 481d 453f f3e9 993e e255 093f
00000270: 3353 c83f bb9a d53e f2cb 713d f2ff 2d3e
00000280: 59b4 ea3e 4623 903e 980a ae3e a62a dabe
00000290: 892e b53f e392 5d3d 7832 053e 2283 15bf
000002a0: 8d32 dd3e 5384 c03e 2149 87be de0c 10bf
000002b0: 90dc 143f 9ec7 d33e 597d ce3f ec5f 89bd
000002c0: 8ba6 a8bf d29e c83e 5cd8 2b3f fd14 5b3e
000002d0: e210 22bd 8b61 42bf e3a9 0f3f a12e a03c
000002e0: 4e6e e53e ef47 8a3e 5442 4abf d257 133e
000002f0: 719f bfbe 0486 fe3e 2238 91bd 3aee b73e
00000300: 7100 813f 321f 203e ecac 38bf fcfc fc3d
00000310: 54b2 35bf c3ff b73d 7dc1 2b3f a1d9 963f
00000320: 8b50 cc3f cf1f b03e 24e9 02c0 1059 183f
00000330: 0995 1dbf 7c83 a3bf 523c b63e 284c 203d
00000340: 7982 1b3f 60f8 363e 0349 15bf 94c4 49bf
00000350: f1dd c63d 5680 2c3f cc74 ae3e d5c1 46be
00000360: 10ed a1bd f9ad 103d 9455 783f 800a ca3c
00000370: 287f af3e 43c5 0640 c7c5 e73e f4b9 803e
00000380: c0bd ec3e 9f45 b9bd 18fc 173f 9ef0 e63d
00000390: 8d06 bb3e c5fe 6b3f 08bf 69be 09b5 033f
000003a0: cccf 983e f270 f9bd 59c5 0b3f 58d5 88bf
000003b0: 53f8 c53e efb0 7f3f 276a c53e 8c9e f33d
000003c0: 5fe6 363e 8142 063e 01a3 113f 3e1d 6e3e
000003d0: 47ef cbbd c0bf 473f 3789 123e 73cb d33e
000003e0: 8999 1d3f 34b7 9d3c b1bb 81be 45bb 543e
000003f0: 90fd 48bd 5207 cd3e 6632 83bf 00e4 fdbf

weight f4 [64, 256]
0.01524224 0.042752527 0.017804677 0.02724893 0.035733953 -0.6245009 -0.017732002 0.024253521
0.017674286 -0.096151575 -0.0955537 0.2864058 0.011786487 0.031173855 0.05816509 0.029525
0.04372856 0.01996584 -0.89148307 0.034211554 0.024793362 -2.1146083 0.052040584 0.03400846
0.04236888 0.08028467 0.1305981 -0.04925585 0.06095215 -0.031822994 0.019881286 -0.5668867
0.02026002 -1.2332444 -0.80961436 0.019658588 0.007736022 0.028319294 -0.028657297 0.026785115
0.0327864 0.031739 0.008809135 0.024527485 -0.027559387 0.03459716 0.040119126 -2.1057024
0.04474207 0.22098844 -3.069861 0.027916983 -2.4268472 -0.57229257 0.009843319 0.014078128
0.05018748 0.02234983 -0.009623071 0.06319089 0.034880277 -0.01783946 -0.019264119 0.24969766
0.033161346 0.026112549 -0.029482838 0.0816343 0.04624365 -0.91445774 -1.2326939 -0.28587282
-2.1486313 0.13580044 0.070475034 0.06408424 0.73547757 -0.018770004 -0.013567194 -0.09331087
-0.30786684 -0.023655903 -0.53042966 0.04717104 0.08269267 0.05706556 -0.51888514 -0.005833996
-1.3610729 0.11237503 0.015646547 0.03263747 0.038444813 0.006532866 0.19288129 -0.008633345
0.0031476167 0.116320536 0.04214673 -1.7596582 -0.029074376 0.053953044 -0.12224896 0.032052062
0.04426203 0.039595276 -0.62633723 0.03677672 -0.013257847 -3.2561872 0.015542967 -0.054332357
0.04544122 0.021120848 0.038865212 0.035899933 0.08593754 -1.2490677 0.029027948 -0.6751272
0.030943055 -0.067511335 0.020077769 0.018712256 0.054175768 -0.47855625 -3.4430852 -0.02596818
0.023853915 0.07122801 0.18742174 0.06031002 0.05055273 0.10136384 -1.0965612 0.028685434
-0.13592997 0.03030771 0.07743636 -0.036314383 0.047465015 0.0042471 0.036622137 -0.0040683206
0.039161194 0.01505234 -1.4146446 0.017762242 -0.63457376 -0.00076565996 -3.0519722 0.02712953
0.07978376 0.01324311 0.023440683 0.05162896 0.008831799 0.03930362 -0.29759732 0.020532127
-0.0034441538 0.0077630407 0.02728153 0.031600118 0.048695926 -0.0023113014 0.01296575 0.07013937
0.04719815 -2.1378531 -0.7848923 0.030204237 0.020345204 -0.0051652817 0.06323551 -0.0032423732
-0.7180444 0.033636313 -0.005348634 -0.018195456 -0.42818433 0.05371287 0.02494155 0.051957298
0.026676025 -0.027666694 0.05404783 -0.1480666 0.02237861 -0.20939255 0.047788568 -0.0444486
0.051348783 -0.7983037 0.045309387 0.0020820866 0.0322576 0.05028797 -0.014276107 -2.081663
0.056521025 0.010385034 0.017711004 0.018092789 0.03437592 0.063678496 -0.3300125 -2.030066
0.051555164 0.024638291 -0.10704448 0.057224467 0.024696568 0.039065357 0.027735967 0.04322858
0.034318037 0.1995572 0.009625648 0.043243542 0.17256786 0.054502625 -2.1971378 0.033681333
-0.28326935 0.010716997 -0.70131713 0.03681151 0.06352607 0.01824394 0.018648582 -0.1782193
0.030181793 -0.07629579 -0.3800509 0.020233052 -0.007681059 0.0012291841 0.032547086 0.014562922
-0.10715245 -0.021086125 0.008837145 0.05835167 -0.040076625 0.01439941 0.02784321 0.0004626872
0.028834121 -0.18559338 0.053669214 0.059741143 0.024867527 0.06549872 0.022043612 0.060735304
00000000: 97ba 793c 461d 2f3d 1ddb 913c 2639 df3c
00000010: c45d 123d 4adf 1fbf b442 91bc 52af c63c
00000020: aac9 903c 1eeb c4bd a9b1 c3bd c8a3 923e
00000030: 1c1c 413c 5060 ff3c 843e 6e3d 6ade f13c
00000040: b81c 333d 678f a33c 3c38 64bf 6a21 0c3d
00000050: 731b cb3c be55 07c0 8228 553d 744c 0b3d
00000060: fe8a 2d3d 4a6c a43d 82bb 053e 81c0 49bd
00000070: f6a8 793d d458 02bd 14de a23c 7d1f 11bf
00000080: 57f8 a53c f4da 9dbf e342 4fbf 0c0b a13c
00000090: 757e fd3b ddfd e73c b5c2 eabc 756c db3c
000000a0: 084b 063d c100 023d 3154 103c dded c83c
000000b0: 39c4 e1bc c0b5 0d3d f453 243d d4c3 06c0
000000c0: 7643 373d cb4a 623e 9a78 44c0 28b2 e43c
000000d0: 7751 1bc0 c481 12bf df45 213c f3a7 663c
000000e0: 6391 4d3d fe16 b73c 16aa 1dbc 3a6a 813d
000000f0: 9fde 0e3d 0f24 92bc c9cf 9dbc beb0 7f3e
00000100: 31d4 073d fce9 d53c fe85 f1bc e22f a73d
00000110: fb69 3d3d e719 6abf eac8 9dbf ec5d 92be
00000120: 2d83 09c0 450f 0b3e 3755 903d 993e 833d
00000130: 4248 3c3f 8dc3 99bc f048 5ebc c519 bfbd
00000140: b9a0 9dbe 06ca c1bc 3dca 07bf 6c36 413d
00000150: c65a a93d 94bd 693d a8d5 04bf 1b2b bfbb
00000160: a337 aebf e124 e63d 302d 803c deae 053d
00000170: 4f78 1d3d a711 d63b ac82 453e e072 0dbc
00000180: 3f48 4e3b 7639 ee3d 0da2 2c3d 7b3c e1bf
00000190: 632d eebc defd 5c3d aa5d fabd 0649 033d
000001a0: 1a4c 353d a82e 223d a357 20bf 30a3 163d
000001b0: 7137 59bc 5f65 50c0 eea7 7e3c 9b8b 5ebd
000001c0: 9320 3a3d a105 ad3c 2131 1f3d cf0b 133d
000001d0: 0500 b03d 73e1 9fbf 05cc ed3c 23d5 2cbf
000001e0: 4a7c fd3c 6243 8abd 227a a43c 724a 993c
000001f0: 69e7 5d3d 5305 f5be 825b 5cc0 38bb d4bc
00000200: 4969 c33c fedf 913d 7ceb 3f3e a407 773d
00000210: 6110 4f3d d897 cf3d 1e5c 8cbf b7fd ea3c
00000220: 3a31 0bbe e047 f83c f496 9e3d 64be 14bd
00000230: ad6a 423d 422b 8b3b 1801 163d 8c4f 85bb
00000240: 7d67 203d 179e 763c 1313 b5bf 1f82 913c
00000250: 6d73 22bf 92b6 48ba 8353 43c0 c03e de3c
00000260: ab65 a33d a1f9 583c ad06 c03c e378 533d
00000270: 40b3 103c d5fc 203d ad5e 98be fe32 a83c
00000280: 50b7 61bb 1b61 fe3b 847d df3c 206f 013d
00000290: 6175 473d 3479 17bb 4c6e 543c 3ba5 8f3d
000002a0: d952 413d 96d2 08c0 b4ee 48bf e06e f73c
000002b0: fcaa a63c 8641 a9bb 9e81 813d ff7d 54bb
000002c0: c2d1 37bf 3bc6 093d 9843 afbb a30e 95bc
000002d0: fa3a dbbe 0702 5c3d 3952 cc3c 2dd1 543d
000002e0: ae87 da3c 43a5 e2bc 4261 5d3d c59e 17be
000002f0: 5953 b73c 006b 56be f2bd 433d bc0f 36bd
00000300: 1a53 523d a25d 4cbf 5696 393d 9e73 083b
00000310: 8c20 043d c2fa 4d3d 55e6 69bc f739 05c0
00000320: 9782 673d fd25 2a3c ab16 913c 5437 943c
00000330: c4cd 0c3d df69 823d 66f7 a8be 9aec 01c0
00000340: 822b 533d 3ed6 c93c 233a dbbd 3464 6a3d
00000350: 7550 ca3c ff02 203d 8a36 e33c 7410 313d
00000360: 1291 0c3d b958 4c3e e5b4 1d3c 2420 313d
00000370: a1b5 303e 253e 5f3d e89d 0cc0 70f5 093d
00000380: ae08 91be 5896 2f3c 8589 33bf aac7 163d
00000390: f519 823d 5174 953c e9c4 983c 1f7f 36be
000003a0: cf3f f73c f840 9cbd 0896 c2be c9bf a53c
000003b0: 65b1 fbbb 931c a13a 1850 053d 5299 6e3c
000003c0: be72 dbbd cfbc acbc acc9 103c 2902 6f3d
000003d0: 6327 24bd 81eb 6b3c 7217 e43c d394 f239
000003e0: 8935 ec3c 310c 3ebe 40d4 5b3d 21b3 743d
000003f0: fcb6 cb3c 3124 863d ce94 b43c 95c5 783d

bias f4 [64]
0.85096 -0.085670836 -0.15695941 0.08929307 0.10184837 -0.036095727 0.063504085 1.0216296
0.009772183 -0.764493 -0.5308763 0.16474625 0.11249331 -0.45111233 -0.7376293 -0.20727898
-0.06753125 -0.17411587 -0.17970142 -0.1787631 -0.004809046 -0.07765036 -0.41865984 -0.02712799
0.25988898 0.08985661 -0.33304292 -1.2672275 -1.2305436 0.026533773 0.14758149 0.08187635
0.06168937 0.4346387 0.34101757 -1.2213968 -1.2295436 -0.027480178 0.08808044 0.10893633
0.052786216 -0.15162598 -0.015901875 0.20194304 -0.068054974 -0.18491292 -0.22358315 0.117538705
0.07804729 -0.8979152 0.02394469 0.116297185 0.05565189 -0.18560368 -0.6501982 -0.2939646
0.76503736 0.0771033 0.052626923 -0.12814792 0.09832824 0.25594687 -0.16746667 0.8566746
00000000: 84d8 593f 3174 afbd f8b9 20be 49df b63d
00000010: e195 d03d 1dd9 13bd 6e0e 823d c2c4 823f
00000020: 821b 203c d0b5 43bf 82e7 07bf 3eb3 283e
00000030: e462 e63d 32f8 e6be 46d5 3cbf f140 54be
00000040: d34d 8abd 6e4b 32be a603 38be ad0d 37be
00000050: 3495 9dbb 2707 9fbd 955a d6be 853b debc
00000060: 2b10 853e be06 b83d 9a84 aabe 8334 a2bf
00000070: 7482 9dbf 5b5d d93c 9a1f 173e caae a73d
00000080: fead 7c3d f788 de3e db99 ae3e bb56 9cbf
00000090: af61 9dbf 1c1e e1bc 8563 b43d 031a df3d
000000a0: 5c36 583d d743 1bbe a644 82bc 28ca 4e3e
000000b0: 6860 8bbd d059 3dbe fbf2 64be 22b8 f03d
000000c0: 42d7 9f3d c5dd 65bf a827 c43c 382d ee3d
000000d0: 3cf3 633d e40e 3ebe 6473 26bf 8782 96be
000000e0: 7dd9 433f 56e8 9d3d 548f 573d 3539 03be
000000f0: 5160 c93d 780b 833e 627c 2bbe 074f 5b3f
