TP/save_models_MLP_512_256_Dropout_Gridsearch_Tanh/model_7.pt (torch, 728469 bytes, 6 tensors)

weight f4 [512, 64]
0	0x3daa1e74	0.0830659
1	0x3ec907d0	0.39263773
2	0xbe8392af	-0.25697848
3	0x3e1aa497	0.15101849
4	0xbf0e7cd4	-0.5565922
5	0x3d30c03c	0.04315208
6	0xbec9fb84	-0.39449704
7	0x3d836f3b	0.064177
8	0x3ecf22e4	0.40456307
9	0xbe80744e	-0.25088733
10	0x3e42f5b6	0.19039044
11	0xbd2768dd	-0.04087149
12	0xbf0de95b	-0.554342
13	0x3ec558a0	0.38544178
14	0xbf911d18	-1.1337004
15	0x3f79a77f	0.97521204
16	0xbdbac091	-0.091187604
17	0x3e8981cc	0.2685684
18	0xbdf4eb32	-0.119589224
19	0x3e61c07c	0.22046083
20	0xbe05c852	-0.13064697
21	0xbf0ad766	-0.5423492
22	0xbe1fb6fc	-0.15597147
23	0x3f4b3535	0.7937806
24	0x3d256b5d	0.040385593
25	0x3c1bbf31	0.009506033
26	0x3e7e7b03	0.24851613
27	0x3e258c22	0.16166738
28	0x3f14556f	0.5794286
29	0x3e507fb4	0.20361215
30	0x3f149f63	0.58055705
31	0x40c15fe5	6.042956
32	0x3b43d032	0.0029878733
33	0xbe179dda	-0.1480631
34	0xbe44255e	-0.1915488
35	0x3cb11962	0.021618549
36	0xbd9695ed	-0.07352815
37	0xbcb576c2	-0.022151355
38	0xbe89be3e	-0.26902956
39	0x3fbb0d9d	1.461353
40	0xbf91b0b4	-1.138205
41	0x3effd4d2	0.49967057
42	0x3dd8bdd0	0.10583079
43	0xbe62fcfa	-0.22166815
44	0xbeb3b997	-0.3510253
45	0x3f6a12db	0.9143502
46	0xbeed1a7f	-0.46309277
47	0x3ba7beec	0.005119195
48	0xbdaa47a8	-0.083144486
49	0xbcf7bade	-0.030240472
50	0xbd5e699a	-0.05429993
51	0xbe92b9e8	-0.2865746
52	0x3b34f725	0.002761313
53	0xbee3ddb3	-0.4450508
54	0x3e74cb02	0.23905566
55	0x3e44ce90	0.19219422
56	0x3e0decd0	0.13859868
57	0x3e01170b	0.12606446
58	0x3eddf4bb	0.43350777
59	0xbf2444ba	-0.6416737
60	0xbe826c11	-0.25473073
61	0x3d6787b7	0.056525912
62	0x3ee76b7d	0.45199195
63	0x3e7821aa	0.24231592
64	0xbf91a4e7	-1.1378449
65	0x3e740837	0.23831259
66	0x3e5dae9b	0.21648638
67	0xbf6774a1	-0.90412337
68	0xbfe6c211	-1.8027974
69	0x3f92295a	1.141887
70	0x3e4d71c1	0.20062925
71	0x400ddcc1	2.2165987
72	0xbd7a09bb	-0.061044436
73	0xbf055b09	-0.52092034
74	0x3d850165	0.064944066
75	0xbfab3a25	-1.3377119
76	0xbeb2158a	-0.34782058
77	0xbea45c01	-0.32101443
78	0x3e49f4c6	0.1972228
79	0x3f88dbc6	1.069207
80	0xbf0dbf5b	-0.5537011
81	0x3ef2f313	0.47451076
82	0x3eaa622b	0.3327802
83	0x3e3f3335	0.18671878
84	0xc0231e6c	-2.5487318
85	0x3f8268bc	1.0188212
86	0xbc8861c0	-0.016648173
87	0x4011ed8f	2.2801244
88	0xbf3425ef	-0.7037038
89	0x3ea9b643	0.33146867
90	0x3f4c37ce	0.7977265
91	0x3f92c693	1.146685
92	0x3e83ec97	0.2576644
93	0xbec39a1e	-0.3820352
94	0x3e9c00eb	0.3046945
95	0x3f8b62ef	1.0889567
96	0xbf145630	-0.5794401
97	0xbed2ca80	-0.4117012
98	0x3e8f6f2d	0.28014508
99	0xbc97f7ca	-0.018550772
100	0x3e08c645	0.13356884
101	0x3e877176	0.2645375
102	0x3d880454	0.066414505
103	0x3fd116f5	1.6335131
104	0xbfd7eefd	-1.6869808
105	0xbf9bece0	-1.2181664
106	0x3deab855	0.1146094
107	0xbfb7ae8c	-1.4350142
108	0x3f326fb2	0.69701684
109	0x3f50d047	0.81567806
110	0xbf5d6a83	-0.8649065
111	0x4010a669	2.2601569
112	0xbf9cf504	-1.2262273
113	0xbfb7fde2	-1.4374354
114	0xbed28218	-0.4111488
115	0xbe954505	-0.2915422
116	0xbf3356a7	-0.70054096
117	0xbe66a08e	-0.22522184
118	0xbe94ac3c	-0.29037654
119	0x3fb260c8	1.3935785
120	0xbfa482f4	-1.2852464
121	0xbfa42a9f	-1.2825507
122	0xbfa19b0d	-1.2625443
123	0xbf89c745	-1.0763937
124	0xbecf39c6	-0.40473765
125	0xbf9ae99e	-1.2102544
126	0xbf8c59c6	-1.0964897
127	0x3f8fa816	1.1223171
128	0x4002e094	2.0449572
129	0x3f4943c7	0.78619045
130	0x3fcb3305	1.5874945
131	0x3f14d78f	0.58141416
132	0xbeded802	-0.43524176
133	0xbf1be92e	-0.6090268
134	0xbf370d2b	-0.7150447
135	0x3ead95ce	0.33903354
136	0x3f1704af	0.5899152
137	0x3edfc952	0.43708283
138	0x3f207939	0.6268497
139	0x3fbf480d	1.4943863
140	0xbeff0d07	-0.49814627
141	0xbe5fd25d	-0.21857591
142	0xbeb1f6f6	-0.3475873
143	0x3e4803f2	0.19532755
144	0x40408973	3.0083892
145	0x3fe77ba4	1.8084607
146	0x3f680420	0.90631294
147	0xc007fc5c	-2.1247778
148	0x3ed64edb	0.41857037
149	0xbdc0beca	-0.0941139
150	0x3fca92da	1.5826066
151	0xbe7daa2d	-0.24771948
152	0x40081036	2.1259894
153	0x3fa898e2	1.3171656
154	0x3f43dd07	0.76509136
155	0x3e2d9056	0.16949591
156	0x3f8410a3	1.0317577
157	0x3fc093e6	1.5045135
158	0xbf85046d	-1.0391976
159	0x3da213a8	0.079139054
160	0x3e5f3112	0.21796063
161	0xbea70258	-0.32618976
162	0xbe895360	-0.26821423
163	0xbf0c35c5	-0.54769546
164	0xbe34bf40	-0.17651081
165	0xbede3c16	-0.43405217
166	0x3f396fe9	0.72436386
167	0xbfe32b0f	-1.7747515
168	0x3fa54dcc	1.2914367
169	0xbf6ab88a	-0.91687834
170	0xbf9843eb	-1.1895727
171	0xbeb798a0	-0.3585863
172	0xbd9af7e1	-0.075668104
173	0xbead5bbc	-0.3385905
174	0x3f7cd8cd	0.9876831
175	0xbf0c1de2	-0.547331
176	0x3f36d45a	0.7141777
177	0x3e953aea	0.2914651
178	0x3f20bff5	0.62792903
179	0xbe6ce02f	-0.23132394
180	0xbfdd0f36	-1.7270267
181	0xbe14403b	-0.14477627
182	0xbf37505b	-0.7160699
183	0xbfc19979	-1.5124961
184	0x3f73f17b	0.95290345
185	0x3eea522d	0.4576582
186	0xbdfab568	-0.12241632
187	0xbe215361	-0.15754463
188	0xbed00efa	-0.40636426
189	0xbef9d407	-0.48794577
190	0x3f4fdf52	0.81200135
191	0xbede127b	-0.43373474
192	0x3f4dd1a2	0.80398
193	0x3fa3ba66	1.2791259
194	0xbf1d67b4	-0.61486363
195	0x3e017676	0.12642846
196	0xbf0eb9b6	-0.5575212
197	0x3df99dab	0.12188276
198	0x3fb87b55	1.4412638
199	0x3e2c6400	0.16835022
200	0x3e009953	0.12558489
201	0x3ec2262a	0.37919742
202	0xbeecd857	-0.46258804
203	0xbde431b4	-0.111422926
204	0xbf0ef69a	-0.55845034
205	0xbf2d5b0f	-0.6771707
206	0x3fe9010f	1.8203448
207	0xbfed2aa5	-1.8528639
208	0x3d8fe8dc	0.07026836
209	0x3f2430ab	0.6413676
210	0x3f080100	0.53126526
211	0xbf29e8bc	-0.6637075
212	0xbf11ef05	-0.5700534
213	0xbf1196d9	-0.568708
214	0x3ca217ca	0.019786734
215	0xbf06dd5d	-0.52681524
216	0x3f4ea748	0.80724
217	0x3f02db9e	0.5111636
218	0xbeb80438	-0.3594072
219	0x3f5b8eaf	0.8576459
220	0x3e769f29	0.24084152
221	0x3d8feeaa	0.070279434
222	0xbef31640	-0.47477913
223	0xc01cebfe	-2.4519038
224	0x3f01184d	0.50427705
225	0xbf8f223e	-1.1182325
226	0xbe6b63d8	-0.22987306
227	0x3f44c09a	0.76856387
228	0x3f06b196	0.52614725
229	0x3ec175a3	0.37785062
230	0xbdd439ad	-0.10362563
231	0xbfba1864	-1.4538693
232	0xbe7918fe	-0.2432594
233	0x3f76247f	0.9614944
234	0xbd958eb4	-0.07302609
235	0x3fed5e9d	1.8544499
236	0x40165f1e	2.3495555
237	0xbf0e44dd	-0.5557383
238	0x3f1f1ff1	0.62158114
239	0xbfb86774	-1.4406571
240	0x3f56d352	0.839162
241	0x3ffb977a	1.9655602
242	0x3ff84c9d	1.939838
243	0x4014c384	2.3244333
244	0xbf504bc5	-0.81365615
245	0x3f38274d	0.7193497
246	0x3eee29e2	0.4651633
247	0xbf47f17c	-0.7810285
248	0xbf6aeb00	-0.9176483
249	0x3f899fa7	1.0751847
250	0x3e839eca	0.25707084
251	0x3db15826	0.08659391
252	0xbf5e4d8d	-0.86837083
253	0xbe5838b5	-0.21115382
254	0xbf1dfdba	-0.6171528
255	0xbf77330c	-0.96562266

bias f4 [512]
0	0xc08d75e0	-4.420639
1	0x3f86ace9	1.0521518
2	0xbe6e4fce	-0.2327263
3	0x3f874e74	1.0570817
4	0xbfb33fdc	-1.4003863
5	0xbffb7def	-1.9647807
6	0x3fde8df8	1.7387075
7	0xbeb03228	-0.34413266
8	0xbfa17f7d	-1.2617031
9	0x3f70fee4	0.9413893
10	0x3feb126d	1.8364998
11	0xc0361f37	-2.8456552
12	0x3f5357ef	0.8255605
13	0xbec663ff	-0.38748166
14	0xbd3bc363	-0.045840632
15	0xbf6f6bf9	-0.9352413
16	0x40469694	3.1029406
17	0x3fbcbfbd	1.4746014
18	0x401b85f5	2.430051
19	0xbf4e2858	-0.8053031
20	0xbe8f1e64	-0.27952874
21	0xc04fa603	-3.2445076
22	0x4002e103	2.0449836
23	0x405be7c6	3.4360213
24	0x3f1f415e	0.6220912
25	0xbee2fcbf	-0.44333455
26	0xc006d7ea	-2.1069283
27	0x3f3a1841	0.7269326
28	0x401e1755	2.470174
29	0xbfaf7866	-1.3708618
30	0xc0075748	-2.1147022
31	0xbf29141c	-0.6604631
32	0x3e810bbc	0.25204265
33	0xbc70c0ef	-0.014694436
34	0xbfe88263	-1.8164791
35	0xc03ae212	-2.9200482
36	0x3f2af6aa	0.6678263
37	0xbf1b68dc	-0.6070688
38	0xbf744426	-0.95416486
39	0x3fccdf45	1.6005636
40	0x3f301b03	0.68791217
41	0xbfe4d527	-1.7877549
42	0xc0019e18	-2.0252743
43	0xbef3b7be	-0.47601122
44	0x3f957d9b	1.1678957
45	0x3f37e35b	0.7183129
46	0x3f0e7b0f	0.5565652
47	0xbf9d42be	-1.2285993
48	0xbfb49396	-1.410754
49	0xbd57b945	-0.05266692
50	0x3f7a1e70	0.97702694
51	0x4082e793	4.0907683
52	0x3e337fe8	0.17529261
53	0xbecd3d26	-0.40085715
54	0xbe15140e	-0.14558432
55	0x3fae7a9c	1.3631167
56	0x3e6962eb	0.2279164
57	0x3fb49d19	1.4110442
58	0x3f854e84	1.0414586
59	0xbef9f07c	-0.48816288
60	0xbe953ffc	-0.2915038
61	0xbfa13408	-1.2594004
62	0x3fefff27	1.8749741
63	0xbe8273d9	-0.2547901
64	0x40252b6d	2.5807755
65	0xbf11a993	-0.56899375
66	0xc0233466	-2.5500731
67	0xbe77d40a	-0.2420198
68	0xbf624aa6	-0.88395154
69	0xbfd49184	-1.6606908
70	0x3dcdb5f7	0.10044473
71	0x3f02108e	0.5080651
72	0x3f7ba918	0.9830489
73	0xbfacd11c	-1.3501315
74	0xbf92a017	-1.1455106
75	0xbe7a5bca	-0.24449077
76	0x3f6f5905	0.9349521
77	0xbe036065	-0.1282974
78	0x400ccf68	2.200159
79	0xbfcdef9c	-1.6088748
80	0x3f074db8	0.52852964
81	0xc011d7d4	-2.278798
82	0xbfe39ee6	-1.7782867
83	0xbfcb15d7	-1.586604
84	0xbfe33d4a	-1.7753079
85	0xbed9a814	-0.42511046
86	0xbf9bb4ab	-1.216451
87	0x3ef38d8d	0.47568932
88	0x3d1a8c29	0.037731323
89	0x3f58ece1	0.8473645
90	0x3f77c1fb	0.96780366
91	0xc00ec9be	-2.2310634
92	0xbf870e41	-1.0551225
93	0xbea0df43	-0.31420335
94	0xbc4ff1f5	-0.012691964
95	0xc03f4e5b	-2.9891574
96	0xbd6b41e8	-0.0574359
97	0x3fa3b58d	1.278978
98	0xbeb13ac7	-0.34615156
99	0xbf9ac696	-1.2091854
100	0xbc844a81	-0.016148807
101	0xbfa3e924	-1.2805524
102	0x3f967d3d	1.175697
103	0x3ffad9df	1.9597739
104	0xbf22da52	-0.6361438
105	0xbcbc2a82	-0.022969488
106	0x4003aaa2	2.0572896
107	0xbfb43396	-1.4078243
108	0x409fff06	4.999881
109	0xc04b9be3	-3.1813896
110	0x400b5847	2.177263
111	0xc0247d23	-2.5701377
112	0xbf454b81	-0.77068335
113	0xbfaa925b	-1.3325914
114	0x3ee4da71	0.44697908
115	0x3ff05f5f	1.8779105
116	0xc06f0357	-3.7345788
117	0x3fb37f81	1.4023286
118	0x3f8e511d	1.1118504
119	0xbf4d30d8	-0.80152655
120	0x3fe61a97	1.7976865
121	0x3f16022e	0.58597076
122	0x3f91de9b	1.1396059
123	0xbf959b92	-1.1688101
124	0xbefe6239	-0.49684313
125	0xc033ee02	-2.8114018
126	0xbfc7cbfb	-1.5609125
127	0xbf2f3f08	-0.68455553
128	0x3f89a958	1.0754805
129	0xbfc1c3a8	-1.5137835
130	0x3f0b00b0	0.54297924
131	0x3fa3d13a	1.2798226
132	0xbdbf987a	-0.093552545
133	0x3fce99cc	1.6140685
134	0xbfe2db80	-1.7723236
135	0x3ecdf7ef	0.4022822
136	0x3efd10f1	0.49426988
137	0xbda426ea	-0.08015235
138	0x3e02f50b	0.12788789
139	0xbf027d53	-0.5097248
140	0xbfffb481	-1.997696
141	0xbee19513	-0.44059047
142	0x4020fa9c	2.515296
143	0x3ead1c13	0.3381048
144	0xbfd3c136	-1.6543338
145	0x3f58d1a5	0.8469489
146	0x3f0ce186	0.5503162
147	0xbe389c8f	-0.18028472
148	0xbf059f3f	-0.52196115
149	0x403469f8	2.8189678
150	0x3e4ee603	0.2020493
151	0xbfd0d0fa	-1.6313775
152	0xbe75d00b	-0.24005143
153	0x400d3b7c	2.2067556
154	0xbfc31bf8	-1.524291
155	0xbd325e2e	-0.043546848
156	0x402683c6	2.6017928
157	0xc02021bd	-2.5020592
158	0x3d8424d0	0.06452334
159	0x3f57469a	0.84092104
160	0xbe92cee3	-0.28673467
161	0x401dd265	2.4659665
162	0xbfda1547	-1.7037743
163	0x3f5911f2	0.8479301
164	0xbfb96b70	-1.4485912
165	0x3fd467af	1.6594142
166	0x3d6b2d7e	0.05741643
167	0xbd8f99eb	-0.070117794
168	0xc01f49cf	-2.48888
169	0xbe8bfc47	-0.2734091
170	0xbf386860	-0.72034264
171	0xbf7a5495	-0.9778531
172	0x3e8c45ab	0.27396902
173	0xbcae8590	-0.021303922
174	0xbee6dc86	-0.4509012
175	0xbfc81eaf	-1.5634364
176	0xbfd4924d	-1.6607147
177	0x40846849	4.13773
178	0x3fd73629	1.6813403
179	0x3f270097	0.65235275
180	0x403b2d7c	2.9246511
181	0x403d7625	2.960336
182	0x3f91e855	1.1399027
183	0xbf2514b6	-0.6448473
184	0x3e5ffaf2	0.21873072
185	0x3fbf7926	1.4958847
186	0x3e41f2cb	0.18940274
187	0xc027393e	-2.6128688
188	0xbe6a393f	-0.228734
189	0xc043e4c6	-3.0608382
190	0xc02de307	-2.7169816
191	0x3f8be1ac	1.0928245
192	0xbeaeb7e1	-0.34124663
193	0x3f19cb40	0.6007576
194	0xbf0c8f34	-0.5490601
195	0xbf30bbf9	-0.69036824
196	0xbeeaf3a0	-0.45888996
197	0x4051d486	3.2785964
198	0xbf898e13	-1.0746483
199	0xbf8c6ea2	-1.0971262
200	0xbee99c60	-0.45627117
201	0x3e5ad449	0.21370043
202	0x3fff577b	1.9948572
203	0xbea4c1b1	-0.32179025
204	0xbfbf8c13	-1.4964622
205	0x3f87433a	1.0567391
206	0x4001bf33	2.0272949
207	0x3f2449b1	0.64174944
208	0xbfb81ae9	-1.4383212
209	0xbfd5b7b0	-1.6696682
210	0x3ebc3a08	0.36763024
211	0x3f5ddf4e	0.8666886
212	0x4007e846	2.1235518
213	0x3e65db94	0.22447044
214	0x4032309c	2.784217
215	0x3ef8c2d2	0.48586136
216	0x3e772923	0.24136786
217	0xbf549de3	-0.83053416
218	0x3faa97fd	1.3327633
219	0xc0677bf2	-3.61694
220	0x4055514f	3.3330877
221	0x3ff2a467	1.8956422
222	0xbdb28c53	-0.08718171
223	0xbfcaa525	-1.5831648
224	0x3fca2b7f	1.5794524
225	0xc002b97e	-2.0425715
226	0x4013abb6	2.3073554
227	0x3fe359d1	1.7761785
228	0xbf7ce431	-0.9878569
229	0xbf852c3a	-1.0404122
230	0x3d0292ce	0.031878285
231	0x3ffefeaf	1.9921473
232	0xbe9b0899	-0.30279997
233	0xc003d7f0	-2.0600548
234	0x3dbefe2c	0.09325823
235	0xbf0db84f	-0.5535936
236	0x3f815569	1.010419
237	0xbfc62a85	-1.5481726
238	0xbf6200eb	-0.8828265
239	0xbdd999e6	-0.10625057
240	0xbf356523	-0.7085745
241	0xbffd0bcb	-1.9769224
242	0x402c241e	2.6897044
243	0x3f758ff4	0.9592278
244	0xbf97529f	-1.1822089
245	0x3f357f08	0.7089696
246	0xbffaa870	-1.9582653
247	0x3fadde0e	1.3583391
248	0xbfb308c7	-1.3987054
249	0x3fa3c2bd	1.2793804
250	0x3f4192b9	0.75614506
251	0x3f53d026	0.82739484
252	0x3e33f63f	0.17574404
253	0x3d4bcb82	0.049754627
254	0x3fa578a0	1.2927437
255	0x3f32913d	0.69752866

weight f4 [256, 512]
0	0xbe54d10f	-0.20782875
1	0xbfea8626	-1.8322189
2	0xbf3e5225	-0.7434409
3	0x3f2d6062	0.67725194
4	0x3f52ea2c	0.8238857
5	0x3fa2a4ca	1.270654
6	0xbe9b4431	-0.30325463
7	0xbf8c748b	-1.0973066
8	0xbf61f8be	-0.88270175
9	0xbf0420cc	-0.51612544
10	0xbfb6223c	-1.4229198
11	0xbef86d34	-0.48520815
12	0x3f63a172	0.8891822
13	0x3e79c02d	0.24389715
14	0xbf05fe2b	-0.52340955
15	0x3feaf6bf	1.8356551
16	0xbfcd4d6e	-1.6039255
17	0xbf990fad	-1.1957909
18	0xbdfe589d	-0.124192454
19	0x3ea15daf	0.31516787
20	0xbe83c8df	-0.2573919
21	0x3c0f96d0	0.008763984
22	0xbd496981	-0.049172882
23	0xbf067813	-0.5252697
24	0x3f9de8ae	1.2336633
25	0xbf19773e	-0.59947574
26	0x3f673979	0.9032207
27	0xbf3f431b	-0.7471177
28	0xbd8bbeca	-0.068234995
29	0xbf803345	-1.0015646
30	0xbf55846f	-0.834052
31	0xbe503c6b	-0.20335548
32	0x3f18028c	0.59378886
33	0xc04419d8	-3.0640774
34	0xbf511ef8	-0.8168788
35	0x3f698c65	0.9122985
36	0xbf040c00	-0.5158081
37	0x3fe25378	1.7681723
38	0xbf181994	-0.5941403
39	0x3cbc9d29	0.023024159
40	0xbf9cbd06	-1.2245185
41	0xbf8b6b93	-1.0892204
42	0xbf0f84de	-0.56062114
43	0xbe830d56	-0.25596112
44	0x3f84c038	1.037116
45	0x3f9c9d67	1.2235535
46	0x3ecd4818	0.40094066
47	0xbfc8f16a	-1.5698674
48	0x3ef450bd	0.47717848
49	0xbebbddaa	-0.36692554
50	0x3e5ad5ea	0.21370664
51	0xbf01b0c1	-0.5066033
52	0xbe15e7c6	-0.14639196
53	0x3f9059c6	1.1277397
54	0x3fc6dcf0	1.5536175
55	0x3d9e5ddc	0.07732746
56	0xbf904934	-1.127234
57	0x3eac22c5	0.33620277
58	0x3ea590f5	0.32337156
59	0xc012436e	-2.2853656
60	0x3f0e6dc6	0.5563625
61	0x3f9cea87	1.2259072
62	0x3e5ba572	0.21449831
63	0xbe8648cd	-0.26227418
64	0xbf59c301	-0.8506318
65	0x3ed99e45	0.42503563
66	0x3e7445b6	0.23854718
67	0xbe0b27e5	-0.13589437
68	0xbe6919b9	-0.22763719
69	0xbda61161	-0.081087835
70	0xbf31ca64	-0.6944945
71	0x3f6fb316	0.9363264
72	0x3f326c57	0.69696563
73	0xc00ad0c6	-2.1689925
74	0x3fca4853	1.5803322
75	0x3f207ae8	0.6268754
76	0x3f20b59b	0.6277711
77	0xbf2d0ddf	-0.6759929
78	0x3f8f9fa3	1.1220592
79	0x3f297a2f	0.6620206
80	0x3f866767	1.0500306
81	0x3f3d8cf2	0.7404319
82	0x3f89313e	1.0718153
83	0x3de30514	0.11084953
84	0xbf7f3251	-0.9968615
85	0xbfb79f8a	-1.4345562
86	0x3f60f425	0.87872535
87	0xbd107d4c	-0.035275742
88	0x3ec19c01	0.37814334
89	0xbd2ce7ae	-0.042213134
90	0x3e93f76a	0.288997
91	0x3ea3d3b0	0.31997442
92	0x3e7abe3b	0.2448663
93	0x3f0c6779	0.54845387
94	0x3eebcd05	0.46054855
95	0x3fdfb17f	1.7476043
96	0x3fb1de9e	1.3896062
97	0xbef0f507	-0.4706194
98	0xbf31c567	-0.6944184
99	0x3fc45813	1.5339378
100	0xbf9599c6	-1.1687553
101	0xbf50992a	-0.8148371
102	0xbfbc523e	-1.4712598
103	0x3fbf1823	1.4929241
104	0x3f5394cc	0.8264892
105	0x3ed86f6b	0.42272505
106	0xbf85aa29	-1.0442554
107	0xbe8011a5	-0.25013462
108	0x3d0eccae	0.034863167
109	0xbf3c3a3f	-0.73526376
110	0xbf03e7d1	-0.515256
111	0x3f9c55e5	1.2213713
112	0x3ef41e35	0.47679296
113	0xbf966c59	-1.1751815
114	0xbfbff988	-1.4998026
115	0xbe87a425	-0.2649242
116	0x3f7d5644	0.98959756
117	0xbfa78da4	-1.30901
118	0x3f23db97	0.6400694
119	0x3eed2023	0.4631358
120	0x3ff57ee2	1.9179347
121	0x3e79e9d6	0.24405608
122	0x3f01b4ab	0.506663
123	0x3df34686	0.11878686
124	0x3f5f7a1d	0.87295705
125	0x3f9c68f2	1.2219527
126	0xbf06062b	-0.5235316
127	0x3f3368f8	0.70082045
128	0xbf2f7919	-0.68544155
129	0xbda4db11	-0.08049596
130	0xbf2c6c69	-0.6735292
131	0x3bf830c4	0.0075741727
132	0xbec8fae6	-0.3925392
133	0xbecdd089	-0.40198162
134	0xbde53d48	-0.11193329
135	0x3f30e268	0.6909547
136	0x3ff508bd	1.9143292
137	0xbf714f32	-0.9426147
138	0x3f1b77ee	0.60729873
139	0xbe8e4a23	-0.27790937
140	0x3f4393c7	0.76397365
141	0x3e2628da	0.16226521
142	0xbfbbb494	-1.4664483
143	0x3f27c908	0.65541124
144	0xbf0ea50d	-0.557206
145	0xbf635b0c	-0.888108
146	0xbeff7d5a	-0.49900323
147	0xbe116677	-0.14199243
148	0x3fb96567	1.448407
149	0xbf991d58	-1.196208
150	0x3efc6056	0.49292248
151	0x3f207003	0.62670916
152	0xbe06c8cd	-0.13162537
153	0xbf9499db	-1.1609453
154	0x3f946238	1.1592474
155	0x3e162096	0.14660868
156	0x3fbbf412	1.4683859
157	0x3f9fcc1d	1.2484165
158	0x3e13579e	0.14388892
159	0x3df909aa	0.121600464
160	0xbe53302f	-0.2062385
161	0xbf5f578f	-0.8724298
162	0x3fb7af1b	1.4350313
163	0xbfacba09	-1.3494273
164	0xbf46c987	-0.77651256
165	0x3f4c41c3	0.79787844
166	0xbf97da82	-1.1863558
167	0x3f84d07f	1.0376128
168	0xbe6683c7	-0.22511207
169	0xbf4f8080	-0.8105545
170	0x3f32d773	0.6986
171	0xbfeba8f1	-1.8410932
172	0x3f4dfdc3	0.80465335
173	0xbfd8abcb	-1.6927427
174	0xbf40da88	-0.7533345
175	0xbf846d50	-1.034586
176	0xbda29294	-0.07938114
177	0xbeae9970	-0.3410144
178	0xbf83361f	-1.0250891
179	0x3e13cdd4	0.14433986
180	0xbcd528f8	-0.026020512
181	0x3ceddf43	0.029037124
182	0xbe65e1c9	-0.22449411
183	0x3f2c3069	0.6726137
184	0xbf08029c	-0.5312898
185	0xbd23170d	-0.039816905
186	0x3f2dbe42	0.67868435
187	0xbccf5416	-0.02530865
188	0xbdc6122c	-0.09671435
189	0x3f526de1	0.8219891
190	0x3ebac7d1	0.36480573
191	0xbe2f9213	-0.17145567
192	0x3f96ca7e	1.1780546
193	0x3f8baad5	1.0911509
194	0xbe7a34a3	-0.24434142
195	0xc00770e4	-2.1162653
196	0xbf8dfc77	-1.1092671
197	0xbe193fc2	-0.14965728
198	0xbf3839ad	-0.71963006
199	0x3fc30ef0	1.5238934
200	0x3f4d0f32	0.8010131
201	0xbf26be84	-0.65134454
202	0xbf99d2d4	-1.2017465
203	0x3fbc09f7	1.4690541
204	0x3ec6c3c5	0.38821235
205	0xbed4d7a7	-0.4157078
206	0xbfe57f20	-1.792942
207	0x3f25fae4	0.64835954
208	0x3fbff442	1.4996417
209	0xbe108864	-0.14114529
210	0x3f145730	0.5794554
211	0xbf15013c	-0.5820501
212	0xbf97583d	-1.1823803
213	0x3e334413	0.17506437
214	0x3def2f29	0.11678917
215	0x3e857e0f	0.26072738
216	0x3e993a7a	0.29927427
217	0xbf7f7ee6	-0.99803007
218	0xc002c857	-2.0434778
219	0x3f5354bb	0.82551163
220	0xbe9968b3	-0.29962692
221	0x3f04653f	0.5171699
222	0xbf753ef4	-0.95799184
223	0xbf828972	-1.0198195
224	0x3edcf0a8	0.43152356
225	0x3f3b804e	0.7324265
226	0x3efc125f	0.49232766
227	0x3eb29770	0.34881163
228	0x3f003866	0.5008606
229	0xbce3cada	-0.027806688
230	0x3f85aac5	1.044274
231	0xbf550eb3	-0.83225554
232	0xbf6d79e0	-0.9276409
233	0xbf9b97d7	-1.2155713
234	0xbf0f0016	-0.55859506
235	0x3ec91e07	0.39280722
236	0xbf2d09d7	-0.6759314
237	0x3f71233d	0.94194394
238	0x3fcd5774	1.6042314
239	0xbfebbff2	-1.8417952
240	0xbf944f94	-1.1586785
241	0xbf19de05	-0.601044
242	0x3fa2a7ae	1.2707422
243	0xbf64a249	-0.8931013
244	0x3f19d646	0.6009258
245	0xbfed2412	-1.8526633
246	0xbf1adb2d	-0.60490686
247	0xbf978cb4	-1.1839814
248	0xbf0e49f6	-0.55581605
249	0xbda6decf	-0.08147966
250	0x3f20e046	0.62842214
251	0x3eb1ed75	0.34751478
252	0x3fb2ed6e	1.3978708
253	0xbba510c2	-0.005037398
254	0x3f972bb1	1.1810209
255	0xbfa41356	-1.2818401

bias f4 [256]
0	0xbed5bfa0	-0.4174776
1	0x3f1eb85f	0.6200008
2	0xbf37df38	-0.7182498
3	0x400c9eaf	2.1971853
4	0xbe987478	-0.2977636
5	0xc086ac8c	-4.208563
6	0x3ea18748	0.31548524
7	0xc041596e	-3.0210834
8	0xbb8ebbe7	-0.004355896
9	0x403344b8	2.8010693
10	0xbfe64c2f	-1.7991999
11	0xbeed7c84	-0.4638406
12	0x3c527472	0.012845146
13	0xbf8b7dc0	-1.0897751
14	0xbe1a80b0	-0.15088153
15	0xbef8e8d9	-0.4861515
16	0x3fa194b6	1.2623508
17	0xbf1115e7	-0.56674045
18	0x3ed11d2d	0.40842572
19	0xbee993ee	-0.45620674
20	0xc016f787	-2.3588579
21	0x3fadb3e7	1.3570527
22	0x3f5b1d36	0.8559145
23	0x3f22482a	0.63391364
24	0xbd19bc15	-0.037532885
25	0xbf12e93d	-0.57387143
26	0x3f1a7900	0.6034088
27	0xbe928648	-0.28618073
28	0xbe16fc12	-0.14744595
29	0x40082436	2.1272101
30	0x3f1f129c	0.6213777
31	0x3dd92bd8	0.10604066
32	0xbe1b5c28	-0.15171874
33	0x3f8ae52c	1.0851188
34	0xbf7931d7	-0.97341675
35	0x3e80e1d6	0.251723
36	0xbfba985d	-1.4577748
37	0xbf534160	-0.8252163
38	0xbf199194	-0.5998776
39	0x3f392282	0.7231828
40	0x3f629dde	0.88522136
41	0xc016ef9b	-2.3583744
42	0xbea9d69f	-0.33171555
43	0x3d3f29d0	0.046670735
44	0x3ee72b79	0.45150355
45	0x3f3285ae	0.6973523
46	0xc05a3b17	-3.4098566
47	0x3f73f624	0.95297456
48	0x3f3e1641	0.74252707
49	0xc01adca5	-2.419717
50	0xbfc833a9	-1.5640765
51	0x3f3de134	0.7417176
52	0xbf579d0b	-0.84224004
53	0x3d0817d3	0.033225846
54	0xbe40d6c5	-0.18831928
55	0x3ff8dda0	1.9442635
56	0xbf44fbf6	-0.7694696
57	0xbf9b2558	-1.2120771
58	0x3ec777d6	0.38958615
59	0x40134064	2.300805
60	0x3e301f59	0.17199458
61	0x3f085251	0.53250605
62	0x3ecee10c	0.40406072
63	0x3fb6b5ef	1.4274272
64	0x40531d0a	3.2986474
65	0xbe843be2	-0.25826937
66	0x405210ad	3.2822678
67	0x3f15d7c8	0.5853238
68	0xbfda0f03	-1.7035831
69	0xbcb4b849	-0.02206053
70	0xbec42cc7	-0.38315412
71	0xbfb6f457	-1.4293317
72	0xbf010097	-0.50391525
73	0x3d4c5f75	0.049895722
74	0x3f432274	0.76224446
75	0xbfa8d37f	-1.3189543
76	0xbe45cd6b	-0.19316642
77	0x3fbdc365	1.4825255
78	0x3ee7346f	0.4515719
79	0xbf808b5f	-1.0042533
80	0x3f225fb0	0.6342726
81	0xbce0d846	-0.027446877
82	0xbf1e0c16	-0.6173719
83	0x3e1246b5	0.14284785
84	0xbf1aa0cf	-0.60401624
85	0xbf5bb25d	-0.85819036
86	0xbdb20c63	-0.08693769
87	0x3f906bf4	1.1282945
88	0x3e314e08	0.17314923
89	0x3e8e8880	0.27838516
90	0x3f1379ad	0.5760754
91	0xbc8490d6	-0.016182344
92	0xbc9955ad	-0.018717611
93	0xbf8f78a5	-1.1208693
94	0xbf45f786	-0.77330816
95	0x3f29e451	0.6636401
96	0x3fdea0c8	1.7392817
97	0xbf4a37f5	-0.78991634
98	0xbf8f8742	-1.1213152
99	0xc0399cd1	-2.9001963
100	0xbf947bfa	-1.1600335
101	0xbed37f3b	-0.41308007
102	0x4082dd8c	4.0895443
103	0x3dc913a4	0.09818199
104	0x3e987f9f	0.29784867
105	0xbf7a5464	-0.9778502
106	0x3e565d6b	0.20934074
107	0x3fb066a3	1.3781322
108	0xbf865754	-1.04954
109	0xbf4b2012	-0.7934581
110	0xbf5368ba	-0.82581675
111	0xbf796b75	-0.9742959
112	0xc0076d15	-2.1160328
113	0x4004c1bb	2.0743244
114	0x3d5b18fd	0.053490628
115	0xbeea4bbd	-0.4576091
116	0xbf6ca77e	-0.9244307
117	0xbf873800	-1.0563965
118	0x3e0a04b3	0.13478355
119	0x3f107db4	0.5644181
120	0x3fbe6529	1.4874622
121	0x3f29602c	0.6616237
122	0x3edcdffa	0.4313963
123	0x3e4f1d8d	0.20226116
124	0xbf238107	-0.63868755
125	0xbf08ecca	-0.5348631
126	0x3f89dcbc	1.0770488
127	0x3f98a1f1	1.192442
128	0x3f3da65a	0.7408196
129	0x3ea2aaba	0.3177088
130	0xbd8ed161	-0.069735296
131	0x3f135634	0.5755341
132	0xbec305ec	-0.38090456
133	0xbf3a213b	-0.72706956
134	0x3da2799e	0.07933353
135	0xbee6f4a5	-0.45108524
136	0x3e8899dc	0.26679885
137	0x3e605627	0.21907865
138	0x3eedb001	0.46423343
139	0xbf01c452	-0.50690186
140	0x3f4483dc	0.767637
141	0xbf9b3dd3	-1.2128242
142	0x3f2ec03b	0.6826207
143	0x3f555533	0.8333313
144	0xbff780dc	-1.93362
145	0x3dfa9aff	0.122365944
146	0xbf277589	-0.6541372
147	0xbf0e6fc6	-0.556393
148	0x3dbb6728	0.09150535
149	0x3edd0dc4	0.43174565
150	0xbfa1f122	-1.2651713
151	0xbff2e167	-1.8975037
152	0xbfacea80	-1.3509064
153	0xbf05bd76	-0.5224222
154	0xbff28ea5	-1.8949782
155	0xbd88a358	-0.0667178
156	0xc08e2d4f	-4.443031
157	0x3f1921ae	0.59817016
158	0x3f8eccce	1.1156251
159	0xbf1530c5	-0.5827754
160	0xbe427bac	-0.1899249
161	0x3f06da0b	0.5267646
162	0xbeb8fb55	-0.3612925
163	0xc087957b	-4.236997
164	0xbf239511	-0.6389933
165	0xbf0746c1	-0.52842337
166	0xbf3b1d52	-0.73091614
167	0x3fb20a34	1.3909364
168	0x3f1ece5c	0.6203363
169	0xbfc0c37c	-1.5059657
170	0x3d0f7c96	0.035030924
171	0x3f10b6ab	0.5652873
172	0xbd068b3e	-0.032847635
173	0xbf6289a6	-0.88491285
174	0x4088d25b	4.275678
175	0x3fa9c937	1.3264531
176	0x40074087	2.1133134
177	0x3f9fef70	1.2494946
178	0xbfa3b4ff	-1.2789611
179	0xbf9eb97b	-1.2400354
180	0x3e6d28a4	0.23160034
181	0x3da3b672	0.07993783
182	0x3f15a8a0	0.58460426
183	0x3da8938c	0.08231267
184	0x3fb95523	1.4479107
185	0x4066bd2d	3.6052964
186	0x3f6b2505	0.9185336
187	0xbf0d54c6	-0.5520748
188	0xbf858f15	-1.043429
189	0xbe79b50f	-0.24385475
190	0xbe25ae11	-0.16179682
191	0xbfa06a2d	-1.2532402
192	0xbf1d3fd3	-0.61425513
193	0x3ed97bd0	0.42477274
194	0xbeeebb74	-0.4662739
195	0xbf0461c0	-0.51711655
196	0x3eeb7750	0.45989466
197	0x3c51719c	0.012783434
198	0xbcca1824	-0.024669714
199	0xbebf130f	-0.37319228
200	0xc04559c1	-3.0836031
201	0xc009a6cb	-2.1508052
202	0x3dd61e84	0.10455039
203	0x4065ebe2	3.5925221
204	0x3f01549c	0.5051973
205	0xbe0d0bfb	-0.13774101
206	0xbe5ae91a	-0.21377984
207	0xbefc54ab	-0.49283347
208	0xbfa60291	-1.2969533
209	0xbfeafca2	-1.8358347
210	0xbd64b5e5	-0.05583753
211	0xc04030ae	-3.0029712
212	0xbef1e5e6	-0.4724571
213	0x3f06487b	0.52454346
214	0xbfa56eb3	-1.2924408
215	0xc006a299	-2.1036742
216	0xbfe22368	-1.7667055
217	0xbe05e732	-0.13076475
218	0xbf0c1b88	-0.5472951
219	0x3fbebc56	1.4901226
220	0xbf935f18	-1.1513395
221	0x3e106745	0.14101894
222	0xbebba1f6	-0.36647004
223	0xc02e9ef6	-2.7284522
224	0x3f24fa43	0.6444437
225	0xbe6f1381	-0.23347284
226	0x3f1a10f7	0.60182136
227	0x3e1c071b	0.15237086
228	0x3dd15512	0.10221304
229	0x3f0a06f0	0.53916836
230	0x3ec35c95	0.38156572
231	0x3f0ec77b	0.55773133
232	0x3fa09012	1.2543967
233	0xbe771bc6	-0.24131688
234	0x401b647f	2.4280088
235	0x3f4717b7	0.7777056
236	0xbeb700d0	-0.35742807
237	0x3fdd049e	1.7267034
238	0x3f4ef605	0.80844146
239	0x3f56d381	0.8391648
240	0xbee3357e	-0.4437675
241	0xbd053674	-0.032522634
242	0x3f5d5867	0.86463016
243	0x3e0c3615	0.13692506
244	0x3f6e9475	0.9319528
245	0xbfcc0a5f	-1.5940665
246	0x3ed6d8e4	0.4196235
247	0x3f3a0832	0.72668755
248	0xbf5f46fc	-0.8721769
249	0xbf6f053c	-0.9336736
250	0xbfaf7039	-1.3706123
251	0x3fd04e9a	1.6273987
252	0x3cf02b97	0.02931766
253	0x3e7dbffe	0.2478027
254	0xc048438a	-3.1291223
255	0xbf8dab87	-1.1067971

weight f4 [64, 256]
0	0x3c31b479	0.010846251
1	0x3c65dfad	0.014030379
2	0x3d1f9b99	0.03896675
3	0x3b75dd1f	0.0037515832
4	0x3dbcd5cd	0.09220467
5	0x3c72bce6	0.014815545
6	0xbc9977d4	-0.018733896
7	0x3da247b6	0.07923834
8	0x3d60fbb0	0.054927528
9	0xbe1311df	-0.14362286
10	0x3d4f34a0	0.050587296
11	0xbdb8eec1	-0.09029914
12	0xbe08360b	-0.13301866
13	0x3d92ba69	0.07164461
14	0x3ded3527	0.11582404
15	0x3d7379f0	0.05944246
16	0x3ceee76e	0.029163089
17	0x3d5c9fff	0.05386352
18	0xbdf0d186	-0.117587134
19	0x3c0fccb0	0.008776829
20	0xbd060405	-0.032718677
21	0xbe13e06e	-0.14441082
22	0xbdd398c3	-0.10331871
23	0xbcb5ffb3	-0.022216653
24	0xbd18a391	-0.037265364
25	0xbdfdbc71	-0.12389458
26	0xbcf02735	-0.02931557
27	0xbb41a51a	-0.002954787
28	0x3dc4ed31	0.09615553
29	0xbd3abb6b	-0.045588892
30	0x3e0f550c	0.13997287
31	0x3d1a004c	0.03759794
32	0xbda379b3	-0.07982197
33	0xbda21666	-0.079144284
34	0x3de8f096	0.11374013
35	0x3cd918af	0.026501028
36	0xbc8d6990	-0.01726225
37	0x3d8c6c98	0.0685665
38	0x3da5f73a	0.08103795
39	0x3df07d33	0.1174263
40	0x3dbf0dc8	0.093288004
41	0x3db7ea8c	0.08980283
42	0x3de7f0d3	0.113252304
43	0xbda1305e	-0.078705534
44	0x3a9f8ab8	0.0012172079
45	0x3d05394b	0.032525342
46	0x3dcc018e	0.09961234
47	0x3da85d7d	0.082209565
48	0x3d0f48d1	0.034981553
49	0x3e1b211f	0.15149353
50	0x3dc06999	0.09395141
51	0xbe01f33b	-0.12690441
52	0x3cbe3642	0.023219232
53	0xbe41bc2d	-0.1891944
54	0x3cdf30ea	0.027245004
55	0x3d1e8eca	0.038710393
56	0x3d8cad66	0.068690106
57	0xbdbc685e	-0.09199594
58	0x3cc34351	0.02383581
59	0xbd89bab5	-0.06725065
60	0x3d458010	0.048217833
61	0xb9c61a4b	-0.00037785093
62	0x3dd5b244	0.10434392
63	0xbc4d9e17	-0.012549899
64	0xbdf51817	-0.119674854
65	0xbcf02582	-0.02931476
66	0xbe15cf07	-0.14629756
67	0x3d2ff2d0	0.042956173
68	0xbe21ae38	-0.15789115
69	0xbe1d4ab9	-0.15360536
70	0xbdbdb7d3	-0.09263577
71	0x3cf0ec19	0.029409455
72	0x3ce55f20	0.02799946
73	0x3d40bf7a	0.047057606
74	0x3bd783b1	0.006576978
75	0x3c226ee1	0.009914131
76	0x3ca022ce	0.019547846
77	0x3c9f845e	0.019472297
78	0xbd5b0299	-0.053469274
79	0xbcafb74c	-0.021449707
80	0x3d0062bd	0.031344164
81	0x3d84298f	0.06453239
82	0xbc73a242	-0.014870228
83	0xbe25b428	-0.16182005
84	0xbbe350a6	-0.0069371043
85	0x3d38446c	0.044987127
86	0x3d601f2c	0.054717228
87	0x3e2ea398	0.17054594
88	0xbcedfff1	-0.029052706
89	0xbd0b5a91	-0.034021918
90	0xbcd98b8e	-0.026555803
91	0xbd7fba8b	-0.06243376
92	0x3e097a93	0.13425665
93	0xb98a65a0	-0.00026397128
94	0xbcc3b38f	-0.023889331
95	0xbdbf8271	-0.093510516
96	0xbd51432a	-0.051089443
97	0x3e3a6ffb	0.1820678
98	0xbdcea606	-0.1009026
99	0x3db4d472	0.08829583
100	0xbc9be03f	-0.019027827
101	0xbd40a7e3	-0.04703511
102	0xbe23fed9	-0.16015185
103	0x3d3613c2	0.044452436
104	0xbc27329c	-0.010204937
105	0xbd51d9f0	-0.051233232
106	0x3accea98	0.0015633879
107	0xbd53f05f	-0.051742908
108	0xbe3a887e	-0.1821613
109	0xbe05bc8e	-0.13060209
110	0xbd4f68a2	-0.050636895
111	0xbd413227	-0.04716697
112	0xbd068c0a	-0.032848395
113	0xba1120d4	-0.0005536203
114	0xbb9e1092	-0.0048237527
115	0x3da47ee9	0.08032019
116	0xbdd116f3	-0.10209455
117	0xbc333620	-0.010938197
118	0x3c165088	0.009174474
119	0xbd6162d1	-0.05502588
120	0x3d466d62	0.04844416
121	0x3c2e83fd	0.010651586
122	0x3daecf25	0.085356034
123	0xbdbcbab2	-0.09215297
124	0x3cffd57c	0.031229727
125	0x3de1e7ce	0.11030541
126	0xbc9f6779	-0.01945852
127	0xbb9e5869	-0.0048323167
128	0xbce46497	-0.027879996
129	0x3c4112d6	0.011784276
130	0x3d874004	0.06604007
131	0xbdae31d9	-0.085056014
132	0xbbfc0c47	-0.0076918933
133	0x3d92cf77	0.07168477
134	0x3c6be31e	0.014397411
135	0x3e0314fb	0.12800972
136	0xbcc566aa	-0.024096806
137	0xbd9da3a8	-0.076972306
138	0xbec0c39d	-0.3764924
139	0xbcd34194	-0.025788106
140	0xbd00b9d6	-0.031427227
141	0xbd9a2626	-0.075268075
142	0x3d358ef9	0.044325802
143	0x3e0c038c	0.13673228
144	0xbcbd0c97	-0.023077292
145	0x3cc3e08c	0.023910783
146	0x3d341ab2	0.04397077
147	0xbb9e0a92	-0.0048230374
148	0x3e0b1481	0.1358204
149	0x3d3d7d66	0.046262167
150	0xbcc439ba	-0.023953307
151	0x3e0ccfa6	0.13751087
152	0xbcc1d37f	-0.02366042
153	0xbcc88935	-0.024479488
154	0x3cd0e041	0.025497558
155	0x3d5f843c	0.054569468
156	0x3e4a4159	0.1975149
157	0xbde517f2	-0.11186208
158	0xbe0adef5	-0.13561614
159	0x3daca949	0.08430726
160	0xbc851266	-0.016244125
161	0x3ba57833	0.0050497293
162	0x3d7d6302	0.061862
163	0x3e21c39b	0.15797274
164	0x3d8bf409	0.068336554
165	0x3d9877da	0.07444735
166	0xbdbe22c3	-0.09283974
167	0x3bef186f	0.007296614
168	0xbca461c8	-0.020066157
169	0x3d98edf1	0.07467259
170	0xbc5e1bdd	-0.013556448
171	0x3bb9099d	0.005646898
172	0x3bc0c370	0.005882673
173	0x3e2661ed	0.16248293
174	0xbd2c6157	-0.042085018
175	0x3d5a0809	0.05323032
176	0xbccff62a	-0.025385935
177	0x3d5bdaf6	0.053675614
178	0x3d073f29	0.03301922
179	0xbab3c7e3	-0.0013716187
180	0xbdb61bf6	-0.08892052
181	0xbd4d5f39	-0.05013964
182	0xbdedf794	-0.116194874
183	0x3be25b90	0.0069078878
184	0x3d848a01	0.06471635
185	0x3c4150d6	0.011799058
186	0xbc7b9520	-0.015355378
187	0xbd773627	-0.060354378
188	0xbd870ba1	-0.06594015
189	0xbc436307	-0.011925465
190	0xba304d10	-0.00067253504
191	0xbdfaf0d7	-0.12252968
192	0x3daaf83c	0.08348128
193	0x3ce590d3	0.02802316
194	0x3db1438a	0.0865546
195	0xbdf27130	-0.11837995
196	0x3d249748	0.040183336
197	0x3d91e9f2	0.071247
198	0x3b6fd220	0.003659375
199	0xbc10197f	-0.008795141
200	0x3d8f83b4	0.07007542
201	0x3d6c07bc	0.057624564
202	0xbdbc2be8	-0.09188062
203	0xba87be33	-0.0010356366
204	0xbd349936	-0.044091426
205	0xbe106bce	-0.14103624
206	0x3e79e746	0.2440463
207	0x3d8e9afd	0.069631554
208	0xbd3ba190	-0.045808375
209	0x3d28bb06	0.041193984
210	0x3cd94dd7	0.026526375
211	0x3d992ed3	0.07479634
212	0xbd329c86	-0.043606304
213	0xbe197304	-0.14985281
214	0x3ce00d9e	0.027350243
215	0x3be0c9ae	0.0068599796
216	0x3dadfbb4	0.08495274
217	0xbd9610ac	-0.07327399
218	0xbd6251ee	-0.055253915
219	0xbdb7761b	-0.08958074
220	0x3cb330c1	0.021873834
221	0xbd78a051	-0.060699765
222	0xbdd6467d	-0.10462663
223	0x3e3c3ded	0.18382998
224	0xbd49328e	-0.04912048
225	0x3d3bacb8	0.045819014
226	0xbd2905e8	-0.0412654
227	0xbd3a320c	-0.045457885
228	0x3d0c6c74	0.034283116
229	0xbd68a727	-0.056800034
230	0xbde22510	-0.11042225
231	0xbdb0a5dc	-0.08625385
232	0x3dd83563	0.10557058
233	0x3db1a2dc	0.08673641
234	0xbd45faad	-0.048334766
235	0xbdb61210	-0.08890164
236	0xbcd52069	-0.02601643
237	0xbcf549e6	-0.029942464
238	0x3c17b17d	0.009258625
239	0xbd4c15f0	-0.04982561
240	0x3d19a7c3	0.037513506
241	0x3d0687f1	0.032844488
242	0x3dbc7b61	0.0920322
243	0x3e12d9d9	0.14340915
244	0xbdb75120	-0.0895102
245	0xbd5c7cf3	-0.0538301
246	0xbc891cd7	-0.016737385
247	0xbc54bc7e	-0.012984393
248	0xbcc4765b	-0.023982218
249	0x3d256914	0.040383413
250	0x3b74b233	0.003733766
251	0xbd79c1b2	-0.060975738
252	0x3df68c04	0.120384246
253	0x3d3665aa	0.04453055
254	0x3e216da4	0.15764481
255	0xbcd0e1c0	-0.025498271

bias f4 [64]
0	0x400b96f7	2.1810892
1	0x402bb784	2.683076
2	0x3fb2e626	1.3976486
3	0x3f83e749	1.0304958
4	0x3f6f0207	0.9336247
5	0x3fa85e76	1.3153827
6	0x40219bb3	2.5251281
7	0x40027032	2.0380979
8	0x402715d9	2.6107085
9	0x404de873	3.2173126
10	0x3ee7c721	0.4526911
11	0xbef0b536	-0.47013253
12	0xbe9b5528	-0.30338407
13	0x3f366713	0.7125103
14	0x405b0c55	3.4226277
15	0x402a5f50	2.6620674
16	0x3f9c8484	1.222794
17	0x3e948993	0.2901121
18	0xc04bed9e	-3.186378
19	0xc0889ddc	-4.26927
20	0xc08d3a41	-4.413361
21	0xbfedac14	-1.8568139
22	0x3f1ff1a5	0.62478095
23	0x3fa0b3c3	1.2554859
24	0x3f6ca134	0.92433476
25	0xbf3444ff	-0.7041778
26	0xc09c0c80	-4.876526
27	0xc0b51705	-5.65906
28	0xc0b421cf	-5.629127
29	0xc0a155f3	-5.041742
30	0xbf193a25	-0.59854347
31	0x3f547a94	0.8299954
32	0x3f448371	0.76763064
33	0xbf21305a	-0.62964404
34	0xc090a8a2	-4.520585
35	0xc0b30261	-5.5940404
36	0xc0b58d79	-5.6735196
37	0xc0a13a8d	-5.0383973
38	0xbf738d86	-0.9513782
39	0x3f814f63	1.0102352
40	0x3f824e69	1.0180179
41	0x3e1bacb5	0.15202601
42	0xc01765d4	-2.36559
43	0xc0a79edb	-5.2381415
44	0xc09f4bff	-4.978027
45	0xc05b1c2a	-3.423594
46	0x3d544c47	0.051830556
47	0x3f9296d0	1.1452274
48	0x402373f7	2.553953
49	0x40486c06	3.1315932
50	0x3e59ff3e	0.21288773
51	0xbf541342	-0.82841885
52	0xbf7285bb	-0.94735307
53	0x3e0e88a9	0.13919319
54	0x404f764e	3.2415957
55	0x4021a595	2.5257313
56	0x401320c3	2.2988746
57	0x40214e65	2.5204098
58	0x3f6aaedb	0.9167306
59	0x3f284a19	0.65738064
60	0x3f32b890	0.6981287
61	0x3f6e3ca8	0.93061304
62	0x401f28b8	2.4868603
63	0x4010f7ed	2.2651322
