TP/save_models_LSTMHiddenState_Dropout_Tanh_Softmax_64/model_3.pt (torch, 170273 bytes, 6 tensors)

weight_ih_l0 f4 [256, 64]
00000000: 6882 293e c5dd 983b 282c 79be 4083 1c3e
00000010: 436b c8bd 6cf7 8d3d c79e 5f3c 6689 eb3d
00000020: 81d3 76bd 4bbd 8b3d 75bd 8fbe 5cf1 b03b
00000030: e342 7dbe eaaa 50bd bc83 28be 45ff 543e
00000040: 9c9d 253d c307 9abe 38cf a5be 76c0 f33d
00000050: ce84 9d3e dd50 8b3e 6086 9e3d b420 f03b
00000060: 059b 8cbd 0903 e1be 189f 1ebe 8c90 0d3e
00000070: 9a92 753e 6814 083f cc0f 26bd e5ea 26be
00000080: 1c1b 4f3e 5f16 47bf 5fa8 eebd 1438 87be
00000090: fbbb 0e3e 7ebb cdbd fc74 783d b1d1 22be
000000a0: 2851 aebd f43d 7d3d dc39 503e 9ea7 893d
000000b0: 0b94 b2bd bf60 3fbd f86c b03e 1cf6 903c
000000c0: 3536 813e 1112 413d a19a a23d 9200 91be
000000d0: 88bd 073d 0045 e6be 707f 15bf 06be df3d
000000e0: c05f 26bf 3e0a 35bd 8277 d2be 324f b4bd
000000f0: 1f17 cabd 6481 4dbe 33ae 9abd e6fa 633b
00000100: ab54 7b3e 530e 93be e9bf f4bd 375e 4dbe
00000110: 8476 febd 42a5 87bd 9deb 66be 9c69 b63d
00000120: 73ae 03be 8702 f5bc 1f91 43be ec95 83be
00000130: 7313 91bd 53c7 0d3e f8d3 1f3e e547 293e
00000140: 2f3b 0cbe cfc8 f9be 701a 803d 5087 29be
00000150: f7f6 81be c612 c23c 7c9f aebe ef83 373e
00000160: 9182 7abe 6488 213e af0a 91be 986d c0be
00000170: 0aba 7c3e 3415 62bd 65aa d63b 7a5d 443e
00000180: 5808 013f a3f2 8b3d 84a8 1a3f 50b3 033f
00000190: ce45 a0be c2f6 3a3d 87d6 8fbe d9cd a53e
000001a0: 2b5c 0fbe 3276 c23e c2de 4abe 41d8 b1bd
000001b0: a5c1 85bd 6e53 81bc d748 07bf 0ce1 27bc
000001c0: cf87 92be 1e83 f03d bfd2 8a3e 4898 bfbd
000001d0: b4c1 593e 93ee 1dbd ca5a 1cbf e256 523e
000001e0: 90c0 3a3f b3dc 8f3e cb49 bdbd f63e 89bd
000001f0: c490 9aba 0b99 0d3e fac4 68bd 6b1e 773d
00000200: 7995 f03e 77af f33e f353 683e ec12 ae3e
00000210: cf58 683e 32f1 23bd ee7c 583e ce46 393f
00000220: fd75 c73e efb9 813e 0d88 783d 878f e7bd
00000230: a42d bf3e c965 2abe 46cb 30bd 9c25 133e
00000240: 31c1 6c3e d7a5 2d3c 2281 673e c3ff ba3e
00000250: 3f02 5abe dd18 d03d c979 1bbe 70d8 173e
00000260: 1fdb a63e f310 f9be dce0 3cbe d579 813a
00000270: 5a24 3d3e c82e 1f3d 1b01 2bbe e5d4 a13e
00000280: 2f96 6f3e 0720 25bd 019c b13d a594 b83e
00000290: ed42 983e d409 763e 22b2 03bf 0a86 bd3e
000002a0: f3b4 fd3e 4c79 a63e fe49 523e 3566 673e
000002b0: 4ddb c2bd 12a2 7dbe c3cf 203e 5670 043f
000002c0: 3e9a 5f3f 0525 f3be 0567 65bd 2066 5abe
000002d0: 06cc 21be 8030 633e d125 503e a076 723e
000002e0: 73c0 dfbe 5dbc 02bf 39df 32be 7ee9 18bd
000002f0: e930 183c f315 ecbb 3165 e1bb 9a13 b13c
00000300: 0b61 30be 4ad1 803e fac6 743e ab60 62be
00000310: 4332 aabd 4383 583e e382 bf3d 6920 d4bd
00000320: b8fe fdbd 4a46 9cbc b499 9e3d c0ae 163e
00000330: 230b 1bbe 7007 f53d 5488 1cbe 42fb a63e
00000340: 73f9 5bbe 2a88 7c3e 0808 d63d a033 883d
00000350: 78ee 523e bd6d 51bc ef2d c3bd ce8f c53d
00000360: 5e71 a6be 952b cabd 9edc a43d 39dc 1ebe
00000370: a3c0 643d b89a 3ebc 25e1 943e 5f6e c1bd
00000380: 450c 26be 9cdf 77be 60a0 0b3d d4bb ab3e
00000390: adde 753d 62f5 dcbe a41b debe 12c4 c0be
000003a0: 2f52 a8be ef4f f2be b529 303e eda0 34be
000003b0: bd6c d5be 336a 853e a5d2 a1bd f1d3 23be
000003c0: 48a3 8abe 8ead 0a3f 0896 773d 0d79 bdbd
000003d0: e16a d53e a601 1a3f 47b7 533f 9501 633e
000003e0: 7f3b 473f 4d99 7bbe 620c 46be a7eb 123e
000003f0: 81f2 1c3e 5e07 e03b fe82 2ebe 06b2 44be
0.16553652 0.004665109 -0.2433325 0.15284443 -0.097860835 0.069319576 0.013648695 0.11500816
-0.0602603 0.06823214 -0.28074232 0.005399866 -0.24732547 -0.050944246 -0.16456503 0.20800503
0.04043351 -0.30084047 -0.32384658 0.119019434 0.30765384 0.2721013 0.07740474 0.0073281173
-0.06865505 -0.43947628 -0.15490377 0.13824672 0.23981705 0.5315614 -0.04054241 -0.16300543
0.20225185 -0.7776851 -0.11653208 -0.26409972 0.13938896 -0.10045527 0.06065844 -0.15900303
-0.08511573 0.06182666 0.20334572 0.067214236 -0.08719643 -0.046723124 0.34458137 0.01769548
0.2523667 0.04713637 0.079396494 -0.28320748 0.033139735 -0.44974518 -0.5839758 0.10924916
-0.6498985 -0.04419922 -0.41106802 -0.08804168 -0.09867691 -0.2006889 -0.07552757 0.0034786998
0.24544017 -0.28721866 -0.119506665 -0.20055471 -0.12424949 -0.06623317 -0.22550817 0.08906862
-0.12859516 -0.029908432 -0.19098328 -0.2570032 -0.07083788 0.13845567 0.15608203 0.16531332
-0.13694452 -0.48786017 0.062550426 -0.16555524 -0.25383732 0.023690592 -0.34106052 0.17921422
-0.2446387 0.15774685 -0.28328463 -0.37583613 0.24680343 -0.055196002 0.0065510743 0.19176283
0.50403357 0.06833389 0.60413384 0.51445484 -0.31303257 0.045645483 -0.2809336 0.32383612
-0.14000003 0.379808 -0.19811538 -0.08683825 -0.065310754 -0.015786853 -0.5284552 -0.010246526
-0.2861924 0.117437586 0.27113912 -0.09355217 0.21265298 -0.0385576 -0.61076033 0.20540956
0.7295008 0.28098068 -0.092425905 -0.06701462 -0.0011792411 0.13827913 -0.056828476 0.060331743
0.4698904 0.47594807 0.22688274 0.3399881 0.22690128 -0.040024944 0.21141407 0.72373664
0.38957205 0.2533717 0.060676623 -0.113066725 0.3733951 -0.1664039 -0.043162607 0.14369816
0.23120572 0.010598621 0.22607854 0.36523256 -0.2128992 0.10160992 -0.15183176 0.14828658
0.3258905 -0.48645744 -0.18445152 0.0009878228 0.18470898 0.038862973 -0.1669964 0.31607738
0.23397134 -0.040313747 0.086723335 0.36050907 0.2973856 0.24027187 -0.51443684 0.37016326
0.49552116 0.32514417 0.20536038 0.22597583 -0.095144846 -0.24768856 0.15704255 0.5173391
0.8734473 -0.4748918 -0.05600645 -0.2132802 -0.15800485 0.2218647 0.20326926 0.23678064
-0.43701515 -0.5106867 -0.17467965 -0.03733205 0.009289005 -0.007204765 -0.006878518 0.021615792
-0.17224519 0.25159675 0.23904029 -0.22107188 -0.08310368 0.21143822 0.093511365 -0.10357744
-0.12402099 -0.019076485 0.0774416 0.147151 -0.15140967 0.11964309 -0.1528638 0.3261357
-0.21481876 0.24661317 0.104507506 0.06650472 0.20598781 -0.012782511 -0.095302455 0.09646569
-0.32508367 -0.09871594 0.08049892 -0.15513696 0.055847775 -0.0116335675 0.29078022 -0.0944488
-0.16215618 -0.24206394 0.034088492 0.3354174 0.060026813 -0.43155962 -0.43380463 -0.3764959
-0.328752 -0.4732661 0.1720341 -0.17639513 -0.41684523 0.26057586 -0.079015054 -0.15998818
-0.270777 0.54171073 0.060445815 -0.09251604 0.41683105 0.60158765 0.82701534 0.22168572
0.7782516 -0.24570198 -0.19340661 0.14347707 0.15326883 0.0068368157 -0.17042157 -0.19208536

weight_hh_l0 f4 [256, 64]
00000000: e542 7d3d f94a 27bd f162 30bd 59f6 843e
00000010: 8101 833d 252c e73e cc85 7e3d 9faa c93d
00000020: 016d afbe 13c0 dfbd 7c74 82be dc54 e2bd
00000030: b6af 2c3f 3257 2a3e 6549 96be 77fd b6be
00000040: 61cf b63e 6d27 cdbd d935 2ebf e534 00be
00000050: 86af f9be 3f05 a5be f6a3 ae3e fd15 6e3e
00000060: eae8 b4bc e462 c23c d6ca 03bd 0b3f c1be
00000070: 9736 803e af55 88bc 1acd 91be 82e1 acbe
00000080: 985c 353d d311 c83d 95bf ecbe d26b 323e
00000090: 1088 33bd 8f42 f5be 24b2 a13e 3396 593c
000000a0: 4815 08be 67c1 edbd 0089 2c3e e1ad 4fbe
000000b0: e46f 013f cc86 dfbd c351 a33e 0ab5 233e
000000c0: d9d2 d7be c4c6 a1be 0d0f 08bf 0778 973c
000000d0: 5d2a 73be 105a d6be 0c43 98be 2f9d 883e
000000e0: a077 023f 0f56 aa3e 5347 813e d5f6 af3e
000000f0: 2d66 dbbe 5e02 1f3d f5c9 94be 1ebc 433e
00000100: 48f5 d63d 3880 7d3d 776c 0dbe 5cd5 8f3e
00000110: 38c4 9f3e 5a68 2e3e 4dba 65bd 9f09 c83e
00000120: b0a5 18bd b774 ad3d 894e bc3e 1b04 0d3e
00000130: e71c d93e 1ddc 653e e094 363e 175e b7bd
00000140: 21e2 f13d cc07 9abd 9bc2 e7bb dbf0 0b3e
00000150: cd36 b9be e229 0dbe 28df 4ebe 8626 0d3f
00000160: b11e 573b 6142 d33e 412c 5a3e 5331 3bbe
00000170: 6b3f 8cbd 28c2 25bf 436e 263b c325 99bd
00000180: 615c 583e 87ba d73e aae3 62be 18fe d2be
00000190: 1a6e 023e 4660 3f3e d001 c13e 5563 4ebe
000001a0: 539a e7be e3cb aa3d 20b4 603e 0b97 33bf
000001b0: 5555 cfbd b9b7 2f3c b9c5 263e 8c05 5fbe
000001c0: bad9 03be d2d4 003d a422 423e db78 303f
000001d0: 5cca 34be 75d3 d23e d40a 97be 8b3c 973b
000001e0: 4491 f73e 5b8c 493e d401 ec3e 9faa d83e
000001f0: dee7 38bd 9d78 333e 8efe 033d 94d3 183d
00000200: a77a 0c3f 6399 7cbd 577c bbbc 1785 37bd
00000210: d803 64be 9dff ef3e f331 ebbd ecdf e5bd
00000220: 3f47 31be 7c14 ee3d 8f99 14be 6408 0a3e
00000230: 441e a93e 6cec 353e 525b f73d 2bc0 503e
00000240: 83ce 8ebe ae1e d6bd c4c8 95be df8b 1b3e
00000250: 3a84 d2be 6f20 fbbd 9376 23bd f6e0 813d
00000260: b1e4 ca3c 3179 423e 2ba1 b5be 491b 81be
00000270: ae20 833a 6286 873d c830 d4bc 3717 81be
00000280: df38 023e 2c58 2a3e b192 a73e 05b4 d53e
00000290: 9fe2 b1be 5ee1 a13e cecf c53d dd95 a13d
000002a0: a81f ccbd 8328 3dbd a9db 3d3e 947f db3c
000002b0: d599 f23e 4116 97be 4ef6 22be 3c1a bcbe
000002c0: 3bab b8be 38c8 ffbc ff77 82bd 8ae1 fa3c
000002d0: 2097 efbe a9e9 413e 451f 88be cf8e 0d3d
000002e0: 4b94 833e ffa3 9abd 04d8 c73e b39d bc3d
000002f0: a28e a2be 2d77 413f e1aa 17be a2db ef3d
00000300: c46f 273e b5e3 50be cc1c b5bd 897a 373e
00000310: fe02 c23e 19eb aa3e 324a 663c facd c5bd
00000320: 8710 bcbc 0d4e 043e cd49 553e 61d2 ffbd
00000330: e63d d4bd b46a 1a3d 1087 46be 0bc9 12bd
00000340: 329f 4a3e 292c fb3e 8177 32bd 8123 9fbe
00000350: 1193 e4bd d569 8abe 0df4 d6bd 733b 163f
00000360: eb12 35be 3c00 be3d 0d4f 6f3e 28fa 4abf
00000370: a674 80be 98c9 0ebf e281 4ebf cd55 4b3d
00000380: 21ec c03e 01a5 dbbe f066 d4bd e0cb 69be
00000390: 7795 af3e 73f6 32bf 2519 bd3d 8439 163f
000003a0: 5c34 903e 136b f8bd 55eb 483d b389 1dbf
000003b0: 1f5f 2bbd e598 383e 7965 ea3e f914 68bd
000003c0: f7d5 dabd 44e0 3dbe 0b80 a63d ffe2 abbe
000003d0: b166 dc3d 9322 babe c9e2 cdbe 3d57 373d
000003e0: 9b3b de3e 9ad5 9d3e 447b 503e d613 ca3d
000003f0: eee8 08bf 1351 423e d334 07be 4801 013f
0.061831374 -0.040842984 -0.043063108 0.25969198 0.06396771 0.45150867 0.062139317 0.098469965
-0.3426285 -0.10925307 -0.25479496 -0.11051342 0.67455614 0.16634825 -0.2935287 -0.35740253
0.35705093 -0.100172855 -0.68050915 -0.12520178 -0.48766726 -0.32230565 0.34109467 0.23250575
-0.022083718 0.023728795 -0.03217586 -0.3774341 0.2504165 -0.01664242 -0.28476793 -0.337658
0.044277757 0.09769025 -0.46239915 0.17423943 -0.04383093 -0.47902343 0.31581223 0.013280439
-0.13289368 -0.11609154 0.16849136 -0.20281173 0.50561357 -0.10914382 0.31898317 0.1598703
-0.42153051 -0.3159696 -0.53147966 0.01848985 -0.23746629 -0.41865587 -0.29738653 0.26682422
0.50963783 0.33268782 0.2524973 0.34368005 -0.4285139 0.038820617 -0.2906033 0.1911473
0.104960024 0.061889857 -0.13810907 0.28092468 0.3120439 0.17031994 -0.056085873 0.3906984
-0.037267387 0.08469527 0.36778668 0.13771097 0.42404863 0.22447248 0.17830229 -0.08953493
0.11810709 -0.075210184 -0.0070727593 0.13666098 -0.36174622 -0.13785508 -0.20202315 0.5513691
0.003282469 0.4126158 0.21305944 -0.18280534 -0.068480335 -0.64749384 0.002539531 -0.074779056
0.2112899 0.42134497 -0.2215716 -0.41209483 0.12737313 0.18689069 0.37696695 -0.2015508
-0.45234928 0.083396696 0.21943712 -0.7015235 -0.10123698 0.010724955 0.16286363 -0.2177946
-0.12876025 0.03145296 0.18958527 0.6893441 -0.17655319 0.41176954 -0.2950045 0.0046153716
0.48353016 0.19682448 0.46095145 0.42317674 -0.045143 0.17526479 0.032225184 0.03731115
0.5487465 -0.06166972 -0.022886438 -0.04480466 -0.22267091 0.46874705 -0.114841364 -0.1122435
-0.17312334 0.11625001 -0.14511703 0.13479763 0.33030903 0.17765969 0.12077965 0.20385806
-0.2789193 -0.104550704 -0.29254735 0.15190075 -0.41116506 -0.122620456 -0.039908003 0.06341736
0.024767252 0.18991543 -0.35474524 -0.2521613 0.0010004246 0.06617428 -0.025902167 -0.25213024
0.12717007 0.16635197 0.32729104 0.41738907 -0.3474321 0.31617254 0.09658776 0.07889912
-0.099669755 -0.046181213 0.18540825 0.026794232 0.4738299 -0.29509166 -0.1591427 -0.36738765
-0.36068138 -0.031223401 -0.06370544 0.030625124 -0.46794987 0.1893679 -0.26586357 0.03456002
0.25699076 -0.07550811 0.39031994 0.09209766 -0.31749445 0.7557247 -0.14811279 0.117118135
0.16351229 -0.20399363 -0.08843383 0.17917837 0.37892908 0.3338249 0.0140557755 -0.096584275
-0.0229571 0.12920399 0.20828934 -0.124912985 -0.10363369 0.037699416 -0.1938746 -0.03583626
0.1978729 0.4905713 -0.043571 -0.31081775 -0.11160863 -0.27033868 -0.10495768 0.5868446
-0.17682998 0.092773885 0.23369999 -0.7928796 -0.25088996 -0.5577636 -0.80666935 0.049642373
0.37680152 -0.42899325 -0.10371196 -0.22831678 0.3429372 -0.699073 0.092333116 0.5868151
0.28164947 -0.12129798 0.049052555 -0.6153824 -0.04183876 0.18027075 0.45780542 -0.056660626
-0.10685342 -0.18542582 0.08129891 -0.33571622 0.10761774 -0.36354503 -0.40212086 0.04476093
0.4340485 0.30827028 0.20359522 0.09867065 -0.5348042 0.1897624 -0.13203745 0.5039258

bias_ih_l0 f4 [256]
00000000: 0e34 d83e 142e e83d 4fb2 b93d faed 4e3e
00000010: 87ff c9bd 8f20 553e ff0a d3bd 7637 313e
00000020: 077c 5c3e 51e8 353d 7c7b 7c3e 41ba 543e
00000030: 2f84 1dbe f8ab a13c f46a 903e f805 873c
00000040: 70bb 7c3e e82b 8abd 681e 323f dff1 303e
00000050: d4d6 873e bf60 9c3e 9024 b63e 340c 193e
00000060: 032d 47bd ead4 2a3e a5b1 863d 1828 8fbe
00000070: c6a9 133e d388 433e e875 eb3c a127 c93e
00000080: 210e 693e a611 943e 850e cd3e 4a2f 673c
00000090: dc4b ed3c 9250 c43d e084 4d3e 082d a9bd
000000a0: 314e 7b3e a480 e73d 0179 263e 05c6 fd3c
000000b0: 36db 30bd 87a5 c43e 6732 653e 3592 093e
000000c0: 3717 d83d f8d4 8b3e e07c 8e3d 11e6 1c3e
000000d0: 7d61 25be 0fa3 403e f08e 9d3c 808d 0e3e
000000e0: e6ad dc3e 8fa9 573c 0ba9 be3e d5ef 483d
000000f0: 2401 4c3e 7044 0cbd 0e63 21be 6023 1dbd
00000100: f556 e0be aa98 8cbe d679 acbd a471 a5be
00000110: 3ce8 cb3e 6da7 5cbe 5cb5 af3c 719c 83bd
00000120: ffe2 31bd 547e 973c 147a 93bd 6c2d 4c3e
00000130: 7a3b aebe 7817 51be a77f 07be 4bea 14be
00000140: acca 7abe 972e d9bd ecfa 3dbd a4d6 88be
00000150: f9cc 0dbf 7d56 49be 6292 d0be 7c77 9e3d
00000160: 0a7b b1be 7145 dcbe 9a4d 16be 55cb a4bd
00000170: fb8b c4be 630d a9bd f52b ab3c 3d78 3bbf
00000180: 3c93 e7bd 8b26 573d 622b cabe 958f fc3d
00000190: 0450 b2be b796 a4be 46ca 58be c980 d6be
000001a0: ad51 d4be 9664 69be f34d a0be 0882 32be
000001b0: e640 6fbe f8ad 8bbe 9ca5 80be 4592 4b3c
000001c0: 374d cdbd 4d22 1fbf 7a5d cdbe 523a 44be
000001d0: 733c c8bc ab22 c6be 3cae 55bd 8aaa dfbb
000001e0: 82fd 1d3d bdc5 9c3c 5579 a4bd c88a 813d
000001f0: 70bf caba 7a33 8cbe 9ffb 39be 0947 c9bd
00000200: 3763 563e 2bb5 8dbd 808b 1cbd 4a2a f73d
00000210: 9ade 4f3e 9d59 563d 06b6 dbbd 7f9f a63c
00000220: f8d7 07be e33c db3d c3b1 463d 0a2c 2c3e
00000230: 6b0c 153e 5766 6abd 8fb7 743c 0f59 6e3d
00000240: 9089 87bd 3ef4 aa3e 33ad 9dbe bbf2 e63d
00000250: 6104 73be 76b8 48be 8475 993d ec70 483e
00000260: 6179 1a3e 02fa 903e c7c4 033e 42fe 28be
00000270: 4601 35bd 37a5 013e 8a19 09be 042a 3bbe
00000280: 110e c53d c5b5 5a3d 5c92 893c c8a8 84bd
00000290: b6e7 26bd ea38 db3d 1c51 af3e de45 123d
000002a0: fe02 843d 60c4 d6bd 91b7 10be 28e8 18be
000002b0: cfec 45bd fedc 853e 497f 893d 13bd 42be
000002c0: 2aee 1e3e 1f50 1e3d 9545 67bc b718 2abe
000002d0: 35e1 91be a6cc 44be 4bee 3cbd 4685 8abc
000002e0: 0331 a53d 4f57 303e b546 ee3d 16c7 283e
000002f0: 611f 46bd 5f35 00be 2432 2cbe 4c6f 0e3e
00000300: 73e8 3f3e 905e c4bd 0a52 5abe 8bf6 da3d
00000310: 95a3 b6bd 04a1 2d3e 5979 cebd e5dd 3d3e
00000320: a5f2 dc3e a689 4f3d ab8e f03c c711 d9bc
00000330: 6968 ec3d 9d7d 4e3e 636a 6fbd c9ae 7a3d
00000340: ece7 323e 0f05 073d 1798 333f cabb 4f3b
00000350: be38 883d 18ff 293f 5dcb 86bd 3bc7 1b3e
00000360: 631a 6e3e 52f4 893e 0119 dd3d 0d7b 2d3e
00000370: 1c4e 9d3e 0ed3 88bd 2c70 183c fcef 183f
00000380: 56dd 013e 4ede ebbd 14d0 8c3e 2d27 59be
00000390: dda3 8e3d cb5d c9bd ba38 dc3e 0ce1 10bd
000003a0: e919 b93e 0f5b 0a3e 5a67 123d 110b 3c3e
000003b0: 56cb 173e f533 0b3f b5f9 ce3d 04cb 373d
000003c0: 30d1 123e f86d d13d 60b3 a93d d3f7 093d
000003d0: f8fe 9a3e 1a23 493e 32cd 763e db63 12be
000003e0: e8c9 823d 1773 183e da84 373e c54f c53d
000003f0: 3a9a 6d3c e9e6 ff3d c87b 103e 8d0f 6b3e
0.42227215 0.11336914 0.09067213 0.20207968 -0.09863191 0.20813201 -0.10304832 0.17306313
0.21531688 0.044411007 0.2465648 0.20774175 -0.15382455 0.019735321 0.282066 0.016482338
0.24680877 -0.06746656 0.69577646 0.17279766 0.26531088 0.3054256 0.3557477 0.14946061
-0.04862691 0.16682783 0.06576852 -0.27960277 0.14420232 0.19095163 0.028742746 0.39288047
0.22759296 0.28919715 0.4005014 0.014110396 0.028966837 0.0958568 0.20070219 -0.08260542
0.24541546 0.11303833 0.16257097 0.030978212 -0.043177806 0.38407537 0.22382508 0.1343468
0.10551303 0.2731092 0.06957412 0.15322138 -0.1615047 0.18812202 0.019233197 0.13921165
0.43101424 0.0131629845 0.37238345 0.049056847 0.1992231 -0.034244955 -0.15760443 -0.038363814
-0.43816343 -0.27460223 -0.08421676 -0.32313263 0.39825618 -0.21548243 0.021448784 -0.06426323
-0.04342937 0.018492855 -0.07201019 0.19939202 -0.34029752 -0.20419109 -0.13232289 -0.145425
-0.24491376 -0.106045894 -0.046381876 -0.26726258 -0.5539089 -0.19661899 -0.4073668 0.077376336
-0.34664184 -0.4302173 -0.1467804 -0.08046595 -0.38388047 -0.082545064 0.020894984 -0.73230344
-0.113073796 0.05252699 -0.39486223 0.123320736 -0.34826672 -0.32146236 -0.21170911 -0.4189513
-0.41468564 -0.22792277 -0.3130947 -0.17432415 -0.233646 -0.27281165 -0.2512635 0.01242501
-0.10024493 -0.62161714 -0.4011038 -0.19162872 -0.024442887 -0.38698325 -0.052168116 -0.0068257498
0.038571842 0.019137258 -0.08030955 0.063252985 -0.001546843 -0.27383024 -0.18162392 -0.09828002
0.20936285 -0.06919321 -0.038218975 0.12068613 0.2029976 0.052331556 -0.107280776 0.020339726
-0.1326598 0.107049726 0.04850937 0.16813675 0.14555518 -0.057226505 0.014936342 0.0581904
-0.06618035 0.33389467 -0.30796203 0.11276766 -0.23732139 -0.19601616 0.074931175 0.19574326
0.15085365 0.2831574 0.12868033 -0.16503242 -0.044190668 0.1266068 -0.13388649 -0.18277746
0.096218236 0.053396005 0.016793422 -0.06477505 -0.04074832 0.10704215 0.3424157 0.03571116
0.06445883 -0.10486674 -0.14132525 -0.1493231 -0.04832154 0.26145166 0.06713731 -0.19017439
0.1552054 0.03865063 -0.014115711 -0.1661099 -0.28492132 -0.19218692 -0.04612569 -0.016909253
0.08065989 0.17220806 0.1163458 0.16482195 -0.04836977 -0.1252036 -0.16816002 0.13909644
0.18741016 -0.09588349 -0.21320358 0.106915556 -0.089179195 0.16955954 -0.10081739 0.18541677
0.43153873 0.05066838 0.029364904 -0.026497735 0.11543352 0.20165105 -0.058451068 0.061201844
0.17471284 0.03296381 0.70153946 0.0031697624 0.06651448 0.6640487 -0.06581757 0.15212719
0.23252253 0.26944214 0.10795785 0.16941471 0.30723655 -0.066808805 0.009304088 0.5974119
0.12682089 -0.11517011 0.275025 -0.2120635 0.06964848 -0.09832343 0.4301203 -0.03537087
0.3615258 0.13511299 0.035743095 0.18363596 0.1482366 0.54376155 0.101062216 0.044871345
0.14337611 0.10226053 0.08286166 0.03368361 0.3027265 0.19642296 0.24101713 -0.14295904
0.06386167 0.14887653 0.17921773 0.096343555 0.0145021025 0.124952145 0.14109719 0.22955151

bias_hh_l0 f4 [256]
00000000: 9b7c f03e a62e 373e 2a4b 943c ab57 563e
00000010: 3b43 fdbc de39 c53e 0033 b83d c833 bb3e
00000020: 1e4b 413e af0b bfbd b0cf 823e e352 793c
00000030: faab 64bc b04c e83d dd1c aa3e 3dbd e03d
00000040: d266 a03d 5d77 323e e2e8 313f 3a04 973e
00000050: 41af 973e 7ce7 5d3e 9a1b ba3e 154d 173e
00000060: 83e9 9ebd 82aa 61bc b8ad 14bd 21e3 5abe
00000070: ea94 b93e ed29 973e 2a0e 533e 8e90 123f
00000080: 0875 3c3e ad9d 893d f72a c23e 4690 fe3d
00000090: dc20 a93d 8084 4b3e 0cfa a03d 242a 6bbb
000000a0: cbe3 943e 6e91 8b3d 34bb 733e b8be 47bd
000000b0: 957e 133d 3e52 ac3e 31f0 5a3e 2be4 a13c
000000c0: 5806 80bc 1f4a a23e 397b 093e 108e 4c3e
000000d0: 9504 d0bc 2bd3 48bc 90d7 743d 6cd2 9f3d
000000e0: fda7 a23e e361 243e cdb4 a63e 44cc de3d
000000f0: 2fdf 103e 96df c43d 8c95 afbd c6ac 82bd
00000100: a080 d0be 6211 2dbe a912 24be 4ab3 ffbd
00000110: 5703 bf3e c4b4 98be d228 ae3d 00d5 d8bd
00000120: 2714 57be e65b 2abd 56e2 d9bc bca4 eb3d
00000130: cf83 adbe 099d 9bbe 587f 18be 7bd9 1dbe
00000140: d7bc c1be 2bfc a2bd 59e8 5a3c 6fae 6ebe
00000150: 2cd3 12bf d076 9bbe 8fdf d2be b220 543e
00000160: 5267 74be c248 a4be 3586 fabd ff2d f6bd
00000170: 48dc 81be 18a0 31bd 819c ccbd 09a8 1cbf
00000180: 5581 783d 7988 963d 3671 21bf d74c 90ba
00000190: d4b2 b5be eff2 04bf a986 99be f10e 0cbf
000001a0: 1e62 cebe 3082 1ebe b6b1 a3be 441f e3bd
000001b0: 83f3 27be 0918 48be 54bd 9dbe e75c 8b3d
000001c0: a102 4dbd 30b6 33bf 8f0a dbbe 2592 67be
000001d0: f391 69bd 39fa 59be 4cd6 8bbe 9f14 02be
000001e0: 2f6e 973d d8f6 c7bc c7c3 a5bc 1cf9 923e
000001f0: 1415 d6bd 7764 b2be 215d 7cbe 8905 9ebd
00000200: 1ada a53e 90f3 bbbd f95a 4c3d 5b07 fe3d
00000210: 958d 5e3e c585 fbbd 2b01 7fbd 62d9 3d3e
00000220: 50e4 08be 72c1 aa3d 42a7 7abd 1b27 093d
00000230: ec8f b73d a078 3d3d ffef 183e 2581 7b3d
00000240: a987 b83c d072 4a3e 4607 dabe bbc6 5b3e
00000250: dd74 0fbe d557 30be 8f7a aa3d 4e6c f03d
00000260: 26d3 ffbc 5e0e dd3d 8783 4bbd c451 93bd
00000270: 28fa 443d e454 193e af7a ffbc 1fed 38bd
00000280: e111 493e aafd 35bd cf88 c93d 43cd 33be
00000290: b4d3 24be 75e5 463c 2f88 893e bff3 1dbe
000002a0: 17f8 123c a475 5f3d bb09 87bc d3ae fbbd
000002b0: 3474 1dbc b461 b63d a5d3 5cbd d544 50be
000002c0: bbe2 d0bc 03d8 1cbe 27c4 91bd 4ee9 07be
000002d0: 25a6 18be dded 10be cfaa 863d 5d73 febc
000002e0: 8f83 113e f4a4 a8bc 923c e33d 3e83 9c3e
000002f0: 7133 33bd 7148 b8bc 88fc 16be 3ae6 ea3d
00000300: 6360 053e cca2 b6bd 0ccc 3cbe 6cd7 04bc
00000310: 40f1 c53d e5ab 673e c699 b43d 126f 463d
00000320: 1e0c ac3e 8660 edbd 1122 d13d 3837 9abd
00000330: 56d0 2d3e b574 9f3e b9a6 e63d 9eda 8f3d
00000340: 7abf e43d d887 eb3d 3d6f 213f eb0d 5f3e
00000350: 3ff1 b73d e3db 2e3f 1d4e ab3d 4ccd db3d
00000360: a33c a73c e607 2a3e ad75 a73d 7418 663c
00000370: be21 bd3e 11e0 cbbd 4537 303d a969 123f
00000380: f7e5 793e 8065 2d3b c250 993e 3896 5f3c
00000390: 9caf 1b3d 3c39 b5bd 6bea 8d3e cf12 9b3d
000003a0: 01c2 913e 1092 643e b715 24bd 66cf 8f3d
000003b0: a9d8 293e 983f f23e f6e6 463d b1dd 753c
000003c0: 2217 4c3e 36b8 583e f331 9a3d aa10 e63d
000003d0: 1d67 053f 3d20 6c3e 42e2 b73c 53ee c6bc
000003e0: e855 293e 20cb 33bd 74fb 9c3e 446f 203d
000003f0: 9bd2 343d d465 443e 7b01 b73d 40cf 7b3e
0.46970066 0.17888889 0.018102247 0.2093188 -0.030915847 0.38520712 0.089941025 0.36562943
0.18876311 -0.093284 0.25549078 0.015217516 -0.013957018 0.11342752 0.33225146 0.10973594
0.078321114 0.17428346 0.69495976 0.29495412 0.29625896 0.21670336 0.36349183 0.14775498
-0.077593826 -0.013773562 -0.036298484 -0.21375705 0.36246425 0.29524174 0.20610872 0.5725182
0.18404019 0.067195274 0.37923405 0.12429862 0.082582206 0.19874763 0.07860193 -0.0035883272
0.29080042 0.06814848 0.23801881 -0.048765868 0.03600939 0.33656496 0.21380688 0.01976212
-0.015628025 0.31697175 0.13425912 0.19976068 -0.02539281 -0.012257378 0.05977589 0.07803807
0.3176879 0.16052966 0.32559815 0.10878804 0.14147638 0.09612958 -0.08573446 -0.0638061
-0.40723133 -0.16901162 -0.16022743 -0.124853685 0.37307236 -0.29825413 0.085038796 -0.105875015
-0.21003781 -0.041591547 -0.026597183 0.1150603 -0.33889624 -0.30393246 -0.14892328 -0.15414993
-0.37839386 -0.079582535 0.01336106 -0.23308729 -0.5735347 -0.30364084 -0.41186187 0.20715597
-0.23867539 -0.3208676 -0.12232629 -0.12020492 -0.25363374 -0.043365568 -0.09990788 -0.611939
0.060670216 0.07350249 -0.6306337 -0.0011009228 -0.35487998 -0.5193319 -0.2998555 -0.547103
-0.40309232 -0.1547935 -0.3197152 -0.11089948 -0.16401486 -0.19540419 -0.30808508 0.06804829
-0.050051335 -0.7019987 -0.42781493 -0.22614343 -0.057023954 -0.21286859 -0.27311933 -0.12703179
0.07394063 -0.024409696 -0.020234955 0.2870568 -0.10453239 -0.34842274 -0.24644901 -0.077158995
0.3239296 -0.09177315 0.049891446 0.12403747 0.21733697 -0.12281374 -0.062256973 0.18539956
-0.13368344 0.08337678 -0.061194666 0.03348456 0.08962998 0.046257615 0.14935301 0.06140246
0.022525625 0.1977036 -0.42583674 0.21462528 -0.14009424 -0.17221005 0.083241574 0.117394075
-0.031228613 0.10793756 -0.04968598 -0.0719333 0.04809013 0.1497379 -0.03118643 -0.04514801
0.19635727 -0.044431366 0.09840547 -0.1755877 -0.16096383 0.012139668 0.26861712 -0.15425013
0.008970282 0.05455555 -0.016484132 -0.122892044 -0.0096102245 0.08905354 -0.053912777 -0.20338757
-0.025498739 -0.15316777 -0.07117491 -0.13272592 -0.14907129 -0.14153238 0.06575548 -0.031060869
0.14210342 -0.020586468 0.11095537 0.3056888 -0.04375023 -0.02249548 -0.1474477 0.114696935
0.1302505 -0.0891777 -0.18437213 -0.008108001 0.096651554 0.22624166 0.088183925 0.04844577
0.33602995 -0.11590676 0.10211576 -0.075300634 0.16974005 0.31143728 0.112622686 0.0702412
0.11169334 0.115005195 0.6306036 0.21782653 0.08981561 0.6830427 0.08364508 0.10732517
0.020414656 0.16604576 0.08176742 0.014043916 0.36939806 -0.09954847 0.04302146 0.57192475
0.24404131 0.0026458204 0.29944426 0.013646655 0.03800927 -0.08848807 0.2771791 0.07571947
0.28468326 0.22321343 -0.04005977 0.0702198 0.16586556 0.47314143 0.048560105 0.015006469
0.199307 0.21164021 0.07529058 0.11233647 0.52110463 0.23059173 0.022446755 -0.024283564
0.16536677 -0.043894887 0.30660594 0.03916861 0.04414616 0.1917947 0.08935829 0.24590778

weight f4 [64, 128]
00000000: d85f 85be 599b c23d 561d d33d f4c7 8e3c
00000010: 25cf 35be 4cde 38bd 6691 76bd caa9 14be
00000020: c66e 523d 5ba2 aebc 4c6d f03d aab1 e03d
00000030: ae32 5a3d c840 f3bd 856a fabd 11f2 c0bd
00000040: 7646 c8bd 0213 cd3d 488e 643e 8244 213c
00000050: e35d 0c3e 7977 303d f95d 453e a38e 35be
00000060: 08a5 69be f4de 53be 1e27 7a3b 602a 27be
00000070: 4bae 883e c7f7 c93d 890e 093e c142 293e
00000080: 0b5a 2dba 632e ed3d c773 833e 8781 563c
00000090: 0e46 debd ccb4 c4bd be4e 72be e272 033e
000000a0: 2a31 813d 3cb6 b83e 9ec9 1e3e 51ae c1bd
000000b0: 2fef ec3d ce21 593d 074a 183c 74b5 cfbb
000000c0: 7179 8bbe 2068 a13d 1417 2b3d ab29 03be
000000d0: bcea 573e f030 e33d 1343 663d f874 793d
000000e0: a23f 40be 27e9 e8bd dee0 d2bc 57c3 ebbd
000000f0: 9167 0b3e 3e5b 713e 2b51 babd 0a4e 253d
00000100: d1c4 07be 82e9 f83b 2523 733d 95f9 3ebd
00000110: c3bd 53bd 8ec6 873d bc84 883c b12f 60be
00000120: 39bd 05bd f00a 033d 7c47 7c3d 68d1 313e
00000130: 9419 cdbc 08c0 acbc 9f59 0ebe d38f 0dbe
00000140: 2703 453d e5ce bd3d b9b3 6e3e c0ea c43d
00000150: 990f ee3d 8619 05bd 43b8 b63d 3085 4bbe
00000160: b57e 49be ee12 5fbe b57d 9abd 2525 9abd
00000170: cad4 8e3e cfa5 60bd a357 673d 2be5 26ba
00000180: dc69 2cbe 6040 093e b93e 2a3e 6d1c 223d
00000190: 5cab 08be 5b01 93bb f616 9dbe 3efe 24bd
000001a0: 7bff 973c 41d0 d43e 913d 453e 91bd 32bd
000001b0: dd2e 253e d73f 95bd 6b6e 583c 5587 b3bb
000001c0: 10af b6be 563f 43bd bd0b a0bc 7e34 06bd
000001d0: a684 463e 08c0 1c3e 63b2 69bd 0bfb 353e
000001e0: 2c5f a8be fa8f ba3d 4c55 20be 11cb b7bd
000001f0: ea9e 463e 812d 0d3d 0eb1 0ebe bb06 353d
00000200: 3757 59be 1876 723e 535d bebd 6605 19be
00000210: f77a 08be 8924 2d3c 96b9 9d3d d704 663c
00000220: c878 8e3c ff5e a4bd a7c0 eb3d 6e1b 683d
00000230: 91ed ccbd 0025 fa3d 5e93 613d be2d 7abd
00000240: 5fab f4bd da3f a63d 3aa1 4d3d b4a0 b0bd
00000250: 5feb 4fbd 756d 323d bee6 59bd d49d 7cbd
00000260: 2b97 a43d dbe6 16bc c7d6 f73d 5621 06be
00000270: 8a3e b43d 56f8 693d b51b 453c 00ff b5bd
00000280: 6ef1 053e af37 2dbe bc27 343e 79d4 163e
00000290: 0a13 2f3e d0aa 22be c346 53be 21d5 f53d
000002a0: ce7e c83d 6829 bb3c 048b 9abd 99ff 0a3d
000002b0: c27b 56bc cbcd b13d af1d 2cbd 577d 14bd
000002c0: e764 08be 6c35 163e 0d24 903b f765 b93b
000002d0: ab39 633d 111d 0cbe f663 633e 34bc 023e
000002e0: ff0e fcbd c74b 823d a27b 24bd 9a1f 483b
000002f0: 6383 183d 16fe ae3d 0b0f 283d 5faf 04bd
00000300: e342 08be dfa6 663d 2beb 17be f910 37be
00000310: e67d 7bbd 0cec e53d 87ec 42bd 0875 8a3d
00000320: 6e68 223c 7320 a63d 11d0 873e 33fc af3d
00000330: 97cb 34bd b032 ac3d f934 03bd 8b6e bd3d
00000340: c1d2 cfbc 4cc2 dd3d e71e 263e d216 e0bd
00000350: a0f0 75bd de49 f3bc 516c 9dbd a47e e6bd
00000360: 7466 553e ac05 00be 95e1 e23d 28f5 a2bd
00000370: d22c 69bd 6c54 8ebd ef40 21be 6132 d93d
00000380: 52d7 0f3e 8e3b a2bd 054a ce3b 2b6f fb3d
00000390: 4f59 213e 27a9 16be eab3 1cbe ad81 e43d
000003a0: 31ce c73d a2c7 ffbc fe73 263e 8947 81bd
000003b0: 2559 453b dba4 fd3b 7447 213e 2d55 2a3d
000003c0: fe5f 1cbe fa51 fd3a b0e0 d23d e456 003c
000003d0: 15c4 af3d 0de5 2fbd f714 813e fa5a 2f3e
000003e0: f003 8f3d 2be2 80bd f777 adbd 998c 06bd
000003f0: a6e8 323b 4ca3 c23d 9d43 f7bd ebd0 8cbd
-0.26049685 0.095022865 0.1030833 0.01742933 -0.177548 -0.045133874 -0.060197257 -0.14517894
0.051375173 -0.021317651 0.11739597 0.10971387 0.05327099 -0.118775904 -0.12227348 -0.094211705
-0.09779064 0.10013391 0.22319901 0.009842994 0.1370769 0.043082688 0.19274129 -0.17730193
-0.2281686 -0.20690519 0.0038170288 -0.16324759 0.26695475 0.09861713 0.13384451 0.16529371
-0.0006612844 0.11581113 0.2567427 0.013092405 -0.108532056 -0.09604797 -0.2366285 0.12836793
0.063082054 0.36076534 0.15506598 -0.09457076 0.11569058 0.053010754 0.009294993 -0.0063387696
-0.2724109 0.078811884 0.041770056 -0.12808864 0.21085638 0.110933185 0.05621631 0.060902566
-0.18774274 -0.11372595 -0.02574199 -0.115118675 0.13613726 0.23569962 -0.09097513 0.040357627
-0.13258673 0.0075961957 0.05935969 -0.04662474 -0.051694643 0.06629668 0.016664855 -0.21893193
-0.03265116 0.031992853 0.06159161 0.17365038 -0.02503661 -0.021087661 -0.13901375 -0.13824396
0.04809871 0.092679776 0.23310746 0.096150875 0.11624069 -0.032495044 0.08921864 -0.19875026
-0.19677241 -0.21784565 -0.07543508 -0.07526616 0.2789672 -0.054845627 0.05648006 -0.0006366546
-0.16837257 0.13403463 0.1662549 0.03957789 -0.13346618 -0.0044862456 -0.3068158 -0.040281527
0.01855444 0.41565135 0.19261767 -0.043637816 0.16131158 -0.07287567 0.013209919 -0.0054787793
-0.35680437 -0.047667824 -0.019536847 -0.032764904 0.19386539 0.15307629 -0.05705489 0.17771547
-0.3288511 0.091094926 -0.15657538 -0.08974279 0.19396558 0.034467224 -0.13934729 0.04419587
-0.21224676 0.23677862 -0.09295144 -0.14943466 -0.13328157 0.010567793 0.07701413 0.01403924
0.017391577 -0.080259316 0.11511355 0.056666784 -0.1000625 0.122140884 0.05507218 -0.06107878
-0.11946749 0.081176475 0.050202586 -0.08624402 -0.050761577 0.043561418 -0.05319857 -0.061673954
0.080366455 -0.009210314 0.121015124 -0.13098654 0.08800991 0.057121597 0.012030532 -0.08886528
0.1308038 -0.16915773 0.17593282 0.1472949 0.17097107 -0.15885472 -0.20632462 0.12003542
0.09789811 0.022846892 -0.075460464 0.033935163 -0.01309103 0.0868183 -0.042020496 -0.036252346
-0.13319741 0.14668816 0.004398829 0.005657907 0.05547492 -0.13682963 0.22206101 0.12767106
-0.12307548 0.0636211 -0.040156968 0.0030536414 0.037234675 0.08544557 0.04102997 -0.03239381
-0.13306765 0.056311484 -0.14835803 -0.17877568 -0.061399363 0.11226663 -0.04758885 0.06760603
0.009912593 0.08111658 0.2652593 0.08593025 -0.04413947 0.084081054 -0.03203294 0.092496
-0.02536905 0.10828075 0.16222726 -0.10941853 -0.06004393 -0.029698309 -0.07686675 -0.112546235
0.20839864 -0.12502164 0.110781826 -0.07956916 -0.05692751 -0.06949696 -0.15747426 0.10605312
0.14046982 -0.079215154 0.006295445 0.12277063 0.15756725 -0.14712964 -0.15303007 0.11157546
0.09756125 -0.031223122 0.16255185 -0.063124724 0.0030112949 0.0077405996 0.15749913 0.041585136
-0.15270993 0.0019326799 0.10296762 0.007833216 0.085823216 -0.04294305 0.25211307 0.17124549
0.06983173 -0.06293138 -0.08470147 -0.032848928 0.0027299314 0.09503803 -0.12073443 -0.068757854

bias f4 [64]
00000000: c7d8 0ebf 35ed f3be 280e fabe 4148 8a3d
00000010: c2c2 09bf 8d8a ddbe b2e3 a4be 0b8c 3abf
00000020: 6563 a1be 9d42 ae3e 5c1d 4dbe 65ca afbe
00000030: 0606 c23d 6804 6fbe e1de 853e 29b4 97be
00000040: 2544 5a3e 6ce4 2cbf 8002 d9bd 7042 7fbe
00000050: 2660 8fbe c800 81be d29f 953d 5374 833e
00000060: 448c 193d 4e68 06be 40ac cabe b775 15bf
00000070: 37f0 12bf 5ebe ccbe cbb5 b6be cc2d fdbb
00000080: be12 053f 75eb af3e c505 bcbd 417a 21bf
00000090: fcd3 13bf 4eca e9bc 218a 143d 8da8 e93e
000000a0: 5602 9e3e d1aa 533e 8664 d8bc 12e4 aabe
000000b0: bf41 ccbd 37e8 f4be d11f 743d c2c6 bcbe
000000c0: dfd0 aabe 7370 0c3f ac31 4dbe 1e7b 3f3e
000000d0: 977b 0b3e 4392 81be 9fae 0f3f 661f cdbe
000000e0: da2e 453e a8cd 3dbe 150e e73e 296e b53e
000000f0: de75 a33e def2 e43e 8ff2 17bf 3080 1ebf
-0.55799526 -0.47641912 -0.48838925 0.067520626 -0.538128 -0.43269768 -0.32204968 -0.7286994
-0.31521145 0.34035197 -0.20030731 -0.34334102 0.09473805 -0.23341525 0.26146606 -0.2962964
0.21315058 -0.67536044 -0.1059618 -0.24927688 -0.28003043 -0.2519591 0.07305874 0.25674686
0.037487283 -0.13125727 -0.3958454 -0.58382744 -0.5739779 -0.3998899 -0.35685572 -0.0077264067
0.51981723 0.34359327 -0.09180788 -0.6307717 -0.5774534 -0.02853885 0.036264542 0.45636407
0.30861157 0.2067063 -0.02641512 -0.3337713 -0.099734776 -0.47833416 0.059600655 -0.3687039
-0.3336248 0.54859084 -0.2003848 0.18699309 0.13621365 -0.253069 0.56125826 -0.40063018
0.19256154 -0.18535483 0.4512793 0.35435608 0.31925863 0.44716543 -0.5935449 -0.6191435
