TP/save_models_MLP_512_256_Dropout_Gridsearch_Relu/model_2.pt (torch, 728469 bytes, 6 tensors)

weight f4 [512, 64]
-0.010216989 0.50977445 0.75566775 -0.14686784 -0.12664859 -0.07833588 -0.009125108 0.03533597
0.40654877 0.1714635 0.0032836087 0.68754196 -0.10790251 0.024429694 0.18353108 -0.5134701
0.12912373 0.101078 -0.3775909 -0.22965328 0.24436642 0.079908565 0.14155693 -0.29632828
0.575085 -0.48444915 -0.43274438 0.35610193 0.036316775 0.3539523 0.25074622 -0.376945
0.49819642 -0.62961465 -0.20834489 -0.20095178 0.22771396 0.5886576 0.026572049 0.59220695
0.5176264 -0.07106136 0.39862433 -0.0072719897 0.1319369 0.049689215 0.7213374 0.98596454
0.12070331 -0.38083827 0.74493587 -0.08626471 -0.2556025 -0.5068153 -0.6680717 -0.47666892
0.54033285 -0.32285467 0.06747013 0.29024187 -0.34485352 0.16260497 -0.11485547 0.1383338
-0.44107345 0.23561776 -0.21079877 -0.32212374 -0.20067985 -0.3896573 -0.47325224 0.025449103
-0.11411872 -0.09455774 -0.3159465 0.10677776 -0.2115367 -0.14989378 -0.46330467 -0.09324337
-0.24801989 0.2900902 -0.03268942 0.3146117 -0.39581105 -0.35793668 0.050220493 -0.39186886
0.22134419 -0.16610466 0.10220382 -0.42245755 0.099159665 -0.045561135 0.028592495 -0.28543895
-0.09292896 -0.22362252 -0.043515656 -0.09093713 -0.1931075 -0.0989484 -0.3342076 -0.22963773
-0.28704464 -0.51926446 -0.48911563 0.20085326 -0.38054478 -0.32569617 -0.24204698 0.17119749
0.098634444 -0.22205433 -0.1310561 0.040868305 0.6519593 -0.39170566 -0.071678884 -0.12105224
-0.62813723 -0.10864747 -0.03880736 -0.2817331 -0.6627231 0.20886046 0.27788475 0.0838498
-0.24603803 0.76591057 0.5656377 -0.0800595 -0.6827064 -0.23904702 0.98717374 -0.33401528
0.34762275 -0.24464063 0.3699868 0.29336783 -0.23928337 0.40651175 0.31757677 -0.47177765
0.23617862 0.33639845 0.014373514 -0.062445574 0.20653133 0.14883569 0.11331538 -1.5895816
0.18178551 -0.082887635 0.044944193 -0.33819672 0.040180307 -0.12547848 -0.515977 -1.6804391
0.37877494 -0.14663513 -0.13552429 0.11000603 0.03751436 -0.43925717 0.3590149 -0.8955405
0.39591873 0.20009448 -0.11772195 -0.18181339 0.029979235 -0.5784822 0.16316274 -0.8248592
-0.01678752 -0.02901973 -0.124748565 -0.53957474 -0.71556437 0.1344122 -0.12162092 -0.45061323
0.7967038 -0.6864946 0.09528119 -0.3840109 -0.15307717 0.43696862 0.26257455 -0.91272354
-0.4795059 -0.40953463 -0.063490905 -1.0872504 -0.2840293 -0.17694335 -0.20236184 0.39272487
0.13393353 1.2583867 0.35593215 -0.37703803 -0.29614127 0.89493465 0.50262487 0.49164486
-0.13817087 0.4027704 -0.16001515 0.14489464 0.15396358 0.07601026 0.077137776 -0.30242112
-0.41886413 0.12266791 -0.13926859 -0.025617909 -0.07431282 0.111197926 -0.7032815 -0.4018219
-1.309422 -0.47134703 -0.2889685 -0.14522183 -0.049748693 0.102492504 0.086287245 -0.16496705
-1.7705075 0.16395245 -0.18631183 0.30301854 -0.09389192 -0.3219635 0.17863517 0.12958209
-0.4214484 0.39792854 0.34672716 -0.08760791 0.1820793 0.15972121 -1.1732419 -0.0935624
-0.57397574 -0.11856735 0.85186285 0.2961905 0.33465564 0.34220996 0.25363204 0.029615976
00000000: 2865 27bc 9480 023f 7173 413f 8664 16be
00000010: 2bb0 01be 906e a0bd 7a81 15bc 73bc 103d
00000020: 2927 d03e 2194 2f3e d031 573b c002 303f
00000030: fefb dcbd c820 c83c 92ef 3b3e c772 03bf
00000040: 0339 043e fc01 cf3d 9853 c1be 3b2a 6bbe
00000050: 313b 7a3e 1aa7 a33d 4df4 103e 57b8 97be
00000060: c538 133f b809 f8be ac90 ddbe fe52 b63e
00000070: e6c0 143d 3c39 b53e cf61 803e effe c0be
00000080: 9a13 ff3e 6d2e 21bf 5d58 55be 4ec6 4dbe
00000090: d92d 693e 44b2 163f a0ad d93c e09a 173f
000000a0: 2a83 043f 9e88 91bd 7d18 cc3e df49 eebb
000000b0: 771a 073e eb86 4b3d 91a9 383f 2c68 7c3f
000000c0: 4c33 f73d 3cfd c2be 1eb4 3e3f 8dab b0bd
000000d0: 55de 82be a6be 01bf bf06 2bbf f30d f4be
000000e0: 4153 0a3f 354d a5be c82d 8a3d 959a 943e
000000f0: a490 b0be eb81 263e 5839 ebbd 60a7 0d3e
00000100: 61d4 e1be c845 713e a2db 57be 67ed a4be
00000110: 057f 4dbe 2981 c7be 1e4e f2be a37a d03c
00000120: 13b7 e9bd 7da7 c1bd bdc3 a1be 4cae da3d
00000130: 149d 58be c17d 19be 4536 edbe 61f6 bebd
00000140: edf8 7dbe b486 943e 57e5 05bd c914 a13e
00000150: bfa7 cabe 7a43 b7be 01b4 4d3d 09a3 c8be
00000160: 0da8 623e 5717 2abe 3d50 d13d 5b4c d8be
00000170: 3914 cb3d 509e 3abd cf3a ea3c 0e25 92be
00000180: 8a51 bebd 4dfd 64be 793d 32bd 3f3d babd
00000190: f9bd 45be 75a5 cabd 421d abbe 2726 6bbe
000001a0: 84f7 92be 84ee 04bf 5d6d fabe 7aac 4d3e
000001b0: c4d6 c2be a6c1 a6be 2adb 77be 654e 2f3e
000001c0: db00 ca3d 3662 63be 9233 06be 8665 273d
000001d0: cee6 263f a58d c8be 61cc 92bd 3dea f7bd
000001e0: 9acd 20bf 9182 debd 77f4 1ebd 523f 90be
000001f0: 39a8 29bf 84df 553e e946 8e3e 72b9 ab3d
00000200: 65f1 7bbe b712 443f a2cd 103f 3cf6 a3bd
00000210: d9c5 2ebf bec8 74be 6bb7 7c3f 0d04 abbe
00000220: 9cfb b13e 1383 7abe e96e bd3e 4f34 963e
00000230: b306 75be 4f22 d03e 6c99 a23e d78c f1be
00000240: cfd8 713e 6b3c ac3e e37e 6b3c eec6 7fbd
00000250: f37c 533e 6268 183e e511 e83d 6977 cbbf
00000260: fb25 3a3e fec0 a9bd 6717 383d 1f28 adbe
00000270: 1b94 243d 6e7d 00be 1217 04bf a118 d7bf
00000280: caee c13e 8527 16be e1c6 0abe d74a e13d
00000290: a8a8 193d 51e6 e0be cdd0 b73e 2442 65bf
000002a0: dcb5 ca3e 91e5 4c3e 3518 f1bd 4a2d 3abe
000002b0: 0397 f53c 6917 14bf 2214 273e f929 53bf
000002c0: fb85 89bc c9ba edbc 2d7c ffbd 9221 0abf
000002d0: 3a2f 37bf 5aa3 093e 6414 f9bd c7b6 e6be
000002e0: c8f4 4b3f 1cbe 2fbf c922 c33d 149d c4be
000002f0: 43c0 1cbe 5aba df3e 2c70 863e 40a8 69bf
00000300: cc81 f5be 86ae d1be 8507 82bd 052b 8bbf
00000310: 4a6c 91be a330 35be f137 4fbe 3c13 c93e
00000320: df25 093e d112 a13f bd3c b63e 210b c1be
00000330: d49f 97be 701a 653f 06ac 003f e0b8 fb3e
00000340: aa7c 0dbe ec37 ce3e 03db 23be 435f 143e
00000350: a1a8 1d3e 44ab 9b3d 69fa 9d3d f1d6 9abe
00000360: 5c75 d6be 5039 fb3d 6d9c 0ebe a6dc d1bc
00000370: 5231 98bd bdbb e33d 420a 34bf 9abb cdbe
00000380: 249b a7bf 6654 f1be aef3 93be 08b5 14be
00000390: 49c5 4bbd 97e7 d13d 5eb7 b03d 1fed 28be
000003a0: fd9f e2bf 27e3 273e 87c8 3ebe 3f25 9b3e
000003b0: 684a c0bd 66d8 a4be 23ec 363e 2bb1 043e
000003c0: 16c8 d7be 4abd cb3e 3986 b13e c76b b3bd
000003d0: ff72 3a3e f58d 233e ca2c 96bf a59d bfbd
000003e0: 13f0 12bf 70d3 f2bd af13 5a3f 48a6 973e
000003f0: fc57 ab3e 2536 af3e 0fdc 813e 349d f23c

bias f4 [512]
-1.4799454 -1.304358 -1.3024476 -1.7000271 -1.4743807 -0.66327566 -0.6693771 -1.5473303
-1.4207151 -1.4183247 -1.2858602 -1.2973232 -0.73189783 -1.5646558 -1.1105299 -1.0351613
-1.2669472 -1.5464193 -1.07691 -0.9449245 -0.7512716 -1.2953748 -1.4406226 -1.7284888
-1.3950316 -1.647242 -1.5561552 -0.7975938 -1.435661 -1.1928302 -1.2381941 -1.2527515
-0.44741204 -1.2727787 -0.72928464 -1.48291 -1.2014667 -1.2888349 -1.370879 -1.1862334
-0.8184248 -1.6269342 -1.3090522 -1.4209543 -0.9413839 -1.4978828 -0.41302603 -1.7809347
-1.3859386 -1.4784098 -0.80714655 -1.5381839 -1.2109175 -1.3885998 -1.0948545 -1.2789122
-1.587849 -1.1722983 -0.8028884 -1.2453574 -1.4183557 -0.9602939 -1.9963723 -0.79852164
-0.577715 -0.6698279 -1.1387438 -1.1509761 -1.8859229 -1.1480544 -1.1204437 -1.6990108
-1.2752987 -1.6559542 -1.627227 -0.8778474 -0.32950103 -0.32313296 -1.2606485 -1.2334543
-1.2150209 -1.2024 -1.3770789 -1.093698 -1.4349126 -1.0536288 -1.0868627 -0.70918393
-1.2010927 -0.42283866 -1.2907615 -0.5250241 -1.5435869 -0.9349397 -1.1466415 -1.2928942
-0.23991391 -1.3599942 -1.3484948 -1.3356259 -1.148799 -1.6242144 -1.6399174 -1.6196704
-1.5324631 -1.1718895 -1.6436234 -1.007719 -0.7794307 -1.3919399 -0.7129699 -0.50378495
-1.5451162 -1.5302542 -0.81253785 -0.8712377 -1.2751534 -0.5239126 -0.68980116 -1.57909
-0.45086202 -1.2068202 -1.4754384 -1.2876793 -1.1823425 -1.7265309 -1.6032693 -1.3641781
-0.5510971 -0.55403286 -1.2146252 -0.7194017 -0.97750217 -1.3166643 -1.6887445 -0.44082132
-0.55850554 -1.1392627 -0.3519623 -1.5158607 -1.0159236 -1.1158279 -1.4921371 -1.606195
-1.2268354 -1.3073072 -1.4676338 -1.7077157 -0.7803271 -1.4442545 -0.8430373 -1.6201
-1.076432 -1.5451541 -0.8476513 -0.8726756 -1.1375445 -1.2815663 -1.115051 -1.2733846
-1.4053271 -1.7098002 -1.3840129 -0.64640665 -1.2195021 -1.3012407 -1.657707 -1.1597402
-1.0028056 -1.5296159 -1.3190502 -1.2915949 -1.1757562 -1.2101485 -0.7550224 -1.112848
-1.4105138 -0.5262906 -1.3010987 -1.2909788 -0.59870666 -0.60685706 -1.5984026 -0.8267819
-1.4798764 -1.3237396 -0.8606953 -1.5996661 -1.1057904 -1.5471663 -1.4241786 -1.4435478
-1.4286683 -1.1142311 -1.7030424 -1.3815517 -1.4929292 -1.6053811 -1.2315471 -0.92259514
-1.3655472 -0.85756534 -1.6226376 -1.4961687 -0.65819263 -0.8757531 -0.6907701 -1.4174314
-1.0581928 -0.31932428 -1.0923661 -1.539813 -1.3127215 -1.1501923 -0.98277265 -0.9854264
-0.91711754 -1.0532105 -1.4023337 -0.6578266 -0.46897292 -0.31791383 -1.72746 -1.0552163
-1.4111073 -1.6363546 -1.487584 -0.6382441 -1.5745553 -1.690694 -1.22346 -1.0585698
-1.3349369 -0.6790907 -1.3288931 -1.0803993 -1.0725751 -1.284929 -1.6716307 -0.54337066
-1.2002605 -1.553179 -1.3934089 -1.4212536 -1.4097853 -1.3961642 -0.1025049 -1.0746236
-1.0973965 -1.1149001 -1.5894375 -1.4201503 -1.2862074 -0.62418175 -1.282408 -1.0792683
00000000: da6e bdbf 34f5 a6bf 9ab6 a6bf 7d9a d9bf
00000010: 82b8 bcbf 6fcc 29bf 4c5c 2bbf eb0e c6bf
00000020: fed9 b5bf aa8b b5bf 1197 a4bf b00e a6bf
00000030: a85d 3bbf a446 c8bf d825 8ebf 2a80 84bf
00000040: 532b a2bf 11f1 c5bf 30d8 89bf 92e6 71bf
00000050: 5653 40bf d7ce a5bf 5266 b8bf 1f3f ddbf
00000060: 6590 b2bf d3d8 d2bf 1830 c7bf 1b2f 4cbf
00000070: bdc3 b7bf a9ae 98bf 257d 9ebf 295a a0bf
00000080: 3113 e5be 6aea a2bf 66b2 3abf ffcf bdbf
00000090: a9c9 99bf 8bf8 a4bf f778 afbf 7fd6 97bf
000000a0: 4a84 51bf 613f d0bf 068f a7bf d5e1 b5bf
000000b0: 89fe 70bf a0ba bfbf 2678 d3be abf5 e3bf
000000c0: 7066 b1bf 883c bdbf 28a1 4ebf 36e3 c4bf
000000d0: 58ff 9abf a3bd b1bf 3124 8cbf 65b3 a3bf
000000e0: a33e cbbf df0d 96bf 188a 4dbf df67 9fbf
000000f0: ae8c b5bf d2d5 75bf 2189 ffbf ea6b 4cbf
00000100: 21e5 13bf d779 2bbf 5bc2 91bf 2f53 93bf
00000110: ec65 f1bf 72f3 92bf b36a 8fbf 3079 d9bf
00000120: fd3c a3bf 4ff6 d3bf f948 d0bf 9bba 60bf
00000130: 5cb4 a8be af71 a5be ee5c a1bf d5e1 9dbf
00000140: ce85 9bbf 3ee8 99bf 1f44 b0bf 4cfe 8bbf
00000150: 37ab b7bf 4fdd 86bf 511e 8bbf 148d 35bf
00000160: 68bd 99bf 4f7e d8be ac37 a5bf fb67 06bf
00000170: 4194 c5bf 3558 6fbf 26c5 92bf 8f7d a5bf
00000180: feab 75be 4a14 aebf 7a9b acbf caf5 aabf
00000190: d80b 93bf 42e6 cfbf d0e8 d1bf 5c51 cfbf
000001a0: c027 c4bf 7a00 96bf 4062 d2bf f0fc 80bf
000001b0: c588 47bf 162b b2bf 3285 36bf 0df8 00bf
000001c0: 5ec6 c5bf 5fdf c3bf 7b02 50bf 6f09 5fbf
000001d0: 3a38 a3bf 231f 06bf cf96 30bf 9f1f cabf
000001e0: 63d7 e6be 1679 9abf 2adb bcbf add2 a4bf
000001f0: 0057 97bf f7fe dcbf ee37 cdbf 639d aebf
00000200: b314 0dbf 19d5 0dbf d778 9bbf b62a 38bf
00000210: 953d 7abf 7588 a8bf c828 d8bf 55b3 e1be
00000220: 38fa 0ebf 5cd3 91bf 6734 b4be b907 c2bf
00000230: c909 82bf 73d3 8ebf 59fe bebf cc97 cdbf
00000240: f108 9dbf d855 a7bf 6ddb bbbf 6e96 dabf
00000250: 84c3 47bf 55dd b8bf 4bd1 57bf 705f cfbf
00000260: 86c8 89bf 9cc7 c5bf adff 58bf ab67 5fbf
00000270: 0f9b 91bf 5d0a a4bf feb9 8ebf 44fe a2bf
00000280: c2e1 b3bf bcda dabf 5627 b1bf e87a 25bf
00000290: a518 9cbf 0e8f a6bf be2f d4bf 5e72 94bf
000002a0: ef5b 80bf 74ca c3bf a3d6 a8bf fb52 a5bf
000002b0: 2e7f 96bf 25e6 9abf 2649 41bf ce71 8ebf
000002c0: b78b b4bf fbba 06bf 678a a6bf cb3e a5bf
000002d0: d744 19bf fc5a 1bbf 7598 ccbf fba7 53bf
000002e0: 976c bdbf 4d70 a9bf 8756 5cbf dcc1 ccbf
000002f0: 8a8a 8dbf 8c09 c6bf 7c4b b6bf 2dc6 b8bf
00000300: 9ade b6bf 209f 8ebf 4bfd d9bf b0d6 b0bf
00000310: 4e18 bfbf 217d cdbf 56a3 9dbf 322f 6cbf
00000320: 40ca aebf 6789 5bbf 97b2 cfbf 7582 bfbf
00000330: 507f 28bf 5b31 60bf 4fd6 30bf 646e b5bf
00000340: dd72 87bf 797e a3be a7d2 8bbf 9818 c5bf
00000350: 4207 a8bf 8039 93bf fd96 7bbf e844 7cbf
00000360: 37c8 6abf 9acf 86bf ac7f b3bf 5367 28bf
00000370: 381d f0be 9ac5 a2be 691d ddbf 5411 87bf
00000380: 2a9f b4bf 1174 d1bf 2769 bebf f763 23bf
00000390: 078b c9bf a968 d8bf 569a 9cbf 377f 87bf
000003a0: 36df aabf e3d8 2dbf 2b19 aabf 864a 8abf
000003b0: 244a 89bf 8e78 a4bf fff7 d5bf 571a 0bbf
000003c0: 23a2 99bf 92ce c6bf 395b b2bf a3eb b5bf
000003d0: d873 b4bf 82b5 b2bf 17ee d1bd 448d 89bf
000003e0: 7d77 8cbf 0cb5 8ebf b072 cbbf 7cc7 b5bf
000003f0: 72a2 a4bf 60ca 1fbf f225 a4bf 7725 8abf

weight f4 [256, 512]
-0.14485662 -0.17996392 0.029798558 -0.04052754 0.10927601 -0.035456683 -0.12814343 0.06928994
0.027746715 -0.016496731 -0.23547472 -0.36494353 0.051766347 0.045439314 0.08937069 -0.13539115
0.02103344 -0.09153256 -0.010560099 -0.3020354 -0.039589778 -0.07029637 -0.0532986 -0.10397057
-0.021185 -0.02098096 -0.18000077 -0.012383012 -0.04332299 0.12893523 -0.14724538 -0.060404178
-0.20323484 -0.23395114 0.04750392 -0.2091199 -0.0755665 -0.17402372 -0.057080027 -0.27054742
-0.071138784 -0.25451666 -0.011286945 -0.04329862 -0.108430214 0.01099841 -0.23734018 0.037271176
-0.11226725 -0.052612852 -0.21993117 -0.24505772 -0.08502405 -0.19244288 -0.24157421 -0.05564621
-0.35952327 -0.07958378 -0.31247294 0.016206332 -0.10990798 -0.30019942 -0.019305121 -0.0964299
-0.17097878 -0.1676187 -0.19388495 -0.33811185 -0.011178807 -0.15646422 -0.19623508 0.0787801
-0.32183385 -0.11741937 -0.1641939 -0.13987674 0.0023436677 -0.22675943 0.03100192 0.021362683
-0.06899714 -0.11861362 -0.035708643 -0.09878373 -0.089620106 0.004247898 -0.2560805 -0.10422886
0.041945502 -0.12777668 -0.18987596 -0.080259524 0.00016008636 0.14492817 -0.19825168 0.032712754
-0.20953709 0.017126529 -0.15056989 0.08565346 -0.005150895 0.015005548 -0.20381142 0.007957869
0.03962443 -0.02815117 -0.06327408 -0.32905233 -0.020615082 0.025611706 -0.089309484 -0.028177409
-0.20682941 0.07108028 -0.08164568 -0.047151115 -0.046065424 -0.0064124544 -0.14173669 -0.019571709
-0.25494832 0.041673947 -0.17718321 -0.28990445 -0.064022064 -0.021594055 -0.07282519 0.06908063
0.0020251872 -0.24816939 -0.18468595 -0.19743747 0.020835562 -0.025123034 -0.077057675 -0.28493342
-0.14747491 0.038903534 -0.14977476 -0.19574012 -0.14517212 0.059044614 -0.09525295 -0.057817332
-0.10898529 0.044384595 -0.07768444 0.049388565 -0.02663678 -0.11455622 -0.18567885 -0.08361743
-0.10267143 0.17041178 0.052647997 -0.20882465 -0.17744406 -0.06439143 0.064104095 -0.22967584
-0.24228814 -0.076934665 -0.028591411 -0.08272219 -0.1214746 -0.011956642 -0.021490013 -0.085707806
-0.17938748 -0.04708715 -0.2617229 -0.12731658 -0.15871382 0.048592698 0.0389471 0.05619643
-0.09896146 -0.080698326 -0.09435162 0.02393458 -0.24211685 -0.013331971 -0.25475836 -0.096677735
-0.19665183 -0.11819626 -0.2018122 -0.13600959 -0.19692507 -0.16821693 0.10489834 -0.014089932
-0.16286157 -0.287875 -0.30705848 -0.039054673 -0.12069086 0.0024024234 -0.03611682 -0.17180277
-0.27655396 0.09113333 -0.07637928 -0.110351704 0.19944814 -0.21671733 -0.07959551 0.034700744
-0.37428188 -0.27790308 -0.0030829175 0.08676212 -0.0809963 -0.0988852 -0.19478983 -0.022978792
-0.4489486 0.065517865 0.0439205 -0.04802161 -0.1531262 -0.3924321 -0.19129421 -0.23012465
-0.16238116 -0.084924325 -0.033604175 -0.23550016 0.02335309 0.08193095 0.06771308 0.14077641
-0.109145485 0.12888576 -0.23473957 -0.11745395 0.007385841 -0.024399098 -0.13481914 -0.21132877
-0.1082112 -0.10028571 -0.07073022 0.011489366 0.021210235 0.0012428176 -0.2207246 -0.095324755
-0.34308028 -8.977058e-05 -0.04880121 0.0052768714 -0.2260266 -0.106884755 -0.019945227 0.056083087
00000000: 4b55 14be 7648 38be 1b1c f43c 3500 26bd
00000010: 1acc df3d 073b 11bd 0838 03be e2e7 8d3d
00000020: 144d e33c 2724 87bc 4920 71be e1d9 babe
00000030: f308 543d 931e 3a3d fb07 b73d faa3 0abe
00000040: 524e ac3c 6c75 bbbd 4404 2dbc 62a4 9abe
00000050: e428 22bd 8bf7 8fbd a24f 5abd 86ee d4bd
00000060: 2a8c adbc 43e0 abbc 1f52 38be 1ee2 4abc
00000070: 7373 31bd 9907 043e 7ec7 16be 5f6a 77bd
00000080: cb1c 50be e390 6fbe 7893 423d 8723 56be
00000090: 9cc2 9abd 4633 32be bfcc 69bd 3185 8abe
000000a0: 36b1 91bd 0250 82be e1ec 38bc e559 31bd
000000b0: a910 debd ad32 343c 4e09 73be a9a9 183d
000000c0: 5fec e5bd 9380 57bd a335 61be 69f0 7abe
000000d0: 1721 aebd bf0f 45be 3b5f 77be 48ed 63bd
000000e0: 6f13 b8be d2fc a2bd 74fc 9fbe 24c3 843c
000000f0: 6f17 e1bd bdb3 99be c625 9ebc 0a7d c5bd
00000100: 1015 2fbe 3da4 2bbe c789 46be ff1c adbe
00000110: 5127 37bc 2838 20be d9f1 48be 7657 a13d
00000120: 68c7 a4be 9179 f0bd 7222 28be d93b 0fbe
00000130: 3898 193b a033 68be bdf7 fd3c cb00 af3c
00000140: 5f4e 8dbd b3eb f2bd 3a43 12bd 204f cabd
00000150: bf8a b7bd f331 8b3b fc1c 83be f175 d5bd
00000160: 0ccf 2b3d e4d7 02be d86e 42be 1b5f a4bd
00000170: dbdc 2739 0d68 143e 7d02 4bbe cffd 053d
00000180: e490 56be ef4c 8c3c fe2e 1abe 156b af3d
00000190: d7c8 a8bb d4d9 753c f1b3 50be b961 023c
000001a0: 3a4d 223d 489d e6bc d795 81bd 8c79 a8be
000001b0: f6e0 a8bc a4cf d13c e4e7 b6bd 4fd4 e6bc
000001c0: 17cb 53be 8a92 913d da35 a7bd 8721 41bd
000001d0: 19af 3cbd 911f d2bb 6c23 11be d954 a0bc
000001e0: 9688 82be 4db2 2a3d 846f 35be 5b6e 94be
000001f0: 001e 83bd 04e6 b0bc 6025 95bd 257a 8d3d
00000200: 01b9 043b 1e20 7ebe 501e 3dbe 0c2d 4abe
00000210: 57af aa3c d2ce cdbc 6ad0 9dbd cbe2 91be
00000220: aa03 17be 5059 1f3d 8e5e 19be 1970 48be
00000230: 00a8 14be c4d8 713d fb13 c3bd ded1 6cbd
00000240: ae33 dfbd 9fcc 353d 0519 9fbd aa4b 4a3d
00000250: 6035 dabc 749c eabd 9922 3ebe 9d3f abbd
00000260: 6645 d2bd 6d80 2e3e 6da5 573d 21d6 55be
00000270: e5b3 35be a7df 83bd 0249 833d 2530 6bbe
00000280: 621a 78be ec8f 9dbd 8938 eabc 406a a9bd
00000290: adc7 f8bd cbe5 43bc d30b b0bc 9387 afbd
000002a0: 5ab1 37be 75de 40bd 8b00 86be 475f 02be
000002b0: e085 22be 2309 473d ff86 1f3d 3a2e 663d
000002c0: 4eac cabd 2a45 a5bd 6c3b c1bd 7412 c43c
000002d0: 7bed 77be 576e 5abc b06f 82be fafe c5bd
000002e0: 195f 49be e110 f2bd dba7 4ebe 1946 0bbe
000002f0: baa6 49be 0f41 2cbe f1d4 d63d 75d9 66bc
00000300: 2fc5 26be 5a64 93be c536 9dbe cbf7 1fbd
00000310: c52c f7bd fa71 1d3b 3bef 13bd 11ed 2fbe
00000320: 7b98 8dbe 1ca4 ba3d bd6c 9cbd 1300 e2bd
00000330: 223c 4c3e 26eb 5dbe f902 a3bd 5e22 0e3d
00000340: e0a1 bfbe 5049 8ebe c60a 4abb 57b0 b13d
00000350: 63e1 a5bd 5384 cabd fc76 47be 053e bcbc
00000360: 97dc e5be 3b2e 863d fbe5 333d 4fb2 44bd
00000370: 1dcd 1cbe dcec c8be a1e2 43be cca5 6bbe
00000380: 3f47 26be ceec adbd 88a4 09bd f426 71be
00000390: fb4e bf3c 6acb a73d 28ad 8a3d b127 103e
000003a0: ab87 dfbd a1fa 033e 925f 70be b28b f0bd
000003b0: ed04 f23b 9ee0 c7bc 070e 0abe 9266 58be
000003c0: d59d ddbd 9862 cdbd 01db 90bd e53d 3c3c
000003d0: 16c1 ad3c 0ae6 a23a a105 62be a039 c3bd
000003e0: 38a8 afbe 3743 bcb8 c7e3 47bd 9be9 ac3b
000003f0: 8473 67be 65e6 dabd 2c64 a3bc 61b7 653d

bias f4 [256]
-0.4537392 0.41728303 -0.5082798 -0.5454249 -0.21942893 -0.6812889 -0.54531235 -0.52500165
1.2990389 -0.6560127 -1.4577727 0.62311244 -0.53153753 -0.336041 0.9416073 -0.52832204
-0.78318644 0.32716548 -0.10598888 -0.56851643 -0.42904833 -0.6411629 -0.6054511 -0.84003574
0.97992986 -0.17104556 -0.50392646 -0.35777143 -0.49397847 -0.5629291 1.0110388 -0.29373714
1.1165173 -0.52946293 0.48341703 -1.2331564 0.54828244 -0.55526304 -0.6112553 0.06985009
-0.101162456 0.10612733 0.42074388 -0.32058227 -0.73288846 -0.35176322 -0.54079276 3.250156
-0.476168 -3.6553497 -0.7613942 0.7053293 -0.74246836 -0.3315014 0.57339877 -0.55155545
1.1215678 -0.2952858 -0.5187235 -0.26205364 -0.6669615 -0.9452503 1.3026232 -0.16201632
-0.24933033 -0.29489782 -0.29510778 0.22173509 -0.428842 -0.77026373 0.44501626 -0.42284274
-0.3234136 -0.52654475 0.5159802 -0.40292418 -0.24398282 -0.90982056 0.03974187 0.14598599
0.76399976 0.8959695 -0.25685075 -0.74836874 -0.5737525 0.41693136 -0.51227146 -1.0473963
-0.35541013 -0.7825074 2.1873217 -0.13895468 -1.0293471 -0.13601072 -0.433858 -0.07460971
-0.18217991 -0.56436396 -0.21545976 -0.97850776 -0.3002806 -0.7929048 -0.5063948 -0.7834873
1.1785057 -0.72228736 -0.8331323 -0.13382572 1.5787289 -0.53674185 -0.1616987 -0.35251895
-0.34886086 -0.33245385 -0.4505731 -0.042987965 -0.7805357 0.6560049 -0.28419295 -0.33357504
0.51172537 -0.7564712 -0.83812565 -0.99317616 -0.4589687 -0.11375621 -0.46757957 -0.626017
-0.10507705 0.72034705 -0.7783039 -0.38762727 -0.42622638 0.47181225 0.81098676 -0.43110192
-0.29344428 -0.9660393 -0.5216437 -0.41950747 -0.13923389 -0.30942354 -0.13249613 -0.5468747
-0.79123205 -0.8248221 -0.5120323 2.699364 -0.8894254 -0.29347274 -0.22237596 -0.26435822
-0.5449504 -0.2612215 -0.3307049 0.16613375 -0.7883797 -0.5557413 -0.3575537 0.09948595
0.9650191 -0.3019205 -0.3464336 0.38548434 -0.38534477 -0.74216306 -0.6107285 -0.54051024
1.1901731 -0.024527656 -0.4934146 -1.2783091 -0.8289793 -0.69403005 -0.1577066 2.05402
-0.8431892 -0.81753683 1.3585274 -0.8165645 0.18252572 -0.7311374 -0.36355865 -0.9900449
-1.303476 -0.60020703 0.18566877 -0.41383362 -0.62287664 -0.4782094 -0.7953502 -0.67164695
0.5069535 -0.38329485 0.22801235 -0.5471528 -0.6818961 -0.4770266 1.0319545 -1.7379551
-0.061027598 -0.54554015 -0.4310612 -0.54013616 -0.59720325 -0.38111842 -0.48751464 -0.47259018
-0.16443591 -0.5018707 1.4300996 -0.8720129 -0.24274659 0.14970444 0.6022483 -0.23669475
-0.8359085 -0.4337874 -0.65827954 -0.8018011 -0.7865787 -2.8597689 1.0094509 -0.7076782
0.68654615 -0.43992797 -0.82624876 2.981293 -0.69251215 -0.51470876 0.55907714 -0.096532926
-0.1869304 -0.4974411 -0.20581777 -0.35514274 -0.14898396 -0.29922128 -0.49173662 -0.35215113
-0.48620367 0.80687475 -0.42607558 -0.56478184 0.7012682 -0.6362117 -0.849359 -0.55915254
-0.21443942 0.7815335 -0.6626069 0.46343678 -0.63650024 -0.5947875 0.8117291 -1.1297872
00000000: 8150 e8be 1fa6 d53e a01e 02bf f7a0 0bbf
00000010: fab1 60be f368 2ebf 9799 0bbf 8266 06bf
00000020: e846 a63f 73f0 27bf 4c98 babf 4c84 1f3f
00000030: d812 08bf 910d acbe 2d0d 713f 1d40 07bf
00000040: e87e 48bf 3c82 a73e b310 d9bd 4b8a 11bf
00000050: 39ac dbbe 4023 24bf d8fe 1abf 950c 57bf
00000060: afdc 7a3f 9126 2fbe 5301 01bf d12d b7be
00000070: bfea fcbe 1f1c 10bf b869 813f b764 96be
00000080: 0aea 8e3f e28a 07bf 7082 f73e 12d8 9dbf
00000090: 3d5c 0c3f b825 0ebf 3a7b 1cbf 900d 8f3d
000000a0: 432e cfbd 4959 d93d be6b d73e 5c23 a4be
000000b0: 949e 3bbf 4f1a b4be 6571 0abf 8e02 5040
000000c0: 4bcc f3be 40f1 69c0 bbea 42bf 7690 343f
000000d0: 6812 3ebf 8dba a9be 43ca 123f bd32 0dbf
000000e0: 898f 8f3f b32f 97be 10cb 04bf e52b 86be
000000f0: fdbd 2abf ecfb 71bf 5bbc a63f 9be7 25be
00000100: 7350 7fbe d9fc 96be 5e18 97be 860e 633e
00000110: 2e91 dbbe 0130 45bf 2cd9 e33e d87e d8be
00000120: 7896 a5be a3cb 06bf 4717 043f 144c cebe
00000130: a2d6 79be 00ea 68bf 5fc8 223d 5a7d 153e
00000140: 7d95 433f 425e 653f f181 83be 1895 3fbf
00000150: 72e1 12bf 0778 d53e 3924 03bf 1511 86bf
00000160: 51f8 b5be 6852 48bf 14fd 0b40 234a 0ebe
00000170: a5c1 83bf 6546 0bbe a322 debe facc 98bd
00000180: 5f8d 3abe 287a 10bf 7ca1 5cbe 7c7f 7abf
00000190: 61be 99be cffb 4abf 17a3 01bf a092 48bf
000001a0: 46d9 963f d3e7 38bf 2948 55bf 9c09 09be
000001b0: ca13 ca3f ea67 09bf 5894 25be 5d7d b4be
000001c0: e49d b2be 6437 aabe 84b1 e6be 2614 30bd
000001d0: 30d1 47bf f0ef 273f bd81 91be 59ca aabe
000001e0: 6f00 033f 19a8 41bf 678f 56bf cb40 7ebf
000001f0: f2fd eabe 04f9 e8bd 9766 efbe a642 20bf
00000200: a332 d7bd aa68 383f ed3e 47bf 1577 c6be
00000210: 583a dabe 6091 f13e d49c 4f3f 64b9 dcbe
00000220: 543e 96be 5a4e 77bf 718a 05bf afc9 d6be
00000230: 5493 0ebe c36c 9ebe 11ad 07be fbff 0bbf
00000240: 2f8e 4abf 8b27 53bf 8c14 03bf 61c2 2c40
00000250: 62b1 63bf 0f42 96be 86b6 63be f659 87be
00000260: df81 0bbf d3be 85be 2752 a9be f71e 2a3e
00000270: 41d3 49bf 1045 0ebf 4711 b7be 4abf cb3d
00000280: 7e0b 773f 5395 9abe bf5f b1be 345e c53e
00000290: e94b c5be 66fe 3dbf b458 1cbf e15e 0abf
000002a0: 9857 983f 39ee c8bc d7a0 fcbe a29f a3bf
000002b0: fd37 54bf f4ab 31bf d77d 21be 1075 0340
000002c0: 3fdb 57bf 184a 51bf 3ae4 ad3f 5f0a 51bf
000002d0: 06e8 3a3e d22b 3bbf 5c24 babe 9573 7dbf
000002e0: 4dd8 a6bf 2ba7 19bf f41f 3e3e 00e2 d3be
000002f0: d874 1fbf ddd7 f4be 129c 4bbf 0ef1 2bbf
00000300: b4c7 013f 393f c4be 127c 693e 3512 0cbf
00000310: be90 2ebf d53c f4be 1617 843f 5075 debf
00000320: 13f8 79bd 85a8 0bbf 0eb4 dcbe 5d46 0abf
00000330: 50e2 18bf f421 c3be 859b f9be 57f7 f1be
00000340: e361 28be 997a 00bf 810d b73f 3d3c 5fbf
00000350: 9092 78be 1f4c 193e f22c 1a3f 1c60 72be
00000360: 19fe 55bf 6219 debe 0285 28bf d642 4dbf
00000370: 395d 49bf 7406 37c0 b035 813f 662a 35bf
00000380: 7dc1 2f3f 3d3e e1be 0a85 53bf 81cd 3e40
00000390: 7a48 31bf f4c3 03bf ae1f 0f3f 0eb3 c5bd
000003a0: af6a 3fbe 9ab0 febe e5c1 52be 45d5 b5be
000003b0: 408f 18be 8833 99be e7c4 fbbe 274d b4be
000003c0: b0ef f8be 588f 4e3f 9426 dabe 8b95 10bf
000003d0: 5086 333f c5de 22bf 976f 59bf 9f24 0fbf
000003e0: 0296 5bbe 9412 483f 9ba0 29bf 9647 ed3e
000003f0: aef1 22bf fe43 18bf 7acd 4f3f de9c 90bf

weight f4 [64, 256]
0.024134254 -0.38072813 -0.14295956 0.0515281 -0.122204565 0.34155512 -0.09110156 0.075223096
-0.2135353 -0.33974725 -0.7067915 0.01726202 -0.12597807 -0.37941262 -0.36736566 -0.06331558
-0.047831718 -0.4459571 0.09410899 -0.40566373 0.058681037 -0.010691956 -0.13179485 -0.010662713
-0.44791397 0.034383573 0.27584386 0.013128547 -0.23011692 -0.078963876 -0.5167757 -0.12548977
-0.3162662 0.024574311 -0.25319108 -0.29917327 -0.3980517 -0.04215595 0.05694569 -0.4871311
-0.023326924 -0.10419242 -0.30507082 -0.1900486 -0.035991114 0.058487266 -0.008544252 -0.96447724
-0.41604966 0.123125516 -0.6715501 -0.2352659 -0.2703028 0.07673859 -0.32061994 -0.09713698
-0.0049000536 -0.0059132646 -0.008486152 -0.0922759 -0.08032843 -0.40815598 -0.090117104 0.0075265937
0.15889889 -0.17946376 -0.12863633 -0.66507334 0.059959825 -0.122581944 -0.08629836 -0.14288749
-0.027968898 0.012681566 -0.1296617 0.022301963 -0.12577367 -0.09096497 -0.36031702 -0.12093141
-0.18449523 -0.48979625 0.040121824 -0.25929826 -0.30576876 -0.2314514 0.045407794 -0.16193898
-0.3208353 -0.3035535 -1.539312 -0.088463545 -0.5496718 -0.034131747 -0.071658604 -0.7076357
0.023236971 -0.0037285269 -0.18796335 -0.32631868 -0.07613967 -0.105408 -0.11676428 0.10744967
-0.754809 -0.37126642 -0.15336438 -0.021259839 -0.79674256 -0.16644123 -0.07475297 -0.08884344
-0.041149653 0.0154672945 -0.013658588 0.06285126 0.013241494 0.060809463 -0.008225876 -0.17407858
-0.55272233 0.045867115 -0.08788649 -0.22689582 0.002980394 -0.2318655 -0.05709531 -0.606956
-0.12801673 -0.053091053 -0.49880216 -0.03117103 -0.10645951 -0.9644479 -0.25426257 -0.7230804
-0.16802569 -0.35504925 -0.29618198 0.06367171 -0.465061 -0.06704866 -0.04178861 -0.015945602
0.103002094 -0.11383509 -0.04684985 -1.0834048 -0.65466607 -0.036961105 -0.27112252 -0.43807817
0.05267107 0.07092545 -0.0720878 -0.43295506 -0.78205526 0.022365993 -0.4795319 -0.49017546
-0.29680073 -0.105723925 0.03174961 -0.45772502 0.0031186647 -0.7237571 0.08849222 -0.04274918
-0.34391773 -0.30904698 -0.1481058 -0.5641723 -0.5512662 0.027060034 0.030602086 -0.7581803
-0.21362855 -0.032954384 -0.65546066 -0.14067365 -0.46809483 -0.14263779 0.018542802 -0.67799133
-0.04857449 -0.024278369 -0.24012725 -0.17278583 -0.29881105 -0.015771456 -0.9941333 -0.2819921
-0.07013812 0.011521452 -0.043898266 -0.20681344 0.028872471 0.1379089 -1.0025945 0.09064747
-0.5605092 0.03437668 -0.37685323 0.069379084 -0.031255405 -0.11253692 -0.022858284 -0.029809833
0.0016474004 0.06289675 -0.791878 0.036236603 -0.123472795 -0.44293836 -0.55583537 -0.077324726
-0.24544181 0.10462443 -0.03564633 -0.42634666 -0.39056385 0.11685404 -0.4114633 -0.0144393835
-0.16278183 -0.40091845 0.13520722 -0.9480526 -0.18601164 -0.09453556 -0.59942967 -0.48543274
-0.06060907 0.080440864 -0.010366103 0.014936128 0.099074565 -0.09520102 -0.11478993 0.18642372
0.22050792 -0.1942655 -0.15914835 0.034201097 -0.1243297 0.005354187 0.06431596 -0.6788506
0.058582526 -0.20108972 -0.034999076 -0.47802675 -0.028614715 0.17307836 -0.03449765 -0.23701672
00000000: 33b5 c53c ccee c2be fe63 12be 210f 533d
00000010: 6346 fabd 50e0 ae3e 7493 babd 910e 9a3d
00000020: ffa8 5abe 5af3 adbe 4af0 34bf 1469 8d3c
00000030: 6500 01be 5f42 c2be 5a17 bcbe 99ab 81bd
00000040: 31eb 43bd 7d54 e4be 37bc c03d 28b3 cfbe
00000050: 875b 703d 502d 2fbc 3bf5 06be a9b2 2ebc
00000060: fb54 e5be cad5 0c3d 683b 8d3e 1e19 573c
00000070: c5a3 6bbe d0b7 a1bd 6a4b 04bf 6480 00be
00000080: a5ed a1be 1150 c93c 43a2 81be 3d2d 99be
00000090: 6fcd cbbe b8ab 2cbd e23f 693d 3f69 f9be
000000a0: 1b18 bfbc d662 d5bd 3e32 9cbe 1a9c 42be
000000b0: 6b6b 13bd 5890 6f3d 31fd 0bbc fbe7 76bf
000000c0: 7604 d5be 3b29 fc3d b5ea 2bbf 8be9 70be
000000d0: 2165 8abe 1f29 9d3d 4c28 a4be c1ef c6bd
000000e0: a190 a0bb 0fc4 c1bb 8009 0bbc 26fb bcbd
000000f0: 3b83 a4bd d2f9 d0be 518f b8bd a5a1 f63b
00000100: 64b6 223e 59c5 37be 3eb9 03be 3f42 2abf
00000110: 6f98 753d 3e0c fbbd 32bd b0bd 1951 12be
00000120: 081f e5bc 58c6 4f3c 09c6 04be 9bb2 b63c
00000130: d0ca 00be d84b babd 797b b8be e3aa f7bd
00000140: 51ec 3cbe 93c6 fabe c856 243d bec2 84be
00000150: b98d 9cbe 9901 6dbe 86fd 393d 55d3 25be
00000160: 8644 a4be 5d6b 9bbe 2d08 c5bf 602c b5bd
00000170: 4bb7 0cbf bbcd 0bbd bfc1 92bd 9d27 35bf
00000180: 765b be3c 4d5a 74bb 7779 40be 3e13 a7be
00000190: 1eef 9bbd 26e0 d7bd 1c22 efbd 930e dc3d
000001a0: 2a3b 41bf a216 bebe 8d0b 1dbe 1d29 aebc
000001b0: 52f7 4bbf 926f 2abe 1618 99bd 8df3 b5bd
000001c0: 8a8c 28bd 896a 7d3c 45c8 5fbc 29b8 803d
000001d0: daf2 583c 5813 793d d3c5 06bc a841 32be
000001e0: 367f 0dbf 28df 3b3d d5fd b3bd 6157 68be
000001f0: b752 433b 266e 6dbe c6dc 69bd 7861 1bbf
00000200: d116 03be 0176 59bd ff62 ffbe 635a ffbc
00000210: 7207 dabd 0fe6 76bf b42e 82be cc1b 39bf
00000220: ed0e 2cbe 04c9 b5be 2aa5 97be 5066 823d
00000230: 7a1c eebe cf50 89bd 892a 2bbd 5aa0 82bc
00000240: c3f2 d23d 5f22 e9bd a1e5 3fbd 02ad 8abf
00000250: 3298 27bf 8764 17bd 92d0 8abe c84b e0be
00000260: 9fbd 573d 5d41 913d c5a2 93bd 49ac ddbe
00000270: c634 48bf e338 b73c 3585 f5be 47f8 fabe
00000280: 44f6 97be c985 d8bd e10b 023d ef5a eabe
00000290: 8362 4c3b 2548 39bf 693b b53d c419 2fbd
000002a0: fc15 b0be 683b 9ebe 0ca9 17be 996d 10bf
000002b0: c81f 0dbf 01ad dd3c 3ab1 fa3c 1b18 42bf
000002c0: 71c1 5abe 2dfb 06bd 45cc 27bf c10c 10be
000002d0: 20aa efbe a40f 12be 13e7 973c d790 2dbf
000002e0: 0bf6 46bd 6ee3 c6bc ebe3 75be c5ee 30be
000002f0: c3fd 98be 2433 81bc 857f 7ebf 4561 90be
00000300: 93a4 8fbd 79c4 3c3c abce 33bd e7c6 53be
00000310: f685 ec3c fe37 0d3e 0455 80bf 61a5 b93d
00000320: 887d 0fbf 90ce 0c3d e8f2 c0be 9f16 8e3d
00000330: ab05 00bd c279 e6bd 4c41 bbbc c033 f4bc
00000340: 96ed d73a 03d0 803d 84b8 4abf d56c 143d
00000350: 4edf fcbd d1c8 e2be 3a4b 0ebf 6d5c 9ebd
00000360: 1955 7bbe 5545 d63d e301 12bd 1c4a dabe
00000370: fcf7 c7be 2c51 ef3d 51ab d2be 2a93 6cbc
00000380: 48b0 26be 2f45 cdbe c373 0a3e 93b3 72bf
00000390: d679 3ebe dc9b c1bd 3974 19bf a48a f8be
000003a0: 3741 78bd 2ebe a43d 96d6 29bc a9b6 743c
000003b0: 9be7 ca3d c1f8 c2bd fc16 ebbd dce5 3e3e
000003c0: d4cc 613e 89ed 46be c9f7 22be 7316 0c3d
000003d0: 92a0 febd 2d72 af3b 16b8 833d 27c9 2dbf
000003e0: 3bf4 6f3d 77ea 4dbe 315b 0fbd ecbf f4be
000003f0: 6869 eabc 743b 313e 684d 0dbd 83b4 72be

bias f4 [64]
-0.36621013 0.17291984 0.40693057 0.5150014 0.48598492 0.36727652 0.2149917 -0.45039716
0.14186576 0.57846063 0.3984312 0.24508616 0.21289402 0.4022965 0.55924225 0.10070438
0.29820198 0.31896222 -0.68559897 -0.8327615 -0.8966735 -0.09432891 0.4373061 0.27860868
0.54440325 0.3181644 -1.1100445 -5.9258566 -5.918613 -1.0550503 0.3049508 0.4097194
0.57399774 0.26070523 -0.95491177 -5.8335 -5.7781057 -1.1619892 0.06110197 0.44883868
0.2777823 0.31433082 -0.26069996 -1.3089237 -1.1977593 -0.7736719 0.29565704 0.314533
0.18879375 0.7141823 0.3407691 0.15141004 0.047922753 0.348164 0.5740878 0.24838704
-0.4311802 0.18463321 0.4322979 0.38076648 0.44489717 0.24496104 0.22404586 -0.5215159
00000000: e57f bbbe e611 313e 3459 d03e 22d7 033f
00000010: 04d3 f83e ab0b bc3e c926 5c3e 759a e6be
00000020: 4245 113e ff15 143f 2dff cb3e def7 7a3e
00000030: e400 5a3e cff9 cd3e 802a 0f3f 193e ce3d
00000040: eead 983e 044f a33e 6a83 2fbf dc2f 55bf
00000050: 658c 65bf 842f c1bd 96e6 df3e cca5 8e3e
00000060: 035e 0b3f 72e6 a23e f015 8ebf 9ea0 bdc0
00000070: 4765 bdc0 e30b 87bf 8322 9c3e bec6 d13e
00000080: 84f1 123f 287b 853e 1975 74bf 08ac bac0
00000090: 3ee6 b8c0 10bc 94bf 0f46 7a3d 2fce e53e
000000a0: 7b39 8e3e f8ef a03e 777a 85be d08a a7bf
000000b0: 2d50 99bf 5d0f 46bf 5c60 973e 780a a13e
000000c0: 2653 413e a7d4 363f 4a79 ae3e 3c0b 1b3e
000000d0: a64a 443d 8d42 b23e 6bf7 123f 2c59 7e3e
000000e0: a7c3 dcbe 7d10 3d3e 2656 dd3e d3f3 c23e
000000f0: 90c9 e33e 11d7 7a3e 476c 653e 1182 05bf
