TP/save_models_MLP_512_256_Dropout_Gridsearch_Relu/model_4.pt (torch, 728469 bytes, 6 tensors)

weight f4 [512, 64]
000000 e4 16 6b 3c 70 8c 35 bd 42 af 30 bd b5 02 bf 3d
       0.014348719 -0.044323385 -0.04313589 0.09326688
000010 31 86 63 3d aa 73 00 be 78 0e 08 be 02 e7 05 3c
       0.055547897 -0.12544122 -0.1328677 0.008172752
000020 07 ff f9 bc be 01 ab bc 08 6d d6 3c 44 5f 48 bd
       -0.030517114 -0.020874854 0.026175037 -0.048918977
000030 9e 4d 81 bd 3a 0c e7 3d 1a a5 b5 bd 8c 93 4b 3d
       -0.063136324 0.11281629 -0.08869381 0.04970126
000040 4e 17 d2 bd a2 55 5f 3d 88 8c 51 bd 0c 4b d4 3b
       -0.10258351 0.054525025 -0.05115941 0.006478673
000050 d4 5d 52 bc 72 d6 4f 3b 4c 11 48 3d f9 2a 18 be
       -0.012839753 0.0031713513 0.04884462 -0.14860143
000060 ef e8 c7 bd 92 84 77 bd a2 16 9d 3d c0 5e b1 bb
       -0.097612254 -0.060429163 0.076703325 -0.0054129064
000070 f8 fc 81 bd f9 1e 09 bd 8c f0 c7 bd d7 1b a8 bc
       -0.06347078 -0.033476803 -0.097626776 -0.020521088
000080 8a 91 d8 ba 83 2d 05 3c f4 60 2a bc b9 e8 d2 3b
       -0.0016522866 0.008128527 -0.010399092 0.006436434
000090 fa 38 1a 3d b1 ae b1 bc ee 2b 8d 3d e9 3b 9d bc
       0.037651993 -0.021689745 0.068931445 -0.019193606
0000a0 1e b8 bb 3d 8f 62 63 3d df 55 e0 3c 16 10 50 3d
       0.09165977 0.055513915 0.027384697 0.05079659
0000b0 83 2e 6b bd 15 b4 2a bc a0 15 16 3c 6e eb cf 3d
       -0.057417404 -0.010418911 0.009160429 0.101523265
0000c0 17 42 a7 bd cb 69 a9 3e f4 51 82 3c bf b9 99 bc
       -0.081669025 0.33088526 0.015908219 -0.018765328
0000d0 f2 9f 39 bd 86 50 27 bd 54 6d 57 3d eb 0e 1a 3c
       -0.04531855 -0.040848278 0.052594498 0.009402971
0000e0 b5 ee d0 bd 92 c7 c7 3e 05 d2 f9 3e e5 7e 26 3e
       -0.1020178 0.39019448 0.48793045 0.16259344
0000f0 b7 42 40 3e d6 95 4a 3e 51 68 f7 bd be bb e7 3d
       0.1877545 0.1978372 -0.12080444 0.11315106
000100 40 34 62 be 04 b4 01 be bf c1 b6 3e f0 ed ee be
       -0.22090244 -0.12666327 0.35694692 -0.46665907
000110 72 53 74 3d 69 6e f6 3d 11 cc 03 be 3f 46 89 be
       0.059649892 0.12032778 -0.12870814 -0.26811406
000120 08 60 57 3d 3b ba d4 be 11 37 a8 3d 16 03 e7 3d
       0.052581817 -0.41548333 0.08213628 0.112798855
000130 ae 2e 8e bb 90 6e 5d 3e 6a 85 55 be 88 78 cd bc
       -0.0043390607 0.21624207 -0.20851675 -0.025081888
000140 a4 45 3c bc 7a 81 88 3e f6 31 c6 3d 56 06 80 bc
       -0.011491213 0.26661283 0.09677498 -0.015628021
000150 f1 3a a2 3d da a7 e3 bd e6 a1 62 3d 4a ad 1f bd
       0.079213984 -0.111159995 0.05533018 -0.03898362
000160 0d cd 5e be 01 22 49 3e bb da 13 3d b7 2a ba bd
       -0.21757908 0.19641878 0.03609727 -0.090901785
000170 01 38 ba bb 31 72 52 3d 25 5c 46 3d 70 73 00 be
       -0.0056829457 0.051378433 0.04842772 -0.12544036
000180 75 97 1d be cc b6 66 bd 4d c0 6f bd 79 94 aa 3c
       -0.15389808 -0.056326672 -0.058533 0.02082275
000190 88 a7 8f bd d7 d6 21 bd 06 e4 8d 3d 35 be d2 3d
       -0.07014376 -0.039511528 0.06928258 0.10290185
0001a0 58 73 15 bd 1b e5 07 3e bb 7e 7c 3c f9 3e b2 bd
       -0.036486953 0.1327099 0.015411074 -0.08703417
0001b0 79 a7 bc bc 74 c9 98 bd df e2 9f 3d 60 a4 b7 bd
       -0.023029076 -0.07460299 0.07806944 -0.08966899
0001c0 6a 6c 9f 3c 09 33 5d be 10 9d 09 bc fe eb 85 bd
       0.019460876 -0.216015 -0.008399263 -0.065391526
0001d0 eb 71 00 be 79 dc a8 bd d3 63 24 be 87 7d 3d bd
       -0.12543456 -0.08245177 -0.16053705 -0.04626229
0001e0 dd 62 23 3e de 71 0e bd 5b 61 5d bc b2 0e 83 bd
       0.15955682 -0.03477656 -0.013511981 -0.06399287
0001f0 d0 e0 19 3b 5b bd 91 3c ca 61 08 3e 55 7c 37 be
       0.0023479946 0.017790487 0.13318554 -0.17918523
000200 dc 86 dc bd 81 44 07 3e 44 cd 9f 3c d3 16 87 bd
       -0.1076791 0.13209726 0.019507058 -0.0659615
000210 2a 18 69 bd df b3 bf 3d ea a5 e0 bd 7d d1 e8 bb
       -0.05690781 0.093604796 -0.109691456 -0.007105051
000220 e3 24 ee 3d a7 92 8d 3d 2b 0a 00 bd 94 2c 15 bb
       0.11628129 0.06912737 -0.031259697 -0.0022762166
000230 9c b4 bb 3b 3c 40 32 3e bc 4a be bd f8 fb 08 bd
       0.0057283174 0.17407316 -0.09291598 -0.03344342
000240 49 33 b8 bd 13 9d 1e 3e ba 6f 14 3d 19 ed 9b bd
       -0.08994157 0.15489607 0.036239363 -0.07613582
000250 8b 63 36 be a5 97 02 3e 89 76 74 bc 78 dd 83 bd
       -0.1781141 0.1275316 -0.014920839 -0.06438726
000260 eb 72 67 bc 4b d3 ba bc d5 40 23 bd 88 c5 c7 bc
       -0.01412652 -0.02280583 -0.03985675 -0.024386182
000270 cc c0 de bd 57 e3 b6 bd 05 fe 23 bd 86 fb c9 3c
       -0.10876617 -0.089300804 -0.040037174 0.024656069
000280 83 e7 01 be 3a 30 d0 bd 87 c4 8c bd d2 ea f0 bd
       -0.12685971 -0.101654485 -0.06873422 -0.117635384
000290 55 e8 2a 3e ef 6c 01 3e b0 96 02 bc 66 8a 01 3a
       0.1669019 0.12639211 -0.007970497 0.00049415824
0002a0 a4 3e fd bd 39 d7 68 bd f1 d9 ac 3d 1d 16 12 3c
       -0.123654634 -0.056845877 0.084400065 0.008916405
0002b0 36 18 37 3e 0a 07 34 be 3c 12 8d 3d 45 ec bf bd
       0.1788033 -0.1758081 0.068882436 -0.09371237
0002c0 bd c2 fb bd fb a4 70 be 9c 33 cc bd 9d a4 ff bd
       -0.12293003 -0.23500435 -0.09970781 -0.12482569
0002d0 d0 7b 79 bd ae cb ec 3c 65 8b 00 3d a6 02 8a 3d
       -0.060909092 0.028905716 0.031382937 0.067387864
0002e0 42 ab 75 3d 5a 2a 03 be b6 71 e1 bc 5f 04 ab 3c
       0.059977777 -0.12809125 -0.027520042 0.020876108
0002f0 98 2e 09 be 39 e1 fa bc e5 37 86 bd 5b 5f 4a 3b
       -0.1339668 -0.030624973 -0.0655363 0.003087959
000300 fb fd 1c be ae 4b 77 be e3 16 ce 3c 23 61 7b 3d
       -0.15331261 -0.24149963 0.025157398 0.061371934
000310 c9 44 d7 bd e0 d0 8f 3d c5 52 11 be fb 7a ad 3d
       -0.105111666 0.070222616 -0.1419173 0.08470722
000320 34 f3 64 3d 9c 2b 8b 3c 67 43 03 3e b9 a5 e3 bd
       0.055896 0.016988568 0.1281868 -0.111155935
000330 1b 12 24 bd cb c3 a0 3c 60 7a 6a bd b6 88 b3 bd
       -0.04005633 0.019624611 -0.057245612 -0.0876631
000340 da 06 a6 bd 2f ef 9f bd 4c 57 53 bd 9b ca cd bd
       -0.081067756 -0.078092925 -0.051596925 -0.100484096
000350 93 04 11 3e 8b 38 34 bd 47 33 1f 3d b5 2d 31 bb
       0.14161901 -0.043999236 0.03886726 -0.00270353
000360 25 7f 67 3d 3f 1f 96 bd 9b 1d 1e be 50 03 d6 bd
       0.05651774 -0.073301785 -0.15440981 -0.104498506
000370 99 69 08 3e a8 bb b9 3d bc 4d 0e bd 09 58 50 3c
       0.13321532 0.09068996 -0.034742102 0.012716302
000380 cd b1 4a bd 2f 55 76 3d f6 b0 3b be 01 52 ba bd
       -0.04948597 0.06013983 -0.18329224 -0.09097672
000390 36 08 19 3d 3c 8d db bb 9d 61 f8 3b f8 f3 46 3d
       0.037361346 -0.006700186 0.007579996 0.04857251
0003a0 31 a4 93 bd 07 2c 28 3e 7f 1f 04 be f8 bb af 3b
       -0.072090514 0.16423045 -0.1290264 0.005362984
0003b0 4a fd 01 3e 69 94 04 3e 92 10 bd bc 64 13 13 3d
       0.12694278 0.12947239 -0.02307919 0.035907164
0003c0 6e 11 0d be c7 13 7a be 29 f9 28 bd b0 73 5d 3e
       -0.1377618 -0.24421607 -0.041253243 0.21626163
0003d0 c3 07 10 be 48 ff b1 3c 76 fe c8 3c 9b 81 8e 3d
       -0.14065461 0.021728173 0.024535399 0.06958314
0003e0 cc a1 3f bd 99 fd 3d be ac b9 80 bb 8b d8 5d bd
       -0.04678516 -0.18553771 -0.003928384 -0.05416159
0003f0 1f 1f 3c bd 3a 19 4b 3d 05 4a 56 bd 60 c8 9d bc
       -0.045928117 0.049584605 -0.052316684 -0.019260585

bias f4 [512]
000000 11 24 d5 be 35 9f 64 be 82 8c 27 bd 6e 1c 00 3e
       -0.4162908 -0.22326358 -0.040905483 0.12510845
000010 17 b5 ee bd 0c 69 fc bc c1 28 3d be 95 b1 28 be
       -0.11655634 -0.030811809 -0.18472578 -0.16473992
000020 0e 93 94 be 2f e2 17 be 14 02 57 be 06 32 e9 bd
       -0.29018444 -0.14832376 -0.20996886 -0.11386494
000030 26 47 35 be 29 40 33 be a8 b4 67 be dd a2 ef bd
       -0.17702922 -0.17504944 -0.22627509 -0.117009856
000040 1d 05 71 3a 1f 81 3e be 19 71 36 be 90 97 3a 3c
       0.00091941823 -0.18603943 -0.17816581 0.011388674
000050 c4 2b 17 be 07 28 40 be 76 09 ab 3c 0b 97 69 be
       -0.14762789 -0.18765269 0.020878535 -0.22811525
000060 f8 ee ef bc e9 2c 35 be 68 4e 29 be 97 e7 ba bd
       -0.029288754 -0.17692913 -0.16533816 -0.091262035
000070 c3 c3 1e bf 75 4c 12 be 09 d1 65 be 3d 04 43 be
       -0.6201746 -0.14286979 -0.22443022 -0.19044586
000080 20 67 85 be be de 26 be 8d 9d e3 bd 18 e6 94 bd
       -0.2605524 -0.16295907 -0.11114035 -0.072704494
000090 5f d5 30 be 6d ff 82 be b4 88 0e bd 1e fc d0 bd
       -0.17268895 -0.255855 -0.03479834 -0.102043375
0000a0 69 7d 63 be 9b a0 2d be 55 4a 86 bd e5 50 4f be
       -0.22215809 -0.16955797 -0.065571465 -0.20245703
0000b0 7f f3 d9 bd 7e b9 42 be d2 89 45 be 7f 20 b7 3d
       -0.10642146 -0.19016072 -0.19290856 0.08941745
0000c0 75 82 9a be 95 bb 53 be 9e 3f 80 bd 47 3d 36 be
       -0.30177656 -0.20677026 -0.06262134 -0.17796813
0000d0 40 5a 20 be c1 f8 b8 bd 47 80 7a be a2 70 52 be
       -0.15659428 -0.09031821 -0.24462996 -0.20550779
0000e0 dd 0a 0f be 42 8f 10 be 5a d2 40 3e be d6 48 be
       -0.13968988 -0.14117149 0.18830243 -0.19613168
0000f0 e8 18 55 be ca 40 61 be 64 04 04 be 25 40 9e bc
       -0.20810282 -0.21997371 -0.128923 -0.019317696
000100 ac fc 0e be 55 1c 0d be bb 0b 14 be c0 eb 26 be
       -0.13963574 -0.13780339 -0.144576 -0.16300869
000110 e9 c8 7b 3d 5b fd ec bd b9 ad 5d bd a6 31 9f 3d
       0.0614709 -0.11571761 -0.054120753 0.077731416
000120 87 56 9f be fc 1c 22 be 7e d4 80 be 6e 0a 43 be
       -0.31120703 -0.15831369 -0.2516212 -0.19046947
000130 37 98 f9 bc 77 a6 30 be 01 25 ba bd f3 31 3a 3d
       -0.03046809 -0.17251001 -0.09089089 0.04545779
000140 27 25 87 be 1a 48 b1 bd 50 89 d2 bd 1f 99 1d 3e
       -0.26395532 -0.086563304 -0.102800965 0.15390442
000150 66 a3 cc bd 3c 9a c7 bd 41 e4 24 be 70 95 4d be
       -0.09992103 -0.09746215 -0.16102697 -0.20076537
000160 7c 22 57 be 13 94 38 be e2 78 12 be 4c c8 d3 3d
       -0.21009248 -0.18025236 -0.14303926 0.10340938
000170 40 b2 67 be f5 a6 be bb 70 01 45 be 2e 7f 2e be
       -0.2262659 -0.0058182427 -0.1923883 -0.17040703
000180 03 41 8b be e9 90 85 bd 62 da 5a be a9 4c 0c be
       -0.27198038 -0.0652178 -0.21372369 -0.13701119
000190 ba d1 99 bc 7f 99 9b 3c 93 ea b5 be de 49 1d 3d
       -0.018776763 0.018994091 -0.35530528 0.038400523
0001a0 c7 64 0c be e4 a6 c3 be c2 98 94 be 21 f9 8d bd
       -0.13710319 -0.38213265 -0.29022795 -0.06932283
0001b0 3e 65 39 be d9 c2 76 be 71 40 36 be 14 ee aa bc
       -0.18105027 -0.24097766 -0.1779802 -0.020865478
0001c0 a8 8c a6 bd d4 e5 ad 3d 97 2a 07 bf a8 68 1f bf
       -0.08132297 0.08491102 -0.5279936 -0.6226907
0001d0 49 97 55 be 49 87 61 be 66 f7 2b be ee 3c 2f 3c
       -0.20858492 -0.22024263 -0.16793594 0.010695679
0001e0 a1 eb 0f bd ab 9b 9d be bc f8 8c be e2 43 df bd
       -0.035136823 -0.30782828 -0.2753352 -0.109016195
0001f0 6f df 49 be 56 da 35 be 33 04 48 be 29 27 87 be
       -0.1971414 -0.1775907 -0.19532852 -0.26397064
000200 94 1a 4d bd 8e a1 af be 45 ae 04 be 02 86 5e 3d
       -0.050074175 -0.34302944 -0.12957104 0.05432702
000210 53 14 27 3e 9f 3d bf bc c4 bd 0d 3e a8 77 65 be
       0.16316347 -0.023344813 0.13841921 -0.22408926
000220 46 25 52 3e 8e 75 d1 3d ce e5 d6 be 05 6c 98 be
       0.20522031 0.102275 -0.41972202 -0.29769912
000230 46 7f 01 be 7b 03 88 be 83 c3 41 bc d6 8a d5 be
       -0.12646207 -0.26565155 -0.011826399 -0.41707486
000240 de 45 5a bd 67 06 bd bb 7c f9 19 be e8 bf 78 be
       -0.053289287 -0.0057685855 -0.15036577 -0.24291956
000250 97 b6 ec bd af 1b 6f be 2c f2 3c 3e 52 27 28 be
       -0.11558264 -0.23350404 0.18451756 -0.1642125
000260 4f 08 18 be 44 33 58 be f7 76 52 be 5f 5f 84 3d
       -0.1484692 -0.21113306 -0.20553194 0.06463503
000270 54 27 97 be 71 ef 04 bd 7e 90 73 be 3c f8 48 3d
       -0.29522192 -0.03245491 -0.23785588 0.04906486
000280 fc a6 4e be 68 fb 4b be bc 71 b2 be d5 66 64 be
       -0.20180887 -0.19920123 -0.34852397 -0.22304852
000290 91 a9 c5 bc 68 b2 d3 bd 19 fc 15 3d f5 28 03 bc
       -0.024128707 -0.10336763 0.036617372 -0.00800537
0002a0 2e 4d dd be 45 4a 02 bf 4b 29 31 3d f0 fc 27 be
       -0.43222946 -0.50894576 0.04325227 -0.16405082
0002b0 c9 85 fd bd 49 d8 c6 bd 54 dc a7 bd 38 19 62 be
       -0.12379033 -0.09709222 -0.08196321 -0.22079933
0002c0 60 49 84 be 0b 0b d5 3c 24 4f 3b 3d 79 e8 07 bf
       -0.2583723 0.026006242 0.04572977 -0.530891
0002d0 44 14 44 bd b9 fd 8a be 64 07 48 be 52 10 1b bd
       -0.04787089 -0.271467 -0.1953407 -0.03785736
0002e0 4e c9 0b bf c2 0a 50 be 6c 15 e7 be 04 b1 34 be
       -0.5460404 -0.20316604 -0.4513353 -0.17645651
0002f0 2c 8d 79 3d 12 a6 65 be aa 9c e6 3d 46 b2 fd ba
       0.060925648 -0.22426632 0.1126035 -0.0019355498
000300 69 37 8b be 21 97 87 be 38 c7 52 be 2d 7d 4f be
       -0.27190712 -0.2648249 -0.20583808 -0.20262595
000310 2e 95 53 be a3 34 d1 3b 05 d3 ff bd d4 59 d1 bd
       -0.20662376 0.0063844486 -0.12491421 -0.102222115
000320 58 6f 24 bd 35 b8 83 be 8b 85 3f be e6 e8 1f be
       -0.04014525 -0.25726476 -0.18703286 -0.15616187
000330 6a 7c f5 be 72 a4 41 be 37 11 d2 bd 8e c4 0a be
       -0.47946483 -0.18910387 -0.1025719 -0.13551542
000340 91 a0 67 be 04 ea 33 be 26 10 41 be 97 b2 cb 3d
       -0.22619845 -0.17569739 -0.18853816 0.09946173
000350 ad ed df bc f7 3d 32 bd d6 d9 4b be db 1f 3a be
       -0.027335012 -0.043516126 -0.19907317 -0.18176214
000360 3a e5 e7 bd 89 17 37 be dd 04 b9 bd 2c 12 bd 3c
       -0.11323018 -0.17880072 -0.09034131 0.023079954
000370 80 ef 9f be eb 60 02 3d f7 60 6e bd eb a6 ed be
       -0.31237411 0.03183071 -0.05819794 -0.4641641
000380 6a 42 36 bc ae 8f d1 3d 89 93 7d be eb 5c bb bd
       -0.011124233 0.10232483 -0.24763311 -0.09148582
000390 82 d8 68 3d 82 66 34 3d 85 d0 99 be 61 dc 16 be
       0.056847103 0.04404307 -0.300419 -0.14732505
0003a0 1c 33 87 be 19 24 31 3c 10 a7 83 be 01 ad cf 3d
       -0.2640618 0.010811829 -0.25713396 0.1014042
0003b0 e2 fb ee bd 1d 95 88 3d 02 15 0c 3e 58 e5 4e be
       -0.116691366 0.06669066 0.13679889 -0.20204675
0003c0 78 a0 48 be ad c1 40 be 5e 45 c3 bd fd e4 24 3d
       -0.19592464 -0.18823881 -0.09534715 0.040257443
0003d0 29 a3 87 bd 2d 56 c5 bd 95 c6 c5 3d db 30 2d 3e
       -0.06622917 -0.09635577 0.09657017 0.16913168
0003e0 42 55 aa be 92 8b e8 3d 5c ce 6e be 6b db 60 be
       -0.33268172 0.11354746 -0.23320907 -0.21958701
0003f0 ef 39 49 be 02 65 01 bc 7c 15 2c bd 96 17 dc 3c
       -0.19651006 -0.007897617 -0.042012677 0.026866715

weight f4 [256, 512]
000000 ed 3f 15 be 7d 69 98 bc 81 ec 8d 3d ae 1d 52 3d
       -0.14575167 -0.018604988 0.06929875 0.051297836
000010 75 09 71 be 1f 0d c1 3d 96 2e 71 be f4 69 84 be
       -0.23538764 0.09426331 -0.23552927 -0.25862086
000020 be d6 94 bd a4 01 9f be 02 dc 11 be dc e2 85 3d
       -0.07267521 -0.3105594 -0.14244083 0.065374106
000030 25 08 b7 bd 51 28 9b bc 0c ce 87 be f6 d6 1b 3d
       -0.089371 -0.018940123 -0.2652439 0.0380468
000040 6a 91 1f be f7 8d cc bd 9f 4f 86 be 77 1f 2e bd
       -0.15582815 -0.09988015 -0.2623262 -0.042510476
000050 09 ae 7b be d4 d2 aa be a9 6f bf bd 03 da 65 be
       -0.24578108 -0.33363974 -0.09347469 -0.22446446
000060 f8 6f a9 bd 6a 64 00 3e a7 fd 28 be 68 8f b9 be
       -0.082733095 0.12538305 -0.1650301 -0.36242223
000070 0b f1 ce bd 04 97 b1 bd ba ad 01 be d9 65 72 be
       -0.10104569 -0.08671382 -0.12663928 -0.23671664
000080 ee 48 ad bd 07 e6 ed bd 3d 14 4e be 96 e0 a0 3d
       -0.08461176 -0.1161614 -0.20124908 0.07855336
000090 9f 73 30 bd 28 b0 4c be 6c ba 43 3d 1a 18 14 be
       -0.043079015 -0.19989073 0.047785208 -0.14462319
0000a0 82 0e 16 bd 95 d8 4c be d0 92 64 be 43 50 6c be
       -0.03663493 -0.20004494 -0.2232163 -0.23077492
0000b0 3f 00 4a 3d 86 4b b8 be bd 2f e5 bd b3 37 41 3d
       0.04931664 -0.3599512 -0.11190746 0.04717226
0000c0 ba 6b 83 be e6 58 01 be 91 67 96 be af 6e 1a be
       -0.25668126 -0.12631568 -0.2937589 -0.15081285
0000d0 58 ee 70 be 7e 26 00 be 3b 90 b9 bd 86 5e 39 be
       -0.23528421 -0.12514684 -0.09060713 -0.18102464
0000e0 3a 2f c3 bd 3c 83 40 bd c1 ca 33 3e e9 64 a3 be
       -0.09530492 -0.047000155 0.17557813 -0.31912926
0000f0 cd 80 52 be a5 33 81 bd ef ae eb bd 58 3a 54 3e
       -0.20556946 -0.063086785 -0.11507975 0.20725381
000100 1c 66 96 be ae a2 2b be e5 20 9d be 96 04 de bd
       -0.29374778 -0.16761276 -0.3068916 -0.108407184
000110 5c 14 e4 3d 63 2a 6a bc 7d d3 8c be fd af e2 bd
       0.11136696 -0.014292332 -0.27505103 -0.11068723
000120 e7 24 45 be c3 51 a2 be 9f b7 88 be 14 34 bf bd
       -0.19252358 -0.31703004 -0.26702592 -0.09336105
000130 fc 1e c8 3b 55 40 c7 3d 82 9c a2 bd 5d 78 03 bd
       0.0061072093 0.09729067 -0.07940008 -0.03209721
000140 32 e1 75 be d4 4d fa bd bd 15 ea bd d1 45 d6 bd
       -0.24011686 -0.12221876 -0.114299275 -0.10462535
000150 23 ae 27 3e 31 23 54 be 98 81 61 3d 80 58 7e be
       0.16375022 -0.2071655 0.05505523 -0.24838448
000160 79 c7 23 be 93 41 3c be ee c9 91 3d 00 b2 5b bd
       -0.15994062 -0.1838439 0.07118593 -0.05363655
000170 74 d7 48 be c8 ea b9 3d 09 47 d4 bd d6 7d d9 bd
       -0.19613439 0.09077984 -0.103651114 -0.106197044
000180 f1 d0 39 3c 40 5c b8 3c 5d e4 a5 bd 31 6e f7 bd
       0.011341319 0.022504926 -0.081001975 -0.12081564
000190 7c ba a4 bd 4c 4d 16 3d f4 ce 2d 3d 93 95 0e 3e
       -0.080433816 0.03669481 0.042433694 0.13924246
0001a0 38 a6 6d bc 88 ca 32 be dc fc 38 be 87 c1 90 3c
       -0.014504962 -0.17460072 -0.18065208 0.017670406
0001b0 99 85 c4 bd d4 bf 7a bc 38 b6 df 3d d9 8e c1 bd
       -0.09595794 -0.015304524 0.10923427 -0.09451074
0001c0 50 2b 00 3d d7 b3 c3 3d 47 54 44 bd 47 c9 e7 bd
       0.031291306 0.09555786 -0.047931936 -0.113176875
0001d0 98 42 b5 bd 72 58 2e be a4 34 de bd 4b b6 45 3d
       -0.088505924 -0.17025927 -0.10849884 0.04826955
0001e0 a6 10 a8 bd 20 e3 16 3d bb a4 89 bd 66 7d 9a 3d
       -0.082063004 0.036837697 -0.06720873 0.07543449
0001f0 25 55 60 be 96 fb d3 bd c5 4c 0a bd 6c 33 d4 3c
       -0.2190748 -0.103507206 -0.03376462 0.025903426
000200 50 7c 64 be 63 d9 0b bd a6 00 5c be a1 69 b8 bd
       -0.22313046 -0.034142863 -0.21484622 -0.09004522
000210 d3 ec 74 39 6b 65 0e bd 6d 5e e3 3d ce 2a 81 be
       0.00023357877 -0.03476469 0.11101995 -0.2522797
000220 81 c0 c2 3c e6 a0 84 3d d6 cb 1f be c6 12 35 be
       0.023773434 0.064760014 -0.15605101 -0.17682943
000230 63 c4 5c be de ea 71 be e4 b1 36 be 68 34 f9 bd
       -0.2155929 -0.23624751 -0.17841297 -0.12168199
000240 05 9e c3 3d 79 07 7c be b4 28 40 be c1 c6 47 be
       0.09551624 -0.24612226 -0.18765527 -0.19509412
000250 00 ed cc bd ae 51 a8 bd 27 5d 1b 3d ab 24 2e be
       -0.10006142 -0.08218704 0.037930634 -0.17006175
000260 b3 ff 6b 3d 90 70 af be 49 48 9c be 3b 24 0e be
       0.0576169 -0.34265566 -0.305239 -0.13881008
000270 a5 b0 ad 3d d6 f7 4d 3e 32 32 2a be 24 8d 69 be
       0.08480958 0.20114073 -0.1662071 -0.22807747
000280 ea 19 15 be 82 f2 43 bd 9f e5 84 3c 8f 50 96 be
       -0.14560667 -0.047838695 0.016222773 -0.29358336
000290 74 73 6f bd 4f f9 78 3d 70 94 e1 3c a7 36 89 bc
       -0.058459714 0.060784634 0.0275366 -0.016749693
0002a0 c4 9c ca bb 44 fc 07 3c ee 74 84 be 54 a1 56 be
       -0.0061832387 0.008299891 -0.2587046 -0.2095998
0002b0 b4 61 8e 3d 25 1a 1a 3d 7b c7 f4 3c 2f 42 67 be
       0.06952229 0.03762259 0.029880276 -0.22583841
0002c0 71 9e ba bd ac be d9 3a 7c af 1a 3e 03 a7 39 bd
       -0.091122515 0.0016612611 0.15106004 -0.04532529
0002d0 3a a3 8b 3c dc ad 59 bd 4b dd 46 3d fe 0e 65 3d
       0.017045606 -0.05314432 0.048550885 0.0559225
0002e0 69 e6 c5 3c 0c d7 19 bd d0 6a 94 bd 6a a6 9e be
       0.02415772 -0.0375586 -0.07246935 -0.3098634
0002f0 1b 80 5e 3d 99 e6 b7 bd 60 d4 d8 3d 3b b5 5e 3d
       0.05432139 -0.0897953 0.10587382 0.054372054
000300 7e f0 c9 3d 4c 29 9a be 9e 52 2a 3e 62 20 68 bd
       0.09860323 -0.30109632 0.16633078 -0.056671508
000310 d0 3d 13 be 5b 87 11 3e 0b 02 37 be 64 82 fd bd
       -0.14379048 0.1421179 -0.17871873 -0.12378386
000320 8f b2 bd bd 5c 3b 0e be fd fa 69 bb 85 3b ed be
       -0.09262573 -0.13889831 -0.003570258 -0.46334472
000330 8c 81 58 be c1 34 93 bd a8 c6 57 bd 7e fd bf bd
       -0.21143168 -0.071877964 -0.052679688 -0.09374522
000340 bb d2 89 be f1 4d 00 3e d6 45 9a 3d a6 6e d5 3d
       -0.26918587 0.12529732 0.075328514 0.10421495
000350 8b 82 94 bd 82 23 60 bd 0a 18 8e be 93 e8 3a 3c
       -0.072514616 -0.054721363 -0.27752715 0.011407989
000360 59 2e 97 bd 46 fb b9 bd a4 70 54 bd a1 77 dc bd
       -0.07381887 -0.0908113 -0.051865235 -0.10765005
000370 66 46 7d bd 3c f0 86 ba a6 9b 83 be 57 8a 4c bd
       -0.061834715 -0.0010294984 -0.25704688 -0.04993662
000380 26 8f 4d be 0b 1b 84 3d ec 24 63 3c 53 cc c2 be
       -0.20074138 0.064504705 0.013863783 -0.38046512
000390 c9 7c 89 3d fb d6 06 3d 65 9b 50 be 2d 22 04 be
       0.06713254 0.032919865 -0.20371778 -0.12903662
0003a0 88 9a 36 be 78 ae 90 3d f9 a6 a9 be 6b 61 88 3d
       -0.17832386 0.07064527 -0.33135203 0.06659206
0003b0 01 26 ca be e5 ac 00 3d f0 c1 32 3d 26 90 df bc
       -0.3948212 0.031414885 0.043641984 -0.027290415
0003c0 c2 88 2b be 63 e7 64 be c6 cd 33 be 1d d3 88 3d
       -0.16751388 -0.22353892 -0.17558965 0.06680892
0003d0 04 c3 d9 3b 71 b2 94 be c3 99 a4 3d 63 b5 38 3e
       0.006645562 -0.2904239 0.0803714 0.18037944
0003e0 01 23 f2 bd 02 f4 03 3e 96 23 0f be bf de 8f be
       -0.11823083 0.1288605 -0.13978419 -0.2809963
0003f0 cb 1c 60 3e fd c6 90 be 7a 95 a8 bd 5b d9 3e bd
       0.21885984 -0.28276816 -0.082316354 -0.046594005

bias f4 [256]
000000 95 4c 65 3e 01 7c 36 be 24 56 8f bd 1c f1 1a be
       0.22392495 -0.17820741 -0.06998852 -0.15131038
000010 ea 0b c3 3e cb fe 0e 3d 08 a9 95 bd 94 14 52 3e
       0.38095027 0.03491096 -0.07307631 0.20515662
000020 f6 5e d7 3e 6d 45 11 be a6 6f a3 bd c3 5c 0c bc
       0.42064637 -0.1418664 -0.079802796 -0.008567038
000030 af af 9e bd 52 da 84 be 5c f0 0b be 08 4d 18 3e
       -0.07748353 -0.25947815 -0.13665909 0.14873135
000040 eb 7c fe 3e 25 e3 90 3e 0a 9f 74 be 1e e3 69 be
       0.4970468 0.28298298 -0.23888794 -0.22840545
000050 61 5b 17 3e 63 7b cc 3e a3 5f 4f be 6f c8 df bd
       0.14780952 0.39937887 -0.20251326 -0.109269015
000060 4b 37 4f 3e 9e 65 c2 bd ce e5 16 be ed 21 67 be
       0.20235936 -0.09492038 -0.14736101 -0.22571535
000070 86 4c dd bd 38 45 4a be 71 5c 1b 3f d6 9f a7 bd
       -0.10805611 -0.19752967 0.6068793 -0.08184783
000080 3d 49 7c 3e 0d ea 3c 3e 06 dc 90 3e 14 90 e3 bb
       0.24637313 0.18448658 0.28292865 -0.0069446657
000090 b4 fc 90 be d9 78 a6 3e b1 b9 02 be 63 34 cf 3e
       -0.28317797 0.32514074 -0.12766148 0.40469655
0000a0 79 14 8d 3c 4c 28 72 3e c0 b7 25 bd 66 b3 b3 bd
       0.017221676 0.23648185 -0.04045844 -0.08774452
0000b0 54 6d 44 3e 23 e5 74 be 64 e3 06 3e 47 be 1b 3e
       0.1918233 -0.23915534 0.1317268 0.15209304
0000c0 32 c4 99 3e 35 d3 39 be 22 4b f5 3e 63 6e 08 3f
       0.30032498 -0.18146975 0.47908884 0.53293437
0000d0 3e 16 ad 3d 5c 9d e7 3e a2 a0 0e 3f 0c 4e 62 be
       0.08451508 0.45237243 0.55713856 -0.22100085
0000e0 eb ec 6a 3d c0 8b 0e 3f 3f 35 b2 3c 89 81 95 3e
       0.05735485 0.5568199 0.021753905 0.2920039
0000f0 b3 fa f7 3e 53 65 c3 bd 4f af 1e 3f f5 4b c5 be
       0.48433456 -0.095408104 0.6198625 -0.38534513
000100 0b 45 d0 be ac 39 fe bd f0 54 85 bd fe a7 60 bb
       -0.40677676 -0.12413344 -0.06510341 -0.0034279819
000110 c1 60 4a 3d 35 da 38 3e 00 de 76 3e 22 a7 ef bd
       0.049408678 0.1805199 0.24108124 -0.117018
000120 32 08 42 3e 9d 36 0e 3f 7c 08 66 3e 4a f9 86 3e
       0.18948439 0.55552083 0.22464174 0.26362067
000130 e7 c3 8c 3e fa 20 e5 bc 3e 31 3b be c0 80 8b bd
       0.27493212 -0.027969826 -0.18280503 -0.068116665
000140 d5 01 d6 3e 1c 33 be be 30 32 bb 3e b2 70 a3 bd
       0.41798273 -0.37148368 0.36561728 -0.07980479
000150 ca c3 b9 3e 49 9e fd 3e c4 63 22 be b6 54 58 3e
       0.36282188 0.49534824 -0.1585837 0.21126065
000160 74 6c 79 3e 8a 24 50 be 71 ce 99 3d ce 57 4b be
       0.24357778 -0.20326439 0.07510079 -0.19857714
000170 5b 8e f4 3d 0d a1 a7 3d 28 1c be 3d 46 85 9b 3e
       0.11941215 0.08185015 0.09282714 0.30375117
000180 ea f5 d7 3e 1f 2e bc bd 92 37 96 bd 19 4f 7c bd
       0.42179805 -0.091884844 -0.07334818 -0.06159887
000190 fb 05 84 3e e2 6a 97 be ea 9d 63 3e c8 e0 74 3e
       0.25785813 -0.29573733 0.22228208 0.23913872
0001a0 2a 63 d9 3d 4e 7f c9 3c a6 bf 5f 3e 1b de 01 3f
       0.10614617 0.024596836 0.21850452 0.5072953
0001b0 91 09 85 bd c1 c9 14 be 96 e8 80 bd 8e 96 9f be
       -0.06495965 -0.14530088 -0.06294362 -0.31169552
0001c0 98 f7 0a 3d 8d 0f a9 3e 84 dc 19 be ab 14 8d be
       0.03392753 0.33019677 -0.15025526 -0.2755483
0001d0 56 bf 04 3e 21 fe 19 3e 19 ce a4 3d 76 b6 9e 3e
       0.12963614 0.15038349 0.080471225 0.30998582
0001e0 51 a8 e6 3d 35 41 83 3e 26 88 b4 3c 6b e0 a3 3e
       0.112625726 0.25635687 0.022037577 0.32007155
0001f0 fd 68 54 3e 22 5d 70 be 72 01 df 3e df 2e be 3d
       0.20743175 -0.23473027 0.4355579 0.09286284
000200 37 da 04 be cb a3 b8 be 11 e3 de bc 91 f3 cd 3e
       -0.12973867 -0.36062464 -0.027207883 0.4022489
000210 55 e7 8f 3e e7 b2 a1 3e 7d fe 48 be e9 3c 83 be
       0.2810618 0.31581804 -0.1962833 -0.25632408
000220 2b 2c 50 3e 2c d5 4c 3e 01 f2 b4 3d e6 46 c1 3e
       0.20329349 0.20003194 0.08835221 0.37749404
000230 4a 82 34 bd 61 6c 2f 3d cf b5 b5 3b 82 e7 bc be
       -0.044069566 0.042827968 0.005545355 -0.36895376
000240 c0 69 de bd e2 61 e3 3d 7e cd ee 3d 57 a4 15 3e
       -0.10860014 0.11102654 0.11660288 0.14613472
000250 11 e2 05 bd d8 2b 25 bd 7a 04 bc 3d 7d ab 66 bd
       -0.032686297 -0.040325016 0.09180541 -0.056315888
000260 ed 96 c0 3d 48 69 e1 bb 76 21 03 3f 0e a0 fa 3e
       0.09403787 -0.0068790056 0.5122293 0.48950237
000270 29 a2 b3 bd 3a 61 9e be f1 93 da 3e e1 63 9c 3e
       -0.08771164 -0.30933553 0.42690995 0.30544952
000280 58 0a 96 3e 74 8c 16 be f1 d1 44 be 7d d9 df be
       0.29304767 -0.14702016 -0.19220711 -0.43720618
000290 7d ce 06 3e 44 46 94 bd 84 65 ef 3c 2a 30 5c 3b
       0.13164707 -0.072399646 0.029223211 0.0033598044
0002a0 a7 67 a9 3e 4c a8 9f 3c ec 37 ee bc 58 9b a3 3e
       0.33086893 0.01948943 -0.0290794 0.31954455
0002b0 72 e4 81 bd 64 4f 73 be 69 2a f9 3d 5f 6d d2 3e
       -0.063424006 -0.23760754 0.12166292 0.4109907
0002c0 16 88 5c 3e 2c 68 a5 3e ba 74 5f bd ed 08 a4 3e
       0.21536288 0.3230604 -0.05455468 0.3203806
0002d0 f8 a9 e7 3e ab 3f 3b 3e 52 12 8c 3e 25 b7 b2 3e
       0.45246863 0.18286006 0.27357727 0.34905353
0002e0 bb fe 3a be f8 5f bb be 0d 04 91 bd 72 86 11 3e
       -0.18261234 -0.36596656 -0.07080851 0.14211443
0002f0 81 e5 07 3f fc cb 90 3e 79 8a 82 3e 98 1d ec 3e
       0.5308457 0.28280628 0.2549627 0.46116328
000300 ad 26 52 3d c6 36 99 3d f5 a7 c4 be cb 91 5c be
       0.051306415 0.0748115 -0.3840939 -0.2153999
000310 05 01 05 3e bb 15 10 3e 5a 99 39 be 79 dd 03 3d
       0.1298867 0.1407079 -0.18124905 0.032193635
000320 db f3 d5 3c cd 5b 04 3f a1 ea 59 3e d5 f3 83 be
       0.026117256 0.51702577 0.2128091 -0.25771967
000330 76 0b 86 3e f5 18 51 be 98 a3 3f be 00 4c 0c bd
       0.2618062 -0.20419677 -0.1871475 -0.034252167
000340 da b1 f8 3c 7f 32 84 3e 5a 4e f4 3d a8 1e bf 3d
       0.030358244 0.25819775 0.11929007 0.09332019
000350 68 fe 64 3e 9e e7 6d be 6f d0 a7 3e 8b 45 73 3e
       0.22362673 -0.23232886 0.3277621 0.23756997
000360 90 13 f5 3d ba 2d c1 3d a1 cf e4 3e 80 b5 fd 3e
       0.11966622 0.0943255 0.44689658 0.49552536
000370 bf a0 66 bd 3c 24 fa 3e c4 98 7b be 82 c6 03 3f
       -0.056305643 0.4885577 -0.24569994 0.51474774
000380 5a 4e 28 3e 0f a0 1c be 5c 81 99 be ec 50 ca 3d
       0.16436139 -0.15295433 -0.29981506 0.09878716
000390 3b 47 8c 3e 81 b0 cc be 97 43 66 3e 8b 08 59 3d
       0.27398095 -0.39978412 0.22486721 0.052986663
0003a0 0a 50 d9 3d 0d 2b 20 be 9c 51 d7 bd e6 f9 92 bb
       0.10610969 -0.15641423 -0.10513613 -0.0044853566
0003b0 24 52 38 be 8d 57 2e bd 0d 55 76 3e 61 26 49 3e
       -0.18000084 -0.042563964 0.24055882 0.19643547
0003c0 30 1c 1a be 59 c5 45 be 47 51 af 3d c3 ba 47 be
       -0.15049815 -0.19313563 0.08560424 -0.19504838
0003d0 5b 04 be 3d 89 23 47 3d d5 b1 a8 be fc fd a7 bc
       0.092781745 0.048617873 -0.32948175 -0.020506851
0003e0 ed 1d 0f be 3f a4 00 3e 28 c6 a9 bd 4e 5e 1f 3e
       -0.1397626 0.12562655 -0.082897484 0.15563318
0003f0 1b 9c 1c 3f 83 6c f8 3c d7 40 50 be 9a 1e 8a 3e
       0.611757 0.03032518 -0.20337234 0.26976472

weight f4 [64, 256]
000000 02 97 6f bd 19 e0 25 bd d0 17 ca 3d 4f d5 7e 3d
       -0.05849362 -0.04049692 0.09867823 0.062215146
000010 ec 85 da bb e0 90 6d be ad 60 8e 3d fc e4 ab be
       -0.0066687968 -0.23199797 0.06952033 -0.3357314
000020 00 83 8b be 03 4b 2f bd 96 30 a2 bd 40 12 e0 bc
       -0.27248383 -0.042796146 -0.07919423 -0.027352452
000030 99 10 9c bd d4 01 60 bc 68 71 66 3c 17 53 af bd
       -0.07620353 -0.013672311 0.014065124 -0.0856077
000040 4d 6f 83 be 9c ac 84 bd fc 75 d3 3d 09 e9 b4 3d
       -0.25670853 -0.06478235 0.10325238 0.088335104
000050 e4 a1 16 be bc ba 9e be 77 db ab bd d7 c1 d9 bd
       -0.14710194 -0.31001842 -0.08391469 -0.10632675
000060 ec e3 6c bd 43 a7 bc 3c 2e ab 7b bb c6 a3 f5 3d
       -0.05783455 0.023028975 -0.0038401592 0.11994128
000070 0b 41 4c 3d 9c 67 c5 3d 33 a8 b6 be 1b 96 02 bd
       0.049866717 0.096389025 -0.356752 -0.031881433
000080 1a 2f a3 bc dd 06 d6 bd ea e5 12 be 6e f7 ba 3c
       -0.01991992 -0.10450528 -0.14345518 0.022823062
000090 a0 95 98 3d 7b 50 b4 be 0d e2 d8 bd 53 fd 66 be
       0.07450414 -0.35217652 -0.10589991 -0.22557573
0000a0 ec cb fa 3c c2 79 fc bc 66 b5 7d bd 2b c5 9a 3d
       0.030614816 -0.030819777 -0.061940573 0.07557138
0000b0 e5 6c 54 be 6e 25 29 3d c1 20 00 be fb ee 16 3d
       -0.20744665 0.04129546 -0.12512495 0.036849003
0000c0 4d d8 75 be 78 63 26 be 95 88 21 bd 60 bd fe be
       -0.24008293 -0.16248882 -0.039436895 -0.49753857
0000d0 62 9e 77 bd 3f ea f4 bd d8 51 3d be d7 b3 78 bd
       -0.06045378 -0.119587414 -0.18488252 -0.060718384
0000e0 bf 52 4a be 08 d4 24 be a1 27 75 3c 21 69 9e be
       -0.19758128 -0.16096509 0.014963062 -0.30939582
0000f0 35 23 6c be c3 21 6b 3d a8 be d8 be b1 ba c7 3d
       -0.23060305 0.057405245 -0.4233296 0.097524054
000100 24 5c bf 3d 5c 2d 50 be 46 bc 90 3d 53 8b db bb
       0.09343746 -0.20329803 0.0706716 -0.0066999584
000110 1d 13 61 bd 76 f8 3b be bc e4 3d be 83 86 a2 3c
       -0.05494987 -0.18356499 -0.18544286 0.01983953
000120 fc 3f 49 be 04 aa 4f be 7a 83 d4 bc c2 91 05 39
       -0.19653314 -0.202797 -0.0259416 0.00012738167
000130 b4 65 6e be e8 6c 82 be 42 ce f1 3a 34 93 22 3d
       -0.23280984 -0.25473714 0.001844831 0.039691165
000140 38 41 bd be 3d 20 07 3d 11 3f 15 be 8f 9b 75 bd
       -0.3696382 0.03298973 -0.14574839 -0.059962805
000150 4f 69 e8 bd 09 c6 c7 be 1c f7 ea 3d 17 33 fb 3c
       -0.11348211 -0.39018276 0.114729136 0.03066401
000160 3b a2 a3 be de 7a b3 3b 84 13 60 3b 4f f0 5c 3d
       -0.3195971 0.0054772934 0.003419132 0.053940114
000170 4b 3c 05 bd cd 8c 3e be 64 df 05 be 90 9f ee bc
       -0.032528203 -0.18608399 -0.13073498 -0.02912882
000180 7f c1 ec bd 0a b4 c5 bc 44 bb ad 3d a6 ef 35 bd
       -0.11560344 -0.0241337 0.08482984 -0.044418
000190 aa 4c 21 be 23 3f 98 bc 5c a6 23 bc 95 09 90 bd
       -0.15751901 -0.018584793 -0.009988394 -0.070330776
0001a0 f2 11 51 bd f5 8f f5 3d 80 19 7a be 1c 2d c4 be
       -0.051042505 0.11990348 -0.2442379 -0.38315666
0001b0 e6 d7 e3 bc 46 da fa bd bd 04 14 ba 1b 8c 99 3d
       -0.02781291 -0.122486636 -0.0005646458 0.07497426
0001c0 4d 5e 3e be bb dd 37 be 99 7a 75 bc f6 bc 18 3d
       -0.1859066 -0.17955677 -0.014982843 0.037289582
0001d0 33 50 d0 3d 43 18 67 be f3 a6 0e be 82 dc a2 bc
       0.10171547 -0.22567849 -0.13930874 -0.019880537
0001e0 11 eb d8 bb d3 a9 82 bd 32 5c b0 3d bb 12 96 3c
       -0.006619819 -0.06380048 0.08611335 0.018319478
0001f0 ce 33 32 be 02 06 44 3d a4 d9 2d be e3 12 3c 3d
       -0.17402574 0.047857292 -0.16977555 0.04591645
000200 c4 fb 09 3e 76 15 96 3d 35 ae a9 3d a2 53 de bd
       0.13474947 0.07328312 0.082851805 -0.108557954
000210 ae 8f 93 bd b8 60 19 be 66 48 25 be a6 f9 52 3b
       -0.07205139 -0.14978302 -0.16140899 0.003219226
000220 f5 fc 58 3d 62 55 04 be c7 a0 ae bd aa 0c 89 bd
       0.052975614 -0.12923196 -0.085267596 -0.066918686
000230 d7 5c d9 bd b3 d5 ca 3d d4 e1 93 3c b9 07 2f 3d
       -0.10613411 0.09904041 0.01805202 0.042731974
000240 8e a6 35 bb b9 c2 40 be cc 15 18 bd c2 4b 98 be
       -0.0027717683 -0.18824281 -0.037130162 -0.297453
000250 7c 64 87 ba 6d cd 13 3c d5 53 7a 3d 75 a3 ce 3c
       -0.0010329629 0.009021145 0.061115105 0.025224427
000260 5a b3 39 be 3b 27 41 be 68 f8 20 be f1 f3 1e be
       -0.18134823 -0.18862621 -0.1571976 -0.15522744
000270 1a 3c 0b bd 12 19 2d bd 86 4c 24 be 81 cd 01 be
       -0.033992864 -0.042260237 -0.16044816 -0.1267605
000280 93 f8 81 be d8 b1 dc 3c c7 4d a7 3d a2 5e 83 3c
       -0.2538496 0.026940271 0.08169132 0.016036335
000290 5d c4 76 bd b3 da c9 3d d6 db a6 3c fc cd 37 bc
       -0.06024586 0.09856167 0.020368498 -0.011218544
0002a0 9d c4 8a 3c cd 55 a8 3c e2 05 9c 3c fe 33 83 be
       0.016939456 0.020548726 0.019045774 -0.25625604
0002b0 7f 8a 6e bd 0c 23 86 3d 70 19 30 be 12 62 07 be
       -0.05823755 0.065496534 -0.17197204 -0.13221005
0002c0 6f d3 c0 bd 93 60 75 be 92 50 68 3c 9b 8a 36 be
       -0.09415328 -0.23962621 0.014179366 -0.17826311
0002d0 f3 64 56 be 50 3e 93 3c c0 07 c2 be 46 7a 80 be
       -0.20936947 0.017974049 -0.37896538 -0.25093287
0002e0 b9 74 9c bd 79 3c e1 3b c5 d7 7b bd 93 43 87 bd
       -0.076394506 0.006873664 -0.06148507 -0.06604686
0002f0 7d 27 1d be c1 95 9b be 5a e9 43 be 72 0d cb be
       -0.15347095 -0.3038769 -0.19131985 -0.39658695
000300 45 c7 ec bd 38 07 4e 3b ad cb 9d 3a 9c 8d 1f 3b
       -0.11561445 0.0031437408 0.001203885 0.002434588
000310 45 6a 6f be 30 39 cc bd 8f bb 05 3d 33 71 07 bd
       -0.23380382 -0.09971845 0.032649573 -0.03306694
000320 a8 2f a9 bd ae 66 91 bd d6 21 ba 3c 2f df 4b bd
       -0.08261043 -0.07099663 0.022721212 -0.04977339
000330 92 b7 1a be f0 f1 9d bd 0e 04 41 bb c4 34 5c 3d
       -0.15109089 -0.077121615 -0.002945188 0.05376126
000340 0c 8f 9b 3d 37 f6 52 3d 47 e4 02 be c9 3d 6f 3d
       0.075956434 0.05150434 -0.12782393 0.058408532
000350 09 f3 e3 bd 2a 5e 57 3d e1 f1 2d be 5e d4 53 be
       -0.1113034 0.052580036 -0.169868 -0.2068648
000360 b3 63 da 3c 8d 15 17 be 6f 9e 29 be 29 0c 9b be
       0.026658868 -0.14754315 -0.16564344 -0.30282715
000370 16 85 9f 3d 16 d6 90 be 72 db 8f 3d 8a d8 aa be
       0.07789056 -0.28288335 0.07024278 -0.3336833
000380 7c 83 34 be 25 88 c7 bd da 88 ad 3d 0a ec 45 3d
       -0.17628282 -0.097427644 0.08473368 0.048320808
000390 c5 77 b8 bd 1a 8e 50 3d 4b c0 43 be f6 b9 88 bc
       -0.09007219 0.05091677 -0.19116323 -0.016690236
0003a0 30 dc e8 bd 54 bf 60 3c 55 3a 42 3d e2 94 ae 3d
       -0.113701224 0.013717491 0.04741891 0.08524491
0003b0 b6 3e 8b 3d 97 34 0b 3d a5 40 44 be 73 9b 97 ba
       0.067990705 0.0339857 -0.19165285 -0.0011566713
0003c0 61 94 63 3d 84 e4 67 3d 63 e2 4d be 3b 14 fa 3c
       0.055561427 0.056614414 -0.20105891 0.030527225
0003d0 67 a6 71 be 6e df 2c be 85 4f bf 3c 1e 8a 70 3c
       -0.23598634 -0.16882107 0.023353348 0.014681367
0003e0 6f 6d 45 3d 19 30 45 be ec 77 06 3d c4 66 b7 bd
       0.048200067 -0.19256629 0.03282921 -0.08955148
0003f0 63 6e 87 bd e2 8c 3d be ca 6d 0a 3d eb 22 3e bd
       -0.066128515 -0.18510774 0.03379611 -0.04642002

bias f4 [64]
000000 9b 36 a0 be ea e8 4f be 22 22 36 bd 42 b6 f6 3c
       -0.3129166 -0.20303693 -0.044466145 0.030116204
000010 85 e3 5b 3c 6a 33 d8 3c da bc 0b be d0 b6 87 be
       0.013420944 0.026391704 -0.1364626 -0.26506662
000020 45 6c 0c be 97 f0 da bd 69 6d e4 bc 72 39 ca 3d
       -0.13713177 -0.1069042 -0.027884202 0.09874238
000030 75 de 0b 3e 94 c0 c5 3d de 60 dc bd 9c 55 67 be
       0.1365908 0.09655872 -0.107606634 -0.22591251
000040 c5 60 1f 3c c4 76 40 3d df bc ac 3d a8 59 84 3e
       0.0097276615 0.046988264 0.08434462 0.25849652
000050 e1 65 18 3e ed 74 95 3d e0 c9 8d 3d 8f 36 39 bd
       0.14882614 0.072976924 0.0692327 -0.045218047
000060 be 88 79 3d 69 e6 f7 3d 6c 79 0a 3e 27 e0 a1 bd
       0.060921423 0.12104494 0.13522881 -0.07904082
000070 b4 d7 0f be 3b 5b 31 3e 46 11 95 3d 02 59 73 bd
       -0.14047128 0.17319958 0.07278685 -0.059411056
000080 76 a4 4f bb b3 6d a4 3d d8 0d 49 3e 36 db d3 bd
       -0.003168372 0.08028736 0.19634187 -0.103445455
000090 84 5f b1 bd bb 84 20 3e 10 6f 33 3d 86 81 e1 bc
       -0.08660796 0.15675633 0.04380709 -0.027527582
0000a0 75 0b dd 3c 03 c3 93 3d fb cc dd 3d c3 71 23 3e
       0.026983002 0.0721493 0.108301125 0.15961365
0000b0 50 80 6f 3e df 48 12 3e 65 37 90 3b 80 c6 86 bc
       0.23388791 0.1428561 0.004401135 -0.016452074
0000c0 f8 ee e1 bd b6 3b f2 bd 18 74 91 3d c6 4e f1 3d
       -0.11031908 -0.11827795 0.07102221 0.11782603
0000d0 dc c9 12 3e f8 95 b8 3d 35 13 3f be b5 eb 13 be
       0.14334816 0.09012979 -0.1865967 -0.14445384
0000e0 68 6f 8f be 1e 27 3d be 25 1d 2d bc 96 89 0c 3d
       -0.28014684 -0.18471953 -0.010566031 0.0343109
0000f0 35 78 d3 bc 66 ce 87 3c 9c 05 2b be 6b 8d 90 be
       -0.025814155 0.01657791 -0.16701359 -0.28232893
