TP/save_models_MLP_64_Dropout_Gridsearch_Relu/model_6.pt (torch, 36957 bytes, 4 tensors)

weight f4 [64, 64]
-0.39360732 -0.06469935 0.028459504 0.09634837 -0.039885264 -0.024218492 -0.25248748 -0.074303366
-0.05153265 -0.19202115 0.11639021 -0.021437403 0.01814579 0.022985129 -0.1986315 -0.049091987
0.082474776 0.2662694 0.09731072 0.0066826153 -0.035949823 -0.007998317 -0.109698124 -0.087853976
-0.15730475 -0.032814663 0.09326738 -0.029363627 0.0059207096 0.31513396 -0.027907845 0.34589377
0.009884924 -0.08191902 0.28816497 -0.060542952 0.07846629 0.062794864 0.21413599 -0.15991883
-0.03113152 0.024954302 4.8844053e-05 -0.28903514 -1.5443889 -0.0034791415 -0.1358426 -0.012215976
-0.27185538 0.106659874 0.1555461 0.0064910753 -0.10736878 0.14892332 -0.32021877 0.14882542
-0.46987316 -0.00055147894 -0.2546332 -0.03055051 -0.28330877 0.3748555 0.046857387 -0.26754352
-0.35723004 -0.9788815 -0.47754765 -0.48533806 -0.35949463 -0.3840978 -0.2743597 0.06522575
-0.041145857 -0.11507084 -0.22769165 -0.23102623 -0.20171522 -0.189292 -0.18024647 0.007972158
0.1282705 0.061335247 -0.42257556 -0.37367034 -0.5174115 -0.16001731 0.042942554 0.020537077
-0.04414377 0.09082852 0.025024889 -0.13962016 -0.074182615 0.015705025 -0.06423577 -0.011200241
-0.056858253 0.051923778 -0.03999063 -0.09637164 -0.18708546 0.083557665 0.09636458 0.011828419
-0.08360495 0.0324851 0.010467435 -0.01497175 -0.008664398 0.0893779 0.09998128 -3.3913453e-05
0.10905673 -0.2925534 0.101636775 -0.0133193275 0.049824532 0.04404294 0.074122705 0.11562453
0.042297456 -0.0017924526 0.027375292 0.014889091 0.008636114 0.008636529 0.0022439891 0.041613642
-0.30755872 0.26490572 -0.0070936712 -0.22229937 0.023288531 0.0623658 -0.07836987 0.18426141
0.21961741 -0.19364263 0.037196115 0.103593625 -0.1364414 0.08690099 0.027103843 -0.11219088
0.021911787 0.034955803 0.053019986 -0.14913565 0.11684371 0.02362139 -0.0535465 -0.063777715
-0.15097123 -0.013476454 0.10217256 0.4762642 -0.25709364 0.045229863 -0.061936006 -0.009488563
0.009609222 -0.103495054 0.14660858 -0.59816325 0.24108525 0.003605032 -0.08351743 -0.13691019
0.006964809 0.06746521 0.13722907 -0.13538721 -0.31330228 0.004372358 -0.06489886 -0.0335812
-0.16054836 -0.048324067 -0.11543767 0.009473294 -0.18491411 0.0665456 -2.7151568 -0.07725442
0.15839466 -0.057996634 -0.10702638 -0.09162768 -0.14244257 -0.053858403 0.06868625 0.0020954546
-0.10619789 -0.04643012 0.12764417 -0.017470581 0.068879664 -0.06809132 -0.13426238 -0.19225842
-0.05943316 0.028853016 0.13957687 0.04689715 -0.011016407 -0.010259996 -0.14149347 0.05643486
-0.06331684 0.05573983 0.0602293 -0.004568863 0.026282595 -0.016052574 -0.02788332 0.03115229
-0.03895583 0.033638455 0.043614622 0.01731025 -0.042243138 -0.032689035 0.020551493 0.035839092
0.06856485 0.02251714 0.05343715 0.00064854446 -0.040858686 -0.043017425 -0.057182923 0.08307096
-0.025740996 0.10264094 -0.15412553 -0.042244352 0.00027551848 0.03271699 0.07894597 -0.04428913
-0.11382518 -0.26209608 -0.27043623 2.0837114 -0.13496618 -0.056115214 -0.0028581866 -0.006282431
-0.14719322 0.10110104 -0.13021229 0.07922087 0.06671207 -0.16864242 0.08315799 -0.2996001
00000000: e686 c9be 1881 84bd e823 e93c 4b52 c53d
00000010: bb5e 23bd dc65 c6bc 0a46 81be 5d2c 98bd
00000020: e613 53bd 31a1 44be fe5d ee3d 7e9d afbc
00000030: 7ba6 943c 4f4b bc3c 0e66 4bbe ae14 49bd
00000040: 89e8 a83d 7654 883e d84a c73d d7f9 da3b
00000050: 1f40 13bd 5f0b 03bc 69a9 e0bd c9ec b3bd
00000060: 7f14 21be ab68 06bd f802 bf3d fd8b f0bc
00000070: 8302 c23b 3d59 a13e fe9e e4bc fd18 b13e
00000080: 60f4 213c 29c5 a7bd 5c8a 933e e3fb 77bd
00000090: efb2 a03d 989a 803d 7746 5b3e c3c1 23be
000000a0: 8807 ffbc f76c cc3c e7dd 4c38 6afc 93be
000000b0: 89ae c5bf 4f02 64bb 531a 0bbe 8425 48bc
000000c0: a130 8bbe 7e70 da3d 7a47 1f3e 16b3 d43b
000000d0: 2ae4 dbbd 5b7f 183e b7f3 a3be b165 183e
000000e0: 3793 f0be 2091 10ba 485f 82be 1045 fabc
000000f0: d90d 91be 0fed bf3e 88ed 3f3d 77fb 88be
00000100: dbe6 b6be fa97 7abf 2081 f4be 3b7e f8be
00000110: ae0f b8be 78a8 c4be e078 8cbe 1495 853d
00000120: 8f88 28bd 43aa ebbd 0028 69be 2492 6cbe
00000130: 6f8e 4ebe c3d5 41be 8892 38be a79d 023c
00000140: 5859 033e ab3a 7b3d d35b d8be b851 bfbe
00000150: 1475 04bf 94db 23be 88e4 2f3d 5f3d a83c
00000160: 19d0 34bd 4e04 ba3d ff00 cd3c 96f8 0ebe
00000170: 0eed 97bd d3a7 803c 0b8e 83bd 3781 37bc
00000180: 33e4 68bd 07ae 543d 37cd 23bd 7f5e c5bd
00000190: 5593 3fbe 4820 ab3d cb5a c53d fccb 413c
000001a0: 1239 abbd 190f 053d 9b7f 2b3c 124c 75bc
000001b0: 1ff5 0dbc c30b b73d fcc2 cc3d 4b3e 0eb8
000001c0: 2359 df3d 8fc9 95be f126 d03d 4f39 5abc
000001d0: cf14 4c3d 5f66 343d a5cd 973d 8ecc ec3d
000001e0: 1940 2d3d bbf0 eaba 2642 e03c 60f1 733c
000001f0: 7d7e 0d3c 3a80 0d3c e40f 133b 1173 2a3d
00000200: 5678 9dbe b9a1 873e 0772 e8bb 72a2 63be
00000210: 97c7 be3c 4873 7f3d 6280 a0bd 06af 3c3e
00000220: 63e3 603e 414a 46be f45a 183d e528 d43d
00000230: 4bb7 0bbe 25f9 b13d e108 de3c 55c4 e5bd
00000240: 5980 b33c d12d 0f3d 7c2b 593d 04b7 18be
00000250: c14b ef3d a581 c13c 9353 5bbd e49d 82bd
00000260: 3498 1abe 58cc 5cbc d93f d13d e7d8 f33e
00000270: c7a1 83be f342 393d 9cb0 7dbd eb75 1bbc
00000280: 0070 1d3c 37f5 d3bd 8f20 163e 3a21 19bf
00000290: 0ddf 763e 6742 6c3b 300b abbd 2f32 0cbe
000002a0: 0d39 e43b 332b 8a3d c785 0c3e f2a2 0abe
000002b0: 2869 a0be ff45 8f3b b2e9 84bd 718c 09bd
000002c0: ca66 24be 75ef 45bd 966a ecbd e035 1b3c
000002d0: 205a 3dbe 0f49 883d 21c5 2dc0 9137 9ebd
000002e0: 3632 223e e18d 6dbd a630 dbbd 4ba7 bbbd
000002f0: 77dc 11be a19a 5cbd 60ab 8c3d e553 093b
00000300: 487e d9bd 822d 3ebd 27b5 023e 771e 8fbc
00000310: c810 8d3d 7673 8bbd 147c 09be 64df 44be
00000320: 2f70 73bd 295d ec3c 3ded 0e3e 3a17 403d
00000330: 297e 34bc 8b19 28bc aae3 10be 3d28 673d
00000340: 42ac 81bd 734f 643d 00b3 763d 67b6 95bb
00000350: 994e d73c b080 83bc 8f6b e4bc 1633 ff3c
00000360: 2690 1fbd 7ac8 093d 3fa5 323d 3ace 8d3c
00000370: 2407 2dbd f0e4 05bd 9b5b a83c 03cc 123d
00000380: ba6b 8c3d dd75 b83c eae0 5a3d 1503 2a3a
00000390: 705b 27bd 0a33 30bd a438 6abd 1c21 aa3d
000003a0: c8de d2bc 6a35 d23d 15d3 1dbe 6a08 2dbd
000003b0: 7773 9039 4002 063d 6dae a13d 8568 35bd
000003c0: 2d1d e9bd 7531 86be 9e76 8abe 875b 0540
000003d0: 9334 0abe 11d9 65bd 6a50 3bbb dadc cdbb
000003e0: d2b9 16be 100e cf3d 5f56 05be 8d3e a23d
000003f0: 56a0 883d 99b0 2cbe bc4e aa3d 2f65 99be

bias f4 [64]
-1.1274484 -0.6851043 -0.8125891 -0.83454806 -1.5951233 -0.8076385 -1.218904 -0.28492522
-1.0801059 -1.1240745 -1.0249172 -0.7666641 -1.4761211 -1.031562 -0.7815709 -2.1804147
-3.0345325 -0.9990204 -0.25675717 -1.2896448 -0.668909 -0.49585932 -1.1557515 -1.6165044
-0.96805304 -1.0370655 -0.7311599 -3.0453277 -1.1646465 -0.5984055 -3.1700995 -0.14935265
-0.45651212 -1.1838286 -0.8588983 -3.270953 -1.024518 -0.2432158 -1.291124 -0.29509503
-1.7107822 -1.5272278 -0.95516354 -2.7450604 -2.3441622 -0.30561194 -2.669372 -0.7487729
-0.79847586 -1.2150933 -1.0412456 -2.7111366 -0.57587165 -0.37400132 -1.0414236 -0.6080234
-0.5347001 -0.2601398 -0.41966173 -1.2577001 -0.33357787 -0.87765586 -0.84369254 -3.30722
00000000: 3b50 90bf ff62 2fbf d705 50bf f1a4 55bf
00000010: 002d ccbf 66c1 4ebf 0c05 9cbf b8e1 91be
00000020: e940 8abf ace1 8fbf 7d30 83bf 1944 44bf
00000030: 89f1 bcbf 390a 84bf 0815 48bf ea8b 0bc0
00000040: c835 42c0 cdbf 7fbf ad75 83be 1513 a5bf
00000050: 9f3d 2bbf 46e1 fdbe aaef 93bf 9ee9 cebf
00000060: 53d2 77bf 90be 84bf 4c2d 3bbf a6e6 42c0
00000070: 2313 95bf 1a31 19bf e9e2 4ac0 e7ef 18be
00000080: f5bb e9be b287 97bf c2e0 5bbf 4b57 51c0
00000090: 6823 83bf 900d 79be 8d43 a5bf b216 97be
000000a0: e9fa dabf 337c c3bf 9985 74bf 12af 2fc0
000000b0: c106 16c0 2b79 9cbe fed6 2ac0 95af 3fbf
000000c0: ea68 4cbf 2d88 9bbf 8947 85bf 4383 2dc0
000000d0: 536c 13bf 1a7d bfbe 5e4d 85bf 6ca7 1bbf
000000e0: 1be2 08bf 0b31 85be e7dd d6be 51fc a0bf
000000f0: b8ca aabe 0eae 60bf 3cfc 57bf 7ea9 53c0

weight f4 [64, 64]
0.08869447 0.08390153 0.22764665 0.18401712 0.2892341 -0.10615368 -1.236406 0.10005423
0.1638183 0.21378027 -0.20448302 0.18313126 0.25060025 0.11363651 0.15615448 0.30392462
0.23183127 0.27630794 0.040416844 0.21302903 0.12047475 -0.2519247 0.54372966 0.22731723
0.07510301 0.009741721 0.038245223 0.18936002 0.12069477 -0.24326478 0.120751165 0.16093232
-0.069140315 0.22341608 -0.09605188 0.2616151 0.30982193 0.10045798 -0.005220932 -0.16528898
0.27492988 -0.48092481 -0.22505088 0.12693973 0.18152106 -0.0085447 0.1993452 0.26046774
-0.06134289 -0.15221821 -0.042027026 0.17112121 0.15581796 0.19521797 0.270106 0.06556295
-0.0027282813 0.17799014 0.16330126 -0.11452056 0.109808676 0.19556752 0.17417279 0.16723123
0.12164041 -0.21809328 0.110529445 0.08908031 0.35210603 0.15327321 0.30343375 0.1270311
0.18596879 0.14156888 -0.15931284 0.015023015 0.13509256 0.028465962 0.12619689 0.22429816
0.14403093 0.21553592 0.04178456 0.11007139 0.18735223 -0.0782817 0.241669 0.08934666
0.06050891 -0.028733078 -0.124921344 0.093787685 0.064842716 -0.82748795 0.3147056 0.07429629
0.043681234 0.055196684 -0.04756701 0.138217 0.056901462 0.043987244 0.09797892 0.06981229
0.2709204 -0.06057316 0.036281962 0.17155334 0.20558883 0.051851105 0.18165618 0.28280982
0.043577835 -0.03135248 0.21673527 0.12571979 0.10017038 0.07195505 -0.04493187 0.1346675
-0.053986505 0.101186134 0.105333775 0.36841935 0.006077548 0.0502409 0.027038045 -0.22108404
-0.004765997 -0.42747685 0.048355583 0.12457127 0.1972641 0.082225144 -0.1345235 0.10151899
0.056207884 0.0982137 -0.0059512337 0.13736776 0.04288966 -0.01656188 0.11908918 0.21612155
0.13253531 0.15493916 -0.0289203 -0.035573114 0.09864646 -0.17788954 -0.023162944 0.0020605463
0.0892402 0.016174229 0.31453016 0.19327186 -0.07264517 -0.86877006 0.03355073 0.17257436
0.015319224 0.22823742 0.07792524 0.09463501 0.10542406 0.100970976 0.07992798 -0.026216013
-0.07421862 -0.04517491 0.06404064 0.07575393 0.13913189 0.03499147 0.15697916 0.1356502
-0.0759878 0.003442678 0.39712673 0.110901445 0.13506018 0.10185004 -0.01625887 -0.06282089
0.07366084 0.11599279 0.14435832 0.034718823 0.023820203 0.015231609 0.09426789 -3.0402012
0.050433032 -0.65950274 0.176747 0.048307024 0.12091707 0.011267712 -0.039195064 -0.043252043
0.13123597 0.058642674 0.027626801 0.11641822 -0.024557974 0.026319722 0.09836933 0.06073456
0.0046518147 0.044323836 -0.20544371 -0.06788316 0.1925246 -0.03991373 -0.08839618 -0.09495496
0.1547547 0.08772099 0.011892412 0.15372533 -0.006130457 0.021219492 0.044285093 0.0106331
0.086778924 0.0985753 0.18062957 0.0048461584 0.0924213 0.11962354 0.011080358 0.04341175
-0.6307088 0.0024108249 0.0459828 0.13587135 -0.0197812 0.09504517 0.16876064 0.029564394
-0.12519573 0.12534094 0.5015528 0.03464243 0.047565646 0.045196373 -0.00029255514 -0.03408318
0.015225214 0.1526133 0.039991826 0.2492476 0.07685702 -0.040912766 0.26663873 -2.6142201
00000000: 72a5 b53d 91d4 ab3d 341c 693e fc6e 3c3e
00000010: 7e16 943e 1a67 d9bd 8d42 9ebf 3be9 cc3d
00000020: fcbf 273e 37e9 5a3e ff63 51be c386 3b3e
00000030: ad4e 803e 42ba e83d f6e6 1f3e 029c 9b3e
00000040: 2d65 6d3e 3c78 8d3e 228c 253d 4824 5a3e
00000050: 77bb f63d 46fc 80be de31 0b3f d9c5 683e
00000060: 9bcf 993d bd9b 1f3c 06a7 1c3d 98e7 413e
00000070: d22e f73d 671a 79be 634c f73d 71cb 243e
00000080: 7099 8dbd 2fc7 643e d9b6 c4bd 6af2 853e
00000090: fba0 9e3e eabc cd3d 5a14 abbb 8441 29be
000000a0: 9cc3 8c3e c73b f6be bd73 66be 7dfc 013e
000000b0: a8e0 393e 12ff 0bbc 2621 4c3e 075c 853e
000000c0: af42 7bbd 17df 1bbe 8824 2cbd 663a 2f3e
000000d0: be8e 1f3e 38e7 473e 554b 8a3e de45 863d
000000e0: f7cc 32bb 0c43 363e 7238 273e c189 eabd
000000f0: 5fe3 e03d da42 483e 5a5a 323e aa3e 2b3e
00000100: 9b1e f93d d853 5fbe 435d e23d bd6f b63d
00000110: 3e47 b43e a7f3 1c3e ab5b 9b3e 7114 023e
00000120: 9a6e 3e3e 6ff7 103e e822 23be 1823 763c
00000130: b455 0a3e 7331 e93c c239 013e 6bae 653e
00000140: d87c 133e 73b5 5c3e 4926 2b3d 1c6d e13d
00000150: 43d9 3f3e 2852 a0bd 1478 773e 62fb b63d
00000160: 31d8 773d a261 ebbc c3d6 ffbd c213 c03d
00000170: 42cc 843d 40d6 53bf 1821 a13e a728 983d
00000180: 18eb 323d eb15 623d a0d5 42bd c288 0d3e
00000190: 8211 693d f82b 343d 2ca9 c83d bff9 8e3d
000001a0: 14b6 8a3e 901b 78bd 659c 143d aeab 2f3e
000001b0: e185 523e d361 543d 1404 3a3e 73cc 903e
000001c0: ac7e 323d 756b 00bd daef 5d3e b0bc 003e
000001d0: 2126 cd3d 2b5d 933d 7b0a 38bd 47e6 093e
000001e0: f420 5dbd ad3a cf3d 3cb9 d73d 76a1 bc3e
000001f0: 2b26 c73b 67c9 4d3d e47e dd3c db63 62be
00000200: 152c 9cbb 3fde dabe 8110 463d 391f ff3d
00000210: 9aff 493e a865 a83d 87c0 09be 30e9 cf3d
00000220: 3d3a 663d 4424 c93d 9102 c3bb 22aa 0c3e
00000230: 11ad 2f3d c8ac 87bc 07e5 f33d f84e 5d3e
00000240: 56b7 073e 5fa8 1e3e 44ea ecbc 1db5 11bd
00000250: 2807 ca3d ad28 36be 37c0 bdbc 3b0a 073b
00000260: 91c3 b63d d17f 843c 190a a13e 0fe9 453e
00000270: fec6 94bd b767 5ebf 7e6c 093d 55b7 303e
00000280: 7cfd 7a3c 12b7 693e 4597 9f3d 00d0 c13d
00000290: 92e8 d73d dfc9 ce3d 48b1 a33d f7c2 d6bc
000002a0: efff 97bd 5409 39bd bd27 833d e024 9b3d
000002b0: 9778 0e3e 3753 0f3d 25bf 203e e3e7 0a3e
000002c0: 7e9f 9bbd 8d9e 613b 3254 cb3e 4c20 e33d
000002d0: 374d 0a3e c196 d03d 5231 85bc 3da8 80bd
000002e0: 7fdb 963d a18d ed3d abd2 133e 5335 0e3d
000002f0: 9622 c33c 008e 793c 860f c13d a892 42c0
00000300: de92 4e3d 2cd5 28bf 2afd 343e 96dd 453d
00000310: 5ea3 f73d 369c 383c 018b 20bd 0e29 31bd
00000320: b962 063e 4d33 703d 9a51 e23c ad6c ee3d
00000330: ce2d c9bc 759c d73c dc75 c93d cdc4 783d
00000340: 406e 983b e98c 353d d65f 52be 5406 8bbd
00000350: 2b25 453e 947c 23bd 0e09 b5bd bf77 c2bd
00000360: 0478 1e3e 10a7 b33d 64d8 423c 2c6a 1d3e
00000370: 00e2 c8bb 80d4 ad3c 4964 353d 7436 2e3c
00000380: 26b9 b13d d9e1 c93d f5f6 383e 86cc 9e3b
00000390: 6147 bd3d 30fd f43d 648a 353c 85d0 313d
000003a0: 2276 21bf eefe 1d3b 7658 3c3d dc21 0b3e
000003b0: 2f0c a2bc 0ba7 c23d 97cf 2c3e 0731 f23c
000003c0: 4f33 00be 6059 003e c465 003f 38e5 0d3d
000003d0: 32d4 423d d51f 393d 1662 99b9 ce9a 0bbd
000003e0: 2d73 793c a946 1c3e 78ce 233d c33a 7f3e
000003f0: 3767 9d3d 2594 27bd df84 883e 624f 27c0

bias f4 [64]
-2.75274 -1.7274446 -0.74177504 -0.61294216 -0.5210868 -0.71133316 -1.787148 -2.7670827
-1.8015155 -1.9896562 0.33124405 0.6694137 0.8259232 0.39810637 -2.144223 -1.7187796
-0.61192507 0.457719 2.5663402 2.7518637 2.6819685 1.7156299 0.24211739 -0.62980646
-0.38908795 0.8828157 3.0634713 -2.340272 -2.2833369 2.9985888 1.0713825 -0.45271364
-0.28093073 0.90711766 3.0296757 -2.2288074 -2.2676172 2.8086538 1.0451157 -0.4171951
-0.4577254 0.46129552 1.6828871 2.7556255 3.2620826 2.6936476 0.61332816 -0.5866096
-1.7553473 -1.7350644 0.55946904 1.1677293 1.2912009 0.63634956 -2.0117784 -1.7317657
-2.8357322 -1.5999185 -0.34654155 -0.20333488 -0.35684612 -0.39072436 -1.720839 -2.6234503
00000000: e42c 30c0 e81c ddbf f8e4 3dbf c7e9 1cbf
00000010: f265 05bf ee19 36bf 44c1 e4bf e217 31c0
00000020: 0f98 e6bf 0ead febf d298 a93e b25e 2b3f
00000030: b46f 533f 99d4 cb3e f33a 09c0 f800 dcbf
00000040: 1fa7 1cbf 255a ea3e eb3e 2440 891e 3040
00000050: 5fa5 2b40 c399 db3f 9fed 773e ff3a 21bf
00000060: 8936 c7be 3600 623f ea0f 4440 04c7 15c0
00000070: 3122 12c0 e1e8 3f40 1023 893f 15ca e7be
00000080: 27d6 8fbe dd38 683f 35e6 4140 c8a4 0ec0
00000090: a420 11c0 fcc0 3340 5ac6 853f 999a d5be
000000a0: fc5a eabe ed2e ec3e d868 d73f 2b5c 3040
000000b0: f6c5 5040 b964 2c40 1303 1d3f 0c2c 16bf
000000c0: 38af e0bf 9716 debf 5d39 0f3f 2778 953f
000000d0: 1246 a53f cee7 223f fac0 00c0 80aa ddbf
000000e0: a37c 35c0 21ca ccbf e56d b1be 0537 50be
000000f0: 89b4 b6be 060d c8be 7444 dcbf 9ce6 27c0
