TP/save_models_MLP_512_256_Dropout_Relu_Post_Optimisation_DataAugmentation_50epochs_Generation_Data/model_2_1768000240.178884_0.015008333333333334prct.pt (torch, 729561 bytes, 6 tensors)

weight f4 [512, 64]
0	0xbdf9b0f5	-0.12191955
1	0x3d0eb613	0.03484161
2	0x3c45ead5	0.012079914
3	0xbd79479d	-0.06085931
4	0xbdd78339	-0.105230756
5	0xbca84c8d	-0.020544315
6	0x3da0d625	0.07853345
7	0xbdd344a2	-0.10315825
8	0x3b73a394	0.0037176358
9	0x3db96ce7	0.090539746
10	0xbd84486a	-0.064591244
11	0xbde05a02	-0.10954668
12	0xbd6711d4	-0.056413487
13	0x3d919b97	0.071097545
14	0xbd8ec5ca	-0.06971319
15	0xbd730fc6	-0.059341215
16	0x3dce9cc4	0.100884944
17	0xb964f946	-0.00021836636
18	0x3d01ced5	0.03169139
19	0x3d557b5c	0.052119598
20	0x3b716a9d	0.0036837228
21	0xbe09c381	-0.13453485
22	0xbd865684	-0.0655947
23	0xbd1e1fb7	-0.038604464
24	0xbddf439e	-0.10901569
25	0xbd280bc2	-0.041026838
26	0x3da39a3b	0.079884015
27	0xbdcf6c51	-0.101280816
28	0x3c73d6e5	0.014882778
29	0x3d1bbdc1	0.03802276
30	0xbd34bcf1	-0.0441255
31	0xbd8f4110	-0.069948316
32	0xbe1527e8	-0.14566004
33	0x3b42b213	0.0029708191
34	0xbd0cdd78	-0.034390897
35	0xbd3733e4	-0.04472722
36	0x3c8a3084	0.016868837
37	0x3de5edfc	0.112270325
38	0x3e02b3b7	0.12763868
39	0x3d2e4a43	0.04255129
40	0xbd126c59	-0.03574786
41	0x3ddc837c	0.10767266
42	0xbd675204	-0.0564747
43	0x3da8c447	0.08240562
44	0x3ddd5c49	0.108086176
45	0xbdbe3c3a	-0.09288831
46	0x3d9d2182	0.07672407
47	0x3d476075	0.048675973
48	0xbcd1d03e	-0.025611993
49	0xbcc07893	-0.023494994
50	0x3d3b68ff	0.04575443
51	0xbd845190	-0.06460869
52	0xbdd951c4	-0.10611299
53	0x3c1eaa5d	0.009684172
54	0x3d15f202	0.03660775
55	0x3da4f026	0.08053617
56	0xbdc905f5	-0.09815589
57	0xbdd2b6f1	-0.102887996
58	0x3d9e23e8	0.07721692
59	0xbd2b7e08	-0.04186824
60	0xbdaca2ed	-0.08429513
61	0x3deeac6c	0.116539806
62	0x3dc0f32f	0.094213836
63	0xbda83ebf	-0.08215093
64	0xbd4cefe1	-0.050033454
65	0xbd849311	-0.06473363
66	0xbd7260b5	-0.05917426
67	0x3dac0cb9	0.08400864
68	0x3d6e5ace	0.058192067
69	0xbdf7fb97	-0.12108534
70	0x3dc5f7eb	0.09666427
71	0xbc5bfc18	-0.013426803
72	0xbc655033	-0.013996172
73	0x3d52e47c	0.05148743
74	0x3defab95	0.117026486
75	0xbd12af4a	-0.0358117
76	0xbd8968e6	-0.06709461
77	0x3dba9abe	0.09111546
78	0xbcef1dc8	-0.029189005
79	0x3d5da2a6	0.05411019
80	0xbda967f8	-0.082717836
81	0x3c92c2a6	0.017915081
82	0x3d9a2495	0.07526509
83	0xbd4d9d2d	-0.050198723
84	0xbc5a8233	-0.013336706
85	0x3de11c4a	0.10991724
86	0x3cd35bda	0.025800634
87	0x3d610747	0.05493858
88	0x3db8f124	0.09030369
89	0x3ce13456	0.027490776
90	0x3ca24ea9	0.019812899
91	0x3da789b6	0.08180563
92	0x3b5b96ef	0.0033506711
93	0xbdf02d33	-0.11727371
94	0xbd9d86ea	-0.076917484
95	0xbd342f1c	-0.04399024
96	0xbdae36be	-0.08506535
97	0x3bd077e5	0.006361949
98	0x3d050ab9	0.03248093
99	0x3db8a2cf	0.09015428
100	0xbbae612d	-0.005321643
101	0xbdb7027e	-0.08936022
102	0xbd4c2475	-0.049839456
103	0xbdb4626c	-0.08807835
104	0x3d3c1934	0.045922473
105	0xbd555559	-0.052083347
106	0xbd097bf8	-0.03356549
107	0x3c48360c	0.012219917
108	0xbd52171e	-0.051291578
109	0x3d3c37de	0.045951717
110	0x3cd1f060	0.025627315
111	0x3d3a3e96	0.045469843
112	0xbdaf9fb3	-0.08575382
113	0xbd001669	-0.031271372
114	0xbc2b050d	-0.010438216
115	0xbd28527d	-0.041094292
116	0x3d760f0d	0.060072947
117	0xbd722bfd	-0.05912398
118	0x3dda95b9	0.106730886
119	0x39c2d8f2	0.000371642
120	0x3dc6d0a8	0.09707767
121	0xbd512530	-0.051060855
122	0xbbaf32ab	-0.0053466163
123	0xbdde1a6e	-0.10844885
124	0x3d469cdf	0.048489448
125	0x3a9cf0c8	0.0011973614
126	0xbe080954	-0.13284808
127	0x3c0e929b	0.008701946
128	0xbd83d63b	-0.064373456
129	0x3dba198e	0.090869054
130	0x3cbc1fef	0.022964446
131	0xbdb87b0a	-0.09007843
132	0x3d4e97a2	0.050437577
133	0x3c5c879a	0.013460064
134	0x3d1b9343	0.037982237
135	0xbd659759	-0.05605254
136	0x3d6082ca	0.05481223
137	0xbd9b7827	-0.075912766
138	0x3db1ffdd	0.0869138
139	0xbc37622c	-0.01119284
140	0xbdc7931b	-0.09744855
141	0xbd690ec8	-0.056898862
142	0x3ceb7c6f	0.028745858
143	0x3e060071	0.13086106
144	0x3e050928	0.12991774
145	0x3dff26a6	0.124585435
146	0x3da3e4cd	0.08002625
147	0x3df76130	0.12079084
148	0xbd8d6dcc	-0.06905708
149	0xbdd63076	-0.10458462
150	0x3d451543	0.04811598
151	0x3e069d51	0.13145949
152	0xbcfe76d7	-0.031062527
153	0xbdf05a86	-0.11736016
154	0xbcaea2fa	-0.021317948
155	0x3d179067	0.037002947
156	0xbde374cb	-0.11106261
157	0xbcae2230	-0.021256536
158	0x3dc207cd	0.09474144
159	0xbd11de7c	-0.03561257
160	0x3d76aa9f	0.06022131
161	0x3dc2605b	0.094910346
162	0xbcb14c60	-0.021642864
163	0x3dea0842	0.11427356
164	0x3dbdcad2	0.092672005
165	0x3d117991	0.035516325
166	0xbd8a5670	-0.06754768
167	0xbd8ec753	-0.06971612
168	0xbde4782b	-0.11155733
169	0x3d9ac559	0.07557172
170	0x3d1977c3	0.03746773
171	0xbdbe7619	-0.09299869
172	0xbd98a68b	-0.074536406
173	0xbbb50840	-0.005524665
174	0xbd433ff0	-0.047668397
175	0xbd1b512f	-0.03791922
176	0x3dcfaaf7	0.10140031
177	0xbd211018	-0.03932199
178	0x3c7e4774	0.015519965
179	0xbd32b392	-0.043628283
180	0x3d52fdc6	0.05151155
181	0x3dd4abf8	0.10384363
182	0xbda689c7	-0.08131748
183	0x3de833e1	0.1133802
184	0x3dce83f0	0.10083759
185	0xbdfec9c5	-0.12440828
186	0x3dfc7e95	0.12328831
187	0xbdea7c7a	-0.11449523
188	0xbd84aefa	-0.06478687
189	0x3d97e90f	0.07417499
190	0x3ca901ce	0.020630743
191	0xbda92da9	-0.08260662
192	0xbd5629ab	-0.05228583
193	0x3d8624f0	0.06550014
194	0x3d92cd49	0.07168061
195	0xbc83ab29	-0.016072826
196	0x3e093dac	0.13402432
197	0xbcb308f9	-0.021854864
198	0xbca8a253	-0.020585215
199	0xbd845617	-0.06461733
200	0xbdce6bbc	-0.100791425
201	0x3d9abbe3	0.07555368
202	0x3da21010	0.0791322
203	0xbc84aa6c	-0.016194545
204	0xbdde0915	-0.10841576
205	0x3e025e28	0.1273123
206	0x3ac53ab0	0.0015047397
207	0x3c6e5234	0.014545966
208	0xbdceccdb	-0.10097667
209	0xbcd62a9b	-0.026143363
210	0x3c1748fc	0.009233709
211	0xbd296577	-0.04135653
212	0xbd550fc8	-0.052017003
213	0xbd61214e	-0.054963402
214	0xbcd86ccd	-0.026419068
215	0xbd5f8493	-0.054569792
216	0xbc0fc351	-0.008774594
217	0xbdffc86e	-0.12489401
218	0x3dd7f8a8	0.10545474
219	0xbdda88da	-0.106706336
220	0xbdc90c61	-0.09816814
221	0xbd40e695	-0.0470949
222	0x3dbb0d4c	0.091333956
223	0x3d854498	0.06507224
224	0xbdb92720	-0.090406656
225	0xbd28e597	-0.04123458
226	0xbc84ab53	-0.016194975
227	0x3c7c983a	0.015417153
228	0xbc8f7063	-0.017509645
229	0xbde3de70	-0.11126411
230	0x3dab030b	0.0835019
231	0x3d6ddb53	0.058070492
232	0xbc994589	-0.018709915
233	0xbce990b1	-0.028511377
234	0xbd85445d	-0.0650718
235	0xbdeba4a1	-0.1150601
236	0x3d8fa7e6	0.07014446
237	0xbd1aba68	-0.037775427
238	0x3d000652	0.031256028
239	0x3e04dca9	0.129748
240	0x3db33719	0.087507434
241	0x3d3bed1c	0.045880422
242	0xbc537d90	-0.012908354
243	0x3db5c823	0.08876064
244	0xbdd6152e	-0.104532585
245	0xbddcda90	-0.10783875
246	0xbe065009	-0.13116468
247	0x3b570a99	0.0032812713
248	0x3dc9f41e	0.09861015
249	0x3dd5478b	0.10414036
250	0xbdc05699	-0.09391517
251	0x3c901a37	0.017590625
252	0x3cd85ca0	0.026411355
253	0xbd3ac995	-0.0456024
254	0x3dab3bfb	0.0836105
255	0xbce1140d	-0.027475381

bias f4 [512]
0	0xbdeb8307	-0.11499601
1	0x3dcf26ea	0.10114844
2	0xbd517a8b	-0.051142257
3	0xbd60ff9e	-0.054931276
4	0x3dea79f4	0.11449042
5	0x3c87b294	0.016564645
6	0x3d2d0f1e	0.042250745
7	0x3e1192c1	0.14216138
8	0x3d72e04f	0.05929595
9	0x3df8a472	0.121407405
10	0xbc48fb26	-0.01226691
11	0x3dfadbbf	0.122489445
12	0x3d236767	0.039893534
13	0x3e294fd5	0.1653436
14	0x3dd8f343	0.105932735
15	0x3d827101	0.0636921
16	0xbd90b027	-0.070648484
17	0x3dff0bad	0.12453399
18	0x3b83bcd5	0.0040203133
19	0x3e0be4dd	0.13661523
20	0xbddaec7e	-0.106896386
21	0x3e13e853	0.14444093
22	0xbdb31b33	-0.08745422
23	0x3dc667cb	0.09687766
24	0xbda7bd9b	-0.08190461
25	0xbce09398	-0.027414128
26	0x3d772882	0.060341366
27	0xbd8ac904	-0.06776622
28	0x3d9f9cef	0.077936046
29	0x3e00d8c5	0.12582691
30	0xbc6f9600	-0.014623165
31	0x3d07d65a	0.033163406
32	0xba02fe09	-0.00049969606
33	0x3d93ea6c	0.07222447
34	0x3deaceb0	0.11465204
35	0x3df2ec52	0.11861481
36	0x3df5c4c8	0.12000424
37	0x3d471fe0	0.048614383
38	0xbdb68143	-0.089113735
39	0x3e0a34e5	0.1349674
40	0x3e1b001f	0.15136765
41	0x3d444293	0.047915053
42	0xbdcb6b15	-0.09932534
43	0x3be06417	0.006847869
44	0xbd32fcff	-0.043698307
45	0xbdb1ad4c	-0.08675632
46	0xbc655716	-0.013997814
47	0xbd076dd0	-0.03306371
48	0x3d723f41	0.059142355
49	0x3d088f3b	0.03333972
50	0xbcd7db43	-0.02634967
51	0x3e148234	0.14502794
52	0xbda4376d	-0.08018384
53	0xbdf6f688	-0.12058741
54	0x3d34493c	0.044015154
55	0xbdade103	-0.08490183
56	0xbd809f52	-0.06280388
57	0x3debb5a5	0.11509255
58	0x3d35b1e1	0.04435909
59	0x3dd7408f	0.105103604
60	0x3daddac7	0.08488994
61	0x3dcc3f8f	0.0997306
62	0x3d8983ef	0.067146175
63	0x3d1adf6a	0.03781072
64	0x3d908f10	0.07058537
65	0xbdc92bd2	-0.09822811
66	0xbb2cf883	-0.0026393242
67	0xbd98e9b1	-0.07466448
68	0x3d2831a9	0.041062985
69	0x3cee0e90	0.029059678
70	0x3dbfc34d	0.093634225
71	0x3ca33155	0.019920984
72	0xbdec4380	-0.11536312
73	0x3d3bf87e	0.045891277
74	0x3d92f9fd	0.07176588
75	0xbde454ea	-0.111490086
76	0x3b742cf6	0.0037258244
77	0x3ca3609c	0.019943528
78	0x3c7b44e7	0.015336252
79	0xbd8377ac	-0.0641931
80	0xbdb1e59c	-0.08686373
81	0x3dfd3773	0.12364092
82	0x3d56220e	0.05227857
83	0x3d15be3f	0.036558386
84	0x3d0df11e	0.034653775
85	0xbc1bc5b9	-0.00950759
86	0x3bdd6a54	0.00675706
87	0x3dfa9fc0	0.12237501
88	0xbd2962dd	-0.04135405
89	0x3cb9aa76	0.02266429
90	0x3c8aef8e	0.016959932
91	0x3dd0a520	0.10187745
92	0xbd504288	-0.0508447
93	0x3d9573e3	0.07297494
94	0xbd109436	-0.035297595
95	0x3ded112d	0.11575542
96	0x3dd98be5	0.10622386
97	0xbc3b9cc5	-0.011450951
98	0x3d85ead8	0.065389335
99	0x3b7e28c3	0.003878162
100	0x3dcbf7ae	0.099593505
101	0xbd867cd7	-0.0656678
102	0xbddbc56a	-0.10731013
103	0x3db2bb54	0.08727136
104	0x3d492ae1	0.049113158
105	0xbc239a96	-0.009985587
106	0x3dfb09d8	0.12257737
107	0x3b79bb9c	0.0038106209
108	0xbd27e645	-0.040991087
109	0x3da2e0e9	0.079530545
110	0x3dfda284	0.12384513
111	0x3d8806d7	0.066419296
112	0x3e1c6adb	0.15275137
113	0xbcbc50a2	-0.022987667
114	0xbd98ac60	-0.07454753
115	0xbd5d9118	-0.05409345
116	0x3d86d91d	0.0658438
117	0x3cde6f3b	0.027152648
118	0x3bef6055	0.007305185
119	0x3d8dcffd	0.06924436
120	0xbd66ca8a	-0.0563455
121	0xbd257a69	-0.040399943
122	0xbdb88ab3	-0.0901083
123	0x3ccb9981	0.02485347
124	0xbd505122	-0.050858624
125	0xbd2a013f	-0.041505095
126	0xbdc1295b	-0.09431716
127	0x3dc225d7	0.094798736
128	0xbd4f176e	-0.050559454
129	0x3b0f17fb	0.0021834362
130	0xbc8719e7	-0.016491843
131	0x3dc9635b	0.09833404
132	0x3dadb34d	0.084814645
133	0x3dec3c0a	0.11534889
134	0x3d812f72	0.063078776
135	0x3d34a61b	0.044103723
136	0xbda49dba	-0.080378965
137	0x3dd29e1b	0.102840625
138	0xbc6a4a72	-0.014299976
139	0xbd0af1fa	-0.033922173
140	0x3dc442a2	0.09583022
141	0x3d25c80f	0.040473994
142	0x3c9b9331	0.018991085
143	0xbdae53dc	-0.08512089
144	0xbd136977	-0.03598925
145	0xbd1070b9	-0.03526375
146	0xbd58c0f8	-0.052918404
147	0x3de808d2	0.11329807
148	0xbd4f65fa	-0.05063436
149	0x3d2fa591	0.042882506
150	0xba912e1c	-0.0011076364
151	0xbdc38d66	-0.09548454
152	0xbdca6f3f	-0.098845
153	0xbd531b51	-0.051539723
154	0xbd98ccfe	-0.07460974
155	0x3d207309	0.039172206
156	0xbda1b35b	-0.078955375
157	0x3dcc9791	0.099898465
158	0xbc05eedc	-0.008174624
159	0x3cdd5a7b	0.027020684
160	0x3dd6220e	0.10455714
161	0x3d604ef2	0.054762788
162	0xbcae4dfd	-0.021277422
163	0x3da309ce	0.079608545
164	0x3dddc2d5	0.10828177
165	0xbd9e207b	-0.07721039
166	0x3dd9e4bc	0.10639331
167	0xbd97bada	-0.07408686
168	0xbd9362a2	-0.07196547
169	0x3df238ff	0.118272774
170	0x3cdabc8d	0.026701236
171	0x3e036668	0.12832034
172	0x3d8a6869	0.06758196
173	0x3d470f55	0.048598606
174	0x3e0b6bd2	0.13615349
175	0x3e0a6139	0.1351365
176	0x3b84be1a	0.004050982
177	0xbdc62260	-0.09674525
178	0x3b6ed6b9	0.0036443903
179	0xbd9db689	-0.077008314
180	0xbd312e81	-0.04325724
181	0xbd61ee27	-0.05515876
182	0xbda9038c	-0.0825263
183	0x3dcf30ab	0.101167046
184	0x3d61945b	0.055073123
185	0x3e1f7556	0.15572104
186	0x3df30322	0.11865832
187	0x3c90ec94	0.017690934
188	0x3d1784bc	0.03699182
189	0xbd001a47	-0.03127506
190	0xbb5a608d	-0.003332171
191	0x3ba7134b	0.0050987354
192	0x3cf17285	0.029473552
193	0xbc2ba048	-0.010475226
194	0x3d9007e1	0.07032753
195	0xbdd20740	-0.10255289
196	0x3d97369b	0.07383462
197	0xbdea5554	-0.11442056
198	0x3e09a6bb	0.13442509
199	0x3d09be8d	0.03362899
200	0x3df9c9e3	0.1219671
201	0xbd2a5a32	-0.041589923
202	0x3dc42c84	0.09578803
203	0x3dd18f51	0.102324136
204	0x3d955624	0.07291821
205	0xbd6a499a	-0.0571991
206	0x3dcce7f2	0.100051776
207	0x3cda0218	0.026612327
208	0xbd90f086	-0.07077126
209	0xbdb96352	-0.09052147
210	0xbd27aa63	-0.040933978
211	0x3d6882a9	0.056765232
212	0xbdd67780	-0.104720116
213	0xbb999170	-0.004686527
214	0xbd5bb255	-0.053636868
215	0x3ce28048	0.02764906
216	0x3de1ce75	0.11025707
217	0x3e2235e7	0.15840875
218	0xbd30cc5d	-0.043163646
219	0x3d85cf3b	0.06533667
220	0x3da90869	0.08253557
221	0xbdb9a2d6	-0.090642616
222	0xbbdbedd7	-0.0067117023
223	0xbd1f0903	-0.038826954
224	0xbdaeed28	-0.08541328
225	0x3ce7e2da	0.028306413
226	0x3d7c44f2	0.06158919
227	0xbd540c2e	-0.051769428
228	0x3de3604b	0.11102351
229	0x3d186e9d	0.037214864
230	0xbd23a5f8	-0.039953202
231	0x3d2142a4	0.039370194
232	0x3df14d56	0.11782329
233	0xbc58dea1	-0.013236673
234	0x3cb11ce5	0.021620223
235	0x3da50142	0.080568805
236	0x3d8b2c80	0.06795597
237	0x3d4980e9	0.049195204
238	0x3de00005	0.10937504
239	0xbd02c054	-0.0319217
240	0x3dc03764	0.09385565
241	0xbdb18aa1	-0.086690195
242	0x3df98f94	0.121855885
243	0xbc33fcee	-0.010985596
244	0x3daddd43	0.08489468
245	0x3dd0d18c	0.10196218
246	0xbd9ba42f	-0.07599675
247	0x3cdef54d	0.027216578
248	0xbd78682d	-0.060646225
249	0xbb61a522	-0.0034430702
250	0xbb936be2	-0.0044989446
251	0x3d913fe9	0.07092268
252	0xbc72c718	-0.014817975
253	0xbcfe526f	-0.031045167
254	0x3d94273c	0.07234046
255	0x3d5a9547	0.05336502

weight f4 [256, 512]
0	0x3cdb82fa	0.026795853
1	0x3ca0a75a	0.01961105
2	0xbca4e0c3	-0.020126706
3	0x3cd6c6a2	0.026217762
4	0x3d1ded22	0.038556226
5	0x3d577710	0.05260378
6	0x3d1a6dcd	0.03770237
7	0x3cb4453b	0.022005668
8	0xbad45677	-0.0016200085
9	0xbc4fc5b3	-0.0126814125
10	0x3d680f36	0.05665513
11	0x3c0a3d14	0.008437414
12	0xbc4983db	-0.012299503
13	0x3cbcf30d	0.023065114
14	0xbbc093de	-0.005877002
15	0xbbed4d24	-0.007241862
16	0xbb261cb5	-0.00253467
17	0xbcd9e364	-0.026597686
18	0x3cdce49e	0.026964482
19	0xbd0874f1	-0.03331465
20	0x3bac6970	0.0052615926
21	0xbca8ce9c	-0.020606332
22	0x3c71f430	0.0147676915
23	0x3d4355ae	0.047689132
24	0xbc8cfc36	-0.017210107
25	0xbd1916b5	-0.03737517
26	0x3d36e8e2	0.044655688
27	0x3c33c4f1	0.010972247
28	0x3cb74059	0.02236955
29	0x3b67e631	0.0035385008
30	0x3a1475d4	0.000566331
31	0xbcb404b4	-0.021974899
32	0x3c635710	0.013875738
33	0xbcefb19f	-0.029259501
34	0xbd087883	-0.033318054
35	0x3d161e58	0.03665003
36	0x3bd29325	0.0064262324
37	0xbd09e4a0	-0.0336653
38	0x3d15b695	0.036551077
39	0x3cc086b1	0.023501726
40	0x3c95dfd4	0.018295206
41	0x3cc4470f	0.023959665
42	0xbcf5c820	-0.030002654
43	0xbb9a7a36	-0.0047142757
44	0x3d007064	0.031357184
45	0x3d7283ea	0.059207834
46	0x3baf206c	0.005344441
47	0xbc5603ca	-0.013062427
48	0x3b3626aa	0.0027794042
49	0xbcd521ec	-0.026017152
50	0x3d1f43b8	0.03888294
51	0xbb7e4c72	-0.003880289
52	0x3bf61a56	0.0075104637
53	0x3c43cf29	0.011951246
54	0x3cf91420	0.030405104
55	0x3d76950c	0.060200736
56	0x3ceea15e	0.02912968
57	0xbd2ff50a	-0.042958297
58	0x3d5d027e	0.053957455
59	0xbc284e21	-0.010272534
60	0x3ce35554	0.027750649
61	0xbbac9636	-0.00526693
62	0x3d6dc5bb	0.0580499
63	0x3d0c6364	0.034274474
64	0x3d786f33	0.060652923
65	0xbc1aa60b	-0.009439002
66	0xbd567b40	-0.052363634
67	0x3cb454b5	0.022013048
68	0xbaba2537	-0.0014201765
69	0xbc9b3766	-0.018947314
70	0xbd329197	-0.043595877
71	0x3d4d1b05	0.050074596
72	0x3d1e2947	0.038613584
73	0xbcd44aba	-0.025914539
74	0x3d5a4a3c	0.05329345
75	0xbc867965	-0.016415307
76	0x3c9acc9d	0.018896395
77	0xbc9964a7	-0.018724753
78	0x3d213c0c	0.039363906
79	0x3cca8a15	0.024724046
80	0xbcd23dff	-0.025664328
81	0x3cb93b02	0.022611145
82	0x3d22bcef	0.039730962
83	0x3d49bca2	0.04925216
84	0x3cf3a739	0.029742824
85	0x3c4971f6	0.012295237
86	0x3d017d8f	0.031613883
87	0x3cc125c7	0.023577584
88	0x3ce8b9a6	0.028408837
89	0xbca84d70	-0.020544738
90	0xbc0cdc07	-0.0085973805
91	0x3d2b4b76	0.041820012
92	0x3cef17ab	0.02918609
93	0xbc7841f6	-0.015152445
94	0xbd05ff9f	-0.032714482
95	0x3c446bb2	0.011988567
96	0x3ca39fa0	0.019973576
97	0x3cca0b34	0.024663545
98	0xbb979573	-0.00462597
99	0xbc92b150	-0.017906815
100	0x3cfb7864	0.030697055
101	0x3d937063	0.071991704
102	0x3d603110	0.05473429
103	0x3c68d9a9	0.0142120505
104	0x3d5b2f82	0.053512104
105	0x3d650b2f	0.05591887
106	0xbcc440ba	-0.023956645
107	0x3cd1e05d	0.02561968
108	0x3b81c080	0.0039597154
109	0xbc907150	-0.017632157
110	0x3cb05717	0.021525903
111	0x3d18e265	0.03732528
112	0x3c9bd56f	0.019022672
113	0xbc3c8c65	-0.011508082
114	0xbcf9ee9d	-0.030509287
115	0x3d89c99a	0.067279056
116	0x3cc363ce	0.023851302
117	0x3b023e5e	0.00198736
118	0xbc46ebde	-0.012141196
119	0x3d4f1c0f	0.050563868
120	0xbcf2bd5b	-0.029631307
121	0xbd32bfc9	-0.04363993
122	0x3cb4fe92	0.022094045
123	0xbcbd2e39	-0.02309333
124	0x3cd570cd	0.026054764
125	0x3cda8c17	0.026678128
126	0xbcaeb758	-0.02132766
127	0xbba52729	-0.0050400686
128	0x3b2502d1	0.002517868
129	0xbd06f61f	-0.032949563
130	0x3ccd2dd1	0.025046261
131	0x3d3913d8	0.04518494
132	0xbd7b4641	-0.061346296
133	0xbd0d694f	-0.03452426
134	0x3c995215	0.018715898
135	0xbd2d9fe8	-0.042388827
136	0x3d181f74	0.03713937
137	0x3d100cf8	0.035168618
138	0xbd09a64d	-0.033605862
139	0x3d36d0d3	0.044632744
140	0x3c63dfaa	0.013908306
141	0x3d27e58b	0.040990394
142	0x3c35d294	0.011097569
143	0xbcceb846	-0.025234353
144	0x3d79009b	0.060791593
145	0xbc80de4a	-0.015730996
146	0x3d7c3026	0.061569355
147	0x3d27d052	0.040970154
148	0xbd1adefe	-0.03781032
149	0xbcafad09	-0.021444814
150	0xbb271cfc	-0.0025499454
151	0x3accb49c	0.0015617791
152	0x3d721d37	0.059109893
153	0x3d8d4cdb	0.06899425
154	0x3c8247d8	0.015903398
155	0x3d08fbd2	0.03344328
156	0x3bcfa3f8	0.0063366853
157	0xbcce9df4	-0.025221802
158	0x3ab623c9	0.0013896163
159	0x3c72ed0b	0.014827023
160	0xbb4a8935	-0.0030904536
161	0xbd0ae454	-0.033909157
162	0x3c96a0b3	0.018387174
163	0x3b0c3b78	0.002139775
164	0x3d6edc71	0.058315698
165	0x3d673664	0.056448355
166	0xbc189216	-0.009312173
167	0x3d0dcfdb	0.034622055
168	0x3cc62521	0.024187626
169	0xbb846665	-0.0040405267
170	0x3c0ebfb7	0.008712701
171	0xbc47dc87	-0.012198574
172	0x3d272380	0.04080534
173	0x3d462423	0.048374306
174	0x3d1fc590	0.03900677
175	0x3ca74ee2	0.020423356
176	0xbc6b3714	-0.014356393
177	0x3bc86d12	0.006116518
178	0x3cc30bde	0.02380937
179	0x3cef799c	0.029232793
180	0x3d199edb	0.037505012
181	0x3c6337ef	0.013868316
182	0x3ca7163f	0.02039635
183	0x3c5e8f3a	0.013583953
184	0xbd24900d	-0.04017644
185	0x3c024c50	0.007952765
186	0xbc095094	-0.008381028
187	0xbbd1e8b2	-0.0064059133
188	0x3c582d6f	0.013194426
189	0x3cef2dc5	0.02919663
190	0x3d3c03f4	0.045902207
191	0x3cc2c6cc	0.023776434
192	0xbd20bf7c	-0.039245114
193	0x3cd863ef	0.02641484
194	0xbca75129	-0.020424442
195	0xbd12ae96	-0.03581103
196	0x3c8f6a94	0.017506875
197	0xbd1f5ca2	-0.0389067
198	0xbd26beb2	-0.040709205
199	0x3d568273	0.0523705
200	0x3ca81db7	0.020521982
201	0x3c781204	0.015141014
202	0xbcebf868	-0.028804973
203	0x3d38ef54	0.045150116
204	0x3cf96149	0.030441897
205	0x3d03e425	0.032199997
206	0x3c8bbc48	0.017057553
207	0x3b8d4b51	0.004311957
208	0x3c48c300	0.012253523
209	0x3c102b7d	0.008799431
210	0xbc3fd6e3	-0.011708948
211	0xbc258478	-0.010102384
212	0x3d0a1c05	0.033718128
213	0x3cb48d55	0.022040049
214	0x3d4e886c	0.05042307
215	0x3befea14	0.0073216055
216	0x3b0a323a	0.0021087066
217	0xba97526d	-0.001154495
218	0xbc2debb4	-0.010615278
219	0x3d136864	0.035988227
220	0xbca4041d	-0.020021493
221	0x3d7e37a8	0.062064797
222	0xbbad6538	-0.005291607
223	0xbcc331a2	-0.023827378
224	0x3d387d5f	0.04504144
225	0xbcbe7d3a	-0.023253072
226	0xbb816c47	-0.0039496752
227	0x3abb4224	0.0014286679
228	0xbc97ef14	-0.018546619
229	0x3d6c58c0	0.057701826
230	0xbb83000b	-0.003997808
231	0x3d652aaf	0.05594891
232	0x3affe8e2	0.001952436
233	0x3b4d599a	0.0031333924
234	0xbd12deae	-0.035856895
235	0xbcaeb91c	-0.021328501
236	0xbc2d9270	-0.010593995
237	0x3c6600d5	0.014038284
238	0xbbd17032	-0.0063915486
239	0x3d0240c3	0.031800043
240	0xbc3571d9	-0.011074507
241	0x3d458646	0.048223756
242	0xbcc215d4	-0.02369205
243	0x3a95096a	0.0011370603
244	0xbcde1063	-0.027107423
245	0xbc8d5334	-0.017251588
246	0xbc06c7b9	-0.0082263285
247	0xbb625c6a	-0.0034539946
248	0x3c2ab627	0.010419405
249	0x3d1da360	0.038485885
250	0x3c1198af	0.0088865
251	0xbd1a0058	-0.037597984
252	0x3c6e30a9	0.014537969
253	0x3b9a74c7	0.004713628
254	0x3d0393e8	0.032123476
255	0x3d1fb5a3	0.03899158

bias f4 [256]
0	0x3d0b2d8f	0.033978995
1	0x3c821861	0.015880765
2	0x3ca8f6f9	0.020625578
3	0xbcb5df27	-0.022201134
4	0xbcab8759	-0.020938562
5	0xbae4805a	-0.0017433271
6	0x3cf58caf	0.02997431
7	0xbce38ae8	-0.027776197
8	0x3cce1802	0.025157932
9	0xbc9ac2f7	-0.018891795
10	0xbcbdd138	-0.023171052
11	0x3bc61535	0.0060450085
12	0x3d0c9a5c	0.034326896
13	0x3cc6f5cf	0.024287133
14	0xbd0b512a	-0.03401295
15	0x3c6ff85d	0.014646617
16	0x3d628160	0.055299163
17	0xbce0fd17	-0.027464433
18	0x3cc7e67a	0.024401892
19	0x3d269abb	0.040674906
20	0x3cecd1f7	0.028908713
21	0xbd28234b	-0.041049283
22	0xb9c3689e	-0.00037271244
23	0xba1c81ec	-0.00059702876
24	0x3cff0bbe	0.031133529
25	0xbba82f1c	-0.005132569
26	0xbb816ab8	-0.0039494894
27	0x3ba67665	0.0050800317
28	0xbd13c141	-0.036072973
29	0xbd2b3a10	-0.04180342
30	0xbbcca82b	-0.006245633
31	0x3d094130	0.033509433
32	0x3af49b59	0.001866202
33	0x3d0254d4	0.03181918
34	0x3d671d9b	0.05642472
35	0x3c98ecff	0.018667696
36	0x3d74f634	0.05980511
37	0x3d0f7489	0.035023246
38	0xbc809a87	-0.015698684
39	0x3d1261c4	0.035737768
40	0xbcf86877	-0.03032325
41	0xbc78d6d1	-0.015187935
42	0xbb058bae	-0.0020377445
43	0xbca288cf	-0.019840626
44	0x3c6a660f	0.014306559
45	0xbd0c7697	-0.034292784
46	0x3d0f619f	0.035005208
47	0x3d27938b	0.040912192
48	0xbc8f020a	-0.017457027
49	0x3bd07fbc	0.0063628834
50	0xbb2dcfc2	-0.0026521538
51	0xbc9438da	-0.018093515
52	0x3d157476	0.03648802
53	0xbc97a75a	-0.018512417
54	0x3c3eb2ac	0.011639278
55	0x3bceaf9d	0.006307556
56	0xbc2e9866	-0.010656452
57	0xbcc972c0	-0.02459085
58	0x3b638757	0.003471812
59	0xbd08a231	-0.033357803
60	0x3b78f75c	0.0037989235
61	0x3d6630be	0.056198828
62	0xbc97c274	-0.01852534
63	0x3d40090f	0.04688364
64	0x3cde210f	0.027115373
65	0x3ccaefb2	0.024772499
66	0x3ceda329	0.029008465
67	0xbb90d68e	-0.004420108
68	0xbcdbca95	-0.026829997
69	0x3d82e72b	0.06391748
70	0x3d25d7a8	0.04048887
71	0xbc297667	-0.010343171
72	0xbb5cb1dc	-0.0033675348
73	0x3d109e5e	0.03530728
74	0xbd3debc3	-0.046367418
75	0xbd178877	-0.036995377
76	0xbcdaf8e0	-0.026730001
77	0xbd2f2bb3	-0.042766284
78	0xbb16f43f	-0.0023033766
79	0xbd20c462	-0.039249785
80	0x3d1f33a9	0.038867626
81	0xbbf12541	-0.0073591773
82	0x3d36f5f4	0.044668153
83	0x3c0b945e	0.00851926
84	0xbd435e1c	-0.04769717
85	0x3cf86f8e	0.03032663
86	0x3d27640a	0.04086689
87	0x3c8d6303	0.017259127
88	0x3d345dbd	0.04403471
89	0x3bad006a	0.0052795904
90	0xbc4faa00	-0.0126748085
91	0xbcfeb9a3	-0.031094378
92	0xbcfd7410	-0.030939132
93	0xbd0d1059	-0.03443942
94	0xbbd73270	-0.006567292
95	0x3c1032d7	0.008801184
96	0xbc0786e4	-0.0082719065
97	0x3b1eefec	0.0024251891
98	0x3ca7a021	0.020462098
99	0x3d4c0da1	0.049817685
100	0x3d58ecf8	0.052960366
101	0xbd3132c2	-0.043261297
102	0x3d4e2d35	0.05033608
103	0x3d3adf68	0.045623213
104	0xb9428042	-0.00018549061
105	0xbd3ce80e	-0.046119742
106	0x3c5c0152	0.013428049
107	0xbcb7c0ac	-0.02243074
108	0xbca12a8c	-0.019673608
109	0x3bc9301e	0.006139769
110	0xbd291a7f	-0.041285034
111	0x3d681c9f	0.05666792
112	0x3d70488b	0.058662932
113	0xbcd334d5	-0.025782028
114	0xbb8d345b	-0.00430922
115	0xbd528f96	-0.051406465
116	0xbc652627	-0.013986147
117	0x3ce41ccf	0.027845768
118	0x3ce740ee	0.028229203
119	0xbd148d27	-0.036267426
120	0xbc63c05b	-0.013900842
121	0xbd09baaf	-0.0336253
122	0x3c5f5a44	0.013632361
123	0x3c9c4261	0.01907462
124	0x3c232602	0.009957792
125	0xbcde080e	-0.02710345
126	0xbd3316d4	-0.043722942
127	0x3d46e1dc	0.04855524
128	0xbc663cad	-0.014052552
129	0x3d13169f	0.035910245
130	0xbaf7c367	-0.0018902839
131	0x3c6487a5	0.013948356
132	0xbc8dc015	-0.017303506
133	0x3d3eaa3d	0.04654907
134	0x3d492266	0.04910507
135	0x3d4741d7	0.048646774
136	0xbca136f8	-0.019679531
137	0xbcc53a3f	-0.024075625
138	0x3d14aac1	0.036295656
139	0x3d32b745	0.04363181
140	0x3d318cc9	0.043347154
141	0xbcce7097	-0.025200171
142	0xbcd762cd	-0.02629223
143	0xbccee244	-0.025254376
144	0xbc322610	-0.010873333
145	0xbcaa72b5	-0.02080665
146	0xbc40877a	-0.01175105
147	0xbc36cb29	-0.011156836
148	0xbd2c45d1	-0.04205877
149	0xbc438bca	-0.011935184
150	0x3ce12677	0.027484162
151	0xbc39cf90	-0.011340991
152	0xbb203d35	-0.0024450545
153	0x3a0804ec	0.00051887217
154	0x3d1e9038	0.038711756
155	0xbb22f7f2	-0.0024867025
156	0xbcbe762e	-0.023249712
157	0xbc618175	-0.013763775
158	0x3cb6cf90	0.02231577
159	0x3cc8428c	0.024445795
160	0x3ce24ea5	0.027625391
161	0x3bd2ea22	0.006436602
162	0x3a61349c	0.0008590908
163	0xbc256612	-0.010095136
164	0x3d0c17f5	0.034202535
165	0x3a9e526b	0.0012079006
166	0x3ceffb66	0.02929468
167	0x3caf6fc0	0.021415591
168	0xbcf1932a	-0.029489119
169	0xbbb463d1	-0.005505063
170	0xbbcdd196	-0.006281088
171	0x3cb05c95	0.021528522
172	0x3c4a5cb4	0.012351204
173	0x3c5e6c31	0.0135755995
174	0xbd15ce37	-0.036573615
175	0xbd1eed32	-0.038800426
176	0x3bdb9572	0.006701165
177	0x3c6290ae	0.01382844
178	0x3a41ad92	0.000738823
179	0x3cb7d5ff	0.022440908
180	0xbd414046	-0.047180437
181	0xbc0abeef	-0.008468374
182	0x3d1dee97	0.038557615
183	0x3c526214	0.012840766
184	0xbce0a40e	-0.027421977
185	0xbd06662d	-0.032812286
186	0xbd188328	-0.037234455
187	0x3a2559da	0.00063076394
188	0x3c65476c	0.013994079
189	0xbbc06ed1	-0.0058725853
190	0x3cda486d	0.026645863
191	0x3d04cf30	0.032424152
192	0xbc6e15c8	-0.01453156
193	0x3caf5e73	0.021407342
194	0x3cd46835	0.025928596
195	0xbcd85e99	-0.026412295
196	0x3d679dad	0.056546856
197	0x3cbded18	0.023184344
198	0x3b8caaa5	0.0042928034
199	0xbd33b3e9	-0.043872748
200	0x3d65e680	0.056128025
201	0xbbabfd44	-0.0052486975
202	0x3b57ea86	0.0032946183
203	0xbd14b5b9	-0.036306117
204	0x3cf725d3	0.030169403
205	0xbcef1360	-0.029184043
206	0x3c43db6a	0.011954168
207	0x3d15ada4	0.03654255
208	0x3c44c620	0.012010127
209	0x3c959d49	0.018263476
210	0xbc346d1d	-0.011012343
211	0x3cbefb62	0.023313228
212	0x3d2fa390	0.042880595
213	0xbd2121d6	-0.03933891
214	0x3c107151	0.008816079
215	0xbd08d951	-0.033410374
216	0xbcabc336	-0.020967107
217	0xbd1a1233	-0.037615012
218	0x3c874a98	0.016515061
219	0x3d3a62bb	0.045504313
220	0x3a38b9de	0.00070467393
221	0xbcf2a9a4	-0.029621907
222	0x3d129ebc	0.035795912
223	0x3c48eb15	0.012263079
224	0x3c5bc501	0.013413669
225	0x3ca78bb8	0.020452365
226	0x3b82b2e0	0.0039886087
227	0xbc450aae	-0.012026472
228	0xbbac64d5	-0.0052610436
229	0xbd07afd2	-0.03312666
230	0x3c61042c	0.013733905
231	0xbc12ca71	-0.008959399
232	0x3d10cf4b	0.03535394
233	0x3cc09710	0.023509532
234	0x3c08e5a0	0.008355528
235	0x3d45eadd	0.048319686
236	0xbbac7c0d	-0.0052638114
237	0x3c96c1e9	0.01840301
238	0xbcc7cfaa	-0.024391014
239	0x3cb9b089	0.022667186
240	0xbd0dd53f	-0.034627195
241	0xbd040364	-0.032229796
242	0xbc49f7c0	-0.012327135
243	0xbcbcc465	-0.023042867
244	0xbd044fb0	-0.03230256
245	0x3d0b1e8f	0.03396469
246	0x3d19c886	0.03754475
247	0x3d3e89ae	0.04651802
248	0xbc823669	-0.015895085
249	0x3c706f62	0.014674993
250	0x3d6ea367	0.0582613
251	0xbc3f5821	-0.011678726
252	0x3cfd7477	0.030939324
253	0x3d229a0d	0.039697696
254	0xbcb6867a	-0.02228092
255	0x3d45b15f	0.048264857

weight f4 [64, 256]
0	0xbc6a6390	-0.014305964
1	0xbd5d083c	-0.05396293
2	0x3d1d5451	0.03841049
3	0x3d299d43	0.041409742
4	0x3cb08d6a	0.021551806
5	0xbd677d19	-0.056515787
6	0xbd3a9eb9	-0.045561526
7	0xbd1f8e88	-0.038954288
8	0xbceca734	-0.028888322
9	0xbd2100bc	-0.03930734
10	0x3ce0981b	0.02741628
11	0x3c9d142f	0.019174663
12	0xbc0a5f8c	-0.008445632
13	0x3999dd1f	0.00029347182
14	0xbd736182	-0.059419163
15	0xbd75f251	-0.060045544
16	0xbd338532	-0.043828197
17	0xbd3f4ee0	-0.04670608
18	0xbc9bbd16	-0.019011062
19	0x3ce9f1a6	0.02855761
20	0x3caed5d2	0.021342192
21	0x3cd69b82	0.026197199
22	0xbc52adce	-0.012858821
23	0x3c6b55b7	0.014363698
24	0x3d2f609f	0.042816754
25	0xbd9aa88b	-0.07551678
26	0xbd0afe06	-0.033933662
27	0x3b94586b	0.004527142
28	0xbb134da7	-0.0022476704
29	0x3d32a234	0.04361172
30	0xbda466c4	-0.080274135
31	0xbd6261b3	-0.055268954
32	0xbb8768a2	-0.0041323463
33	0xbd26a83e	-0.040687792
34	0x3d242f85	0.04008438
35	0xbb5c45c2	-0.0033610915
36	0x3d6b2b26	0.057414196
37	0x3d4d0c2d	0.05006044
38	0xbd5963d0	-0.053073704
39	0xbd6215a1	-0.05519641
40	0x3d0a926e	0.033831052
41	0xbd035a06	-0.032068275
42	0xbd6d13ab	-0.057880085
43	0xbc5fcbee	-0.0136594605
44	0x3bf258e5	0.007395851
45	0xbd1c116d	-0.038102556
46	0x3c5cccd8	0.013476573
47	0xbd14222e	-0.03616541
48	0xbc10f9b4	-0.008848596
49	0x3d5dd451	0.05415756
50	0x3d3b2bb6	0.045695983
51	0xb940f3b4	-0.00018401333
52	0xbcff3d26	-0.031157088
53	0x3d63ec69	0.05564538
54	0xbd5d5d7d	-0.054044235
55	0x3d3019d5	0.042993385
56	0xbcb7b17a	-0.022423495
57	0xbd4d99b1	-0.0501954
58	0xbd3fee34	-0.046858028
59	0xbc436c03	-0.0119276075
60	0x3d41b908	0.0472956
61	0xbd4ef014	-0.050521925
62	0xbc139f1c	-0.009010103
63	0x3c9ef12a	0.019402105
64	0xbcf8cbb2	-0.030370567
65	0xbad2d65f	-0.0016085616
66	0xbbf2a2bd	-0.007404654
67	0x3ce77181	0.028252365
68	0x3cf25d72	0.029585574
69	0xbd0f6161	-0.035004977
70	0x3d0481af	0.03235024
71	0x3d8f2413	0.069893025
72	0x3c8f80e9	0.017517524
73	0xbd837f17	-0.06420725
74	0xbc37d5e3	-0.011220428
75	0xbc4e70a8	-0.0126001015
76	0x3cdb36b1	0.026759477
77	0x3cc0b61b	0.023524335
78	0xbd7de294	-0.06198366
79	0x3cc2edf2	0.023795102
80	0xbc624661	-0.013810725
81	0xbd6a2ea9	-0.057173405
82	0x3cfded05	0.030996809
83	0x3c57f041	0.01317984
84	0x3c4f254b	0.012643169
85	0xbd087c9c	-0.03332196
86	0xbd246d21	-0.040143136
87	0x3d30108c	0.04298453
88	0x3cf9ce25	0.030493805
89	0x3d3bf5b2	0.04588861
90	0x3c969491	0.018381389
91	0x3d5a2007	0.0532532
92	0xbce99bc9	-0.028516667
93	0x3d2cdb9d	0.042201627
94	0x3c13919c	0.009006884
95	0x3c4749bd	0.012163577
96	0x3a675ee9	0.00088260934
97	0xbcfc19d6	-0.030774038
98	0x3d4dfb2e	0.05028837
99	0x3d3be49b	0.045872312
100	0xbd4573e3	-0.04820622
101	0xbbf64831	-0.00751593
102	0xbc326d1a	-0.01089027
103	0x3c896c8c	0.016775392
104	0xbd669bde	-0.05630099
105	0xbd03fa6c	-0.032221243
106	0x3cc1a528	0.023638323
107	0x3d789de0	0.060697436
108	0xbc840a44	-0.016118176
109	0xbd505a8b	-0.0508676
110	0xbbf1754a	-0.0073687183
111	0xba70d232	-0.0009186595
112	0xbca0f014	-0.019645728
113	0x3c991c24	0.018690176
114	0x3cf01399	0.02930622
115	0xbc6b2e69	-0.014354327
116	0xbd2d38ae	-0.042290382
117	0x3bbf7016	0.005842219
118	0xbd5ddc98	-0.054165453
119	0xbd22c321	-0.03973687
120	0xbcd0274c	-0.025409363
121	0xbcfd6f93	-0.030936992
122	0x3be5f642	0.0070178816
123	0xbd75677e	-0.05991315
124	0x3d8c44c2	0.06849052
125	0x3d2cfc27	0.04223266
126	0xbcea57aa	-0.028606255
127	0x3c23d710	0.010000005
128	0x3d20ea1d	0.039285768
129	0xbd0d7db5	-0.03454371
130	0x3cd88e6a	0.026435096
131	0xbd7c1470	-0.06154293
132	0x3d7100c5	0.058838625
133	0xbcf13e45	-0.029448638
134	0xbd9a7f0a	-0.07543762
135	0xbcdeb8b2	-0.027187679
136	0xbd7b6824	-0.061378613
137	0xbd5273aa	-0.051379837
138	0xbd1535d0	-0.036428273
139	0xbd785518	-0.060628027
140	0x3d3e3f2e	0.04644697
141	0x3c3f0d44	0.011660878
142	0xbd5158bb	-0.05111001
143	0xbd40af1e	-0.047042005
144	0xbd2792c9	-0.04091147
145	0x3d07f0bd	0.03318857
146	0x3d86b57b	0.065775834
147	0x3d34c5c3	0.044133913
148	0xbd6648f2	-0.05622191
149	0xbcf9ccab	-0.030493101
150	0xbc814a3c	-0.015782468
151	0x3ab6ecd9	0.0013956084
152	0x3d6d8589	0.057988677
153	0xbc629937	-0.013830475
154	0x3c8766bc	0.01652848
155	0x3be55d62	0.0069996575
156	0x3d346470	0.044041097
157	0xbd399155	-0.045304615
158	0x3d1b1522	0.03786195
159	0xbd3b9598	-0.04579696
160	0xbd5fb89b	-0.054619413
161	0xbd182c7f	-0.03715181
162	0xbd60a6c2	-0.054846533
163	0x3cb87011	0.022514375
164	0xbcf87fe1	-0.030334415
165	0xbd7db0a9	-0.061936054
166	0xbcd33784	-0.025783308
167	0x3d8f6276	0.07001202
168	0xbb1769fb	-0.002310394
169	0xbc3c0057	-0.01147469
170	0x3d286185	0.041108627
171	0x3cd41282	0.025887731
172	0xbd32fa0f	-0.043695506
173	0xbce953c9	-0.028482335
174	0xbd2d7b95	-0.042354185
175	0x3d7b28db	0.06131826
176	0xbd94c4c9	-0.07264096
177	0xbd40f8e7	-0.04711237
178	0x3cf07c44	0.02935613
179	0x3d824c13	0.06362166
180	0xbd266334	-0.04062195
181	0x3c5d7b6a	0.013518194
182	0xbd749856	-0.05971559
183	0x3d5503e8	0.05200568
184	0xbd114cfb	-0.035473805
185	0xbceae4d9	-0.028673576
186	0xbd0d9736	-0.034568034
187	0x3d2d83f5	0.042362172
188	0x3c9bfa51	0.019040259
189	0x3d6b314e	0.057420067
190	0x3d2ca497	0.042149153
191	0x3d21c72e	0.039496593
192	0x3c4b8d7b	0.012423868
193	0xbd11e24c	-0.035616204
194	0x3d7a6ede	0.061140887
195	0x3c3484e1	0.011018009
196	0xbcb751a8	-0.022377804
197	0x3c44db7f	0.012015223
198	0xbc37fced	-0.011229736
199	0x3d1b25a5	0.037877697
200	0xbd45f174	-0.04832597
201	0x3d1813e1	0.037128333
202	0x3d38a045	0.04507472
203	0x3c211c8b	0.009833465
204	0xbcad9ced	-0.021192992
205	0x3c4c9e1a	0.012488866
206	0x3d857c10	0.06517804
207	0x3d835a0c	0.064136595
208	0x3cd42075	0.025894383
209	0xbbac9d51	-0.005267777
210	0x3d467715	0.04845341
211	0x3d48f2f1	0.049059812
212	0xbd6b664a	-0.057470597
213	0xbd5dee46	-0.054182313
214	0xbc624fe8	-0.013812996
215	0x3d77e909	0.060524974
216	0xbcd61b55	-0.02613608
217	0xbcf7716e	-0.030205455
218	0xbbe08078	-0.006851252
219	0x3d2d9029	0.04237381
220	0xbd2dfa2e	-0.042474918
221	0x3c4424e0	0.011971682
222	0xbbe636f4	-0.007025594
223	0x3d156700	0.03647518
224	0xbd45047f	-0.04809999
225	0xbb4335d4	-0.0029786723
226	0x3cf03a8b	0.02932479
227	0x3cf64dba	0.03006636
228	0xbd27d07b	-0.040970307
229	0xbbda8724	-0.006668942
230	0x3d80089d	0.06251643
231	0xbd650707	-0.055914905
232	0xbad07fb3	-0.0015907198
233	0xbd20f84a	-0.039299287
234	0xbaa68610	-0.0012704749
235	0xbd9b7704	-0.0759106
236	0x3b8ffa31	0.004393839
237	0xbd9e70b6	-0.07736342
238	0xbd1019f4	-0.035181
239	0x3d481a8a	0.048853435
240	0xbcb1cf65	-0.021705339
241	0x3d572692	0.052527018
242	0x3d096f41	0.033553366
243	0xbd8d3c97	-0.06896322
244	0x3c5d3360	0.013501018
245	0x3cab204b	0.020889422
246	0x3d892d66	0.06698112
247	0xbcd7349a	-0.0262702
248	0x39ebe302	0.00044991827
249	0xbc575c18	-0.013144515
250	0x3cd67db1	0.026182981
251	0xbd693474	-0.05693479
252	0xbd97d1a2	-0.07413031
253	0xbd35524d	-0.04426794
254	0xbc9fd508	-0.01951076
255	0x3d1b2620	0.037878156

bias f4 [64]
0	0x3d1045ba	0.035222746
1	0xbc160fb2	-0.0091590155
2	0xbb471942	-0.0030380045
3	0xbc031462	-0.008000465
4	0x3d3653ff	0.0445137
5	0x3c9a3412	0.018823657
6	0xbd4b62f7	-0.049654927
7	0xbd552f08	-0.052046806
8	0x3d464517	0.048405733
9	0xbd719de8	-0.05898848
10	0xbd495591	-0.049153868
11	0xbc2858d4	-0.0102750845
12	0x3d615a99	0.05501804
13	0xbc6a6a1a	-0.014307523
14	0xbc81e31f	-0.01585537
15	0xbd02b05c	-0.03190647
16	0xbce997f9	-0.028514849
17	0xbd2c7526	-0.04210391
18	0x3cbb723a	0.022881616
19	0x3d5e4e4e	0.054273896
20	0x3d33d249	0.043901715
21	0xbbfb9400	-0.007677555
22	0xbd3a4b18	-0.04548177
23	0x3cfc5021	0.030799927
24	0x3b67db90	0.0035378672
25	0x3b39ffb1	0.0028381164
26	0xbc34e69a	-0.011041308
27	0xbd2415e7	-0.04005995
28	0x3c8d1857	0.01722352
29	0x3d1c2a08	0.03812602
30	0xbd245f02	-0.04012967
31	0xbd81f167	-0.06344872
32	0x3d11fd3d	0.035641897
33	0x3d1f241d	0.0388528
34	0x3cb13432	0.021631334
35	0x3b9859e3	0.004649387
36	0xbda110e9	-0.078645535
37	0xbd32981d	-0.043602098
38	0xbd5980f0	-0.05310148
39	0x3bfb725e	0.0076735457
40	0xbcb5cdaa	-0.022192795
41	0xbc08de55	-0.008353789
42	0xbc805b2f	-0.01566848
43	0x3d84e0c3	0.064881824
44	0x3d3a8d49	0.045544896
45	0xbd0761ad	-0.033052135
46	0x3cc7eb57	0.024404211
47	0xbd2a3548	-0.04155472
48	0x3b82ce5d	0.0039918856
49	0xbd5b3fc8	-0.053527623
50	0x3d166111	0.036713663
51	0xbc00c116	-0.007858535
52	0xbd25491b	-0.040352922
53	0xbcb333b4	-0.02187524
54	0xba151be0	-0.00056880526
55	0x37764f73	1.4681241e-05
56	0x3cd43ecd	0.025908852
57	0xbd0b3912	-0.033989973
58	0xbd63cc1a	-0.05561457
59	0x3d635e4c	0.05550985
60	0x3d04f6ec	0.032462046
61	0xbd68a444	-0.05679728
62	0xbd4c1712	-0.04982669
63	0x3c28f225	0.010311638
