TP/save_models_MLP_128_64_Adam_lr0.0001_bs64_drop0.0_acttanh_MLP_128_64/model_14.pt (torch, 87457 bytes, 6 tensors)

weight f4 [128, 64]
0.12390568 0.06375613 0.23864396 0.02070638 0.1941528 0.16992727 0.42224002 0.14820936
0.038193066 -0.13281947 0.003617905 0.22529146 0.05796114 -0.010941861 0.39521095 0.11708047
0.14129487 -0.0013363503 -0.106225 0.05286859 0.09988138 0.0666322 0.08643295 0.01126106
0.06581074 -0.04205746 0.06367296 -0.17729244 0.015896663 0.18660426 0.15508173 0.13492677
-0.032686237 0.030892886 -0.10534135 -0.30205154 0.18326068 -0.028554276 0.08640791 -0.12378472
0.17131959 0.11161393 -0.20050071 -0.07506586 -0.1037094 -0.054823246 -0.04578886 -0.099546134
0.12508062 -0.101229936 -0.16310559 -0.26554897 -0.12050495 -0.121153995 0.1733954 0.1622503
-0.023321144 -0.04287889 -0.11402545 -0.2126437 -0.19622496 -0.057033353 -0.01915468 -0.08225966
-0.0028511826 -0.0785168 -0.12214528 0.11095332 -0.046647757 -0.14008872 -0.048841417 -0.19886148
0.06823101 -0.041038696 -0.15151341 -0.1927961 -0.058159903 0.19794098 0.41840044 0.120330006
0.0018688651 0.013602538 -0.12029907 -0.21930057 0.005810569 -0.17438291 -0.013083893 0.1617655
0.007382335 -0.09516182 -0.23067507 -0.18257304 -0.24134503 -0.04279226 0.19656363 0.12914379
0.026747877 -0.084774055 0.28053474 0.21932112 0.11006583 -0.26673168 -0.007554679 -0.11315269
-0.03301104 -0.034106597 0.1044883 0.29818133 -0.20876193 0.18456136 0.033075817 0.08542602
-0.014255914 -0.017227972 0.054463264 0.06680338 -0.22327681 0.031113232 0.081779994 0.017201921
0.21510206 0.115670264 0.12464881 -0.050491683 0.015107813 0.05094794 -0.058798324 0.11753666
0.21522942 0.25795946 0.2526751 0.28862745 0.08869368 0.059510086 0.39269018 0.091485724
0.13827032 -0.017954558 0.13407823 0.17084864 0.10105795 -0.045281444 0.09958529 -0.11345609
0.00865354 -0.0836468 0.24914451 0.0010485714 -0.07978168 0.014515878 0.16213644 0.012892399
0.095539734 -0.00075250445 0.20973527 -0.25387317 0.19240241 0.048365284 -0.1171177 -0.10674831
-0.080763265 0.070527606 0.104917325 0.053913906 0.06460213 0.085326046 -0.041873563 -0.014483199
0.018306918 -0.045455042 -0.17166582 -0.064886056 0.09572467 -0.13769367 -0.044349577 0.09474165
0.06706355 0.29694694 0.11799446 0.031108782 -0.25867712 -0.07739255 0.120864786 -0.031859186
0.28192064 0.09503834 0.10629267 -0.07811118 -0.14341673 -0.07303153 -0.12706542 0.26231515
-0.16676044 -0.12957619 -0.23344673 -0.18810952 -0.21807168 -0.2021873 -0.1395235 -0.30700347
0.020491013 0.123663455 -0.05651058 0.009672037 0.08818071 -0.070229195 -0.02979731 -0.14377308
0.035728894 0.07864372 0.0667219 -0.0049472265 -0.106695965 0.036427435 0.056404762 -0.081491195
-0.08754511 -0.11894891 -0.15384728 -0.013393514 0.26507425 0.21925575 0.16506922 -0.028945712
-0.10054484 -0.08111906 -0.15660226 0.18254796 0.057107996 0.11494594 0.11821991 -0.033209033
-0.11685396 -0.13490275 0.078971185 -0.057548705 -0.05428882 0.3334416 0.0060926927 -0.0001272085
-0.16843887 0.31012234 -0.120738946 0.03584119 0.1456284 -0.07323128 -0.15467528 -0.16771874
0.18316926 -0.12411856 -0.06928236 -0.03169515 -0.08760388 -0.12776974 -0.14089832 -0.20435911
00000000: 43c2 fd3d 9392 823d 155f 743e 6da0 a93c
00000010: fecf 463e 6a01 2e3e d82f d83e 32c4 173e
00000020: 5570 1c3d d401 08be 601a 6d3b ceb2 663e
00000030: a968 6d3d 7e45 33bc 1759 ca3e e3c7 ef3d
00000040: 9aaf 103e 7a28 afba 7e8c d9bd bc8c 583d
00000050: 9c8e cc3d 7676 883d c203 b13d 4f80 383c
00000060: c8c7 863d 7144 2cbd f866 823d 268c 35be
00000070: b839 823c 3015 3f3e bfcd 1e3e 3e2a 0a3e
00000080: 01e2 05bd 1413 fd3c 35bd d7bd 80a6 9abe
00000090: b0a8 3b3e a8ea e9bc a1f6 b03d d882 fdbd
000000a0: 676e 2f3e d895 e43d 0f50 4dbe 21bc 99bd
000000b0: 9865 d4bd 578e 60bd 1a8d 3bbd d8de cbbd
000000c0: 2215 003e a451 cfbd 2705 27be 09f6 87be
000000d0: 4dcb f6bd 961f f8bd 908e 313e f124 263e
000000e0: fc0b bfbc c6a1 2fbd 2d86 e9bd 45bf 59be
000000f0: 32ef 48be ce9b 69bd 47ea 9cbc c177 a8bd
00000100: e8da 3abb 6bcd a0bd 4e27 fabd 7f3b e33d
00000110: b811 3fbd 6b73 0fbe f00d 48bd 58a2 4bbe
00000120: b3bc 8b3d 3118 28bd 5526 1bbe 576c 45be
00000130: 1439 6ebd 0ab1 4a3e 9538 d63e 946f f63d
00000140: b5f4 f43a 2edd 5e3c 5c5f f6bd 5490 60be
00000150: 9666 be3b 6f91 32be d35d 56bc dba5 253e
00000160: 84e7 f13b 33e4 c2bd 1636 6cbe 6df4 3abe
00000170: 2723 77be f046 2fbd fa47 493e 453e 043e
00000180: 5d1e db3c 059e adbd 40a2 8f3e b795 603e
00000190: 326a e13d 0e91 88be 3e8d f7bb 99bc e7bd
000001a0: 9636 07bd 5cb3 0bbd f6fd d53d 39ab 983e
000001b0: b0c5 55be a7fd 3c3e 827a 073d d6f3 ae3d
000001c0: a391 69bc ad21 8dbc df14 5f3d 36d0 883d
000001d0: ada2 64be 2de1 fe3c 457c a73d 0beb 8c3c
000001e0: b743 5c3e 88e4 ec3d e047 ff3d 5ed0 4ebd
000001f0: c386 773c caae 503d 83d6 70bd 0fb7 f03d
00000200: 1a65 5c3e 4313 843e a15e 813e fac6 933e
00000210: 08a5 b53d d9c0 733d b00e c93e de5c bb3d
00000220: bc96 0d3e 7015 93bc ce4b 093e f2f2 2e3e
00000230: 78f7 ce3d 0979 39bd 5ff3 cb3d ab5b e8bd
00000240: 94c7 0d3c 034f abbd bd1f 7f3e 3870 893a
00000250: 9464 a3bd 01d4 6d3c 1807 263e a43a 533c
00000260: 56aa c33d b843 45ba d8c4 563e aafb 81be
00000270: 2305 453e ad1a 463d 68db efbd dc9e dabd
00000280: 3667 a5bd c770 903d e5de d63d d4d4 5c3d
00000290: 1f4e 843d 6cbf ae3d 9d83 2bbd f14a 6dbc
000002a0: 64f8 953c 112f 3abd 2ac9 2fbe fbe2 84bd
000002b0: 4c0b c43d 92ff 0cbe e7a7 35bd e907 c23d
000002c0: 9d58 893d 6e09 983e 14a7 f13d d8d7 fe3c
000002d0: 5471 84be fc7f 9ebd f587 f73d c77e 02bd
000002e0: e757 903e 76a3 c23d f9af d93d c1f8 9fbd
000002f0: d6db 12be 8e91 95bd 701d 02be 2c4e 863e
00000300: 40c3 2abe 9faf 04be a90c 6fbe c89f 40be
00000310: 2f4e 5fbe 300a 4fbe 40df 0ebe 8f2f 9dbe
00000320: c5dc a73c 4443 fd3d a377 67bd 7777 1e3c
00000330: 1798 b43d 53d4 8fbd 7d19 f4bc 4039 13be
00000340: 7658 123d f50f a13d 7ea5 883d 581c a2bb
00000350: 6a83 dabd ef34 153d ae08 673d dbe4 a6bd
00000360: da4a b3bd 7c9b f3bd 248a 1dbe 7870 5bbc
00000370: d0b7 873e 9484 603e e807 293e 8f1f edbc
00000380: 74ea cdbd c021 a6bd 585c 20be daed 3a3e
00000390: 13ea 693d c768 eb3d 481d f23d 3206 08bd
000003a0: 2151 efbd f223 0abe a5bb a13d 31b8 6bbd
000003b0: f45d 5ebd dbb8 aa3e 36a5 c73b 4663 05b9
000003c0: 3d7b 2cbe 5bc8 9e3e fb45 f7bd 36ce 123d
000003d0: 9c1f 153e 48fa 95bd 3263 1ebe 76be 2bbe
000003e0: b990 3b3e df31 febd e9e3 8dbd c6d2 01bd
000003f0: aa69 b3bd 12d6 02be a647 10be 8443 51be

bias f4 [128]
-0.11062402 0.054732144 -0.06688239 -0.012588319 0.07927562 -0.05857857 0.01694599 -0.062250793
0.031217571 -0.09838126 0.114727244 -0.022738148 0.14743477 0.13957357 0.096693814 0.042119905
-0.037593737 -0.062066227 -0.20839265 0.123805724 -0.038344365 -0.16406547 -0.08798632 0.023035344
-0.07763379 -0.15053374 -0.078723304 -0.10278299 -0.016041124 -0.08784428 0.15579006 0.2258378
-0.18861978 -0.061927814 -0.08423122 -0.07227635 -0.15050073 -0.15736166 0.14185615 -0.05949121
0.005514566 -0.10208796 0.17230044 0.16920654 -0.14499557 -0.06640936 0.083961435 -0.069547385
-0.07655683 -0.037258185 -0.1679949 -0.087845035 0.0019044025 0.01887101 -0.043189976 -0.03098821
0.14954598 0.052320912 -0.20783193 0.2603276 -0.1461121 -0.06919355 -0.13368984 -0.18948351
-0.040144034 0.09363 0.07417602 0.10947866 0.025391962 -0.12857656 0.14217676 -0.08426343
-0.24843207 -0.08450221 -0.15748762 0.011720632 -0.0794986 -0.04262535 0.096645355 -0.0727657
-0.1125148 0.18767779 -0.14231354 0.112706095 0.011298688 0.0997064 -0.017570445 0.06787858
0.03712189 -0.031172425 0.080961116 0.22596984 0.18112636 -0.005523799 -0.026044846 0.17822169
0.029678002 0.102900006 0.09424359 -0.0185461 -0.029667573 -0.020178888 0.027967414 -0.119202785
0.08960204 -0.040208377 -0.1757658 -0.045214698 -0.14533657 0.097762756 -0.07232613 -0.2666246
0.11877107 -0.13959055 -0.112373665 -0.023128362 0.017877704 -0.031499293 -0.0531582 0.10986366
0.11509099 -0.050931614 0.089105755 0.10909061 -0.121685766 -0.12021163 0.20678915 -0.05570428
00000000: d98e e2bd d02e 603d a2f9 88bd 3d3f 4ebc
00000010: 425b a23d 15f0 6fbd 51d2 8a3c b0fa 7ebd
00000020: febb ff3c 1d7c c9bd 1ef6 ea3d 5a45 babc
00000030: 24f9 163e 60ec 0e3e 6807 c63d ec85 2c3d
00000040: e4fb 19bd 2839 7ebd e264 55be db8d fd3d
00000050: fb0e 1dbd c700 28be 2c32 b4bd 9eb4 bc3c
00000060: 77fe 9ebd 8425 1abe af39 a1bd e37f d2bd
00000070: ad68 83bc b4e7 b3bd 6e87 1f3e 0642 673e
00000080: 8b25 41be 05a8 7dbd 6b81 acbd 9f05 94bd
00000090: dd1c 1abe 6a23 21be bd42 113e 0ead 73bd
000000a0: 88b3 b43b 7e13 d1bd 876f 303e 7b44 2d3e
000000b0: b879 14be a101 88bd f9f3 ab3d dc6e 8ebd
000000c0: d4c9 9cbd 0a9c 18bd db06 2cbe 19e8 b3bd
000000d0: 259d f93a 6097 9a3c f9e7 30bd fdda fdbc
000000e0: 9522 193e 744e 563d e5d1 54be a949 853e
000000f0: 699e 15be 59b5 8dbd fde5 08be f707 42be
00000100: 126e 24bd 16c1 bf3d 99e9 973d 5936 e03d
00000110: ce02 d03c 93a9 03be c996 113e 4e92 acbd
00000120: fa64 7ebe 7f0f adbd 6f44 21be e507 403c
00000130: 29d0 a2bd eb97 2ebd 00ee c53d 2f06 95bd
00000140: 296e e6bd 9b2e 403e a4ba 11be 74d2 e63d
00000150: 221e 393c de32 cc3d e5ef 8fbc ed03 8b3d
00000160: 1f0d 183d 505d ffbc f1ce a53d a364 673e
00000170: 3079 393e fc00 b5bb 005c d5bc bf7f 363e
00000180: 481f f33c 3dbd d23d c902 c13d feed 97bc
00000190: 6909 f3bc 324e a5bc eb1b e53c 9720 f4bd
000001a0: 4681 b73d 8ab1 24bd f3fb 33be 0c33 39bd
000001b0: 1cd3 14be d737 c83d b91f 94bd 0583 88be
000001c0: 3f3e f33d d3f0 0ebe 2a24 e6bd b177 bdbc
000001d0: 4374 923c 6705 01bd 6abc 59bd 3300 e13d
000001e0: d3b4 eb3d ab9d 50bd 147d b63d e66a df3d
000001f0: 6336 f9bd 8431 f6bd 89c0 533e 2c2a 64bd

weight f4 [64, 128]
0.052277956 0.08675834 0.25793475 0.1781616 0.14321311 -0.017645678 0.13915354 0.026756339
-0.08288837 -0.08743948 -0.22872207 0.21584085 -0.07783186 -0.0531469 0.14845425 -0.095711835
-0.14908953 0.05446902 -0.2878518 -0.09024304 0.0071341204 0.043117724 -0.027582608 -0.13163398
-0.16390301 -0.06969309 -0.06043851 -0.047414873 -0.020676026 0.2190277 0.05601608 -0.38301292
0.07545308 -0.12541138 0.19363861 -0.046039965 0.0407304 -0.20170407 0.26444754 -0.021193758
-0.16435084 0.22503933 -0.045397762 -0.24066342 0.04720764 0.2614412 0.24843565 -0.075498
0.006662728 0.03486676 0.12462571 -0.09416676 -0.24914546 0.10613522 0.13706249 -0.028716302
-0.0931018 -0.014030384 0.16808903 -0.34033233 0.07290534 -0.09404755 0.03102263 0.113916256
0.081646256 0.17567593 -0.28179234 -0.19221814 -0.13043901 0.2387512 0.21347176 0.19351934
-0.013193954 0.11278493 -0.25847137 -0.053832322 0.029214408 -0.19869795 0.06840086 0.119737126
0.19873323 -0.095089555 0.18447243 0.03390744 0.043571718 -0.17388488 0.20342891 -0.12199557
0.23972341 -0.20191148 0.13803165 -0.18891917 -0.09090038 0.037968785 0.038593527 -0.16840678
0.13270101 0.1430133 0.27617022 -0.0022023937 -0.14675376 0.23119974 0.0015880349 -0.013414794
-0.12545703 0.04226324 0.1520609 0.08372071 -0.07411929 -0.076602265 -0.0590098 0.09613073
-0.23281603 0.2380583 -0.31369638 -0.0073569636 0.14671521 -0.108233854 0.13403259 -0.03877027
0.19546671 0.18322928 0.089241 0.26285845 0.11648659 -0.09207816 0.03897226 0.073938906
0.02751267 -0.061100308 -0.07489194 -0.033245884 -0.30115184 -0.09413704 0.050709024 0.29755327
0.06721086 -0.1685129 -0.13539957 0.05766903 -0.16939807 -0.115801334 0.17075118 0.13710295
0.1370577 -0.19583894 0.14635809 -0.10098018 -0.18063927 0.20173016 0.08054446 -0.09352534
0.17992684 0.024796603 0.14675671 0.088102184 0.09294289 -0.022732174 -0.07378014 0.10904322
0.109407485 0.20997742 -0.1565863 0.110106476 -0.038432315 -0.08083621 -0.12725335 -0.07344883
0.05914651 -0.22883907 -0.005430739 -0.13947399 -0.027737876 0.07108001 -0.12215614 0.20090108
-0.0067185755 -0.2188409 0.018598627 0.04365839 0.15546317 -0.033714738 -0.16201495 -0.15013759
0.010372283 -0.17236021 -0.0011009475 0.0095783025 -0.07903941 0.044147547 0.23398122 0.22028467
0.23668504 -0.06415955 0.2818951 -0.017039606 0.0156011395 -0.08539375 -0.25976008 -0.19564965
-0.12694012 0.13291277 0.2175906 0.23528257 0.019135525 0.14449601 0.15811595 -0.14710172
-0.36257803 0.2223399 -0.0871788 -0.19374044 -0.17684908 0.033137564 -0.02799183 0.074501105
-0.06084577 0.06447873 0.00899639 0.14513257 -0.16366892 -0.15952125 0.23049718 -0.05442973
-0.06988576 -0.29715946 0.018782634 0.084211074 0.23909564 -0.11358158 -0.05657793 0.1231488
0.06820452 0.13230366 -0.065658286 -0.08208976 -0.06577286 -0.088347755 0.023432711 -0.096755385
0.054737017 -0.19550923 0.3122407 0.20299153 -0.3027298 0.18912944 -0.107171014 -0.082876235
-0.07191524 0.09237504 -0.053302776 -0.4265327 0.049148373 0.14929272 -0.21121459 0.012774518
00000000: 6921 563d 5bae b13d 0610 843e ff6f 363e
00000010: 75a6 123e ab8d 90bc 447e 0e3e 1c30 db3c
00000020: 61c1 a9bd 7813 b3bd 1e36 6abe 6205 5d3e
00000030: 4f66 9fbd 90b0 59bd 6404 183e 9104 c4bd
00000040: edaa 18be e81a 5f3d 5061 93be 58d1 b8bd
00000050: 57c5 e93b 369c 303d ecf4 e1bc 0fcb 06be
00000060: 31d6 27be 40bb 8ebd 5f8e 77bd 1936 42bd
00000070: c560 a9bc cc48 603e 1e71 653d 451a c4be
00000080: 2587 9a3d d76b 00be 3349 463e 6794 3cbd
00000090: ebd4 263d 838b 4ebe ab65 873e 889e adbc
000000a0: 964b 28be b670 663e 01f3 39bd 7970 76be
000000b0: cc5c 413d 9fdb 853e ea65 7e3e b29e 9abd
000000c0: 0353 da3b 73d0 0e3d c43b ff3d 81da c0bd
000000d0: fd1f 7fbe 6c5d d93d 1c5a 0c3e 733e ebbc
000000e0: 28ac bebd b2df 65bc 881f 2c3e 0a40 aebe
000000f0: 654f 953d 009c c0bd 2c23 fe3c ed4c e93d
00000100: 2736 a73d 64e4 333e 1647 90be d5d4 44be
00000110: ce91 05be 327b 743e 5798 5a3e ef29 463e
00000120: 742b 58bc c9fb e63d 5c56 84be 487f 5cbd
00000130: 0e53 ef3c 7a77 4bbe c015 8c3d bd38 f53d
00000140: b980 4b3e 50be c2bd 57e6 3c3e 87e2 0a3d
00000150: 4278 323d e10e 32be ab4f 503e d0d8 f9bd
00000160: 0e7a 753e e2c1 4ebe 2b58 0d3e 0774 41be
00000170: fa29 babd 2885 1b3d 3f14 1e3d d472 2cbe
00000180: c6e2 073e 1472 123e 2f66 8d3e 0956 10bb
00000190: 9e46 16be a0bf 6c3e 9c25 d03a b9c9 5bbc
000001a0: cf77 00be 381c 2d3d dab5 1b3e c375 ab3d
000001b0: dbcb 97bd a6e1 9cbd 43b4 71bd 30e0 c43d
000001c0: 5367 6ebe 8ec5 733e d09c a0be af12 f1bb
000001d0: 833c 163e b6a9 ddbd d73f 093e 93cd 1ebd
000001e0: 6d28 483e 75a0 3b3e fcc3 b63d 6295 863e
000001f0: 8590 ee3d 7993 bcbd 60a1 1f3d 486d 973d
00000200: 4062 e13c 5144 7abd f260 99bd d62c 08bd
00000210: 9330 9abe ecca c0bd 44b4 4f3d e758 983e
00000220: d9a5 893d a58e 2cbe 2fa6 0abe 5c36 6c3d
00000230: b076 2dbe 4029 edbd 66d9 2e3e b764 0c3e
00000240: db58 0c3e 018a 48be e5de 153e b2ce cebd
00000250: 80f9 38be 5a92 4e3e 7ef4 a43d 378a bfbd
00000260: be3e 383e 3f22 cb3c 6447 163e eb6e b43d
00000270: d858 be3d d338 babc 0b1a 97bd 0d52 df3d
00000280: 0811 e03d 5204 573e 2958 20be 817f e13d
00000290: 346b 1dbd 748d a5bd b44e 02be 576c 96bd
000002a0: 9c43 723d ca54 6abe 57f4 b1bb 45d2 0ebe
000002b0: 8b3a e3bc 6592 913d 002d fabd 03b9 4d3e
000002c0: 7f27 dcbb d417 60be 265c 983c 24d3 323d
000002d0: bd31 1f3e 7718 0abd 3fe7 25be abbd 19be
000002e0: 82f0 293c 327f 30be ab4d 90ba 50ee 1c3c
000002f0: 6adf a1bd 0fd4 343d c698 6f3e 4e92 613e
00000300: 905d 723e 1566 83bd 8e54 903e a596 8bbc
00000310: ec9b 7f3c ebe2 aebd 46ff 84be 6258 48be
00000320: 97fc 01be 491a 083e 12d0 5e3e eaed 703e
00000330: 1bc2 9c3c c3f6 133e 26e9 213e d5a1 16be
00000340: d4a3 b9be 12ad 633e cc8a b2bd e563 46be
00000350: ed17 35be 41bb 073d 1f4f e5bc 0994 983d
00000360: 6a39 79bd 6d0d 843d 9865 133c a29d 143e
00000370: d398 27be 8a59 23be 7407 6c3e b5f1 5ebd
00000380: 4420 8fbd 4925 98be 0ade 993c db76 ac3d
00000390: 7dd5 743e 769d e8bd 42be 67bd 7035 fc3d
000003a0: d0ae 8b3d 9c7a 073e da77 86bd ad1e a8bd
000003b0: ecb3 86bd abef b4bd f5f5 bf3c b027 c6bd
000003c0: ec33 603d 9233 48be 03de 9f3e 03dd 4f3e
000003d0: 66ff 9abe 26ab 413e 7a7c dbbd 04bb a9bd
000003e0: 4c48 93bd 202f bd3d 0354 5abd 7e62 dabe
000003f0: ce4f 493d 31e0 183e a348 58be 364c 513c

bias f4 [64]
-0.05548803 -0.11890628 -0.081878446 0.12615241 -0.032143738 -0.012751992 0.04518435 0.041767426
-0.04061527 -0.012531294 -0.06617244 -0.1330685 0.004863134 -0.03085986 -0.08945601 -0.0032788713
0.042757332 0.03597811 0.08125917 0.065660514 0.09953829 -0.07131822 0.06633914 0.056162972
0.09945066 -0.025735706 -0.045835063 -0.010034552 0.00046076707 -0.095123254 -0.12129521 0.1041437
-0.043840688 -0.29234895 -0.06463392 -0.07761089 0.13829657 0.12437244 0.02249052 0.029524166
0.1182824 -0.17212142 -0.103624254 -0.008095108 0.038915504 0.019953657 0.034248073 0.08127992
0.116150595 -0.06281241 0.10436962 0.027296057 -0.023791518 0.035724 0.041005395 0.084716365
0.11256862 0.0804527 -0.042507496 0.069549255 0.1322999 0.0058616046 0.038957555 -0.003921973
00000000: 6b47 63bd 2385 f3bd e3af a7bd 192e 013e
00000010: 27a9 03bd bbed 50bc 3a13 393d 5214 2b3d
00000020: 335c 26bd 0e50 4dbc 6b85 87bd 1c43 08be
00000030: ed5a 9f3b d1cd fcbc b634 b7bd 55e2 56bb
00000040: 5022 2f3d c85d 133d 356b a63d 0579 863d
00000050: bbda cb3d 490f 92bd d1dc 873d 250b 663d
00000060: caac cb3d b0d3 d2bc 8cbd 3bbd f667 24bc
00000070: 1c93 f139 fbcf c2bd a069 f8bd 4b49 d53d
00000080: 4b92 33bd c3ae 95be ca5e 84bd 75f2 9ebd
00000090: 9e9d 0d3e fab6 fe3d 0a3e b83c aadc f13c
000000a0: 0b3e f23d 9940 30be f438 d4bd 58a1 04bc
000000b0: dd65 1f3d da75 a33c b547 0c3d 1676 a63d
000000c0: 5de0 ed3d cba3 80bd bdbf d53d fb9b df3c
000000d0: 6ee6 c2bc 5453 123d 46f5 273d c67f ad3d
000000e0: 608a e63d 63c4 a43d 571c 2ebd d76f 8e3d
000000f0: a079 073e b412 c03b f591 1f3d e583 80bb

weight f4 [64, 64]
-0.0021502222 0.22332138 0.26608303 -0.12061321 0.08437661 0.15209307 0.17161448 0.11393483
0.17962658 0.14195077 -0.101337664 -0.041020177 -0.00488165 -0.12786183 -0.12446919 -0.01050441
0.11728742 0.2257766 0.021447197 -0.14232387 -0.08679644 0.20857212 0.3070709 -0.22515695
0.045680072 -0.20556653 0.18330672 -0.15169166 -0.20112689 -0.26003888 -0.0005351036 -0.20623025
0.09530133 -0.014423196 0.06991962 0.20668685 0.073350824 0.15727282 -0.08371442 -0.31238884
0.18095718 0.09978286 0.12172705 -0.045463074 -0.1205079 -0.2570814 0.23077752 0.012573644
-0.0977302 0.25388762 0.0577446 0.17612547 0.10077678 -0.07470109 0.21000749 0.07094868
-0.1214876 -0.30986336 0.13789515 0.014669227 0.09810588 0.0073154587 -0.15354358 0.05597462
-0.058596 0.00575473 -0.06256637 -0.15787058 0.018031936 0.078811124 -0.03802808 -0.23990029
0.1229975 0.08353184 0.034990255 -0.14013168 0.13505223 0.12299097 -0.016535468 -0.1276672
-0.086894974 0.03737051 0.00280966 0.037593376 -0.03883597 -0.13268422 0.20748344 0.05479024
0.1282809 0.032407884 0.15432031 -0.038401376 -0.05667508 0.151453 0.099634744 0.09223505
-0.033575412 0.0804344 0.11491192 0.055300202 -0.12044803 -0.045880754 -0.004521047 -0.2146551
0.12191566 -0.04765577 0.2130391 -0.121657565 0.03554297 -0.06715884 -0.10431587 -0.1253757
-0.1420313 -0.07733078 0.091335714 -0.0104029 -0.13635501 0.14936176 0.059229203 -0.021415165
-0.0905129 -0.20538904 -0.041493494 0.16100752 -0.0060873483 0.08072058 0.14622231 -0.016377805
0.1653036 0.06291303 0.084553085 -0.033604942 0.16501331 0.05234123 0.0789385 -0.0638553
0.1750619 0.031613816 0.27028778 -0.23137525 0.01596456 0.15254375 0.25148368 -0.1330103
0.1383379 -0.06055351 0.17389481 0.0825363 -0.03327933 0.006720824 0.1458252 0.17621027
0.059271112 0.17126061 0.19972461 0.07742938 -0.21522728 -0.030518899 0.15176837 -0.10174066
0.18907018 -0.081360154 0.1746483 0.26669133 0.14074546 0.06574249 0.12185664 -0.1700309
-0.06789279 0.13047251 0.1754426 0.102402404 -0.14546248 0.06814658 0.08518868 -0.070766285
0.11101808 0.09535928 0.019074842 -0.083637536 0.2853296 0.05824167 0.18665048 0.019534998
-0.23854645 -0.24466987 0.2020613 0.27326673 0.07884197 -0.06447452 0.2206196 0.0063947765
0.13351688 -0.07209037 0.08307074 -0.08588229 -0.12901688 -0.061416823 0.14763127 0.15945464
-0.07942151 0.12280131 0.12268643 -0.04717594 -0.004608183 0.040901277 0.10364494 -0.10640962
0.2001609 0.18757977 0.094631575 0.10161095 0.028954264 0.018790977 0.23982865 0.18856557
-0.21422787 0.146249 0.08996152 -0.07258282 -0.20417896 -0.17040655 0.17830981 -0.07213004
0.0850549 -0.22446291 -0.08204578 0.20133448 0.17414007 0.10374175 0.12020583 -0.13786885
-0.015242505 -0.12429514 0.18931618 0.19449314 0.17423926 0.14104028 -0.065244846 0.067097485
0.106144324 -0.04127903 0.13607964 0.2161873 0.023949347 0.1001168 0.033609875 -0.059290536
-0.15164205 -0.106372535 0.0040051476 0.0560456 0.040332045 -0.16158982 -0.26646867 0.03135137
00000000: beea 0cbb 5cae 643e 093c 883e 0f04 f7bd
00000010: a5cd ac3d 49be 1b3e b5bb 2f3e aa56 e93d
00000020: 08f0 373e 8b5b 113e 1f8a cfbd c604 28bd
00000030: 40f6 9fbb 36ee 02be b4e9 febd b01a 2cbc
00000040: 6334 f03d fb31 673e 08b2 af3c 59bd 11be
00000050: 55c2 b1bd ee93 553e 6638 9d3e 8b8f 66be
00000060: 071b 3b3d 0880 52be c2b4 3b3e 0f55 1bbe
00000070: 35f4 4dbe d123 85be 3246 0cba 062e 53be
00000080: 582d c33d 454f 6cbc 0532 8f3d b8a5 533e
00000090: f538 963d 200c 213e 7772 abbd 6ef1 9fbe
000000a0: d74c 393e f55a cc3d 084c f93d 7d37 3abd
000000b0: d9cc f6bd 2ca0 83be f150 6c3e af01 4e3c
000000c0: c526 c8bd 8ffd 813e 9a85 6c3d 3c5a 343e
000000d0: 0e64 ce3d e3fc 98bd 340c 573e 8b4d 913d
000000e0: 7ece f8bd 69a6 9ebe 6334 0d3e 3357 703c
000000f0: bceb c83d 84b6 ef3b 873a 1dbe a545 653d
00000100: 5c02 70bd 2d92 bc3b cc22 80bd d3a8 21be
00000110: b6b7 933c ba67 a13d 55c3 1bbd 6ca8 75be
00000120: 1de6 fb3d be12 ab3d f151 0f3d ae7e 0fbe
00000130: 224b 0a3e b1e2 fb3d 6475 87bc 31bb 02be
00000140: fef5 b1bd d211 193d 4622 383b 83fb 193d
00000150: 7712 1fbd 5fde 07be 8a76 543e bb6b 603d
00000160: 115c 033e 21be 043d 2506 1e3e c34a 1dbd
00000170: 2124 68bd 7f16 1b3e 4d0d cc3d bbe5 bc3d
00000180: 5f86 09bd caba a43d f156 eb3d 7782 623d
00000190: 75ad f6bd 75ed 3bbd 4b25 94bb 8cce 5bbe
000001a0: ebae f93d b232 43bd ec26 5a3e 9a27 f9bd
000001b0: 8195 113d 938a 89bd 8fa3 d5bd 7d62 00be
000001c0: a770 11be 9a5f 9ebd 380e bb3d ed70 2abc
000001d0: a6a0 0bbe 4af2 183e 529a 723d db6e afbc
000001e0: d45e b9bd 8151 52be 15f5 29bd 28df 243e
000001f0: 6178 c7bb d550 a53d 4dbb 153e bf2a 86bc
00000200: 5945 293e 8cd8 803d 2b2a ad3d 56a5 09bd
00000210: 40f9 283e c263 563d 82aa a13d 91c6 82bd
00000220: 6d43 333e 7d7d 013d 2963 8a3e a2ed 6cbe
00000230: 1cc8 823c 6e34 1c3e 78c2 803e da33 08be
00000240: 73a8 0d3e f506 78bd 7b11 323e cb08 a93d
00000250: e84f 08bd 5c3a dc3b 3453 153e 7770 343e
00000260: 44c6 723d f15e 2f3e 9c84 4c3e 4b93 9e3d
00000270: 8a64 5cbe c502 fabc 2b69 1b3e 685d d0bd
00000280: 9d9b 413e 27a0 a6bd 01d7 323e c48b 883e
00000290: 941f 103e 00a4 863d f98f f93d 951c 2ebe
000002a0: 600b 8bbd 969a 053e 3aa7 333e 5ab8 d13d
000002b0: 1ef4 14be 6f90 8b3d 6777 ae3d eaed 90bd
000002c0: 725d e33d ba4b c33d d842 9c3c 284a abbd
000002d0: b916 923e d18e 6e3d 4e21 3f3e dc07 a03c
000002e0: 8545 74be bd8a 7abe 28e9 4e3e 9ee9 8b3e
000002f0: e677 a13d 380b 84bd 1bea 613e 468b d13b
00000300: a6b8 083e 1ea4 93bd fe20 aa3d 0ee3 afbd
00000310: 001d 04be 3590 7bbd a72c 173e 1448 233e
00000320: bfa7 a2bd 417f fb3d 0643 fb3d 8f3b 41bd
00000330: 3e00 97bb 1988 273d cc43 d43d 49ed d9bd
00000340: fbf6 4c3e e914 403e 33ce c13d 6719 d03d
00000350: 7e31 ed3c 89ef 993c a495 753e 5517 413e
00000360: 8d5e 5bbe 4cc2 153e bf3d b83d 4da6 94bd
00000370: 4a14 51be 0e7f 2ebe d996 363e eab8 93bd
00000380: 4331 ae3d 9bd9 65be 9e07 a8bd a02a 4e3e
00000390: c651 323e 8e76 d43d 792e f63d 7e2d 0dbe
000003a0: b3bb 79bc 738e febd 1adc 413e 3629 473e
000003b0: c76b 323e dd6c 103e 179f 85bd 686a 893d
000003c0: 3262 d93d 3314 29bd 7658 0b3e 3460 5d3e
000003d0: 6c31 c43c 090a cd3d 82aa 093d a2da 72bd
000003e0: 0e48 1bbe d8d9 d9bd 9d3d 833b 1290 653d
000003f0: 3733 253d cd77 25be 956e 88be 4b6a 003d

bias f4 [64]
-0.07588649 0.009506962 0.100370415 0.05677886 -0.27428758 -0.16975766 0.2388325 -0.097770266
-0.07853954 -0.0051950314 -0.0029396003 -0.09743166 0.0040268125 0.009964698 0.16710886 -0.013168445
-0.11663342 -0.024254907 0.051155567 0.052755747 0.13301744 0.13877153 -0.03964103 0.08771616
-0.0761961 0.11945053 0.15579921 -0.7109721 -0.886574 -0.015121007 0.09140836 -0.112596005
-0.045119513 0.041769058 -0.09430014 -0.8355793 -0.58025634 0.038799923 -0.05626306 0.05473726
-0.4673642 0.055676404 -0.073762916 -0.13008444 -0.06747839 0.07783328 0.14170533 0.044156726
-0.046429068 -0.11786864 0.01872442 0.13005325 0.13834694 0.13916808 -0.08361003 -0.0035592925
-0.080813594 -0.10086439 0.040773492 -0.07291209 -0.012032208 0.00083767634 0.06919599 -0.9005552
00000000: 606a 9bbd 17c3 1b3c 018f cd3d f390 683d
00000010: 6c6f 8cbe f4d4 2dbe 8290 743e c73b c8bd
00000020: 57d9 a0bd 153b aabb 4fa6 40bb 408a c7bd
00000030: 5af3 833b f942 233c 961e 2b3e 76c0 57bc
00000040: 81dd eebd 3ab2 c6bc 8088 513d 6916 583d
00000050: b935 083e 201a 0e3e a25e 22bd 88a4 b33d
00000060: b30c 9cbd 7ba2 f43d d489 1f3e 4402 36bf
00000070: 83f6 62bf 1abe 77bc 4e34 bb3d bc98 e6bd
00000080: 3dcf 38bd 0816 2b3d 6f20 c1bd 86e8 55bf
00000090: ae8b 14bf abec 1e3d 1874 66bd 2d34 603d
000000a0: 5c4a efbe f10c 643d 0311 97bd db34 05be
000000b0: 1c32 8abd 0e67 9f3d 341b 113e afdd 343d
000000c0: 682c 3ebd 1d65 f1bd f463 993c ae2c 053e
000000d0: d2aa 0d3e 1482 0e3e bc3b abbd 0543 69bb
000000e0: 9981 a5bd fd91 cebd 1b02 273d ef52 95bd
000000f0: bd22 45bc 8297 5b3a a1b6 8d3d c98a 66bf
