TP/save_models_MLP_128_64_Adam_lr0.0001_bs64_drop0.0_acttanh_MLP_128_64/model_1.pt (torch, 87125 bytes, 6 tensors)

weight f4 [128, 64]
0.04447914 0.019224044 0.16679934 -0.034074795 0.12990902 0.10630713 0.18555415 0.06078564
0.018568372 -0.09425667 0.04266834 0.12106488 0.09440866 -0.03881019 0.12163253 0.09099815
0.08423669 -0.054654595 -0.030078571 0.096232235 0.11705391 -0.009724468 0.13493407 0.029388573
0.062016357 -0.08672367 0.011371105 -0.118606314 0.022572594 0.14508507 0.09233903 0.13843553
-0.037623867 0.0033984242 -0.056970168 -0.21590608 0.13508505 0.029676938 0.06930331 -0.087094106
0.10372694 0.042141397 -0.13594688 -0.05182217 -0.14376117 -0.0531681 -0.04820087 -0.09261196
0.102276824 -0.09381814 -0.08974453 -0.10832279 -0.11305571 -0.16281438 0.10446363 0.13403293
-0.027225332 0.02836758 -0.07691526 -0.09243406 -0.0848252 0.025903929 0.043525357 -0.10192227
-0.061250452 -0.06527657 -0.1137158 0.11886428 0.060653422 -0.12512697 -0.043664616 -0.10221093
0.08822742 0.06780475 -0.08488502 -0.14052123 -0.057738997 0.11531436 0.033511475 0.022273025
0.04824746 0.057664603 -0.09880631 -0.18264073 -0.039313532 -0.1006177 -0.017378423 0.12507872
-0.044536985 -0.108605504 -0.14716853 -0.18004262 -0.18715605 -0.051893987 0.10016353 0.1537124
0.06677148 -0.13584156 0.16253598 0.1814126 0.089662276 -0.1715662 0.034130864 -0.08055095
0.022549774 0.04608812 0.0052174856 0.15327016 -0.076439 0.096229546 -0.009530357 0.052973244
0.024965495 -0.034000885 0.092957094 0.034204904 -0.10070078 0.0043193162 0.11476958 -0.0048619686
0.13496988 0.09829698 0.08361936 -0.029611535 -0.023803001 0.03595647 -0.034967113 0.14801252
0.19582096 0.18399338 0.15861483 0.14037175 0.025705183 -0.019112958 0.13873768 0.021905066
0.12905774 0.020828461 0.11501806 0.11313964 0.08865718 -0.014697791 -0.007993405 -0.044782605
0.04737766 -0.081797875 0.18652615 0.00858499 -0.004853024 0.049739983 0.12054074 -0.0011830135
0.11215415 0.003762611 0.10787855 -0.15994251 0.16733876 0.0067822826 -0.09201509 -0.08849779
-0.03226971 0.08774183 0.107179105 0.02196115 0.047499355 0.06093482 0.05424888 -0.026797414
0.013269256 0.00058183225 -0.12860633 -0.06365557 0.047046486 -0.13553824 -0.07522632 0.10550244
0.056183405 0.13279685 0.08995411 0.086982414 -0.16605744 -0.053426377 0.05933851 -0.0030735803
0.13531634 0.12542902 0.02216179 -0.003755998 -0.047820214 0.017006937 -0.09406593 0.17124099
-0.12678348 -0.051233128 -0.108418904 -0.08329201 -0.14289717 -0.12238647 0.03033438 -0.13791902
0.050283056 0.06560442 -0.06210722 0.022244122 0.06732201 -0.086407974 -0.04599053 -0.13154858
-0.0072850585 0.041995827 0.008195981 0.014758936 -0.08157754 0.05677683 0.010232701 -0.1284329
-0.14123222 -0.12361247 -0.07569044 -0.010113021 0.15730919 0.15521859 0.11254519 -0.049866226
-0.16470864 -0.10929812 -0.11051842 0.15000564 0.011494315 0.028465495 0.053901594 -0.064179264
-0.1710495 -0.055566464 0.08172181 -0.04864614 -0.021573408 0.17954095 0.060454726 -0.039897963
-0.13832985 0.0947638 -0.056153156 0.106001906 0.15195945 -0.07227922 -0.06851544 -0.1399806
0.07649639 -0.035102762 0.042047706 0.0071121454 -0.13714059 -0.11305148 -0.11939421 -0.09175367
00000000: c22f 363d be7b 9d3c 72cd 2a3e 0392 0bbd
00000010: df06 053e 8db7 d93d e801 3e3e 5dfa 783d
00000020: b31c 983c a409 c1bd ffc4 2e3d ddf0 f73d
00000030: 5459 c13d 6ff7 1ebd 7a1a f93d 3d5d ba3d
00000040: 4984 ac3d 7fdd 5fbd 5667 f6bc 6815 c53d
00000050: f6b9 ef3d 6053 1fbc 282c 0a3e 4ec0 f03c
00000060: dd04 7e3d 2e9c b1bd df4d 3a3c dee7 f2bd
00000070: 29ea b83c 2e91 143e 3f1c bd3d 0bc2 0d3e
00000080: 7c1b 1abd 19b8 5e3b 8d59 69bd 7c16 5dbe
00000090: bc53 0a3e 0d1d f33c e5ee 8d3d 655e b2bd
000000a0: ca6e d43d 759c 2c3d a935 0bbe 7c43 54bd
000000b0: 2136 13be cbc6 59bd 476e 45bd 57ab bdbd
000000c0: 8376 d13d ba23 c0bd fbcb b7bd 57d8 ddbd
000000d0: c189 e7bd d0b8 26be 07f1 d53d ee3f 093e
000000e0: a907 dfbc 2163 e83c bf85 9dbd 124e bdbd
000000f0: d6b8 adbd 7a34 d43c a547 323d a0bc d0bd
00000100: c1e1 7abd b9af 85bd d4e3 e8bd 1e6f f33d
00000110: b96f 783d 4921 00be abd9 32bd f753 d1bd
00000120: 94b0 b43d 37dd 8a3d 33d8 adbd cce4 0fbe
00000130: ba7f 6cbd ef29 ec3d 5443 093d eb75 b63c
00000140: 219f 453d b831 6c3d f65a cabd 2c06 3bbe
00000150: 3a07 21bd a710 cebd 325d 8ebc a314 003e
00000160: 6a6c 36bd 906c debd 59b3 16be 185d 38be
00000170: d6a5 3fbe ca8e 54bd 8922 cd3d c966 1d3e
00000180: 7cbf 883d 0d1a 0bbe d56f 263e 3ac4 393e
00000190: dba0 b73d 0daf 2fbe cecc 0b3d e5f7 a4bd
000001a0: 4eba b83c e6c6 3c3d 71f7 aa3b daf2 1c3e
000001b0: 0d8c 9cbd ff13 c53d 3725 1cbc 79fa 583d
000001c0: 7084 cc3c 8344 0bbd 4a60 be3d 711a 0c3d
000001d0: 363c cebd 0d89 8d3b 500c eb3d 2651 9fbb
000001e0: 8b35 0a3e ed4f c93d a140 ab3d e493 f2bc
000001f0: 83fe c2bc 1747 133d ad39 0fbd 9890 173e
00000200: 4a85 483e c368 3c3e ed6b 223e 9dbd 0f3e
00000210: ad93 d23c c792 9cbc 4011 0e3e 4172 b33c
00000220: b627 043e 73a0 aa3c 978e eb3d c1b5 e73d
00000230: e591 b53d 01cf 70bc c5f6 02bc f76d 37bd
00000240: 140f 423d a585 a7bd b600 3f3e 0fa8 0c3c
00000250: 1e06 9fbb 27bc 4b3d 10de f63d 590f 9bba
00000260: 13b1 e53d 2396 763b 6eef dc3d f8c7 23be
00000270: da5a 2b3e e93d de3b 6872 bcbd 543e b5bd
00000280: 3e2d 04bd fdb1 b33d b880 db3d dfe7 b33c
00000290: af8e 423d ca96 793d 1334 5e3d 4086 dbbc
000002a0: 4b67 593c 1a86 183a 61b1 03be da5d 82bd
000002b0: d1b3 403d 89ca 0abe 4210 9abd aa11 d83d
000002c0: 9220 663d e6fb 073e dc39 b83d d623 b23d
000002d0: f60a 2abe 9ed5 5abd f00c 733d 1f6e 49bb
000002e0: 5e90 0a3e 7770 003e a48c b53c 3127 76bb
000002f0: 21df 43bd 2252 8b3c a3a5 c0bd cc59 2f3e
00000300: 87d3 01be d4d9 51bd bb0a debd 0095 aabd
00000310: a353 12be c2a5 fabd ce7f f83c a53a 0dbe
00000320: 9bf5 4d3d 9c5b 863d 2464 7ebd 4e39 b63c
00000330: 1fe0 893d aaf6 b0bd 9160 3cbd acb4 06be
00000340: 80b7 eebb d103 2c3d 7048 063c 77cf 713c
00000350: 2012 a7bd d28e 683d 0fa7 273c ea83 03be
00000360: 2e9f 10be 8928 fdbd 9703 9bbd 16b1 25bc
00000370: a915 213e 9ff1 1e3e 187e e63d 8740 4cbd
00000380: 62a9 28be b1d7 dfbd 7b57 e2bd 149b 193e
00000390: a752 3c3c 7830 e93c ebc7 5c3d 6b70 83bd
000003a0: 9a27 2fbe a999 63bd c45d a73d 2d41 47bd
000003b0: b7ba b0bc 95d9 373e 609f 773d 0c6c 23bd
000003c0: 57a6 0dbe 8613 c23d da00 66bd 8717 d93d
000003d0: 429b 1b3e 2107 94bd d351 8cbd 1357 0fbe
000003e0: 24aa 9c3d eac7 0fbd 373a 2c3d 000d e93b
000003f0: 956e 0cbe 8987 e7bd f484 f4bd 59e9 bbbd

bias f4 [128]
-0.13545537 0.055464327 -0.08795981 -0.045340538 0.088940665 -0.043790355 -0.013834572 -0.09143039
-0.012007642 -0.20350772 0.08093789 -0.053409737 0.09485432 0.21619761 0.13585903 0.023581252
-0.044809233 -0.087160274 -0.11777317 0.085554264 -0.06881991 -0.16651964 -0.011582364 -0.073552616
-0.08446065 -0.10563482 -0.094049156 -0.060760647 0.0019456769 -0.1338439 0.14469032 0.2086532
-0.10579283 0.0012110051 0.034363177 -0.1685655 -0.125122 -0.089533746 0.12580979 -0.10802967
-0.022022214 -0.13634804 0.12710135 0.15449509 -0.20018062 -0.16645458 0.08311029 -0.2021343
-0.15909769 0.013850015 -0.17881557 -0.05542862 0.022673044 0.014092923 -0.18272486 -0.08317306
0.14159735 -0.001319464 -0.16324866 0.18137531 -0.1779909 -0.10026333 -0.12918516 -0.14933956
-0.058756735 0.054941386 0.058787428 0.19958009 0.10926557 -0.01843866 0.123282626 0.006791476
-0.20373982 -0.13043343 -0.23362231 0.029960293 -0.14282593 -0.028243398 0.18008566 -0.018679947
-0.14700358 0.10259233 -0.1818734 0.16681534 0.1062588 0.17112355 0.024996009 0.10870334
0.13459405 0.062995486 0.051749676 0.14191616 0.16611783 0.08332302 0.08097919 0.22125211
-0.008497423 0.09930306 0.054150485 -0.0063588284 -0.090213805 0.05087926 -0.034384355 -0.07420691
0.091431625 -0.11309265 -0.24784938 -0.17065974 0.05963473 0.08803862 -0.013571129 -0.15342484
0.15908235 -0.15101808 -0.14957756 -0.14028738 -0.10561024 -0.10664142 -0.06339958 0.13670395
0.0470032 0.019610442 0.105865724 0.14390728 -0.16809916 -0.0648866 0.20296793 -0.06467045
00000000: d0b4 0abe 902e 633d 4624 b4bd 00b7 39bd
00000010: 8626 b63d 845d 33bd 67aa 62bc db3f bbbd
00000020: b3bb 44bc 5464 50be c4c2 a53d 2bc4 5abd
00000030: fb42 c23d e862 5d3e a11e 0b3e 782d c13c
00000040: e389 37bd 1681 b2bd 0f33 f1bd 1337 af3d
00000050: 74f1 8cbd 2084 2abe f5c3 3dbc c1a2 96bd
00000060: b5f9 acbd 1257 d8bd d89c c0bd 28e0 78bd
00000070: 1506 ff3a 600e 09be b329 143e 2fa9 553e
00000080: e9a9 d8bd 97ba 9e3a 67c0 0c3d 6f9c 2cbe
00000090: fb1f 00be 785d b7bd 48d4 003e a93e ddbd
000000a0: ee67 b4bc d29e 0bbe db26 023e f633 1e3e
000000b0: 26fc 4cbe 1273 2abe ba35 aa3d 4bfc 4ebe
000000c0: 81ea 22be 2ceb 623c 6e1b 37be 1f09 63bd
000000d0: d2bc b93c 01e6 663c 3a1c 3bbe a356 aabd
000000e0: e5fe 103e ddf1 acba a82a 27be 73ba 393e
000000f0: 3f43 36be dc56 cdbd 1d49 04be 78ec 18be
00000100: e7aa 70bd 380a 613d 16cb 703d b95e 4c3e
00000110: a1c6 df3d ac0c 97bc 9a7b fc3d 088b de3b
00000120: 2ca1 50be 5790 05be b03a 6fbe 4a6f f53c
00000130: f640 12be b35e e7bc 6068 383e b006 99bc
00000140: 1b88 16be ed1b d23d 053d 3abe a4d1 2a3e
00000150: 379e d93d 033b 2f3e 6ec4 cc3c db9f de3d
00000160: 06d3 093e c703 813d 78f7 533d 7852 113e
00000170: cb1a 2a3e 42a5 aa3d 6bd8 a53d ea8f 623e
00000180: c638 0bbc 675f cb3d e6cc 5d3d b85d d0bb
00000190: 04c2 b8bd c566 503d 9cd6 0cbd cbf9 97bd
000001a0: 8140 bb3d 1f9d e7bd 3acc 7dbe 6dc1 2ebe
000001b0: 8c43 743d 984d b43d 7159 5ebc 671b 1dbe
000001c0: 7ce6 223e 7ca4 1abe dc2a 19be 7fa7 0fbe
000001d0: 2e4a d8bd d166 dabd a4d7 81bd 1ffc 0b3e
000001e0: 6d86 403d 14a6 a03c 21d0 d83d 6e5c 133e
000001f0: 3022 2cbe 44e3 84bd d3d6 4f3e f171 84bd

weight f4 [64, 128]
0.06082333 -0.015156432 0.15810406 0.02621892 0.10548378 -0.031001579 0.08157457 0.022259181
-0.03202347 -0.05895885 -0.10927266 0.14908217 -0.069988504 -0.04021362 0.06621909 -0.04378338
-0.009908183 0.032056525 -0.12945902 -0.028765853 0.03650052 0.061722632 -0.014971582 -0.06565649
-0.049838185 -0.020433014 -0.04792291 -0.020628812 0.009539254 0.08050413 0.008614123 -0.13662454
-0.007696589 -0.07333973 0.1322215 -0.036747154 -0.045041144 -0.070833564 0.09733168 0.020814493
-0.11350437 0.0957842 -0.04464214 -0.118377574 0.04406833 0.10371724 0.13929443 0.0191214
-0.013112693 -0.019844377 0.044364106 -0.006877842 -0.16175899 0.13172111 0.08065644 -0.07720832
-0.012317865 -0.031004472 0.07856434 -0.13299975 0.005589227 -0.038960095 0.018623527 0.10979127
0.033056524 0.12462741 -0.14968522 -0.10573304 -0.040318 0.09082624 0.09443216 0.107567325
-0.069883935 0.05761378 -0.109236114 0.0073815254 -0.0131845735 -0.16352898 -0.034123924 0.011128292
0.026410569 0.08593605 0.018563969 0.03824358 -0.0029392978 -0.1423547 0.047453552 -0.093305595
0.101559125 -0.137526 -0.0056056418 -0.09181298 0.013845053 0.052984554 -0.027036626 -0.05866262
0.0927924 0.06456532 0.15018936 0.038077306 -0.115467295 0.069192015 0.02193452 0.011168855
-0.07593081 0.0455719 0.072332665 0.11344044 -0.012154739 -0.0035765225 -0.011041525 0.036922075
-0.07992056 0.14605342 -0.068838514 0.000723917 0.05096733 -0.0035132894 0.020170752 -0.039690416
0.082841866 0.055733275 0.058141317 0.0707643 0.083143055 -0.06828367 -0.102637306 0.03336156
-0.0038004066 -0.01819919 -0.0044845785 -0.0025443684 -0.14084592 -0.08825988 0.06763415 0.12162083
0.08210597 -0.08987222 -0.12460062 0.05136086 -0.08704142 -0.0565193 0.06812598 0.05950465
0.06909432 -0.10370163 0.04069781 -0.10869226 -0.06771257 0.10029197 0.035779964 -0.057531774
0.114831604 -0.008197981 0.079932675 0.02654359 0.054447424 -0.020708399 -0.021174833 0.058721185
0.04406049 0.12625125 -0.042959727 0.03182102 0.019953322 -0.05032705 -0.09368867 -0.045578174
0.023327122 -0.11469215 0.008590936 -0.07802308 -0.095933385 0.062238786 -0.035832837 0.028101558
-0.0012206292 -0.1018363 -0.008304775 0.040285278 0.115152255 -0.072263114 -0.1120855 -0.083847076
0.02887055 -0.017363533 -0.010126869 -0.0034870813 -0.025258161 0.028496634 0.14156619 0.0934299
0.07763768 -0.031409472 0.10045376 -0.045484614 0.0054144543 0.02744847 -0.09999369 -0.10267704
-0.03546044 0.026121093 0.07143502 0.13511403 0.060810104 0.038283087 0.06567163 0.010831332
-0.13150032 0.060714066 -0.012117786 -0.11659078 -0.02387679 0.071080394 0.05934732 0.07700345
0.00031222138 0.06486294 -0.011200032 0.08414769 -0.06853417 -0.09398945 0.082091786 -0.063574426
-0.0068248087 -0.14530055 0.046427265 0.04680878 0.050854996 -0.037106406 -0.050851624 -0.01075396
0.061799757 0.009981139 0.018347187 -0.101831116 -0.027897215 -0.071425736 0.013604637 -0.007977879
0.0666759 -0.084806286 0.08360314 0.059709292 -0.15047213 0.08066128 -0.09427235 -0.014469713
-0.017011713 0.059343867 0.027132912 -0.15307802 0.03293084 0.038960442 -0.10108925 0.03392586
00000000: e221 793d af52 78bc 08e6 213e 0fc9 d63c
00000010: e107 d83d 06f7 fdbc 9110 a73d e358 b63c
00000020: 0b2b 03bd d67e 71bd 58ca dfbd ffa8 183e
00000030: 2256 8fbd 09b7 24bd e09d 873d 3456 33bd
00000040: ee55 22bc b44d 033d e890 04be 5ea6 ebbc
00000050: 9281 153d dfd0 7c3d 5e4b 75bc e976 86bd
00000060: 2023 4cbd 2363 a7bc d04a 44bd c1fd a8bc
00000070: 884a 1c3c 59df a43d 4022 0d3c 4ee7 0bbe
00000080: ab33 fcbb 2433 96bd 1365 073e 2f84 16bd
00000090: 107d 38bd 3011 91bd d555 c73d 2883 aa3c
000000a0: fb74 e8bd 822a c43d adda 36bd f16f f2bd
000000b0: fe80 343d b469 d43d 33a3 0e3e 7ba4 9c3c
000000c0: 9fd6 56bc ad90 a2bc 23b7 353d 855f e1bb
000000d0: 26a4 25be e6e1 063e 342f a53d 651f 9ebd
000000e0: dfd0 49bc 17fd fdbc 57e6 a03d 1631 08be
000000f0: d625 b73b 9f94 1fbd 5e90 983c 3fda e03d
00000100: 4766 073d a83c ff3d 1547 19be 908a d8bd
00000110: 7d24 25bd 1c03 ba3d a665 c13d 424c dc3d
00000120: 4f1f 8fbd 6dfc 6b3d 2fb7 dfbd b9e0 f13b
00000130: 1c04 58bc 2474 27be 87c5 0bbd 7153 363c
00000140: fa5a d83c 3dff af3d 7713 983c 4da5 1c3d
00000150: 3ca1 40bb 6ec5 11be a85e 423d 0117 bfbd
00000160: 3bfe cf3d 9ed3 0cbe 88af b7bb 7208 bcbd
00000170: 5cd6 623c 5506 593d ea7b ddbc 3748 70bd
00000180: f109 be3d d33a 843d 3dcb 193e f3f6 1b3d
00000190: 1e7a ecbd 8bb4 8d3d 06b0 b33c 93fd 363c
000001a0: 9d81 9bbd 9aa9 3a3d 2623 943d 7653 e83d
000001b0: ac24 47bc 1764 6abb 83e7 34bc 9a3b 173d
000001c0: 64ad a3bd 078f 153e 35fb 8cbd 3fc5 3d3a
000001d0: 1ec3 503d 373f 66bb 223d a53c 6b92 22bd
000001e0: ffa8 a93d 9348 643d 9725 6e3d e0ec 903d
000001f0: e846 aa3d 4fd8 8bbd 8233 d2bd 22a6 083d
00000200: 3e10 79bb 7816 95bc 5ff3 92bb 6bbf 26bb
00000210: ea39 10be 99c1 b4bd c683 8a3d 5714 f93d
00000220: 2d27 a83d ed0e b8bd 9c2e ffbd c45f 523d
00000230: c642 b2bd c880 67bd a285 8b3d 26bb 733d
00000240: 5381 8d3d 8561 d4bd bfb2 263d 0c9a debd
00000250: e3ac 8abd e065 cd3d 038e 123d 70a6 6bbd
00000260: d52c eb3d d350 06bc beb3 a33d f171 d93c
00000270: 4304 5f3d a9a4 a9bc d876 adbc a085 703d
00000280: c678 343d 0248 013e 8af6 2fbd c256 023d
00000290: 2675 a33c bd23 4ebd d8df bfbd 2eb0 3abd
000002a0: 8518 bf3c b8e3 eabd ffc0 0c3c 91ca 9fbd
000002b0: b978 c4bd 19ee 7e3d 74c5 12bd 3d35 e63c
000002c0: 85fd 9fba 8d8f d0bd c010 08bc 2d02 253d
000002d0: f2d4 eb3d affe 93bd 158d e5bd 04b8 abbd
000002e0: ef81 ec3c f83d 8ebc 2beb 25bc 8487 64bb
000002f0: 34ea cebc c671 e93c baf6 103e 2d58 bf3d
00000300: 8100 9f3d 38a7 00bd b3ba cd3d 134e 3abd
00000310: bc6b b13b 9ddb e03c 7ec9 ccbd 5748 d2bd
00000320: f73e 11bd e7fb d53c 864c 923d 555b 0a3e
00000330: 0414 793d bace 1c3d d97e 863d e675 313c
00000340: 05a8 06be 50af 783d ae89 46bc 26c7 eebd
00000350: 4299 c3bc 9992 913d 2d16 733d fcb3 9d3d
00000360: a5b1 a339 dcd6 843d 5780 37bc a055 ac3d
00000370: a55b 8cbd 8a7d c0bd bd1f a83d 4f33 82bd
00000380: a5a2 dfbb abc9 14be 842a 3e3d 90ba 3f3d
00000390: 544d 503d e3fc 17bd cb49 50bd 6131 30bc
000003a0: be21 7d3d ee87 233c d74c 963c d58c d0bd
000003b0: b388 e4bc a847 92bd fce5 5e3c a6b5 02bc
000003c0: 608d 883d ebae adbd 2038 ab3d bb91 743d
000003d0: 5e15 1abe be31 a53d dd11 c1bd 6012 6dbc
000003e0: 265c 8bbc 8e12 733d d745 de3c 7cc0 1cbe
000003f0: 7de2 063d fc94 1f3d e107 cfbd d8f5 0a3d

bias f4 [64]
0.019108385 -0.096199 -0.16154306 0.142115 0.040516365 -0.00046690178 -0.15999402 0.09819543
-0.09673192 0.017649062 -0.028974336 -0.122825414 -0.035553496 0.0055486285 -0.15764919 -0.030993124
-0.029028185 -0.073819384 0.07454935 0.12979737 0.13211551 -0.006722521 -0.05765318 0.028812964
0.1088874 -0.06593558 -0.04740652 0.02106676 -0.049843777 0.028815806 -0.07199217 0.0625239
-0.10346347 -0.04895197 0.031783983 -0.22088693 0.14891082 0.035033226 0.08544648 0.06357801
0.070060626 -0.09939569 -0.09529742 -0.04680777 0.075845204 0.09080407 -0.016885314 0.14036988
-0.0077771316 0.016369862 0.079343095 0.09787677 -0.11582393 0.1282076 0.026781518 0.07411451
0.08513202 0.10520188 -0.011015833 0.054253228 0.10052423 -0.13271442 -0.067093074 0.021846067
00000000: 3089 9c3c fb03 c5bd 8b6b 25be 9886 113e
00000010: 7df4 253d 7fca f4b9 79d5 23be b01a c93d
00000020: 631b c6bd c494 903c 965b edbc e48b fbbd
00000030: 8ba0 11bd 45d1 b53b ca6e 21be 4be5 fdbc
00000040: 84cc edbc 9e2e 97bd 54ad 983d 9ae9 043e
00000050: 4a49 073e 9848 dcbb be25 6cbd 2a09 ec3c
00000060: 5b00 df3d 3c09 87bd 572d 42bd 3394 ac3c
00000070: fd28 4cbd 200f ec3c a170 93bd 880c 803d
00000080: a8e4 d3bd dc81 48bd ec2f 023d 2f30 62be
00000090: 147c 183e 007f 0f3d 90fe ae3d 3035 823d
000000a0: f27b 8f3d f88f cbbd 4b2b c3bd 81b9 3fbd
000000b0: bb54 9b3d 7cf7 b93d 1253 8abc 1fbd 0f3e
000000c0: 4fd7 febb 171a 863c a27e a23d 9e73 c83d
000000d0: 1935 edbd da48 033e ea64 db3c 59c9 973d
000000e0: b259 ae3d 1574 d73d c17b 34bc a238 5e3d
000000f0: a6df cd3d 4ae6 07be 1868 89bd 86f6 b23c

weight f4 [64, 64]
0.030373815 0.10810013 0.17815611 -0.031212134 0.03459483 0.047167085 0.057121664 0.023340888
0.09851123 0.08643784 -0.09368448 -0.10278353 0.0674722 -0.11485487 0.0011165582 -0.03851007
0.12451059 0.15585311 -0.060755916 -0.012168917 -0.05908566 0.13014726 0.20673953 -0.123492114
0.06833733 -0.12647676 0.09318473 -0.02610483 -0.12536944 -0.16220202 0.03000175 -0.12289515
-0.018551858 0.0443324 0.14056607 0.12206384 0.032068692 0.12635244 -0.08270808 -0.2241483
0.13215654 0.078987874 0.104784645 -0.10425467 -0.114831366 -0.14953683 0.1354608 -0.0088819815
-0.056261893 0.15411745 0.063232005 0.08534852 0.023706948 -0.05765556 0.10136859 -0.021396758
-0.103403635 -0.21017519 0.12750083 0.010867886 0.03950279 0.0821252 -0.09896138 0.10132825
-0.06540937 -0.052799497 0.003865336 -0.09143835 0.011276004 0.07848419 -0.02434874 -0.11231376
0.09656121 0.041234136 0.008159731 -0.12041696 0.08482167 0.0882223 -0.03167282 -0.09584225
-0.013379894 0.05535186 0.056376398 0.013949791 0.005341458 -0.13612807 0.152542 0.051332008
0.06942626 0.08007743 0.10844176 -0.037886642 -0.11847361 0.093988955 0.12988159 0.100381315
0.017649554 0.0055663283 0.017956126 0.03140763 -0.04571782 0.017781306 0.08704765 -0.19311923
0.092502385 -0.04883643 0.15779899 -0.050593454 0.08498286 -0.09870553 -0.096105084 -0.1424611
-0.09758569 -0.064900026 0.07017384 0.04640362 -0.059088435 0.118591964 0.059321508 0.008083353
-0.08962669 -0.19237433 0.036743775 0.12945038 0.0072336793 0.037209272 0.10424812 -0.015591276
0.00035241843 0.1339982 -0.039988786 -0.065026715 0.07361032 0.10104727 0.11571691 -0.078348726
0.17157906 -0.045055296 0.16578479 -0.12691487 -0.027659293 0.047055267 0.10117195 -0.018416964
0.13638544 -0.023161903 0.0498139 -0.017691318 -0.10094389 -0.0058358056 0.05661724 0.12829864
0.08315508 0.0473877 0.105579115 0.069089554 -0.13123076 0.023515005 0.11578512 -0.024767129
0.14637472 -0.079142034 0.105043605 0.12423331 -0.0081656845 0.0387626 0.045178007 -0.06465051
-0.09742049 0.05910766 0.07062023 -0.0059183417 -0.08233682 -0.080168895 0.08120518 -0.08450813
0.1084946 0.0716885 0.008513718 -0.08318236 0.17554314 0.007645893 0.105204314 -0.0066006607
-0.15282454 -0.14726785 0.076202475 0.13306196 -0.06569914 -0.032472156 0.113110706 -0.022982841
0.111861914 -0.08568265 0.094031505 -0.025319895 -0.08617569 -0.04632393 0.110973425 0.06321628
-0.039696973 0.14785963 0.04939874 -0.066483036 0.026562592 0.026709607 0.09211757 -0.05748196
0.10562239 0.1635928 0.05629044 0.078266 -0.0092321 0.012420513 0.1728255 0.13372533
-0.16746269 0.09567896 0.06594845 0.019523688 -0.15595938 -0.05759556 0.12457221 -0.030437663
0.035785858 -0.17023483 -0.07499785 0.1039888 0.05328179 0.090799525 0.07194073 -0.118252754
0.023307981 -0.086039566 0.11356047 0.08045929 0.10667288 0.10081443 0.0044372245 0.051437013
0.07183401 -0.022778645 0.115812115 0.12562028 0.003079623 0.081872046 0.018871276 -0.0009108454
-0.02738374 -0.08718002 -0.010762501 0.0568046 0.062136363 -0.10990707 -0.17676078 0.019921541
00000000: 82d2 f83c 9a63 dd3d 8e6e 363e 97b0 ffbc
00000010: 4fb3 0d3d 4632 413d 68f8 693d 6435 bf3c
00000020: 41c0 c93d 5206 b13d a6dd bfbd 2c80 d2bd
00000030: dd2e 8a3d 0839 ebbd 7a59 923a bcbc 1dbd
00000040: 69ff fe3d f597 1f3e 32db 78bd 2360 47bc
00000050: ce03 72bd 5345 053e 87b3 533e 6fe9 fcbd
00000060: 71f4 8b3d 2083 01be a3d7 be3d ccd9 d5bc
00000070: d960 00be 4918 26be 3bc6 f53c 74b0 fbbd
00000080: 11fa 97bc e495 353d 8df0 0f3e 9bfc f93d
00000090: 765a 033d 8962 013e db62 a9bd 2287 65be
000000a0: 0b54 073e 65c4 a13d 5599 d63d 7983 d5bd
000000b0: b52c ebbd 2f20 19be 3cb6 0a3e bb85 11bc
000000c0: df72 66bd f7d0 1d3e c87f 813d 34cb ae3d
000000d0: 1335 c23c 3d28 6cbd 569a cf3d 4148 afbc
000000e0: 49c5 d3bd 2a38 57be 948f 023e 380f 323c
000000f0: adcd 213d 4231 a83d 44ac cabd 2f85 cf3d
00000100: 59f5 85bd 4944 58bd 9451 7d3b 0844 bbbd
00000110: fdbe 383c 52bc a03d 0277 c7bc c204 e6bd
00000120: e2c1 c53d 20e5 283d 64b0 053c 2b9d f6bd
00000130: fcb6 ad3d e5ad b43d 5cbb 01bd f148 c4bd
00000140: 5837 5bbc a2b8 623d f0ea 663d aa8d 643c
00000150: 6607 af3b 2865 0bbe f833 1c3e 8341 523d
00000160: 5b2f 8e3d a3ff a33d b716 de3d 062f 1bbd
00000170: 4ba2 f2bd 487d c03d aeff 043e b894 cd3d
00000180: cc95 903c bf65 b63b ba18 933c 49a5 003d
00000190: 9c42 3bbd 1aaa 913c 0a46 b23d 0cc1 45be
000001a0: e471 bd3d b508 48bd 0f96 213e 153b 4fbd
000001b0: 7e0b ae3d 2026 cabd bed2 c4bd 53e1 11be
000001c0: 02db c7bd 4eea 84bd 4db7 8f3d b911 3e3d
000001d0: b706 72bd 58e0 f23d 1cfb 723d 0a70 043c
000001e0: 338e b7bd c7fd 44be a480 163d a48e 043e
000001f0: 8008 ed3b c068 183d 0a80 d53d 8d72 7fbc
00000200: cdc4 b839 d336 093e 48cb 23bd ba2c 85bd
00000210: 02c1 963d dff1 ce3d fdfc ec3d 4c75 a0bd
00000220: 6cb2 2f3e e78b 38bd 7dc3 293e f9f5 01be
00000230: be95 e2bc 06bd 403d 3d33 cf3d 2cdf 96bc
00000240: a0a8 0b3e 08be bdbc a909 4c3d 62ed 90bc
00000250: acbb cebd 493a bfbb 7be7 673d b860 033e
00000260: 364d aa3d 9b19 423d dd39 d83d d37e 8d3d
00000270: 5b61 06be 8aa2 c03c c020 ed3d 6fe4 cabc
00000280: 41e3 153e 3815 a2bd 1a21 d73d 096e fe3d
00000290: 5dc9 05bc 88c5 1e3d 930c 393d 7d67 84bd
000002a0: 6584 c7bd e01a 723d 57a1 903d a6ee c1bb
000002b0: 35a0 a8bd 972f a4bd e74e a63d 9912 adbd
000002c0: 6b32 de3d 6cd1 923d 1f7d 0b3c 835b aabd
000002d0: 95c1 333e 668a fa3b 5c75 d73d 5b4a d8bb
000002e0: 097e 1cbe 62cd 16be 0b10 9c3d 6541 083e
000002f0: 458d 86bd 8601 05bd 96a6 e73d 8346 bcbc
00000300: dc17 e53d 637a afbd 9793 c03d ab6b cfbc
00000310: e17c b0bd 29be 3dbd 0946 e33d 8977 813d
00000320: 4b99 22bd 8468 173e 5556 4a3d 4228 88bd
00000330: cb99 d93c 1bce da3c 23a8 bc3d 3472 6bbd
00000340: 8d50 d83d df84 273e ce90 663d ed49 a03d
00000350: 3c42 17bc 687f 4b3c 2bf9 303e 4bef 083e
00000360: 577b 2bbe 55f3 c33d fb0f 873d 24f0 9f3c
00000370: d1b3 1fbe 52e9 6bbd b71f ff3d 6858 f9bc
00000380: 3194 123d 0a52 2ebe 7998 99bd 14f8 d43d
00000390: 023e 5a3d 1af5 b93d a955 933d 802e f2bd
000003a0: 61f0 be3c 8335 b0bd 6492 e83d d7c7 a43d
000003b0: 5077 da3d cc77 ce3d 2366 913b 9eaf 523d
000003c0: b61d 933d 489a babc e72e ed3d 9aa2 003e
000003d0: 80d3 493b 88ac a73d ef97 9a3c cdc5 6eba
000003e0: dd53 e0bc 708b b2bd 3355 30bc f1ab 683d
000003f0: b382 7e3d f516 e1bd c700 35be 8032 a33c

bias f4 [64]
-0.0821069 0.080493 -0.007712536 -0.0051943827 -0.14761518 -0.0013396885 0.099634856 -0.101374835
-0.13151094 0.06376817 -0.04555227 -0.09522976 -0.12238055 0.10065805 0.08919219 -0.016344225
-0.08274532 -0.13170953 0.1485419 0.11756465 0.07029143 0.111401506 -0.04028215 0.050400447
0.06895634 0.006820055 0.12565446 -0.12404176 -0.1534534 0.029235162 0.06789228 -0.09070756
-0.05755823 -0.02204986 -0.013553749 -0.24673247 -0.126529 0.012927154 -0.09302805 0.02638972
-0.026292615 0.038279653 -0.06477342 0.119185016 0.09892772 0.10856092 0.03694048 0.05254385
0.0052437177 -0.036224317 0.016972678 0.08570621 0.041416813 0.080555275 -0.022940788 0.02571678
-0.008205028 -0.087318905 -0.030925557 0.0117734205 -0.06427919 -0.06083629 0.055236917 -0.16988975
00000000: aa27 a8bd 84d9 a43d 71b9 fcbb a435 aabb
00000010: 6f28 17be 7d98 afba 5c0d cc3d 9c9d cfbd
00000020: ceaa 06be e398 823d 0495 3abd d207 c3bd
00000030: a7a2 fabd cf25 ce3d 65aa b63d 53e4 85bc
00000040: 6176 a9bd ddde 06be 5e1b 183e bcc5 f03d
00000050: f4f4 8f3d 7926 e43d e5fe 24bd b370 4e3d
00000060: fb38 8d3d c57a df3b 90ab 003e 9b09 febd
00000070: e322 1dbe 947e ef3c 1c0b 8b3d e3c4 b9bd
00000080: 2ec2 6bbd e8a1 b4bc 8b10 5ebc 70a7 7cbe
00000090: d190 01be 6acc 533c 7e85 bebd 412f d83c
000000a0: 9c63 d7bc 20cb 1c3d eda7 84bd 4617 f43d
000000b0: 9e9a ca3d 3055 de3d e74e 173d 3838 573d
000000c0: 7ed3 ab3b f35f 14bd 490a 8b3c bd86 af3d
000000d0: ada4 293d 2afa a43d 52ee bbbc ffab d23c
000000e0: 626e 06bc 41d4 b2bd 9857 fdbc 4ee5 403c
000000f0: cfa4 83bd 792f 79bd 1b40 623d 94f7 2dbe
