TP/save_models_MLP_128_64_Adam_lr0.0001_bs64_drop0.0_acttanh_MLP_128_64/model_6.pt (torch, 87125 bytes, 6 tensors)

weight f4 [128, 64]
0	0x3dde32fb	0.108495675
1	0x3d5f08b4	0.05445166
2	0x3e5348c3	0.20633225
3	0x3bd21910	0.006411679
4	0x3e303245	0.17206676
5	0x3e166501	0.14686967
6	0x3e94ee8d	0.2908825
7	0x3dda8a7b	0.10670944
8	0x3ce7a607	0.02827741
9	0xbdc19fce	-0.094543085
10	0x3d042df5	0.03227039
11	0x3e3cb15e	0.18427035
12	0x3dacc370	0.08435714
13	0x3c900f74	0.017585494
14	0x3e9081e8	0.2822411
15	0x3dfb343d	0.12265823
16	0x3ddee18f	0.10882866
17	0xbd148146	-0.036256097
18	0xbda906ac	-0.08253226
19	0x3dae7ab6	0.08519499
20	0x3de99385	0.1140509
21	0x3d3cc57c	0.046086773
22	0x3e19d49d	0.15022512
23	0x3c776dee	0.015101893
24	0x3d87437c	0.066046685
25	0xbd7ccc75	-0.061718423
26	0x3d70be0a	0.058774985
27	0xbe2ef2bb	-0.17084782
28	0xbc0a6b56	-0.008448442
29	0x3e3af94c	0.18259162
30	0x3e1dd815	0.1541446
31	0x3e12c7ad	0.14333983
32	0xbcb990fd	-0.022652144
33	0x3cb86f69	0.022514062
34	0xbd8dce41	-0.069241054
35	0xbe8a792c	-0.27045572
36	0x3e2cea9c	0.16886371
37	0xbd013430	-0.03154391
38	0x3d80ad8f	0.06283104
39	0xbdceafb9	-0.1009211
40	0x3e07466b	0.13210456
41	0x3db41092	0.08792223
42	0xbe3f6761	-0.1869178
43	0xbd98c24b	-0.074589334
44	0xbe05c337	-0.1306275
45	0xbd4d6a3e	-0.05015015
46	0xbd036643	-0.032079946
47	0xbdcd7e9a	-0.10033913
48	0x3de36b8a	0.11104496
49	0xbdce7f18	-0.10082835
50	0xbe1cc093	-0.15307836
51	0xbe48c7d4	-0.19607478
52	0xbe06df86	-0.13171205
53	0xbe2710ed	-0.1631505
54	0x3e2862f6	0.16444
55	0x3e19e2f4	0.15027982
56	0xbbf2271d	-0.0073899166
57	0x3b170876	0.0023045815
58	0xbdf67956	-0.12034862
59	0xbe2a78fa	-0.16647711
60	0xbe1a7620	-0.15084124
61	0xbd4201a3	-0.047364842
62	0x3ced3eaf	0.028960554
63	0xbdbfc49e	-0.093636736
64	0xbd38d7dc	-0.045127735
65	0xbdad4167	-0.0845974
66	0xbdf9a3d4	-0.12189451
67	0x3dd2d515	0.102945484
68	0x3c821b31	0.015882106
69	0xbe0642cc	-0.13111418
70	0xbc8314e9	-0.016001182
71	0xbe1fe5bc	-0.1561498
72	0x3d94049d	0.072274424
73	0x3d53c350	0.051699936
74	0xbde419fa	-0.11137767
75	0xbe414403	-0.188736
76	0xbd3e62c4	-0.04648091
77	0x3e3e9b84	0.18614012
78	0x3e868d68	0.2627976
79	0x3daf920e	0.085727796
80	0x3c949dd1	0.018141659
81	0x3d28d84d	0.041221905
82	0xbe09aef1	-0.13445641
83	0xbe6e23ff	-0.23255919
84	0xbc0f6c87	-0.008753902
85	0xbe1a86c1	-0.15090467
86	0x3c667cb6	0.014067819
87	0x3e137b7a	0.14402571
88	0xbc76f24a	-0.015072415
89	0xbde3da0d	-0.11125574
90	0xbe6332e0	-0.22187376
91	0xbe457980	-0.1928463
92	0xbe701984	-0.23447233
93	0xbd6334c9	-0.05547026
94	0x3e0d7e86	0.13817796
95	0x3e16098d	0.14652081
96	0x3d5d96ad	0.054098774
97	0xbded27b6	-0.1157984
98	0x3e696934	0.22794038
99	0x3e5500e6	0.20801124
100	0x3dc11f76	0.09429829
101	0xbe61bff6	-0.22045884
102	0x3bf3bc99	0.007438254
103	0xbdc18249	-0.09448678
104	0xb8eacc85	-0.00011196084
105	0x3c2eb992	0.010664361
106	0x3d8abbc6	0.06774096
107	0x3e85e480	0.26150894
108	0xbe3e5cd1	-0.18590094
109	0x3e1e08d7	0.1543306
110	0x3d14fbb9	0.036372874
111	0x3d9ce5e4	0.07661036
112	0xbc8c34cc	-0.01711502
113	0xbd756121	-0.059907082
114	0x3d942fea	0.072357014
115	0x3d3bc3de	0.04584109
116	0xbe200073	-0.15625171
117	0x3be6518d	0.0070287646
118	0x3e0562c7	0.13025962
119	0xbbf61927	-0.0075103226
120	0x3e29dd9a	0.1658844
121	0x3de16c9c	0.11007044
122	0x3dc888d1	0.09791721
123	0xbca48d8f	-0.020087032
124	0x3c466680	0.012109399
125	0x3d09a7ab	0.033607166
126	0xbd368efd	-0.044569958
127	0x3e12abfd	0.14323421
128	0x3e684be8	0.22685206
129	0x3e66ba48	0.22531998
130	0x3e549a2a	0.20761934
131	0x3e7647df	0.24050854
132	0x3dbad6d2	0.09123005
133	0x3d10f178	0.035386533
134	0x3e706b89	0.23478521
135	0x3dd2317c	0.10263345
136	0x3e06cb25	0.13163431
137	0x3ce4a712	0.027911697
138	0x3e059d56	0.130483
139	0x3e28aa3c	0.1647119
140	0x3dd8aaf2	0.1057948
141	0x3a78e7e2	0.00094950025
142	0x3d9994d2	0.07499088
143	0xbd6c69f7	-0.057718243
144	0x3ce5ace8	0.02803655
145	0xbdb32ca7	-0.08748751
146	0x3e802111	0.25025228
147	0x3c1a273c	0.009408768
148	0xbd5199c8	-0.051172048
149	0x3d14b3a0	0.036304116
150	0x3df161ae	0.11786209
151	0xbc746ba5	-0.014918243
152	0x3dc6d44c	0.09708461
153	0x3be1add4	0.006887177
154	0x3e19bcae	0.15013382
155	0xbe59fd0b	-0.21287934
156	0x3e2c2561	0.16811134
157	0x3d4a8142	0.049439676
158	0xbdc498a4	-0.095994264
159	0xbdc9ca45	-0.09853033
160	0xbd9af029	-0.07565338
161	0x3d921f7f	0.07134914
162	0x3dcc3c2a	0.09972413
163	0x3d000d91	0.031262938
164	0x3d8a16cf	0.06742632
165	0x3d37c121	0.044861916
166	0x3b2fa451	0.002680082
167	0xbd06afa3	-0.032882344
168	0x3bd394aa	0.006456931
169	0xbb3cc0f9	-0.0028801544
170	0xbe097c44	-0.1342631
171	0xbd98ea23	-0.07466533
172	0x3db0d518	0.086343944
173	0xbe23771a	-0.15963402
174	0xbdc231a0	-0.094821215
175	0x3da0c93d	0.07850883
176	0x3d738b5e	0.059459083
177	0x3e68d960	0.22739172
178	0x3dad1824	0.0845187
179	0x3d51caff	0.051218983
180	0xbe61a222	-0.22034505
181	0xbd886dda	-0.066615775
182	0x3decb8f0	0.115587115
183	0xbc655339	-0.013996893
184	0x3e58140a	0.21101394
185	0x3df3eb7c	0.119101495
186	0x3d0a542c	0.03377168
187	0xbd24f4fa	-0.04027269
188	0xbdc608b4	-0.09669629
189	0xbcf12a50	-0.029439121
190	0xbd9b5b11	-0.07585729
191	0x3e570869	0.20999302
192	0xbe1e5b4f	-0.15464519
193	0xbdd6d5ff	-0.10490035
194	0xbe38387b	-0.17990296
195	0xbe1957b3	-0.14974861
196	0xbe4d94ca	-0.2007629
197	0xbe2b941e	-0.16755721
198	0xbd763a29	-0.06011406
199	0xbe5f4d7a	-0.21806899
200	0x3ce4c1aa	0.027924377
201	0x3dd3efac	0.10348448
202	0xbda7f844	-0.0820165
203	0xb9b83dcf	-0.00035141266
204	0x3dad51b4	0.08462849
205	0xbdb0f1c0	-0.0863986
206	0xbb24f011	-0.0025167505
207	0xbe13aaba	-0.14420596
208	0x3ce28230	0.027649969
209	0x3dcb7794	0.09934917
210	0x3cc7092e	0.02429637
211	0x3c968619	0.01837449
212	0xbde58127	-0.112062745
213	0x3d9968db	0.07490703
214	0x3d319cf1	0.04336256
215	0xbddf571d	-0.109052874
216	0xbdd6d832	-0.10490455
217	0xbdd8a81e	-0.10578941
218	0xbdeac846	-0.114639804
219	0xbc96fb85	-0.01843048
220	0x3e795cab	0.24351756
221	0x3e4c9f12	0.19982556
222	0x3e2d495b	0.16922514
223	0xbd3b93d2	-0.04579527
224	0xbdff4349	-0.124640055
225	0xbdd3aac2	-0.10335304
226	0xbe136875	-0.14395316
227	0x3e35a6e6	0.17739448
228	0x3c90da66	0.017682265
229	0x3df58ae9	0.11989386
230	0x3dd1adde	0.10238241
231	0xbd67aa59	-0.05655894
232	0xbe08de1c	-0.13365978
233	0xbdaa2b03	-0.08308985
234	0x3d9ddecf	0.07708513
235	0xbd493d21	-0.049130563
236	0xbcca8846	-0.024723183
237	0x3e9ab899	0.30218962
238	0x3d76faa4	0.060297623
239	0xbcc295a9	-0.023753004
240	0xbe1556c5	-0.14583881
241	0x3e5028d3	0.20328073
242	0xbdc44f9a	-0.09585495
243	0x3da0bdba	0.078486875
244	0x3e14f092	0.14544895
245	0xbd8378f8	-0.06419557
246	0xbdd64d51	-0.10463966
247	0xbe104805	-0.14089973
248	0x3dd3a590	0.10334313
249	0xbd852372	-0.06500901
250	0xbc9073e3	-0.017633384
251	0xbcac2815	-0.021015206
252	0xbe09a4c4	-0.1344176
253	0xbe0136f9	-0.12618627
254	0xbe330996	-0.17484125
255	0xbe27f5d7	-0.16402374

bias f4 [128]
0	0xbe155361	-0.14582588
1	0x3d528ad6	0.051401936
2	0xbd849dd4	-0.06475416
3	0x3c631a64	0.0138612725
4	0x3dcd1168	0.100130856
5	0xbc6504a6	-0.013978159
6	0x3c4aa47b	0.012368317
7	0xbd7bd317	-0.061480608
8	0xbbede2fc	-0.0072597247
9	0xbe20db3c	-0.15708631
10	0x3dcb28dd	0.099199034
11	0xbc96f7c1	-0.018428685
12	0x3de145a6	0.109996125
13	0x3e1bbd83	0.15209012
14	0x3e089f91	0.1334212
15	0x3d42638e	0.047458224
16	0xbc8cad08	-0.017172351
17	0xbd5cf67f	-0.053946014
18	0xbe16513d	-0.14679427
19	0x3e05813e	0.13037583
20	0xbd207bf4	-0.03918071
21	0xbe23bb39	-0.15989389
22	0xbd91b5d0	-0.07114756
23	0xbd06f8a4	-0.032951966
24	0xbdf12eda	-0.11776514
25	0xbe02cf71	-0.12774445
26	0xbdb58435	-0.08863107
27	0xbd33f876	-0.043938123
28	0x3bfbbd46	0.0076824753
29	0xbdd83e02	-0.10558702
30	0x3e051e34	0.12999803
31	0x3e44d428	0.19221556
32	0xbe211f52	-0.15734604
33	0xbd0e89b0	-0.034799278
34	0xbc156e08	-0.009120472
35	0xbdb1121c	-0.08646032
36	0xbe10e83b	-0.14151089
37	0xbe17b39d	-0.14814611
38	0x3e198186	0.14990816
39	0xbd621d49	-0.05520371
40	0xbc8e160b	-0.017344495
41	0xbddfcd5e	-0.109278426
42	0x3e2c490a	0.16824737
43	0x3df9d702	0.121992126
44	0xbe0ee429	-0.13954224
45	0xbdd126e3	-0.10212495
46	0x3dacc112	0.08435263
47	0xbdfce82c	-0.12348971
48	0xbda620db	-0.081117354
49	0xbb836e2c	-0.0040109362
50	0xbe58606c	-0.21130532
51	0xbda54a46	-0.08070807
52	0xbba7d2b7	-0.0051215547
53	0x3ccac266	0.0247509
54	0xbda93339	-0.08261723
55	0xbd484fdd	-0.04890429
56	0x3dd8e15c	0.10589859
57	0x3d3a27a6	0.045447968
58	0xbe20e38e	-0.15711805
59	0x3e5f07f0	0.21780372
60	0xbe0240bf	-0.12720011
61	0xbdc65c55	-0.0968558
62	0xbe0a0b8f	-0.13480972
63	0xbe1eede8	-0.15520442
64	0xbd7dfc8f	-0.062008437
65	0x3d973650	0.07383406
66	0x3d5917b6	0.053001128
67	0x3e024bc4	0.12724215
68	0x3d732254	0.05935891
69	0xbdcd125a	-0.10013266
70	0x3e0e68a9	0.13907112
71	0xbd416168	-0.047212034
72	0xbe4f7147	-0.20258056
73	0xbe03706d	-0.12835856
74	0xbe482232	-0.19544294
75	0x3cbb6b30	0.02287826
76	0xbdc5cda4	-0.096583635
77	0xbd3a8cff	-0.04554462
78	0x3e0340df	0.12817715
79	0xbd74ddbf	-0.059781786
80	0xbdf624d3	-0.120187424
81	0x3df747ca	0.120742396
82	0xbe04f6ca	-0.12984768
83	0x3e076c51	0.13224913
84	0x3cbaec1c	0.022817664
85	0x3e009f73	0.12560825
86	0xbc2ee759	-0.010675275
87	0x3dbfb4a5	0.09360627
88	0x3dae5e43	0.08514073
89	0xbaa97cc5	-0.0012930861
90	0x3dbb3c05	0.09142307
91	0x3e42b62d	0.19014807
92	0x3e32db40	0.1746645
93	0x3d43b6f8	0.047781914
94	0x3cfb3aad	0.030667627
95	0x3e22b45e	0.15889117
96	0x3cf62a5a	0.030049492
97	0x3db4e87a	0.08833404
98	0x3d939e0d	0.0720788
99	0x3ccffe78	0.025389895
100	0xbd5ed636	-0.054403506
101	0xbc8e61c4	-0.017380603
102	0xbc1486b4	-0.009065319
103	0xbde5aa63	-0.11214139
104	0x3dc52b03	0.096273445
105	0xbd592c63	-0.053020846
106	0xbe455088	-0.19269001
107	0xbdd63790	-0.104598165
108	0xbd6bed19	-0.05759916
109	0x3d982020	0.07428002
110	0xbc88087d	-0.01660561
111	0xbe4a65b5	-0.1976536
112	0x3e11d5b6	0.1424168
113	0xbe0fefad	-0.14056273
114	0xbdfb5b82	-0.12273313
115	0xbd7489e9	-0.059701834
116	0xbd687878	-0.056755513
117	0xbd3a12f4	-0.04542823
118	0xbd8816d8	-0.06644982
119	0x3dab885f	0.0837562
120	0x3dce65a7	0.100779824
121	0x3a143a2a	0.0005654419
122	0x3dc36dcc	0.095424265
123	0x3e016b9a	0.12638703
124	0xbe023ce5	-0.12718542
125	0xbdc3bc33	-0.095573805
126	0x3e619682	0.2203007
127	0xbd27d564	-0.04097499

weight f4 [64, 128]
0	0x3d925053	0.07144227
1	0x3c68b9bc	0.014204439
2	0x3e6a16ed	0.22860308
3	0x3dfa9617	0.122356586
4	0x3e193ebe	0.1496534
5	0xbcc1033a	-0.023561109
6	0x3dd74796	0.10511701
7	0x3c165137	0.009174637
8	0xbd86aadf	-0.0657556
9	0xbd87f070	-0.06637657
10	0xbe291891	-0.16513278
11	0x3e36c40f	0.17848228
12	0xbd0d3532	-0.03447456
13	0xbc37b003	-0.011211398
14	0x3dcde11a	0.100527
15	0xbd5eca97	-0.054392423
16	0xbdaaf99f	-0.08348393
17	0x3d864217	0.065555744
18	0xbe716f89	-0.23577704
19	0xbd264676	-0.04059454
20	0xbc698c1e	-0.014254598
21	0x3d469cfb	0.048489552
22	0xbcf97799	-0.030452536
23	0xbdc737a4	-0.097274095
24	0xbd9784d2	-0.0739838
25	0xbdb03f0e	-0.08605777
26	0xbd702789	-0.058631454
27	0xbd335cbd	-0.043789614
28	0xbd09bed0	-0.03362924
29	0x3e1081a4	0.14111954
30	0x3cda6fac	0.026664577
31	0xbe8f6f16	-0.2801444
32	0x3d3260b2	0.043549247
33	0xbdfcd462	-0.12345196
34	0x3e2bfa9b	0.16794817
35	0xbd5cdb26	-0.053919934
36	0x3aee52ad	0.0018182598
37	0xbe034a4d	-0.12821312
38	0x3e2c8e43	0.16851144
39	0x3c60ef30	0.013728902
40	0xbe2aba06	-0.16672525
41	0x3e35b151	0.17743422
42	0xbc43839c	-0.011933234
43	0xbe2d5c05	-0.16929634
44	0x3d404e71	0.046949808
45	0x3e3f62f0	0.18690085
46	0x3e5df4f4	0.21675473
47	0xbc5c4fee	-0.013446791
48	0xbbca1e3b	-0.0061681545
49	0x3c1421d6	0.00904127
50	0x3d8bba5c	0.068226546
51	0xbd07d63f	-0.033163305
52	0xbe47a850	-0.194978
53	0x3dfe67b6	0.12422125
54	0x3e1554bd	0.14583106
55	0xbd7e33cb	-0.062061112
56	0xbd0f5ca2	-0.03500045
57	0xb9fd28d6	-0.00048286346
58	0x3df85acc	0.12126693
59	0xbe618fc6	-0.22027501
60	0x3cfb5fe0	0.030685365
61	0xbdc66f8f	-0.09689247
62	0x3d030af3	0.031992864
63	0x3dd90d2b	0.10598215
64	0x3cbcdd64	0.023054786
65	0x3e143373	0.14472751
66	0xbe654edc	-0.22393364
67	0xbe0a372e	-0.13497612
68	0xbdccf790	-0.10008156
69	0x3e1bdd77	0.15221201
70	0x3e34ba70	0.17649245
71	0x3e14da7d	0.14536472
72	0xbd5a9330	-0.053363025
73	0x3d912a65	0.07088164
74	0xbe2791c7	-0.16364203
75	0xbd7da5cd	-0.061925698
76	0xbca1137b	-0.01966261
77	0xbe39209b	-0.18078844
78	0x3ceb31ec	0.028710328
79	0x3d88bd44	0.066767246
80	0x3e1586b0	0.1460216
81	0x3c00df7e	0.007865785
82	0x3dc39ce1	0.09551407
83	0x3d892ba0	0.06697774
84	0x3cb3149b	0.021860411
85	0xbe40b026	-0.18817195
86	0x3dc3718e	0.09543143
87	0xbdc4d804	-0.09611514
88	0x3dfee30e	0.12445651
89	0xbe287f08	-0.16454709
90	0x3da9bd71	0.08288086
91	0xbdfbcc0c	-0.12294778
92	0xbcc103f4	-0.023561455
93	0x3d5082df	0.05090606
94	0xbbdd05bc	-0.0067450684
95	0xbdc6c587	-0.09705644
96	0x3df93aa3	0.12169387
97	0x3e0323a8	0.1280657
98	0x3e65b62e	0.22432777
99	0x3c79c2c9	0.015244194
100	0xbe109fc9	-0.14123453
101	0x3e03530b	0.12824647
102	0xbcc3ad03	-0.02388621
103	0xbd2ab887	-0.041679885
104	0xbdf6baad	-0.12047324
105	0x3ce30234	0.027711011
106	0x3dad4e03	0.08462145
107	0x3e03671e	0.12832305
108	0xbd4cde6a	-0.050016798
109	0xbce36734	-0.027759172
110	0xbc6cc942	-0.0144522805
111	0x3d6b3165	0.057420153
112	0xbe227ed9	-0.15868701
113	0x3e43de15	0.19127686
114	0xbe511dfe	-0.20421597
115	0x3c989c42	0.018629197
116	0x3e03fdf8	0.1288985
117	0xbd71af2e	-0.059004955
118	0x3da2f1f0	0.07956302
119	0xbd075b61	-0.03304613
120	0x3e173334	0.14765626
121	0x3dd53e9e	0.10412334
122	0x3da23c86	0.079217
123	0x3e29a9a5	0.1656862
124	0x3de7503a	0.11294599
125	0xbdc60ee4	-0.09670809
126	0xbd1c6ceb	-0.03818981
127	0x3d91de7e	0.07122515
128	0x3cfa7275	0.030572155
129	0xbd13cd03	-0.036084186
130	0xbd4f5b27	-0.05062404
131	0xbcbec4b3	-0.023287153
132	0xbe69ba63	-0.22825007
133	0xbdd65f88	-0.1046744
134	0x3d9ac7dc	0.075576514
135	0x3e6909f1	0.22757699
136	0x3da688a4	0.08131531
137	0xbe0b9acd	-0.1363327
138	0xbe015b13	-0.12632398
139	0x3d550a3a	0.052011706
140	0xbe1e519e	-0.15460822
141	0xbd9cf8f6	-0.07664673
142	0x3de63641	0.11240817
143	0x3dc95fee	0.0983275
144	0x3dd76913	0.10518088
145	0xbe2b7b54	-0.16746265
146	0x3e0765e9	0.1322247
147	0xbe0098ac	-0.1255824
148	0xbe01852a	-0.12648454
149	0x3e30c295	0.17261727
150	0x3d9e0fa1	0.07717825
151	0xbdb89df5	-0.09014503
152	0x3e309b01	0.1724663
153	0x3c7428f5	0.014902343
154	0x3dd44706	0.10365109
155	0x3db6bb02	0.08922388
156	0x3d916edf	0.07101225
157	0xbb9ea970	-0.004841976
158	0xbd29ee97	-0.041487303
159	0x3dc1667d	0.09443376
160	0x3dabb488	0.08384043
161	0x3e253c6e	0.16136333
162	0xbde7823c	-0.11304137
163	0x3dcf64b4	0.101266295
164	0x3b63708b	0.0034704532
165	0xbda7b422	-0.081886545
166	0xbdd9a6a6	-0.10627489
167	0xbd728d53	-0.05921681
168	0x3d07cd59	0.03315482
169	0xbe4be513	-0.19911604
170	0xbc4e6de4	-0.012599442
171	0xbe0f698b	-0.14005105
172	0xbd8594f8	-0.06522554
173	0x3d884a72	0.06654824
174	0xbdb14050	-0.08654845
175	0x3dead197	0.11465757
176	0xbc6d3961	-0.014479012
177	0xbe33391e	-0.17502257
178	0x3c56de94	0.01311459
179	0x3d99a315	0.075018086
180	0x3df8c21b	0.12146398
181	0xbd24e088	-0.040253192
182	0xbe158c1f	-0.14604233
183	0xbdfa2ab3	-0.122151755
184	0x3b03ad74	0.00200924
185	0xbe0e88fd	-0.13919444
186	0xbd07567e	-0.03304147
187	0xbbfe56cf	-0.0077618132
188	0xbd78e6f4	-0.06076713
189	0x3d4885db	0.04895578
190	0x3e61a4e6	0.2203556
191	0x3e202002	0.1563721
192	0x3e4eacc4	0.20183092
193	0xbd698294	-0.057009295
194	0x3e612d69	0.21989979
195	0xbd014494	-0.03155954
196	0x3a711716	0.00091968605
197	0xbd4f43a2	-0.05060161
198	0xbe7218fb	-0.23642342
199	0xbe18034f	-0.14845012
200	0xbd9ac9b7	-0.07558005
201	0x3de4bbd7	0.1116864
202	0x3e2296f9	0.15877904
203	0x3e5ae20d	0.21375294
204	0x3d505a9d	0.050867666
205	0x3dd464bf	0.10370778
206	0x3e062841	0.13101293
207	0xbd9be54c	-0.07612094
208	0xbe9bc9df	-0.30427453
209	0x3e2284d0	0.15870976
210	0xbd8999af	-0.06718766
211	0xbe288745	-0.16457851
212	0xbe088706	-0.13332757
213	0x3d36cab2	0.0446269
214	0xbb7282bf	-0.00370042
215	0x3d86ef36	0.065885946
216	0xbd53e1cd	-0.051729012
217	0x3d70ea5c	0.058817253
218	0xbcaa326d	-0.020775998
219	0x3dc2f6fe	0.09519766
220	0xbdc4e36c	-0.0961369
221	0xbe182a07	-0.14859782
222	0x3e1d4ac6	0.15360555
223	0xbd57055b	-0.05249534
224	0xbd9d33e9	-0.07675917
225	0xbe7f0f69	-0.24908222
226	0x3c6132fe	0.013745068
227	0x3d8806b2	0.06641902
228	0x3e357fe2	0.17724565
229	0xbd9fc209	-0.07800681
230	0xbd882572	-0.06647767
231	0x3dbe7de7	0.09301358
232	0x3d7e6883	0.06211139
233	0x3db34703	0.08753779
234	0xbcb45562	-0.02201337
235	0xbdc4c5cf	-0.096080415
236	0xbd1fef84	-0.03904678
237	0xbdbb94d6	-0.091592476
238	0x392100cb	0.00015354452
239	0xbd8a5993	-0.06755366
240	0x3d7f9ff3	0.0624084
241	0xbe1d57b0	-0.15365481
242	0x3e505f06	0.20348749
243	0x3e0a0850	0.13479733
244	0xbe8339f2	-0.25630146
245	0x3e22974c	0.15878028
246	0xbdbaca8d	-0.09120665
247	0xbdac779d	-0.08421252
248	0xbd70f9dd	-0.05883204
249	0x3d9e77f6	0.077377245
250	0xbaa75093	-0.0012765102
251	0xbea69a80	-0.3253975
252	0x3cea7615	0.028620759
253	0x3dfe4735	0.124159254
254	0xbe1ce99a	-0.15323487
255	0x3c36e254	0.011162359

bias f4 [64]
0	0xbb0e6f62	-0.002173387
1	0xbdec25d1	-0.115306504
2	0xbdaa56f1	-0.08317364
3	0x3e10ea1f	0.1415181
4	0x3c81aaa3	0.015828436
5	0xbb0bc381	-0.0021326246
6	0xbd695d8d	-0.056973983
7	0x3d89c6a8	0.06727344
8	0xbd2f8057	-0.042847004
9	0x3d12f988	0.035882503
10	0xbd3c4b02	-0.04596997
11	0xbdf80af8	-0.12111467
12	0xbc23b690	-0.009992257
13	0xbcbc53b6	-0.022989135
14	0xbe1048a5	-0.14090212
15	0xbc885928	-0.016644076
16	0x3c0d089f	0.008608012
17	0xbcd5224e	-0.026017334
18	0x3da6a450	0.08136809
19	0x3dbafae3	0.09129884
20	0x3db523e2	0.08844735
21	0xbd31c280	-0.04339838
22	0x3b83fdc0	0.004028052
23	0x3c1e9774	0.009679664
24	0x3dee5bad	0.116385795
25	0xbd86a78b	-0.06574925
26	0xbd15c51f	-0.036564942
27	0xbd0f5e8c	-0.035002276
28	0xbd239796	-0.039939485
29	0xbd08b245	-0.033373136
30	0xbddfbd70	-0.10924804
31	0x3db0621a	0.086124614
32	0xbd11bfd4	-0.035583332
33	0xbe1b705b	-0.15179579
34	0xbc8582a4	-0.016297646
35	0xbe09f238	-0.13471305
36	0x3e29f7f2	0.1659849
37	0x3dae6a18	0.085163295
38	0x3d2d1408	0.04225543
39	0x3cb5a7d7	0.022174759
40	0x3de0a7ae	0.10969482
41	0xbe0df336	-0.13862309
42	0xbda33a3b	-0.07970091
43	0xbb9ff43d	-0.0048814104
44	0x3d951b27	0.072805695
45	0x3d8dff7d	0.06933496
46	0x3cf469ce	0.029835608
47	0x3dfd404b	0.123657785
48	0x3d5556c4	0.0520847
49	0xbcb47d71	-0.022032471
50	0x3dd7959e	0.10526584
51	0x3d86b29c	0.06577036
52	0xbd24594a	-0.040124215
53	0x3d8a5a1f	0.067554705
54	0x3d667ea2	0.05627311
55	0x3dc5f3ee	0.096656665
56	0x3da8f190	0.082491994
57	0x3dbdbe1e	0.092647776
58	0xbc825a2d	-0.01591214
59	0x3db64579	0.088999696
60	0x3e152be0	0.14567518
61	0xbd72ac8c	-0.059246585
62	0x3c3328e5	0.010935043
63	0xbb9d2530	-0.004795693

weight f4 [64, 64]
0	0x3ca27320	0.019830287
1	0x3e4be8b1	0.19912983
2	0x3e740bf0	0.23832679
3	0xbde76249	-0.11298043
4	0x3d9d81d7	0.076907806
5	0x3de127fa	0.10993953
6	0x3e15f8f5	0.14645751
7	0x3dbafacb	0.09129866
8	0x3e1d6b87	0.1537305
9	0x3ddca33f	0.10773324
10	0xbdc83d01	-0.097772606
11	0xbd4c9a36	-0.049951755
12	0x3b722d13	0.0036953136
13	0xbe091df7	-0.13390337
14	0xbdc73228	-0.097263634
15	0xbc92e32e	-0.017930593
16	0x3df9ec3a	0.1220326
17	0x3e3936cc	0.1808731
18	0x3c2f63cc	0.010704946
19	0xbde304dd	-0.11084912
20	0xbd90202f	-0.070373885
21	0x3e488958	0.19583642
22	0x3e88b051	0.2669702
23	0xbe3e1aa8	-0.18564856
24	0x3d5e60d1	0.05429155
25	0xbe2817d4	-0.1641534
26	0x3e22ee55	0.15911229
27	0xbdeec061	-0.11657787
28	0xbe2ca92a	-0.16861406
29	0xbe71af63	-0.23602061
30	0x3b32590c	0.002721372
31	0xbe4adefb	-0.19811623
32	0x3d823acc	0.06358871
33	0xbb50ac38	-0.0031840932
34	0x3db4e2f3	0.0883235
35	0x3e40ba8c	0.18821162
36	0x3d82313b	0.06357046
37	0x3e1304e5	0.14357336
38	0xbd9b4690	-0.07581818
39	0xbe94b35e	-0.29043096
40	0x3e2d27e9	0.16909756
41	0x3dc4e770	0.09614456
42	0x3dd5e8b3	0.104447745
43	0xbd6f4f02	-0.058424957
44	0xbe1037dd	-0.1408381
45	0xbe732e09	-0.2374803
46	0x3e59f417	0.21284519
47	0x3cd28426	0.025697779
48	0xbdb3054f	-0.08741247
49	0x3e7a2a0e	0.24430105
50	0x3d8204f8	0.06348604
51	0x3e06746f	0.13130353
52	0x3dac753c	0.08420798
53	0xbd8b41fb	-0.06799694
54	0x3e3cf491	0.1845267
55	0x3d7c4684	0.061590686
56	0xbe0c31ac	-0.13690823
57	0xbe8a9fd7	-0.27075073
58	0x3e05a014	0.13049346
59	0xbbf396ec	-0.007433763
60	0x3d931722	0.071821466
61	0x3cce0b88	0.025151983
62	0xbe03b35d	-0.1286139
63	0x3d9c90ef	0.076448314
64	0xbd4ac13d	-0.049500693
65	0xbc722928	-0.01478032
66	0xbd10d577	-0.035359826
67	0xbe0da245	-0.13831432
68	0x3c2f2068	0.010688879
69	0x3daf43ec	0.08557877
70	0xbd14706c	-0.036240026
71	0xbe6bcdd8	-0.23027742
72	0x3df9acde	0.12191175
73	0x3dad270c	0.08454713
74	0x3d59aaa0	0.053141236
75	0xbe186890	-0.14883637
76	0x3e1196ba	0.14217654
77	0x3e04ec94	0.12980872
78	0xbc0a2044	-0.008430544
79	0xbe0675a6	-0.13130817
80	0xbd92badb	-0.07164546
81	0x3d475398	0.048663706
82	0x3d097ed3	0.033568215
83	0x3c8da882	0.017292265
84	0xbcba8b20	-0.022771418
85	0xbe0e6c20	-0.13908434
86	0x3e56ff79	0.20995893
87	0x3c6c986f	0.01444064
88	0x3de90bfd	0.1137924
89	0x3d23209e	0.039826028
90	0x3e205121	0.15655948
91	0xbd6056e1	-0.054770354
92	0xbd9b8061	-0.07592846
93	0x3e10bc19	0.14134254
94	0x3ddbbe8f	0.107297055
95	0x3dc96eab	0.09835561
96	0xbcd76894	-0.026294984
97	0x3d6ba22b	0.057527702
98	0x3dd83429	0.10556824
99	0x3d82656e	0.063670024
100	0xbdd8068d	-0.105481245
101	0xbd50f7c9	-0.051017556
102	0x3b8653f4	0.0040993635
103	0xbe6ed05d	-0.23321672
104	0x3dd70d06	0.10500531
105	0xbd1bb826	-0.038017415
106	0x3e5444b6	0.20729336
107	0xbdaf8e1a	-0.085720256
108	0x3d25d45f	0.040485736
109	0xbd8e46b9	-0.06947083
110	0xbddb1d98	-0.10699004
111	0xbe1b214b	-0.15149419
112	0xbe0d36c7	-0.13790427
113	0xbda41dc6	-0.08013491
114	0x3dbc22f6	0.09186356
115	0xbc32ad3d	-0.010905561
116	0xbde4ff6a	-0.11181529
117	0x3e0c14ba	0.13679782
118	0x3d899b48	0.06719071
119	0xbca12bbf	-0.01967418
120	0xbda9481b	-0.08265706
121	0xbe61d355	-0.22053273
122	0x3ca5e589	0.020251052
123	0x3e31d4b9	0.17366304
124	0x3baa41f4	0.0051958505
125	0x3da603af	0.08106171
126	0x3e189771	0.1490152
127	0xbc5a8ef3	-0.013339746
128	0x3daaea1d	0.08345435
129	0x3e0594e7	0.13045083
130	0x3d67e80b	0.056617778
131	0xbd880473	-0.066414736
132	0x3e2c6576	0.1683558
133	0x3d4fc17b	0.050721627
134	0x3d7c6132	0.06161613
135	0xbd121e26	-0.035673283
136	0x3e44312d	0.19159384
137	0x3cedff0d	0.029052282
138	0x3e877812	0.26458794
139	0xbe52780e	-0.2055361
140	0xbce442e0	-0.02786392
141	0x3e060ef7	0.13091646
142	0x3e3e647e	0.18593022
143	0xbdf9f729	-0.12205345
144	0x3e0369b4	0.12833291
145	0xbd9493b4	-0.07254735
146	0x3e23a3c7	0.15980445
147	0x3d827d1f	0.06371521
148	0xbcd036da	-0.02541678
149	0x3c4be531	0.01244478
150	0x3e141897	0.14462505
151	0x3e279cba	0.1636838
152	0x3d9c255c	0.07624313
153	0x3de86435	0.11347238
154	0x3e30a0b2	0.172488
155	0x3db80d15	0.0898687
156	0xbe3313ef	-0.17488073
157	0xbce29d2b	-0.027662834
158	0x3e28645c	0.16444534
159	0xbdeea508	-0.11652571
160	0x3e1a9764	0.15096813
161	0xbdc9d159	-0.09854383
162	0x3e2ed62f	0.17073892
163	0x3e6ba052	0.23010376
164	0x3d87503c	0.066071
165	0x3db18c39	0.086693235
166	0x3df803c5	0.12110094
167	0xbe258bd6	-0.16166624
168	0xbd1b991e	-0.03798782
169	0x3e034381	0.1281872
170	0x3e0c78e4	0.13717991
171	0x3db91324	0.09036854
172	0xbe27394c	-0.16330451
173	0x3c18e0be	0.009330926
174	0x3dbdf470	0.092751384
175	0xbcb05a9c	-0.02152758
176	0x3d625608	0.055257827
177	0x3d9b191c	0.075731486
178	0x3d246479	0.04013488
179	0xbd8dee3f	-0.069302075
180	0x3e828e43	0.25499162
181	0x3d4d24c8	0.050083905
182	0x3e35b879	0.17746152
183	0xbb2822e3	-0.002565556
184	0xbe6a9e6b	-0.22911994
185	0xbe687671	-0.22701432
186	0x3e313d05	0.17308433
187	0x3e5f2835	0.21792682
188	0x3d51d0b5	0.05122443
189	0xbd3a1827	-0.04543319
190	0x3e4ee1bb	0.20203297
191	0x3ceca5af	0.028887598
192	0x3dd482dc	0.10376522
193	0xbd7eaf03	-0.062178623
194	0x3dccfc65	0.10009078
195	0xbd3c0ead	-0.045912433
196	0xbdd25c3e	-0.102715
197	0xbd01845a	-0.03162036
198	0x3e0a6ed6	0.13518843
199	0x3e07ae07	0.1324998
200	0xbda0dd3f	-0.07854699
201	0x3e0bbc9c	0.13646168
202	0x3d80c8f5	0.062883295
203	0xbd47a262	-0.048738845
204	0xbbac586b	-0.0052595637
205	0x3d37a6d5	0.044836838
206	0x3dcb2d56	0.099207565
207	0xbd6a675a	-0.05722747
208	0x3e249079	0.16070737
209	0x3e3ec409	0.18629469
210	0x3d91fe8c	0.07128629
211	0x3db5a967	0.088702016
212	0x3c60a9a4	0.0137123205
213	0xbbf1d124	-0.007379668
214	0x3e5769f4	0.21036512
215	0x3e3fe3c4	0.1873923
216	0xbe4c6154	-0.19959003
217	0x3dfc16aa	0.1230901
218	0x3d8edd7d	0.06975839
219	0xbc9b34ac	-0.018946014
220	0xbe423123	-0.18964057
221	0xbdf81ab2	-0.12114467
222	0x3e1cbbd1	0.15306021
223	0xbd59061b	-0.05298434
224	0x3da602cc	0.08106002
225	0xbe4e205b	-0.2012953
226	0xbdc98396	-0.09839551
227	0x3e10aec7	0.14129172
228	0x3dd1297f	0.10212993
229	0x3ddee5c1	0.10883666
230	0x3dd12b83	0.10213377
231	0xbdef1bb7	-0.11675208
232	0xbcabab90	-0.02095583
233	0xbdcad79f	-0.09904408
234	0x3e1af117	0.15131031
235	0x3e0ca5e8	0.13735163
236	0x3e2c8c9b	0.16850512
237	0x3e026e7f	0.12737463
238	0xbd2a4597	-0.041570272
239	0x3d311a7b	0.043238144
240	0x3dc2e153	0.095156334
241	0xbd3c374b	-0.04595117
242	0x3e01a04c	0.12658805
243	0x3e3a0656	0.1816648
244	0x3cc36b8e	0.023854997
245	0x3dc8f3df	0.0981214
246	0x3cd88cdc	0.026434354
247	0xbd0c2bc8	-0.03422144
248	0xbda82b5f	-0.082113974
249	0xbdd6bd4f	-0.104853265
250	0xbc4fa394	-0.012673277
251	0x3d8087c0	0.06275892
252	0x3d809aae	0.06279503
253	0xbdffb329	-0.12485344
254	0xbe755f7e	-0.23962209
255	0x3bc6f61f	0.0060718204

bias f4 [64]
0	0xbd80faf6	-0.06297867
1	0x3cbfa8c5	0.023395905
2	0x3d921702	0.07133295
3	0x3cb66634	0.022265531
4	0xbe593953	-0.21213274
5	0xbe367a59	-0.1782011
6	0x3e1b4c02	0.15165713
7	0xbdacf91c	-0.08445951
8	0xbda89d1b	-0.082330905
9	0x3d138180	0.036012173
10	0x3cac8b49	0.02106251
11	0xbda2713b	-0.07931753
12	0xbd9c6092	-0.07635607
13	0xbc5cc058	-0.013473593
14	0x3dbe7771	0.093001254
15	0xbcbe7285	-0.023247967
16	0xbdc536a2	-0.09629561
17	0xbd0f5dcb	-0.035001557
18	0x3daa063c	0.0830197
19	0x3da53ae0	0.0806787
20	0x3e072727	0.13198529
21	0x3e33e3b6	0.17567334
22	0xbd78d387	-0.060748603
23	0x3d9a36c6	0.075299785
24	0xbd503431	-0.050831024
25	0x3d809350	0.06278098
26	0x3e29d3b2	0.16584662
27	0xbec32260	-0.38112164
28	0xbeeb8e6e	-0.46007103
29	0x3b4ca208	0.0031224508
30	0x3d796005	0.060882587
31	0xbe14c806	-0.14529428
32	0xbda229bc	-0.079181165
33	0x3d270db8	0.040784568
34	0xbcb85d38	-0.022505388
35	0xbef51056	-0.47864026
36	0xbea66333	-0.32497558
37	0x3d6ce7c1	0.057838205
38	0xbd11ad1e	-0.035565488
39	0x3d4290b2	0.047501273
40	0xbe9509ec	-0.29109132
41	0x3c0af6ac	0.008481663
42	0xbd7edaee	-0.062220506
43	0x3b079a5a	0.0020691366
44	0x3bc5c22a	0.006035109
45	0x3dcbf560	0.09958911
46	0x3de1821f	0.11011147
47	0x3d1fea94	0.03904207
48	0xbd45284f	-0.048134144
49	0xbd724efe	-0.059157364
50	0xbb608865	-0.0034260985
51	0x3e01d906	0.12680444
52	0x3de2bbc3	0.11070969
53	0x3d574abd	0.05256151
54	0xbd5a0a28	-0.053232342
55	0xbd0ef658	-0.0349029
56	0xbda674d4	-0.08127752
57	0xbd920fb5	-0.07131902
58	0x3b235109	0.0024920127
59	0xbdeab671	-0.11460579
60	0xbd87c63e	-0.066296086
61	0xbc320601	-0.010865689
62	0x3d3ce294	0.04611452
63	0xbeb2f398	-0.34951472
