TP/save_models_MLP_128_64_Adam_lr0.0001_bs64_drop0.0_acttanh_MLP_128_64/model_5.pt (torch, 87125 bytes, 6 tensors)

weight f4 [128, 64]
000000 65 af cc 3d b6 3d 3c 3d 7c a2 49 3e e7 f9 f9 3a
       0.09994391 0.04595729 0.19690889 0.0019071669
000010 82 58 2a 3e da 16 0f 3e 52 33 89 3e 74 41 cc 3d
       0.16635326 0.13973561 0.26796967 0.09973422
000020 ac f8 de 3c b8 58 be bd 47 18 17 3d ea 91 38 3e
       0.027218185 -0.092942655 0.036888387 0.18024412
000030 f0 85 b8 3d b3 2e 43 3c 39 9e 82 3e 67 02 f3 3d
       0.090099216 0.011912989 0.2551134 0.118656926
000040 f0 e2 da 3d de 8e 23 bd 48 a2 99 bd 64 f2 c7 3d
       0.10687816 -0.03993117 -0.07501656 0.09763029
000050 ca f3 ec 3d 50 65 37 3d dd 03 1c 3e e7 a5 7b 3c
       0.115699366 0.044774354 0.15235849 0.015359378
000060 60 6f 8b 3d 44 42 86 bd df 12 55 3d b9 40 2f be
       0.068083525 -0.06555608 0.05201995 -0.17114533
000070 24 3d 1b bc 0a 8f 36 3e 0a 4f 19 3e 1e b4 13 3e
       -0.009475026 0.17828003 0.14971557 0.14424178
000080 6e 29 c3 bc ce cb 87 3c 29 29 84 bd 13 5f 85 be
       -0.023823466 0.016576674 -0.06453163 -0.26049098
000090 4f e1 29 3e 20 b3 ec bc 30 75 63 3d 21 5a cc bd
       0.16589855 -0.028894007 0.05553168 -0.09978128
0000a0 ec 5d 04 3e 34 bc a0 3d 65 8d 3c be cb bc 9c bd
       0.12926453 0.07848397 -0.18413313 -0.07653197
0000b0 cd c8 0e be 13 25 52 bd e6 9f 15 bd 18 6b c6 bd
       -0.13943787 -0.051304888 -0.036529444 -0.09688395
0000c0 b7 45 df 3d 2d 46 cb bd 46 72 18 be 46 18 3d be
       0.10901969 -0.09925494 -0.14887342 -0.18466291
0000d0 25 8d 08 be 11 13 2f be 38 cf 21 3e 0d 8a 1b 3e
       -0.13335092 -0.17097117 0.15801704 0.15189381
0000e0 d1 d9 a0 bb b7 ba e0 3b cb fd e5 bd c9 0b 1d be
       -0.0049087782 0.0068581956 -0.11230048 -0.15336527
0000f0 fb 4c 0e be 86 a3 0a bd d4 ee 07 3d 1e ae c8 bd
       -0.13896553 -0.033847354 0.03318675 -0.09798835
000100 bf 23 3f bd 7c c1 a7 bd f6 0c f9 bd dd 20 d0 3d
       -0.04666495 -0.08191201 -0.12160675 0.10162518
000110 d2 9f a9 3c e6 f4 02 be 91 e2 88 bc a0 13 19 be
       0.020706091 -0.12788734 -0.016709598 -0.14948893
000120 a4 40 a0 3d 8a 41 7c 3d e8 13 da bd 43 1b 3b be
       0.07824829 0.06158594 -0.10648328 -0.18272118
000130 1f ef 3a bd 21 34 3c 3e 9e a1 69 3e 3b 79 97 3d
       -0.0456382 0.1837926 0.22815558 0.0739617
000140 89 6c ac 3c cb 8c 3a 3d 54 2c 06 be ad 10 6c be
       0.021047847 0.045544427 -0.13102847 -0.23053236
000150 b4 5c 95 bc 69 54 16 be 48 1d 8c 3c fb 80 0f 3e
       -0.01823268 -0.14680637 0.017103806 0.14014046
000160 79 0e 9f bc b6 72 e8 bd 46 be 5d be 34 4d 4b be
       -0.01941608 -0.113500044 -0.21654615 -0.1985367
000170 97 98 70 be 6b 0e 4e bd a3 3b 08 3e 54 52 1a 3e
       -0.23495708 -0.05030672 0.13304 0.15070468
000180 b6 46 66 3d 40 9c f3 bd 9c ad 61 3e b1 ee 4f 3e
       0.05621978 -0.11895037 0.22038883 0.20305897
000190 8b 64 c2 3d cc ee 59 be fd 95 48 3c 63 a7 be bd
       0.09491833 -0.212825 0.012242791 -0.0930927
0001a0 ef d7 1d 3a 03 13 8e 3c c4 6b 73 3d 72 a9 80 3e
       0.00060212513 0.01734305 0.059428945 0.25129277
0001b0 17 de 33 be de 35 16 3e 07 b8 0a 3d 05 f9 91 3d
       -0.1756519 0.14668986 0.03386691 0.07127575
0001c0 85 e1 5e bc db a5 76 bd 8d 04 a1 3d 7b 16 17 3d
       -0.013603573 -0.060216766 0.07862196 0.036886673
0001d0 b7 2e 1b be e2 2f a9 3b 50 de 08 3e 8c 76 3e bc
       -0.15154539 0.005163179 0.13366055 -0.011624943
0001e0 09 85 20 3e ad 88 d3 3d 09 3d c6 3d 62 93 9b bc
       0.15675749 0.10328803 0.0967961 -0.018991176
0001f0 0a 07 1a 3c 63 d2 10 3d 8d c4 2b bd ee 36 12 3e
       0.009401092 0.03535689 -0.041935492 0.14278767
000200 6f 41 69 3e 9e 02 61 3e 78 b0 4d 3e a5 1b 6b 3e
       0.22778867 0.21973655 0.20086849 0.22959764
000210 37 4b b2 3d c0 75 01 3d d7 73 5f 3e 28 f1 cd 3d
       0.08705752 0.031606436 0.21821533 0.100557625
000220 54 59 08 3e 4b 80 e2 3c a7 7c 05 3e 47 38 1d 3e
       0.13315326 0.027649065 0.13035832 0.153535
000230 6c 36 d3 3d a9 28 fa ba c9 1b 92 3d f1 e4 56 bd
       0.103131145 -0.0019085604 0.07134206 -0.05246443
000240 1e 9d 0a 3d 07 83 b7 bd 7a bb 76 3e a6 96 84 3c
       0.033841245 -0.08960538 0.24094954 0.016185116
000250 a9 42 2f bd 1b 10 34 3d 3a fb df 3d 43 5f 93 bc
       -0.04278818 0.043960672 0.109365895 -0.01798976
000260 4c 4d cc 3d c2 67 73 3b 86 08 11 3e 10 b7 50 be
       0.09975681 0.0037140702 0.14163408 -0.20382333
000270 20 17 2b 3e b5 e4 32 3d 54 2a c0 bd 67 2e c5 bd
       0.1670804 0.043675143 -0.093830734 -0.09627991
000280 a0 85 93 bd 8c 09 96 3d b5 d8 d2 3d 56 cb df 3c
       -0.07203221 0.0732604 0.1029524 0.027318638
000290 e1 12 86 3d 9f 7b 26 3d f6 83 a1 3b a2 79 0a bd
       0.065465696 0.040645238 0.004929061 -0.033807404
0002a0 81 0d ef 3b d4 1d a6 bb 6b 9b 08 be 37 8e 96 bd
       0.007295311 -0.0050694738 -0.13340537 -0.07351344
0002b0 6a 63 a2 3d 4c 6c 25 be 8b 18 cd bd e5 5a a5 3d
       0.07929118 -0.16154593 -0.10014447 0.080739774
0002c0 0c 7e 7a 3d 85 d1 56 3e 05 df a7 3d 7f f1 59 3d
       0.061155364 0.20978363 0.081968345 0.053208824
0002d0 a4 90 58 be 14 1d 92 bd 75 59 dd 3d a4 c6 14 bc
       -0.21148926 -0.071344525 0.10808078 -0.009080563
0002e0 46 93 4e 3e 0b f0 f9 3d 58 e6 e2 3c 42 08 0b bd
       0.20173368 0.12203988 0.027697727 -0.033943422
0002f0 0a 63 b3 bd ce 79 c0 bc dc 54 9b bd d9 f8 50 3e
       -0.087591246 -0.023495581 -0.07584545 0.20407428
000300 76 1b 15 be 1b cf c7 bd 33 7a 2b be 56 58 12 be
       -0.14561257 -0.09756299 -0.16745834 -0.1429151
000310 27 c1 49 be a2 82 27 be 4a fa 35 bd c0 e9 56 be
       -0.19702588 -0.16358426 -0.044428147 -0.20987606
000320 cc c2 f5 3c 83 a5 c7 3d 9c 30 b0 bd 22 e2 25 3b
       0.030000113 0.09748366 -0.086030215 0.0025311788
000330 c7 96 a6 3d f0 f9 af bd d7 63 b2 bb a9 71 14 be
       0.08134227 -0.08592594 -0.0054440307 -0.14496483
000340 91 54 b3 3c 25 92 c5 3d 40 f9 9f 3c 81 00 af 3c
       0.02189091 0.096470155 0.019528031 0.021362545
000350 d4 b3 d7 bd 9a dc a0 3d 7f 69 2d 3d 9e d0 e9 bd
       -0.10532346 0.078545764 0.042336937 -0.11416744
000360 83 ec df bd 0e 9a de bd 25 b0 db bd 6b e3 81 bc
       -0.10933783 -0.10869227 -0.10726956 -0.015855512
000370 56 73 74 3e 34 f4 43 3e 46 d5 27 3e 51 9a 4d bd
       0.23872122 0.19136125 0.16389951 -0.050195996
000380 2f bc 04 be 2a b4 dd bd 6e e1 0e be 43 f3 31 3e
       -0.12962411 -0.10825379 -0.13953182 0.17377953
000390 01 96 42 3c bf 79 e9 3d 09 68 d1 3d 8a 19 6f bd
       0.011876584 0.11400174 0.10224921 -0.058373965
0003a0 2e 28 0f be 28 aa 90 bd 00 ca a5 3d a3 e9 3b bd
       -0.13980171 -0.07063705 0.08095169 -0.04587711
0003b0 6e 95 ae bc 3a f3 90 3e 2e 98 95 3d 89 b4 f1 bc
       -0.021311488 0.28310567 0.073044166 -0.029505031
0003c0 1a ba 15 be f3 60 3a 3e 2c 4f bb bd a0 ec af 3d
       -0.14621773 0.18201046 -0.0914596 0.085900545
0003d0 6e c6 19 3e b6 b2 6a bd 49 74 bc bd 00 6a 12 be
       0.15017101 -0.05729934 -0.09201867 -0.14298248
0003e0 e2 e0 c3 3d 1c b4 83 bd 0a 3b 47 bc f7 37 b3 bc
       0.09564377 -0.064308375 -0.012160072 -0.021877272
0003f0 d0 45 14 be 9c aa 04 be 23 f3 32 be 60 46 1e be
       -0.14479756 -0.12955707 -0.17475562 -0.15456533

bias f4 [128]
000000 20 d7 14 be e3 2b 5c 3d 6e 46 87 bd db 26 88 3c
       -0.14535189 0.05375279 -0.0660523 0.01662009
000010 1b 39 d5 3d 2b 25 65 bc 50 c0 7b 3c bb 70 81 bd
       0.10411283 -0.013985912 0.015365675 -0.0632033
000020 0a 4b 0f bc ac 90 27 be af c3 cb 3d 54 b8 65 bc
       -0.008745918 -0.16363782 0.09949433 -0.014020998
000030 18 1d e3 3d b0 ea 20 3e 1e c7 0e 3e 38 aa 42 3d
       0.110895336 0.15714526 0.13943145 0.047525615
000040 79 7f 87 bc 1e 5f 5e bd 42 88 13 be 9d 0e 06 3e
       -0.016540276 -0.05428993 -0.14407447 0.13091512
000050 d7 42 2c bd 8b ac 23 be d1 3b 92 bd dc 89 15 bd
       -0.04205593 -0.15983789 -0.07140315 -0.036508426
000060 b9 d7 f5 bd 1b f8 02 be 95 b3 bd bd 34 a5 1c bd
       -0.120040365 -0.12789957 -0.09262768 -0.038243487
000070 37 f9 91 3b f5 88 d6 bd b0 95 07 3e fc 3e 41 3e
       0.0044547576 -0.10475341 0.13240695 0.18871683
000080 77 90 19 be 50 3c 11 bd 13 61 84 3b 58 e1 b6 bd
       -0.14996515 -0.03545791 0.0040398925 -0.089297
000090 86 25 11 be 85 5f 18 be f4 cb 1d 3e 4d 69 6e bd
       -0.1417447 -0.14880188 0.15409833 -0.05820589
0000a0 d0 76 d3 bc 34 70 e1 bd ca 95 2a 3e f9 ca e8 3d
       -0.02581349 -0.11007729 0.16658702 0.11366839
0000b0 bf c9 12 be 54 49 d7 bd 11 7f ba 3d e5 67 05 be
       -0.14334773 -0.10512033 0.09106267 -0.13027914
0000c0 69 e6 ab bd a1 65 0c bb 46 3a 59 be 7a 54 9d bd
       -0.083935566 -0.002142288 -0.21213636 -0.07682128
0000d0 59 85 35 bb 27 c8 de 3c 7a 3c b2 bd 5e b6 4e bd
       -0.002769789 0.02719505 -0.08702941 -0.050466888
0000e0 ae b6 ce 3d cf a6 34 3d 6d ff 20 be 45 68 5d 3e
       0.10093437 0.044104394 -0.15722437 0.21621807
0000f0 22 88 06 be ff 90 d3 bd c8 c8 07 be 26 09 1f be
       -0.13137868 -0.1033039 -0.13260186 -0.15530834
000100 95 63 84 bd 9f 7b 93 3d f9 de 52 3d 24 74 05 3e
       -0.06464306 0.07201313 0.051482175 0.13032585
000110 75 be 73 3d 55 11 c5 bd 75 c3 10 3e bc e4 11 bd
       0.059507806 -0.096224464 0.14137061 -0.03561853
000120 79 d6 4d be 92 bb 07 be 15 dc 48 be 72 25 a1 3c
       -0.20101346 -0.13255146 -0.19615205 0.019671176
000130 98 86 d2 bd 18 f0 32 bd 92 4e 0a 3e d9 7c 69 bd
       -0.10279578 -0.043686002 0.13506535 -0.05700383
000140 57 70 f8 bd c8 b7 e7 3d ba 26 06 be 7c 6a 0c 3e
       -0.12130802 0.1131435 -0.1310071 0.13712496
000150 be 5a c8 3c 92 31 06 3e 60 11 4c bc 6b d4 c0 3d
       0.024457332 0.13104847 -0.012455314 0.094155155
000160 2e e1 b3 3d 57 55 19 3b 01 88 bc 3d 52 58 41 3e
       0.08783184 0.0023396814 0.09205628 0.18881348
000170 b4 75 30 3e b3 72 4e 3d c4 58 10 3d a7 c8 21 3e
       0.172324 0.050402354 0.035240903 0.15799199
000180 fc 34 cd 3c d1 35 b5 3d a3 84 97 3d 6b 98 cb 3c
       0.025049679 0.08848155 0.07398345 0.024852952
000190 61 f8 72 bd a1 10 84 bc d9 a1 86 bc cf 29 e8 bd
       -0.059318904 -0.01612121 -0.016434597 -0.11336099
0001a0 79 42 c7 3d 4f ad 70 bd 6d 5e 4b be 9a a6 e7 bd
       0.097294755 -0.05875903 -0.1986024 -0.113110736
0001b0 f6 3c 48 bd 3b e7 92 3d e2 3d 3f bc 72 92 41 be
       -0.048886262 0.0717301 -0.011672469 -0.1890352
0001c0 98 fd 14 3e a6 ea 0c be 1e 8c 01 be 29 98 83 bd
       0.14549863 -0.13761386 -0.12651107 -0.064255066
0001d0 c2 28 82 bd 7c 7d 4c bd 65 4c 87 bd 0c 56 af 3d
       -0.0635543 -0.04992436 -0.06606368 0.08561334
0001e0 e1 cb cd 3d 0c ef 34 3b db 02 c3 3d 56 f8 02 3e
       0.100486524 0.0027608303 0.09522029 0.12790045
0001f0 30 d6 02 be 0a 7c bf bd 19 31 68 3e 8a 4b 27 bd
       -0.12777019 -0.093498304 0.2267498 -0.040843524

weight f4 [64, 128]
000000 1d 6e 96 3d 49 36 82 3b d5 97 62 3e 63 5d d9 3d
       0.07345221 0.0039737565 0.22128232 0.10613515
000010 6e 6e 16 3e a0 c6 e7 bc e3 81 c8 3d ca 55 d9 3b
       0.14690563 -0.028292954 0.09790399 0.0066325413
000020 ec 9c 80 bd 6c 87 8d bd 10 02 1f be 3e 95 31 3e
       -0.062799305 -0.06910595 -0.1552813 0.17342088
000030 5d c4 03 bd ba 4c 51 bc 4b 44 bc 3d a0 59 5a bd
       -0.03216969 -0.012774641 0.09192713 -0.05330813
000040 cf 1d 8e bd 7e 7c 69 3d 1c bd 65 be 78 86 0b bd
       -0.06939279 0.05700349 -0.22435421 -0.034063786
000050 ea 8b 0a bc 33 7b 45 3d b1 6d f3 bc 54 98 b7 bd
       -0.00845621 0.048213195 -0.02971539 -0.08964601
000060 3b d5 85 bd 89 49 a8 bd 62 83 7f bd 1b 0d 2f bd
       -0.06534811 -0.08217151 -0.062381156 -0.042737108
000070 9b 5f 05 bd 38 cf 02 3e 8a 37 dc 3c 08 6f 84 be
       -0.03256188 0.1277436 0.026881952 -0.2586596
000080 16 80 10 3d 32 38 f9 bd eb bd 26 3e cb 18 60 bd
       0.035278402 -0.121689215 0.16283385 -0.054711144
000090 bb d5 12 bc 28 53 ea bd d0 95 22 3e ee 8b 9f 3c
       -0.00896209 -0.11441642 0.15877461 0.019475903
0000a0 e2 8b 29 be 1c de 2a 3e 3c 93 2a bc 5e fe 22 be
       -0.16557267 0.1668629 -0.01041108 -0.15917346
0000b0 fb ca 3c 3d 04 b8 2b 3e 26 26 59 3e c6 20 52 bc
       0.046092015 0.16769415 0.21205959 -0.012825197
0000c0 0a 9f 26 bc ce 88 aa 3b 18 8b 7f 3d 70 cb cc bc
       -0.010169754 0.0052042967 0.06238851 -0.02499935
0000d0 48 6b 43 be b8 57 00 3e e7 eb 12 3e 29 d8 8d bd
       -0.19083893 0.12533462 0.14347802 -0.06925995
0000e0 af 5f d1 bc ca fe be 39 f5 b1 e4 3d 63 a4 4f be
       -0.02555832 0.00036429457 0.11166755 -0.20277552
0000f0 a4 8b cd 3c 81 08 c4 bd 81 46 f8 3c af cb d8 3d
       0.025091 -0.095719345 0.030307056 0.105857246
000100 35 f0 91 3c c7 ba 0c 3e e9 80 5f be 7e 0f 03 be
       0.017814735 0.13743125 -0.21826519 -0.12798879
000110 e3 b6 bf bd 05 05 12 3e 82 23 2d 3e 99 1f 12 3e
       -0.09361055 0.14259727 0.16908076 0.14269866
000120 67 5a 7e bd 40 e1 8a 3d 01 a5 1d be 66 f7 63 bd
       -0.062097933 0.06781244 -0.15394975 -0.05565586
000130 7b f0 d4 bc f4 92 3b be ff 15 75 3c 80 2e 6f 3d
       -0.025993576 -0.18317777 0.014958858 0.058393955
000140 0c 55 06 3e 4d d4 d8 3c e9 ce 9c 3d e7 19 88 3d
       0.1311838 0.02646842 0.076566525 0.066455655
000150 0c 59 c2 3c 4a dd 3d be 73 0b a8 3d 8c e9 bf bd
       0.023724101 -0.18541446 0.08205309 -0.093707174
000160 7a 62 f0 3d ff 96 1d be 8b a2 91 3d d1 f2 eb bd
       0.11737533 -0.15389632 0.07111081 -0.11520923
000170 56 50 da bb b3 39 56 3d be 22 53 bc 1d fc b4 bd
       -0.006662409 0.05230112 -0.012886701 -0.08837149
000180 81 2d ef 3d 18 79 f6 3d 7d f4 5a 3e 67 66 9c 3c
       0.11678601 0.120348155 0.21382327 0.019091798
000190 ef cf 11 be da a5 f0 3d b1 77 a3 bc ce 88 16 bd
       -0.14239477 0.11750384 -0.019954534 -0.03675156
0001a0 79 b1 ef bd 13 19 d9 3c 06 10 a4 3d f9 57 00 3e
       -0.11703772 0.026501214 0.08010869 0.12533559
0001b0 c9 44 29 bd 84 1f b7 bc e9 7c 40 bc 6a e9 4f 3d
       -0.041325364 -0.022353895 -0.011748531 0.05075971
0001c0 9b 52 12 be cd ea 3d 3e bb 83 3f be 3d 49 93 3c
       -0.14289324 0.185466 -0.18702595 0.017979259
0001d0 11 d9 fa 3d d8 9c 3f bd 57 42 87 3d 2f 73 f5 bc
       0.122484334 -0.046780437 0.0660445 -0.02996215
0001e0 07 ee 0e 3e 93 84 bf 3d 8c 21 99 3d 79 40 1a 3e
       0.13957988 0.093514584 0.07477102 0.15063657
0001f0 b2 82 e1 3d fe f0 c0 bd fa 6a 42 bd 21 c3 8c 3d
       0.11011256 -0.094209656 -0.047465302 0.068731554
000200 96 a3 dc 3c 4a 53 03 bd a7 29 3b bd f1 74 8d bc
       0.026933473 -0.032061853 -0.04569402 -0.017267676
000210 c6 c7 5d be 6d 90 cf bd 74 40 a1 3d 67 ed 55 3e
       -0.21658239 -0.10134969 0.078736216 0.20891343
000220 0a 18 aa 3d 29 03 04 be 5b 1a 02 be d0 b9 5f 3d
       0.08305366 -0.1289183 -0.12705366 0.054620564
000230 29 8f 18 be fd aa 94 bd 7a 74 d8 3d 91 10 bf 3d
       -0.14898361 -0.07259176 0.10569091 0.09329332
000240 a1 de c5 3d ad 8c 23 be ba d6 fa 3d 70 fc 00 be
       0.09661604 -0.15971632 0.12247987 -0.12596297
000250 5e 78 f5 bd 0e b4 2b 3e 6f 63 92 3d 27 a2 ac bd
       -0.11985849 0.16767904 0.07147872 -0.084293656
000260 d2 dc 27 3e 8a 3d 5b 3c 6d 9f c1 3d 4e 8a a8 3d
       0.1639283 0.013381371 0.09454236 0.082295045
000270 4c c9 89 3d be 79 74 3a 3f 01 19 bd 73 d4 b1 3d
       0.067278475 0.00093260023 -0.037354704 0.086830996
000280 ab 4b 9e 3d 64 a6 19 3e f4 c5 d9 bd a8 ae cc 3d
       0.07729276 0.15004879 -0.1063346 0.099942505
000290 0f 43 25 3c 56 51 a0 bd 3e 74 cf bd 4a 36 59 bd
       0.010086789 -0.078280136 -0.10129593 -0.05303029
0002a0 7f e2 eb 3c f1 72 42 be a3 46 54 bc 5e e2 0d be
       0.028794525 -0.18989159 -0.012956294 -0.13855883
0002b0 e8 db 8a bd a7 62 85 3d df 3d a1 bd 4e 9c cb 3d
       -0.06780225 0.06512957 -0.07873129 0.09941922
0002c0 e5 f2 4d bc bf fd 2d be d4 e4 4c 3c 89 00 95 3d
       -0.012570118 -0.16991328 0.012505729 0.07275493
0002d0 d9 b7 e7 3d 22 ce 16 bd 06 72 11 be 86 57 f0 bd
       0.11314363 -0.036817677 -0.14203653 -0.11735444
0002e0 be d8 a9 b9 ac ef 03 be f3 90 07 bd 7d 40 0f bc
       -0.00032395677 -0.12884396 -0.03309722 -0.008743403
0002f0 40 60 69 bd 8e 44 47 3d c5 3e 5e 3e 41 e3 19 3e
       -0.056976557 0.048649363 0.21703632 0.15028097
000300 d9 f8 45 3e 0e 52 52 bd 54 dd 53 3e dd 63 1d bd
       0.19333209 -0.051347785 0.20689899 -0.038425315
000310 9d 9d 53 bb 04 ba 2a bd c1 7b 65 be 23 6e 0d be
       -0.003228999 -0.041681305 -0.2241049 -0.13811545
000320 2d 21 88 bd cd ab cb 3d 30 23 16 3e ce 4c 53 3e
       -0.06646953 0.09944878 0.1466186 0.20634767
000330 00 81 6c 3d cb c7 bf 3d 77 93 01 3e 8d 13 84 bd
       0.05774021 0.09364279 0.1265391 -0.064490415
000340 54 74 92 be 0d ba 14 3e 54 76 6d bd 93 b8 25 be
       -0.28604376 0.14524098 -0.057974175 -0.1618369
000350 53 56 f9 bd 4f 89 39 3d 1e ee 7a 3b d3 79 7b 3d
       -0.12174668 0.045296963 0.0038288902 0.061395478
000360 75 47 3f bd c3 cc 67 3d 5f aa 94 bc f2 25 b9 3d
       -0.046699006 0.05659176 -0.018147646 0.090404406
000370 4f be b2 bd 01 ca 16 be 99 f8 11 3e 56 91 64 bd
       -0.08727705 -0.14725496 0.14254989 -0.055802666
000380 fd ee 8e bd f4 52 70 be 08 32 9e 3c 18 8f 7e 3d
       -0.06979177 -0.23469144 0.019310966 0.062148184
000390 ac cd 24 3e 27 da 8c bd be 5a 86 bd f0 36 a8 3d
       0.16094083 -0.06877547 -0.065602764 0.082136035
0003a0 b6 49 80 3d 82 02 a5 3d 1b f4 61 bc e7 49 bd bd
       0.06264059 0.08057119 -0.013791109 -0.092426114
0003b0 52 16 26 bd 09 f4 bb bd 61 f3 3e b9 19 88 7d bd
       -0.04054863 -0.091774054 -0.00018210478 -0.06189737
0003c0 12 11 87 3d fa b9 0e be 41 eb 3c 3e fd 59 02 3e
       0.06595053 -0.13938132 0.18449117 0.1272964
0003d0 88 2c 78 be 24 60 1b 3e 9f f0 b3 bd 28 6e a6 bd
       -0.24235737 0.15173393 -0.08786129 -0.081264794
0003e0 81 69 57 bd 4a 4b 9a 3d 38 e1 82 3b b2 50 9a be
       -0.05259085 0.075338915 0.0039941333 -0.3013969
0003f0 59 9b df 3c bb 79 ec 3d 5f 62 15 be 0a 01 7e 3c
       0.027295755 0.11546656 -0.14588307 0.015503177

bias f4 [64]
000000 9b 94 0e 3c f8 be ec bd ef d2 ad bd d7 cc 14 3e
       0.0087024225 -0.11559862 -0.08487498 0.14531265
000010 23 cb bc 3c ee 68 40 ba d2 f7 8a bd 69 27 97 3d
       0.023046082 -0.00073398545 -0.06785549 0.07380564
000020 3e cb 3c bd f3 33 37 3d 42 c1 3e bd 8d a2 f4 bd
       -0.046092264 0.044727277 -0.046571024 -0.119450666
000030 7f 7d 3a bc 0c 95 9c bc a5 7f 13 be 79 7a 8a bc
       -0.01138246 -0.01911404 -0.14404161 -0.016904103
000040 78 49 86 39 46 51 fa bc 2d 21 a7 3d fa f5 c5 3d
       0.0002561321 -0.030556332 0.08160625 0.09666057
000050 d0 36 b9 3d 1f 92 24 bd 09 f6 86 bb c6 91 ed 3b
       0.09043658 -0.040178414 -0.004118685 0.0072500436
000060 c1 01 ec 3d 7c 79 8e bd 19 9e 16 bd 83 d5 10 bd
       0.11523772 -0.06956765 -0.036771867 -0.03535987
000070 a6 a7 41 bd ed 47 b5 bc 74 3c da bd ca 3c b1 3d
       -0.047279023 -0.022129023 -0.10656062 0.08654173
000080 6c 10 13 bd e0 d8 08 be 1f 8c 84 bc 88 21 14 be
       -0.035904333 -0.13363981 -0.016180096 -0.14465916
000090 c5 66 2b 3e 68 1a a8 3d c6 23 3a 3d ee ba cd 3c
       0.16738422 0.082081616 0.045444272 0.02511355
0000a0 9c f3 dd 3d 19 a7 0a be 1a 62 a0 bd 3a d6 c9 bb
       0.108374804 -0.13540305 -0.078312114 -0.006159571
0000b0 71 13 a4 3d 71 b4 a1 3d b8 6c ed 3c d2 fd ff 3d
       0.08011521 0.078957446 0.028982505 0.12499584
0000c0 89 f8 36 3d cc 9c 91 bc 75 1a d0 3d fc 42 99 3d
       0.044670615 -0.017774962 0.10161296 0.074834794
0000d0 64 a6 2f bd d0 c0 98 3d f4 3c 63 3d 30 43 c9 3d
       -0.04288329 0.07458651 0.05547805 0.09827268
0000e0 ae 85 aa 3d 56 82 c2 3d 56 f7 47 bc 62 44 be 3d
       0.083262786 0.09497516 -0.012204966 0.09290387
0000f0 07 a1 17 3e 4a 7b 98 bd af bf c6 3a 30 c8 b6 bb
       0.14807521 -0.074453905 0.0015163327 -0.0055780634

weight f4 [64, 64]
000000 43 2e b8 3c f8 35 47 3e 92 d2 71 3e 58 1e dc bd
       0.022482997 0.19454181 0.23615482 -0.10747975
000010 8d 09 9f 3d 21 a0 c8 3d f0 92 10 3e 61 8a b1 3d
       0.077654935 0.09796167 0.14118552 0.08668972
000020 07 0b 1b 3e 08 b0 da 3d e1 f9 c4 bd e9 4d 51 bd
       0.15140925 0.106781065 -0.09617973 -0.05109969
000030 ce 31 b8 3b 9d 60 09 be b8 dc b6 bd 1f d3 ce bc
       0.0056211716 -0.13415761 -0.089288175 -0.025247155
000040 7a 35 f8 3d c7 b0 34 3e 68 8b d5 3b 14 ef d3 bd
       0.12119575 0.1764556 0.0065168627 -0.10348335
000050 48 59 80 bd 8e be 45 3e 22 dc 86 3e 5f 8c 35 be
       -0.06267029 0.19310972 0.26339823 -0.17729329
000060 ac 73 5f 3d e1 f2 1f be 2b 18 1d 3e ce 6e db bd
       0.054553673 -0.15619995 0.1534125 -0.10714494
000070 49 25 27 be 96 bd 6e be fb 06 07 3c ba 17 48 be
       -0.16322817 -0.23314509 0.00824141 -0.19540301
000080 14 8a 6a 3d 6b e5 b2 bb 8d f7 b8 3d 90 c9 3d 3e
       0.057260588 -0.0054594777 0.090315916 0.18533921
000090 a8 71 80 3d bf 68 16 3e a2 01 8f bd 8b ac 92 be
       0.06271678 0.14688395 -0.06982733 -0.28647265
0000a0 3e b9 2d 3e e6 e3 c6 3d 97 b6 d1 3d 46 80 6f bd
       0.16965196 0.09711437 0.102399044 -0.05847194
0000b0 9c 80 13 be 27 cf 6d be 1c 0d 55 3e 68 1e da 3c
       -0.1440453 -0.23223554 0.20805782 0.026625827
0000c0 c2 ec b3 bd 15 79 72 3e 9b f1 85 3d 7c 99 fe 3d
       -0.08785392 0.23679002 0.06540223 0.124316186
0000d0 ce 00 a6 3d fd 48 84 bd 21 57 38 3e 6c 56 68 3d
       0.08105622 -0.06459234 0.18001987 0.056723043
0000e0 80 bf 0c be d0 02 89 be df 5e 0a 3e 8e b5 44 bc
       -0.13744926 -0.26759958 0.13512753 -0.012006177
0000f0 01 83 92 3d f5 18 e5 3c b5 ba f4 bd 7e 17 a9 3d
       0.07153893 0.027966002 -0.11949674 0.08256434
000100 5a a8 40 bd 15 42 a1 bc 86 00 da bc 37 aa 0a be
       -0.047035553 -0.01968483 -0.026611578 -0.13541494
000110 17 fb 2c 3c 34 3b a6 3d 72 3b 00 bd 1a e1 61 be
       0.010557911 0.08116761 -0.03130669 -0.22058526
000120 b5 94 fb 3d 92 51 9e 3d 47 14 4a 3d 7c 3d 13 be
       0.12284223 0.07730402 0.049335744 -0.14378923
000130 b0 1a 0e 3e c6 0c fb 3d 56 00 df bb a8 49 01 be
       0.13877368 0.12258296 -0.00680546 -0.12625754
000140 6b 92 80 bd af 0d 5a 3d 52 53 22 3d e4 43 39 3c
       -0.06277927 0.053235706 0.03963024 0.01130769
000150 10 e0 bf bc 7d 27 0b be 02 6d 51 3e af cf 98 3c
       -0.023422271 -0.13589282 0.2045174 0.018653719
000160 a0 a2 da 3d 70 9a 40 3d 93 83 1c 3e 93 16 57 bd
       0.106755495 0.047022283 0.15284567 -0.052511763
000170 71 3d a4 bd de 39 0a 3e c3 1f e3 3d f8 d3 c6 3d
       -0.080195315 0.13498637 0.110900424 0.097083986
000180 a2 2c ac bc 1a d7 53 3d 78 15 c6 3d 35 4d 8d 3d
       -0.021017376 0.05171881 0.096720636 0.06899492
000190 38 df cb bd f2 a6 24 bd c6 64 83 3c db a6 6b be
       -0.09954685 -0.040198274 0.016039263 -0.23012869
0001a0 d3 25 dc 3d fc 66 2e bd b5 82 4e 3e ab 1d ae bd
       0.10749402 -0.042578682 0.20167048 -0.085017525
0001b0 7b ce 34 3d a5 d4 9b bd 18 2c d3 bd a0 3d 1f be
       0.044142228 -0.07608918 -0.103111446 -0.15550852
0001c0 a7 9b 08 be ec a2 9e bd 1a 88 b4 3d e1 df 14 bc
       -0.13340627 -0.07745919 0.08815022 -0.00908658
0001d0 c6 79 d1 bd 0c a8 05 3e ef 33 85 3d fc 4e 62 bc
       -0.102283046 0.13052386 0.06504046 -0.013812777
0001e0 49 0e b1 bd 6f c8 5f be a8 1c c4 3c 22 38 2b 3e
       -0.08645303 -0.21853803 0.023939446 0.16720632
0001f0 a2 c2 d8 3b 27 2e 9f 3d c8 d4 14 3e bd 44 58 bc
       0.006614999 0.07772475 0.14534295 -0.013199982
000200 05 9c 8e 3d da f9 09 3e 68 05 5b 3d 7e 96 96 bd
       0.06963352 0.13474217 0.053471953 -0.07352923
000210 1f c4 29 3e c7 d0 6d 3d 2b f4 6e 3d 9a 51 00 bd
       0.1657872 0.058060434 0.058338325 -0.03132782
000220 10 4a 4a 3e bd 78 c7 3c fc 2c 86 3e 99 39 50 be
       0.19754815 0.024349565 0.26206195 -0.20334472
000230 ae 20 ec bc 87 cb fd 3d 31 9e 35 3e 84 c1 f4 bd
       -0.028824177 0.123923354 0.17736126 -0.11950973
000240 4f b2 05 3e 33 46 99 bd 6b d8 1d 3e dc 20 73 3d
       0.130563 -0.074840926 0.15414588 0.05935751
000250 b3 99 c1 bc c2 34 1b 3c d4 74 13 3e 71 aa 25 3e
       -0.02363286 0.009473028 0.14400035 0.161783
000260 fe 03 a9 3d bf 8f da 3d 0f 81 2c 3e 95 a1 bf 3d
       0.082527146 0.10671949 0.16846107 0.09356991
000270 5c 78 2a be 86 9a ac bc cc 5c 26 3e 16 70 ed bd
       -0.16647476 -0.021069776 0.16246337 -0.11593644
000280 e8 10 17 3e 0f 5c cf bd cf 16 2f 3e b3 f9 61 3e
       0.14752543 -0.10124981 0.17098545 0.22067909
000290 97 8a 3f 3d 1a 6e b7 3d 3f 77 f5 3d 93 d4 22 be
       0.04676303 0.08956547 0.11985635 -0.15901403
0002a0 e6 4f 24 bd 08 28 08 3e 56 a0 01 3e 18 7c b8 3d
       -0.04011526 0.1329652 0.1265882 0.09008044
0002b0 b9 4d 25 be 3d fe 93 ba 36 d7 b9 3d bd 7d 87 bc
       -0.1614293 -0.0011290979 0.09074251 -0.016539449
0002c0 d1 3b 40 3d cf 97 96 3d 1d 50 37 3d 9d b3 8d bd
       0.046932045 0.07353174 0.044754136 -0.06919024
0002d0 c7 56 80 3e 58 73 46 3d 92 e6 35 3e 1c 8f 08 bb
       0.25066206 0.048449844 0.17763737 -0.0020837253
0002e0 6b 2d 6a be 88 92 66 be 26 a1 2b 3e cd 8b 56 3e
       -0.22868888 -0.22516835 0.16760692 0.20951767
0002f0 d2 c7 2e 3d 33 56 17 bd c0 64 4d 3e 6a 8a 12 3d
       0.042671032 -0.03694744 0.20057964 0.035776533
000300 1d d7 cf 3d 29 42 6d bd e3 51 ce 3d ef 8b 33 bd
       0.101484515 -0.057924423 0.100742124 -0.043834623
000310 43 ee c9 bd fb ea fa bc 10 e0 0a 3e 7a 45 05 3e
       -0.09859898 -0.030629626 0.13562036 0.13014784
000320 ba 44 a0 bd eb a4 0d 3e 2b f4 62 3d da b1 42 bd
       -0.078256086 0.13832442 0.055408638 -0.047532894
000330 ca 4c ef bb 4f eb 36 3d cb 1b c2 3d 7a 4a 4a bd
       -0.007302855 0.044658 0.09477957 -0.049387433
000340 4e 92 1f 3e 3d ad 3d 3e 58 a4 99 3d c3 c6 b0 3d
       0.15583155 0.18523116 0.07502049 0.08631661
000350 e5 3a 23 3c 18 89 ed bb 07 be 53 3e 22 d9 3d 3e
       0.009962772 -0.007249009 0.20677958 0.18539861
000360 3f 32 4b be e4 4b f6 3d d4 1f 8c 3d 4c f4 80 bc
       -0.19843386 0.12026194 0.06842008 -0.01574149
000370 3a b0 40 be 15 d3 ec bd 1d a6 1a 3e ee 41 5e bd
       -0.18817225 -0.11563698 0.1510243 -0.054262094
000380 6f 53 a1 3d bf 77 4b be dd 5e cd bd d9 09 0a 3e
       0.07877242 -0.19869898 -0.10027859 0.13480319
000390 a2 13 c1 3d d2 39 dd 3d 7d a2 cd 3d a9 eb f0 bd
       0.09427573 0.10802044 0.10040758 -0.117636986
0003a0 db 01 8a bc c6 4b cb bd cf e1 17 3e b2 8b 02 3e
       -0.016846588 -0.09926562 0.14832233 0.12748602
0003b0 0f 0d 29 3e d2 ca fe 3d 22 67 0d bd 66 72 34 3d
       0.16508888 0.12441029 -0.034522183 0.04405441
0003c0 5e 1d bc 3d 68 33 22 bd 54 12 01 3e ad 16 36 3e
       0.09185289 -0.039599806 0.12604648 0.17782088
0003d0 29 0e ca 3c 8b 0a c8 3d 04 1f e9 3c fd 3f fb bc
       0.024664955 0.09767636 0.028457172 -0.03067016
0003e0 49 51 9c bd 58 76 d5 bd ac fa 85 bc 04 1e 81 3d
       -0.076326914 -0.10422963 -0.016354881 0.06304553
0003f0 cc 2a 83 3d 46 b9 fd bd 18 b0 73 be 80 fb 73 3b
       0.06404647 -0.12388854 -0.23797643 0.0037228763

bias f4 [64]
000000 9c 0c 81 bd c3 df c5 3c 11 c6 88 3d 2a ec ad 3c
       -0.06301233 0.02415455 0.06678403 0.021230776
000010 3b 3b 52 be 8a 8f 25 be 96 01 0d 3e e9 f2 a6 bd
       -0.20530407 -0.16168037 0.13770136 -0.081518
000020 e3 1b af bd 37 89 2b 3d 1b 2c c2 3c 61 3a 9c bd
       -0.08550241 0.041878905 0.023702672 -0.076283224
000030 1a d7 ae bd b4 5f e5 3b 7e 6f af 3d f5 6c d3 bc
       -0.08537121 0.006999934 0.08566187 -0.02580879
000040 b7 a4 c5 bd c1 a4 11 bd be d1 b5 3d 59 6a b1 3d
       -0.096505575 -0.035557512 0.08877896 0.08662862
000050 55 6e 06 3e 4c da 37 3e cb 0c 82 bd dd 0a 93 3d
       0.13128026 0.17954367 -0.06350096 0.071798064
000060 49 0f 04 bd 44 97 6a 3d 86 77 26 3e 35 66 b0 be
       -0.03224114 0.057273164 0.16256532 -0.34452978
000070 b3 90 cb be 4b a3 c6 3b c3 0d 6c 3d c4 3c 0b be
       -0.39758834 0.0060619465 0.05763031 -0.13597399
000080 bb 81 b0 bd 33 1f 05 3d 00 0a 51 bc dc 9f e2 be
       -0.08618494 0.032500457 -0.012758732 -0.44262588
000090 a1 88 9a be 40 89 6c 3d 29 fd 1d bd 81 3b 2e 3d
       -0.30182365 0.05774808 -0.03857151 0.042537216
0000a0 f2 31 80 be 37 c9 87 bb fa c2 75 bd a1 ca ce 3c
       -0.25038105 -0.0041438597 -0.060000397 0.025243105
0000b0 b3 74 88 3c f9 e1 d0 3d 7d 35 d2 3d 32 6c 1b 3d
       0.016657209 0.10199351 0.10264108 0.03794498
0000c0 0a 73 56 bd a8 54 59 bd 33 65 b5 bb 47 18 04 3e
       -0.052355804 -0.05305925 -0.0055357455 0.12899886
0000d0 da 86 cc 3d 38 1b 31 3d 87 61 4f bd e1 3d 23 bd
       0.099866584 0.04323885 -0.05063012 -0.039853934
0000e0 2d ab a3 bd 40 88 8d bd 96 d1 ff bb a3 c8 e3 bd
       -0.079916336 -0.06910753 -0.007806967 -0.11122253
0000f0 d1 73 93 bd cd 75 5c bc 25 83 3e 3d 35 b0 a0 be
       -0.071998246 -0.01345582 0.046511788 -0.31384435
